models/lstm_model_4h.pt (torch, 127756 bytes, 9 tensors)

lstm.weight_ih_l0 f4 [200, 1]
000000 08 77 e0 3d 74 ae e6 bd ce de bd 3c ed c9 18 3e
       0.109602034 -0.11263743 0.02317753 0.14920779
000010 ee f4 f5 3d 00 f4 e9 bb 5e 67 22 3e e9 af c6 bd
       0.12009607 -0.007139683 0.15859744 -0.09701521
000020 9a 70 01 3c ae f1 c5 3d 4c 28 ca 3d b6 df 03 3e
       0.007900381 0.09665237 0.09870967 0.12878308
000030 66 2a d3 bc e2 0e d2 bd 4b 31 11 bd 13 3c 0d 3e
       -0.025777053 -0.10256745 -0.0354474 0.13792448
000040 43 d0 02 bd d8 3b f7 3b 66 a8 d4 3c 12 bb 6d 3d
       -0.031936895 0.0075449757 0.025959205 0.058039732
000050 fb 7d 2d bd 21 36 56 bc df d7 92 bd 5d 7b ce bb
       -0.042356472 -0.013074429 -0.071700804 -0.006301327
000060 03 38 07 3e a1 13 13 3e a7 40 17 be 6b 53 4e 3e
       0.1320496 0.14362957 -0.14770757 0.20149009
000070 fc 61 13 be d3 25 a3 bd b4 a7 33 bc b6 3a 1a be
       -0.14392847 -0.07966199 -0.0109652765 -0.15061459
000080 ef 78 bb 3d 1f 54 64 3d bd 81 ec bc d7 c1 36 3e
       0.091539256 0.055744287 -0.028870458 0.17847382
000090 a0 98 6f 3d 81 14 84 3b 80 22 1f bd 3e 5b 10 3e
       0.058495164 0.0040307646 -0.03885126 0.14097306
0000a0 f4 2a f6 3d 82 7b 02 3e 6d da 33 bd 59 cd 2e 3e
       0.120199114 0.12742427 -0.04390948 0.17070521
0000b0 42 42 1a 3e 83 a8 3e bd 59 12 84 3d 3e 59 f2 3c
       0.15064338 -0.046547424 0.06448812 0.02958357
0000c0 e4 fa 84 bd a9 19 fd 3d 4e 66 ed 3d c8 20 c7 3d
       -0.06493166 0.1235841 0.11591779 0.097230494
0000d0 c6 10 9e 3d 96 fb 0b 3e 88 c4 2c 3d 50 3b b4 bc
       0.07718043 0.13670191 0.042179614 -0.022000939
0000e0 30 2c 0b 3e 0b d1 b5 bd 5d a0 1a 3b 8e 89 92 bd
       0.13591075 -0.088777624 0.002359412 -0.07155143
0000f0 dc 30 84 3d 69 e5 69 3d 04 a7 ae 3d 5c 68 68 bd
       0.06454632 0.05710355 0.085279495 -0.05674015
000100 e0 4a f8 3d cd 0c 3d bd 49 76 4c bc 31 68 05 bb
       0.12123656 -0.046154786 -0.012479373 -0.0020356292
000110 5c ca 0c 3d 35 35 1b 3e 6c a7 7e bd 5b 33 4c bc
       0.034372672 0.15157016 -0.062171385 -0.012463416
000120 18 e5 be bb 04 e5 68 bd c4 f7 20 3c 96 e6 07 3d
       -0.00582565 -0.05685903 0.009824697 0.03317889
000130 8a 33 a3 3d ca 83 47 bd aa 5f 24 3c 93 33 b4 3d
       0.07968815 -0.04870967 0.010032574 0.087988995
000140 4f 95 09 3c ca 47 cc bd 97 39 af bd 8e ed 85 bd
       0.008397414 -0.0997463 -0.08555906 -0.065394506
000150 2f d1 f9 3d 41 dc d9 3d a7 bf 24 bd 36 a9 40 3d
       0.12198102 0.10637713 -0.040221836 0.047036372
000160 99 e8 b1 bd 96 a8 0b bd 3b 5f 3d bd 7f 4f 1a 3e
       -0.086869426 -0.034096323 -0.046233397 0.15069388
000170 1f 75 2c 3d 1e a2 8c bc db 97 24 3e 77 a0 9a 3c
       0.042103883 -0.017167147 0.16073553 0.018875344
000180 c7 14 5f 3d 0b 79 13 3d cb 3a f1 3c 1f 27 06 3e
       0.054463174 0.036004107 0.02944698 0.13100861
000190 b9 9a 06 3e 1e 20 7d 3c af db fb bc 0d 67 3c be
       0.1314496 0.015449552 -0.030744402 -0.18398686
0001a0 d2 d2 b3 3d 97 cb bc 3d 44 b2 96 bd 7b 94 9b bd
       0.08780445 0.09218519 -0.0735822 -0.0759668
0001b0 6b 9a c6 bd b1 f5 f0 bd a9 a3 81 bd 89 a4 37 3d
       -0.09697422 -0.11765612 -0.06330044 0.044834647
0001c0 dd a8 ed 3d c8 dd 9c bd 42 f9 36 3d 0d f5 23 3e
       0.11604474 -0.07659489 0.044671305 0.16011448
0001d0 ef a9 6d 3d 30 64 55 bd f4 04 23 be ce 6c 9d bd
       0.05802339 -0.0520975 -0.15919858 -0.076867685
0001e0 ca 59 ef bd 42 2e ad 3d 9c 74 62 bd a2 94 b0 3c
       -0.11687048 0.084560886 -0.05528699 0.021555249
0001f0 bd 6e 2e be 81 7b 1d be 9e 56 f0 3c 75 69 86 bd
       -0.17034431 -0.15379144 0.029338177 -0.06563083
000200 3a 99 f9 3d 19 0c 33 3e 6c f2 c0 bd 92 39 8d 3d
       0.12187429 0.17485084 -0.09421238 0.06895746
000210 5b c0 0c be 80 c9 02 be 0e f0 9c bd de 7c e0 3d
       -0.13745253 -0.12772179 -0.07662974 0.109613165
000220 39 59 3b bc 34 f2 16 3e 1c 02 11 3e 48 58 15 3e
       -0.011434847 0.1474083 0.14160961 0.14584458
000230 29 90 d2 bd ee e5 1b be ad dc 02 be eb f0 1b 3e
       -0.102814026 -0.1522443 -0.12779494 0.15228622
000240 1f 72 43 be 24 69 d8 bd d5 f3 1a 3c 75 f3 30 3e
       -0.19086502 -0.10566929 0.009457548 0.17280371
000250 5b c7 ee bd 56 6a bd 3d ea 98 90 3d 6e 6d 96 3d
       -0.11659118 0.092487976 0.07060416 0.07345091
000260 94 ad f1 bd d5 a1 e9 3d 03 c5 b4 3d e0 48 f9 bc
       -0.118006855 0.1140782 0.088266395 -0.030430257
000270 d2 de 37 bd bd 24 b3 3c 28 e6 e3 3c 42 f0 f1 3d
       -0.044890232 0.021868104 0.027819708 0.11813404
000280 42 da 46 3d 1f cf 80 bd 6a 0e d8 3c 02 bb f4 bd
       0.04854799 -0.06289505 0.02637406 -0.119497314
000290 69 d5 40 bd 38 99 26 3e 2a 0b 06 bd c8 53 a8 bd
       -0.047078524 0.16269386 -0.03272549 -0.08219105
0002a0 c6 61 97 3d 69 f1 93 3d 03 42 00 3e be 00 db bd
       0.07391696 0.0722378 0.12525181 -0.10693501
0002b0 6c 53 e5 bb 25 4e 9a 3d 9e bb 5f 3d f8 da 0e bc
       -0.00699847 0.07534436 0.054622285 -0.008719198
0002c0 c8 25 b9 3c b3 42 d8 3d 6c 99 01 bd f4 96 d5 bc
       0.022601023 0.10559597 -0.031640455 -0.026072957
0002d0 c5 86 f5 3d ab f1 14 bd 15 55 f2 bd 7f 94 00 be
       0.11988596 -0.036363285 -0.11832634 -0.12556647
0002e0 60 a8 cc 3d 77 8c b6 3d 74 90 14 3c a0 88 1b 3e
       0.099930525 0.0891351 0.009067643 0.15188837
0002f0 95 46 f6 3d 13 73 2e bd de 62 d0 3d 87 c2 09 3e
       0.12025181 -0.042590212 0.101751074 0.13453113
000300 cd 3f 83 bd d3 15 5f bc c7 ff 38 3e bd 2c f2 3d
       -0.064086534 -0.013616043 0.18066321 0.118249394
000310 5b 32 64 bd 33 26 1b bd 1e dd 5b bd 30 38 44 3e
       -0.055712085 -0.037878226 -0.05367767 0.19162059

lstm.weight_hh_l0 f4 [200, 50]
000000 c5 9f 87 3d 44 e7 16 3c 90 2e 52 3e eb 8f 39 3d
       0.066222705 0.009210411 0.20525575 0.045303266
000010 35 d8 8a bd 72 8b 03 3d 27 d5 05 be bd 93 3b be
       -0.067795195 0.032115407 -0.13069592 -0.18318076
000020 96 92 43 3d f5 d4 19 bd bc d8 54 3d 94 26 8b 3d
       0.047747217 -0.037556607 0.051964507 0.067944676
000030 8f e0 13 3e fa f0 d4 3d ad 2d 30 be e0 cf 31 bd
       0.14441131 0.10397525 -0.17204924 -0.043411136
000040 70 7b f2 bd ce 24 a8 bd 68 54 de bd bd bf c6 3b
       -0.1183995 -0.08210145 -0.10855943 0.0060653375
000050 1f c1 36 bc 82 99 38 be 8a 61 0f be 5d 8c 32 3e
       -0.011154442 -0.18027309 -0.14002052 0.17436357
000060 90 84 d6 39 ed c9 3c 3d 4b 86 9f be 9e 60 7e bd
       0.00040916028 0.04609101 -0.31157145 -0.06210386
000070 18 93 f6 bd eb 8d da 3d 92 df 9b bd 1c 10 4b be
       -0.12039775 0.106716 -0.07611002 -0.19830364
000080 8f a9 02 bd c6 17 21 be f1 74 7a 3d bb af b0 3d
       -0.031899985 -0.15731725 0.06114668 0.08627268
000090 ed 7f bb 3d 54 d6 fd bc c1 90 8b bd b0 f9 db 3d
       0.09155259 -0.030985989 -0.06814719 0.107409835
0000a0 98 be 10 3c ef 3f 36 bd 87 6b 13 be 31 15 35 3e
       0.008834504 -0.044494566 -0.14396487 0.17683865
0000b0 76 e7 fc 3c 9b c7 e3 bd 52 03 6b bd 59 14 73 3d
       0.030872088 -0.11122056 -0.057376213 0.059345577
0000c0 43 eb 24 be b3 72 47 3c 2e a6 25 3e 6b bb dd 3d
       -0.1610537 0.0121733425 0.16176674 0.10826763
0000d0 c0 d7 b1 3d 3e f8 d3 3d 5f 23 e1 3c 6e f6 8e 3d
       0.08683729 0.10350083 0.027482687 0.069805965
0000e0 ef 7f c0 bd 5a ec 9f bd 70 3d 49 bd f0 be 90 be
       -0.093994014 -0.07808752 -0.049130857 -0.28270674
0000f0 c9 77 a7 bd f4 ab 48 bd a3 ea b2 3c e0 e1 c8 bd
       -0.08177144 -0.048992112 0.0218404 -0.09808707
000100 cc 4a 9f 3d a1 bf a6 bd a5 4e de bc dc 49 99 bd
       0.07777938 -0.08142019 -0.02713711 -0.07484791
000110 ab ee 9b 3c e1 55 24 3d bc 7c bc 3d c3 2b b8 bd
       0.019034704 0.040120963 0.09203479 -0.08992722
000120 6a 45 c9 3d 75 a2 05 3e 30 97 d6 bd bd 9f 95 bb
       0.09827693 0.13050254 -0.104780555 -0.0045661614
000130 56 f2 69 bd 13 68 dc 3d f9 97 4f bc 0f fe 52 3e
       -0.057115875 0.10762038 -0.01267051 0.20604728
000140 44 bb 1a be 44 d4 6a 3b e1 3b 63 bb 7d c0 db bd
       -0.15110499 0.0035832087 -0.0034673142 -0.107300736
000150 4f 01 93 3d c1 e8 88 bc b4 33 14 3d b9 2d 19 3d
       0.07177984 -0.016712548 0.03618212 0.03739712
000160 18 72 ec bd 85 36 b0 3d df 5e bb 3b 92 1d 4b bd
       -0.11545199 0.08604149 0.0057180966 -0.049588747
000170 ba b5 ee 3d e3 e4 16 bd 04 42 d4 bc a6 95 0c 3e
       0.11655755 -0.036839377 -0.025910385 0.13728961
000180 6e 98 cf 3c 4d 7a 28 3d e4 0b dc bc 17 1f 13 3e
       0.025341239 0.04113226 -0.026861139 0.14367329
000190 84 0c 4a be 3c ab ca 3d 6d 6e 04 be 32 b3 3f 3e
       -0.19731337 0.098959416 -0.12932749 0.18720701
0001a0 bc d7 26 be 78 59 d3 bd c8 04 2e 3e c7 19 d6 bc
       -0.16293234 -0.10319799 0.16994011 -0.026135338
0001b0 49 d7 52 3d 38 9a 5f 3d e4 c1 b7 bd 69 5e 5d bd
       0.051474843 0.054590434 -0.089725286 -0.054045115
0001c0 61 ab fd bd ec 8c a8 3d 29 96 43 3c 6c 39 48 bd
       -0.123862036 0.08230004 0.011937656 -0.048882887
0001d0 83 fe 12 3d c0 39 96 bd a4 ba a5 3c b1 d8 81 3d
       0.035887253 -0.07335234 0.020230599 0.06340159
0001e0 83 6c 7e bd 82 aa 78 bc ca 31 6f bd 18 c2 87 bd
       -0.062115204 -0.015177371 -0.058397092 -0.06628817
0001f0 78 8a 1e 3d aa f8 04 3d 40 44 ef bd ab d5 9e 3d
       0.038706273 0.032463707 -0.116829395 0.07755598
000200 0f ac 95 bd c7 6b 4a 3d 04 0c 09 3e 97 e9 0e be
       -0.07308208 0.04941919 0.1338349 -0.13956295
000210 03 0a b9 bd 23 c9 d7 bd 99 9c 39 3e b8 ce cb bd
       -0.09035113 -0.10536411 0.18126144 -0.09951538
000220 b8 2d 15 be b1 63 f0 bc 5f 46 8c bd 9f dd 18 be
       -0.14568222 -0.029344412 -0.0684936 -0.14928292
000230 0e 8d 50 bd d0 f8 01 bc 23 88 1b bd 49 c0 28 bc
       -0.05091577 -0.007932857 -0.037971627 -0.010299751
000240 c4 4e 57 bd 54 a7 60 3d 7b 69 f5 bd 23 46 3d be
       -0.05256535 0.054847077 -0.119830094 -0.18483786
000250 9c b1 ab bd a9 b3 88 bb c7 17 a7 3d 22 c2 1c 3e
       -0.08383486 -0.004171808 0.08158832 0.15308431
000260 54 9f 49 bd 9c 22 8e 3a c8 7e 9c bd f4 6a 02 3e
       -0.049224213 0.0010844055 -0.07641369 0.12736112
000270 f2 3c 18 bd 69 af a5 3d 3a fc eb bd 29 76 1f 3b
       -0.037167497 0.080900975 -0.11522718 0.0024331904
000280 42 19 4f 3d ec 69 49 3c 7a fe 31 3e d2 a8 b2 bd
       0.050561197 0.01229332 0.17382231 -0.08723606
000290 81 28 ea bd 20 bf 45 3d 51 89 04 3e bc a7 b8 3d
       -0.11433507 0.048277974 0.12943007 0.09016368
0002a0 48 1c 18 bc 5b 41 89 bb 2f b9 2e 3d 04 0c 0c be
       -0.0092840865 -0.004188699 0.042657074 -0.13676459
0002b0 a4 4a 84 3d d6 af 2a bd 34 06 9c bd 1e 4c da bd
       0.06459549 -0.041671596 -0.07618371 -0.106590495
0002c0 fa a6 c8 bc 57 b2 86 3d 1f e6 34 3d b3 1e 14 bd
       -0.024493683 0.065769844 0.044164773 -0.03616209
0002d0 46 66 e8 bd 8a e2 84 bd 2a de 7e bd a5 54 c4 3d
       -0.11347632 -0.064885214 -0.06222359 0.09586457
0002e0 74 97 8c bd 15 c0 18 3e f2 a9 35 3d 29 66 95 bd
       -0.06864825 0.14917023 0.044351526 -0.07294876
0002f0 35 45 dd 3d 30 aa 18 3e 10 5c ad 3c 68 3d 3b bd
       0.10804216 0.14908671 0.021162063 -0.04571286
000300 08 72 50 bd 34 a0 4e bd 41 0f 82 bd 04 6d a2 bd
       -0.05089 -0.05044575 -0.06350566 -0.07930949
000310 95 5e 99 3d 2e c6 10 bb ff e1 5b 3d 7b 1f 90 3d
       0.07488743 -0.002209078 0.053682324 0.070372544
000320 20 d5 86 bd 51 fd 79 3d b0 66 e6 3c 1d 48 0f 3e
       -0.06583619 0.061032597 0.028125137 0.13992353
000330 a6 3f e5 bd 41 bc 8f bc ba 14 cc bb eb 7c 41 3d
       -0.111937806 -0.017545821 -0.0062280567 0.04723827
000340 0e ca e8 bd c1 3a 75 bd 83 46 c0 bd 38 15 fb 3d
       -0.11366664 -0.059870485 -0.09388449 0.122599065
000350 b6 c8 08 3e 5d a5 8e bd 49 12 11 3e db 31 b3 bb
       0.13357815 -0.06965134 0.14167131 -0.0054685897
000360 b6 38 01 bc 8a 23 0a be 42 c2 ec 3d 7b 10 a8 bc
       -0.007887056 -0.1349012 0.11560489 -0.020515671
000370 5e 8d 06 bd 72 1a aa bb 83 17 cd 3d 13 c8 ba bd
       -0.032849662 -0.005191141 0.1001425 -0.091201924
000380 dd 01 74 bd fb 56 9e 3d 68 a6 94 bb 53 f1 0f 3d
       -0.05957209 0.07731434 -0.0045364387 0.035142254
000390 98 70 e6 3c 61 6f ea bb 87 9c a3 3d 1d f5 2c 3d
       0.02812986 -0.0071543907 0.079888396 0.042225946
0003a0 ba a9 8d bb 7b 99 94 bc 4d bd 0e 3e 9d 4f 09 3e
       -0.0043232115 -0.018139591 0.139394 0.13409276
0003b0 86 60 12 be cc 1a 6a bd bf 03 b3 bd af 2d 22 3d
       -0.14294633 -0.05715446 -0.08740949 0.03959435
0003c0 27 a7 9a bd f5 4e bc bd 49 69 dd bd ee 51 96 bd
       -0.07551413 -0.09194747 -0.10811097 -0.073398456
0003d0 62 ad eb 3d 5d 89 bc bd 02 4e 29 bd 77 0e 06 bc
       0.115076795 -0.092058875 -0.04133416 -0.00818216
0003e0 14 b8 03 3e d7 39 70 3d 41 17 d5 bc 97 9b 6c 3d
       0.12863189 0.05864891 -0.026012065 0.05776557
0003f0 e5 01 cc bd 58 d2 13 be 48 9f a8 3b 46 68 9e 3c
       -0.09961299 -0.14435709 0.005145941 0.01933683

lstm.bias_ih_l0 f4 [200]
000000 8a a6 0b 3e 72 b4 1a be dc 5e 08 3d 5e 2b 89 bd
       0.13637748 -0.15107897 0.03329359 -0.06697725
000010 57 6d 31 bd 8d 54 f7 bd 78 5f d7 3d bf 11 a5 bd
       -0.043317165 -0.12076674 0.10516256 -0.080600254
000020 a9 60 28 3d 12 10 e1 bc 2f bb e1 3d 87 87 da bd
       0.041107807 -0.027473483 0.110220306 -0.10670381
000030 16 f6 02 3e 34 c0 06 3e 8d 81 e4 3c 8e 9a d4 3d
       0.12789187 0.13159257 0.027893806 0.103810415
000040 a2 72 2b 3d 56 15 f4 3c 4e 93 97 bd 69 76 76 3d
       0.04185737 0.02979533 -0.07401143 0.06017152
000050 f3 75 ea bd ff 9a 03 be ca 87 f4 3d cd 2b 8b 3d
       -0.11448278 -0.12852095 0.11939962 0.06795464
000060 cf d4 ee bd 09 32 ba 3c e6 69 ed bd da b6 d8 3d
       -0.11661684 0.022728937 -0.11592464 0.10581751
000070 ed 44 b8 3c f3 d0 57 3d 36 3b 88 3d 6a 1b 0a 3e
       0.022493804 0.052689504 0.066519186 0.1348702
000080 bd 40 51 bd c7 c5 94 3d 2a e8 10 3e 3d a8 cc 3d
       -0.05108713 0.072642855 0.14151064 0.099930264
000090 1e 4f 74 bd 56 6b ca 3c e1 dd e3 bc 4c 25 f1 bc
       -0.059645765 0.024709385 -0.027815761 -0.02943673
0000a0 b1 4a 16 3e 54 5c ea bd 42 42 77 3d f4 93 f6 3b
       0.1467693 -0.114433914 0.060365923 0.0075249616
0000b0 04 74 3a bc ef 17 d1 3d 7f d3 07 3d 22 6e 96 3d
       -0.011380199 0.10209643 0.033160683 0.07345225
0000c0 a2 18 66 3d ef db 70 bd 97 3a a2 bd 41 73 ef bd
       0.056175835 -0.058803495 -0.079213314 -0.11691905
0000d0 7c 2c 04 be 5b be 1d 3e 02 90 9c 3c b6 42 c1 3d
       -0.12907594 0.15404646 0.019111637 0.09436552
0000e0 ef 8a 38 bd c9 9e a4 bd d7 c1 94 bb df f7 cf 3d
       -0.045054372 -0.08038098 -0.004539709 0.101546995
0000f0 52 a4 f7 3d dc 3e bd 3d 46 6b 5a bd 7a 54 ff 3d
       0.120918885 0.09240505 -0.05332496 0.124672845
000100 15 bf fc 3d 58 9a d1 3d 45 9e b1 bd 05 88 02 be
       0.123411335 0.10234517 -0.08672766 -0.127472
000110 8a 16 ba bd 7a 46 fb 3d 56 f6 c0 3d d8 05 d8 3d
       -0.0908633 0.12269302 0.09421985 0.105479896
000120 ad 17 89 3d 4c 45 0a be 73 22 0a bd 5d b6 ea 3d
       0.06693969 -0.13502997 -0.03372426 0.11460564
000130 0d f0 f8 3c 3d 92 27 3d 20 a5 df bd 03 c4 db 3c
       0.030387903 0.040910948 -0.10920167 0.026826864
000140 9e d5 d5 bc a7 46 44 3d 85 4c 50 bd 84 b9 ea bd
       -0.026102837 0.04791894 -0.050854225 -0.114611655
000150 3a 1b 89 ba 99 5c 6e 3d 7e 0e 19 3e 78 66 5c 3d
       -0.0010460385 0.058193777 0.14946935 0.05380866
000160 98 32 6d bd de 74 5c 3d 12 9e fc 3d 44 d6 35 3d
       -0.057909578 0.05382239 0.12334837 0.044393793
000170 8b 39 3d bd 2a 3b d7 bc 51 81 a7 3d 7b 81 c9 bd
       -0.046197455 -0.026273329 0.08178962 -0.098391496
000180 d4 07 ad 3d 3c 8a 27 3e 3f a4 f5 bc 31 32 9c 3c
       0.08448759 0.16361326 -0.029985545 0.019066902
000190 d6 9d 43 bb 80 27 87 3c e1 a5 ef 3d 76 58 42 bd
       -0.0029848716 0.016498327 0.11701561 -0.047447644
0001a0 b9 bb 5d 3d a4 de ff 3d 5e 34 ea bd fc 71 c9 bd
       0.054134104 0.12493637 -0.114357695 -0.09836194
0001b0 d2 58 65 bd 77 9e 0d 3d 5b bb 09 3b dc c2 65 3d
       -0.05599291 0.034574952 0.0021016214 0.056094036
0001c0 d4 1a 82 3d 7a 70 eb 3c fd 04 0e be 29 9d 3a 3d
       0.06352773 0.028740156 -0.1386909 0.045560036
0001d0 32 08 c6 bc bf 10 00 3e 6f 38 87 3b c3 06 fc bd
       -0.02417383 0.12506388 0.0041266005 -0.12305977
0001e0 d0 1a d2 bd 39 10 bf bd 68 66 26 bd 13 c4 a8 3d
       -0.1025902 -0.09329266 -0.040625006 0.08240523
0001f0 7b 82 05 bd c5 09 23 bd 3f 50 15 bd 65 55 47 bd
       -0.03259514 -0.03980424 -0.03645348 -0.048665423
000200 c6 a5 38 bd c4 ed be bc 1a fd c3 3d 21 25 f5 3c
       -0.04507997 -0.023306735 0.0956976 0.029924931
000210 77 a4 9f bc 63 c7 2e 3d e7 72 8d 3d 24 ad 02 3e
       -0.019487603 0.04267062 0.069066815 0.1276136
000220 b3 52 f3 3d 13 67 c9 3d 01 c3 c1 3b a6 9a 23 3c
       0.11881008 0.09834113 0.005913139 0.0099856015
000230 9c 36 76 3d f9 24 a2 bd 95 d2 0c 3d 5c 2f 04 3e
       0.060110673 -0.07917208 0.034380514 0.12908691
000240 c8 8a a5 bc ad f4 9d bc cc f6 59 3b a9 f5 09 3d
       -0.020207778 -0.01928171 0.0033258675 0.033681545
000250 12 96 9d 3c 7f d9 9f 3d 50 d0 13 3d 6e f5 d9 3d
       0.019236598 0.07805156 0.036087334 0.10642515
000260 c6 06 e7 bd 6f 53 a0 3c cb ee 90 bd 33 d2 5b bd
       -0.11280589 0.019571034 -0.07076796 -0.05366726
000270 9f 8a 9d bd 8e f2 65 3c b1 5b 3b bc 88 3a 8b 3d
       -0.076924555 0.01403488 -0.011435435 0.06798273
000280 48 33 04 3c d5 7a 1a 3e a1 a7 0a bd ff 12 6a bd
       0.008068867 0.15085919 -0.03385127 -0.057147022
000290 0f 11 0a 3e 2d fb 19 3c 14 f9 da 3c ec 26 31 bd
       0.1348307 0.009398264 0.026730098 -0.04325001
0002a0 33 09 99 3d e5 f7 f1 3d 6e 80 8a b6 d8 93 24 bd
       0.07472458 0.1181486 -4.1276717e-06 -0.040180057
0002b0 66 8b 09 be a7 73 bb bd a6 62 3b bd ec 1b f7 3d
       -0.13432083 -0.09152918 -0.045748375 0.120658726
0002c0 7d c3 a4 3d 0c 71 75 bd 1c b7 a3 3d cc 40 36 3d
       0.08045099 -0.059922263 0.0799391 0.04449539
0002d0 66 d1 ea bc d1 b1 39 3d 12 5d c1 3a f9 fa df bd
       -0.028664302 0.045335595 0.0014752469 -0.10936541
0002e0 87 a4 9f bd 67 58 ea 3d dc f4 90 bd 08 40 36 bd
       -0.07795053 0.11442643 -0.07077953 -0.04449466
0002f0 55 f5 bd bd d4 6d fc bd 69 3a 11 bd 23 bc a2 3d
       -0.09275309 -0.123256356 -0.035456095 0.079460405
000300 e7 62 25 3d ca fa 94 3b f9 36 b0 bc ab 31 e0 bd
       0.040377524 0.004546498 -0.021510588 -0.109469734
000310 06 78 4c 3d 49 ba 03 bb 79 ae f2 3d 57 54 8f 3d
       0.04991915 -0.0020100048 0.11849684 0.069985084

lstm.bias_hh_l0 f4 [200]
000000 eb f7 57 3e 97 c2 d0 bd 6f 21 8b bd 6d c4 95 3c
       0.21090667 -0.10193365 -0.06793486 0.01828214
000010 90 8d f4 3d 49 e3 b4 3d 8b b9 6f bd 1e 1f 87 3d
       0.119410634 0.08832414 -0.058526557 0.06597732
000020 0d 68 34 bd 6a 35 30 3e 81 72 ac 3d 3d de 6f 3b
       -0.044044543 0.17207876 0.084202774 0.003660097
000030 d2 9d cf 3d f4 5d fa 3d 11 59 1a 3e 70 6c df bd
       0.10137524 0.122249514 0.15073039 -0.10909355
000040 59 a5 e8 bc b9 91 53 bd 6a b9 c9 3d 35 9b 2a bd
       -0.028399156 -0.051652644 0.09849818 -0.041651923
000050 cb 52 52 3d 53 d7 1b bc 42 78 9c bd 8d b0 8b 3d
       0.05134849 -0.0095117865 -0.07640125 0.06820784
000060 92 2a 44 3d fa f7 0e 3e 18 83 e5 3d ef 18 af 3b
       0.04789216 0.13961783 0.11206645 0.0053435485
000070 aa 87 c4 bd 9d 87 29 3d 18 cf 8c bd 37 2f ea bc
       -0.09596188 0.041389097 -0.068754375 -0.028586967
000080 37 94 4b 3d 7d 34 d4 bd 76 5a a1 bd e5 4a 7a bc
       0.049701896 -0.10361574 -0.07878582 -0.015276645
000090 7a af d5 bc 4e 63 f6 3d 56 b0 d6 bd ad bb 27 3d
       -0.02608465 0.120306596 -0.10482852 0.040950466
0000a0 2c 0c 1a 3e 65 f1 f9 3c f2 26 d1 3d 2a 8c 88 bd
       0.15043706 0.030510614 0.10212506 -0.06667359
0000b0 ad 1f 05 3e ce 06 83 3c b4 67 21 be 8e af 40 3e
       0.13000365 0.015994456 -0.15762216 0.18816969
0000c0 36 41 cc bc db 6c 9b bc db d0 92 3d c8 63 a2 bd
       -0.024933439 -0.018972805 0.07168742 -0.07929188
0000d0 07 e0 d1 37 3c ed 45 3d f3 27 d4 3d 33 11 ff 3c
       2.5019062e-05 0.048321947 0.10359182 0.03113613
0000e0 1b 6e 99 3c cd c5 b1 3d e2 69 a7 bd e0 dc 1a bd
       0.01872926 0.08680306 -0.081744924 -0.0378083
0000f0 66 3a 06 bd 77 0a 33 bd c3 03 f7 3d 2d 19 f8 bd
       -0.032770537 -0.043711152 0.12061264 -0.12114177
000100 ba 24 bf 3d af 62 7a bd 54 a6 26 3c 75 5d 1e bd
       0.09333177 -0.06112927 0.010171492 -0.038663346
000110 3c d5 9d 3d 5d fd 1a 3e da ff cf bd 7f 2a 1b 3c
       0.07706687 0.15135713 -0.10156222 0.009470581
000120 06 6d 05 be 16 ef da bd 0b 7c 29 3d 8d 20 f8 bc
       -0.1302987 -0.10690133 0.041378062 -0.030288959
000130 43 53 dd bc 95 0b aa bd 6d 52 9d 3d 3f f1 0d be
       -0.027017241 -0.0830299 0.07681737 -0.1386156
000140 90 46 96 3c a5 cb d0 3d 4f 7d 9c 3d a0 da da 3d
       0.018344194 0.10195092 0.07641088 0.10686231
000150 14 7b 21 3e d9 2d 34 bd 5c 8f ac bd 94 e2 49 3d
       0.15769607 -0.043989036 -0.08425781 0.049288347
000160 c5 0e c4 bd fe 96 07 be ca ba a7 3c 5e 7b b7 3d
       -0.095731296 -0.13241193 0.02047481 0.08959077
000170 a3 a4 eb bd bf 8f ab bd 80 14 bc bc 59 85 76 3d
       -0.11506011 -0.08377027 -0.022958994 0.060185764
000180 2e 53 24 bd 60 c4 bd 3d f7 6a c9 3c ab 62 ad bd
       -0.04011839 0.09265971 0.024587138 -0.08466085
000190 00 da 88 bd 5a 8e c8 3d 58 69 ab bc 8e 93 40 3d
       -0.06682205 0.097927764 -0.020924255 0.04701572
0001a0 7d 3f 7b bd ae d2 f2 3d a6 b1 f8 bd 86 1b 95 3d
       -0.061339844 0.1185659 -0.12143259 0.0728064
0001b0 72 3a 31 3d 4f 1b 73 3d a7 5b c8 3d f3 50 7a 3d
       0.04326863 0.059352215 0.09783106 0.061112355
0001c0 9d e3 e7 3d 62 79 a4 3d 9a 06 05 be 39 83 83 bd
       0.11322711 0.080309644 -0.129908 -0.06421513
0001d0 b8 e2 0e bc 32 11 57 bd 57 41 0e 3d d8 ca 2f bd
       -0.008721046 -0.052506633 0.03473028 -0.042918056
0001e0 ec 41 f3 bd 5e 02 f3 bd 1c 97 29 bd 21 ef d0 3d
       -0.11877808 -0.11865686 -0.041403875 0.1020186
0001f0 00 71 83 3d 89 dd cc 3d 96 02 3c 3c f3 c3 17 3d
       0.064180374 0.10003192 0.011475226 0.037052106
000200 a2 34 30 bd 2f 54 ba bd 99 cb 39 3d 73 70 a9 bb
       -0.043018945 -0.09098088 0.04536018 -0.0051708757
000210 2c 0e 3c 3d fc ff 21 bd 65 76 e7 bd d9 f0 bb 3d
       0.045911953 -0.039550766 -0.11301879 0.091767974
000220 fe c3 f9 3d fa e9 21 bd fc 4f e4 bd 3e c0 ee 3d
       0.12195586 -0.039529778 -0.11148068 0.11657761
000230 4c ba b2 3b 17 d2 a7 bd e8 fb da 39 de 71 4e 3c
       0.005454337 -0.08194368 0.00041767885 0.01260039
000240 24 62 e4 3c f0 84 e4 bd e6 99 6c bd 2c 16 09 be
       0.027878828 -0.11158168 -0.057763956 -0.13387364
000250 02 4b 3a bd 0e 82 34 3c b6 ec da 3c 41 da f8 3d
       -0.04548169 0.011017336 0.0267242 0.12151004
000260 95 3c 03 bc 54 62 7f 3d 49 0c 81 bc 5d 58 c7 bd
       -0.008010049 0.062349632 -0.015752928 -0.09733651
000270 cf 59 20 3e c4 38 13 3e fb 13 dc bd d4 39 5e 3e
       0.1565926 0.14377123 -0.107459985 0.21701747
000280 21 ef 21 bd de 69 69 bc 84 04 c0 3d c6 87 96 bd
       -0.03953469 -0.014246432 0.09375861 -0.073501155
000290 af dd 8e 3d c0 69 0e bd 7f b1 40 3d 14 e2 c9 bd
       0.069758765 -0.03476882 0.047044273 -0.09857574
0002a0 4b cf ff 3d f8 bf 6f 3d 66 e8 e3 bd 11 95 04 3e
       0.1249071 0.058532685 -0.11128311 0.1294749
0002b0 48 2d 09 3e 5d 3e ad 3d 7f 11 eb 3c 57 d8 80 3c
       0.1339618 0.084591605 0.028694866 0.015728159
0002c0 49 61 98 bd 42 70 a4 3d 32 de 87 3d c6 68 96 3d
       -0.07440431 0.08029224 0.06634177 0.07344203
0002d0 32 a6 d4 3d ed 66 9e bd 1f 8b 0e 3e 0f a1 9d 3d
       0.10383262 -0.07734475 0.13920258 0.07696735
0002e0 9e ad 51 3d 93 84 19 bb 4b 12 cf 3d 39 ad 04 3e
       0.051190965 -0.0023424968 0.10110911 0.12956704
0002f0 e4 a0 cf bd 7f 6f 73 3d e1 2f 05 3e 6b 0b 1d 3d
       -0.10138109 0.059432503 0.13006546 0.038340967
000300 24 db 07 3e f0 9e 99 bd 5d 27 81 bc 61 e3 14 be
       0.1326719 -0.07501018 -0.01576584 -0.14539863
000310 f0 ec 6b bd b1 55 13 3e e9 70 ce 3d 3b 10 b0 bb
       -0.057599008 0.14388157 0.1008013 -0.0053730286

lstm.weight_ih_l1 f4 [200, 50]
000000 41 4b ef 3d 95 91 cf bd e2 4c 9a 3d f0 6c 07 bd
       0.116842754 -0.101351894 0.075341955 -0.033062875
000010 6e aa 8b bb 85 60 f2 bd 17 18 02 be ef 4a d5 3d
       -0.00426226 -0.11834816 -0.12704502 0.10414683
000020 50 fb c4 bd e2 cd 5b be b5 1a ce 3d 26 a0 de bd
       -0.096182466 -0.21465257 0.10063688 -0.1087039
000030 e5 09 8c bb 1f 79 dc bd 4f 8b b9 bd 23 93 a1 3d
       -0.0042736405 -0.107652895 -0.09059774 0.07889392
000040 c3 c2 e9 bd b4 d3 f1 bc aa 0d e0 bd 62 8f bc 3d
       -0.11414101 -0.029519893 -0.10940106 0.092070356
000050 5b 89 87 bd 86 01 cd bd 9a 52 d8 3d 1f 1f 8c 3d
       -0.06617995 -0.10010056 0.1056263 0.068418734
000060 62 b7 ae bd 8f c7 14 be 33 70 89 bd 8a fd b1 bd
       -0.08531071 -0.1452925 -0.067108534 -0.08690937
000070 44 f9 72 bd 0c ae 12 3c 07 a5 7f 3d 9f fe 58 3d
       -0.05931975 0.008952629 0.06241324 0.0529772
000080 a1 46 9d 3c 71 01 4e bd 2a 53 ab 3a 93 82 ba bd
       0.019198718 -0.050294343 0.001307105 -0.09106936
000090 6a 0c 6d 3b 72 ab d8 3d 18 9f 57 3d eb ce 52 bd
       0.003617073 0.105795756 0.052641958 -0.051466864
0000a0 34 be f2 b9 d5 1b 5a 3d 41 02 02 bd 84 15 53 bc
       -0.0004629955 0.0532492 -0.03174043 -0.012883548
0000b0 fd 47 8d bd ab 62 2d bd 54 6c c5 3d 77 40 9e 3c
       -0.06898496 -0.042330425 0.096398026 0.019317849
0000c0 c7 fe 84 bd 5d 12 d3 3b f4 85 16 3e d6 8a 8a ba
       -0.064939074 0.006441398 0.14699537 -0.0010569941
0000d0 91 40 37 bd e0 4c 1f be 42 0a ca bd 81 7c 31 bd
       -0.04473931 -0.15556669 -0.09865238 -0.043331627
0000e0 c1 a8 a4 3b 1b 7a 9e 3d 55 d9 2a bd fc 20 8a be
       0.005025 0.077381335 -0.04171117 -0.2697829
0000f0 1a db 1b 3d a8 b9 d9 3d 1f d4 03 ba 4a ef da bd
       0.03805075 0.10631114 -0.0005028862 -0.10690172
000100 f4 5c 9e 3d 1d 6b 4b 3d d4 d2 24 3d 89 a1 e8 bd
       0.07732573 0.049662698 0.040240124 -0.113589354
000110 a3 38 d7 3c 14 c0 19 bd b5 33 0a 3d 7a 5b 04 3e
       0.026272124 -0.037536696 0.033740718 0.1292552
000120 82 0f 48 3d c1 2f 3f bd cb 98 6a 3d e3 ec cc 3d
       0.048842914 -0.0466764 0.05727462 0.1000612
000130 b2 97 80 3d 12 52 cc 3c 8a 68 97 bd 6a 16 2d 3e
       0.062789336 0.024941478 -0.07392986 0.16903082
000140 2f 49 b6 3d f1 8e 65 bc ff f2 f8 bd be 82 d9 bd
       0.089006774 -0.014011131 -0.12155723 -0.1062064
000150 08 9f 8d bd ca 2c 91 bd c0 2e df bd d3 28 16 3e
       -0.069150984 -0.07088621 -0.10897589 0.1466401
000160 00 42 00 bd 94 40 16 3e 0b d5 88 3d eb 70 57 bc
       -0.031312943 0.14673072 0.0668126 -0.01314948
000170 87 22 bc 3c 08 96 e1 bb 98 66 28 be 4f 73 cf 3c
       0.022965683 -0.00688434 -0.16445386 0.025323538
000180 dd a7 9c bd 75 47 26 3e 04 ce 30 be 49 fa b2 ba
       -0.07649205 0.16238196 -0.17266089 -0.0013654913
000190 4b 45 25 3e c7 56 b0 3d e9 41 3e bd 55 89 09 be
       0.16139714 0.086103015 -0.046449576 -0.13431294
0001a0 07 ea 00 be 7c ac d5 3d 59 a1 3d 3d 0e e9 bd 3d
       -0.12589274 0.104332894 0.04629645 0.09272967
0001b0 8a 34 b7 bc 12 37 6b be 71 f9 41 bc e2 94 16 bd
       -0.02236392 -0.22970226 -0.011839257 -0.03676308
0001c0 b4 cf a0 bc 10 68 8e bd e8 fd 1c 3d a3 c2 b3 3d
       -0.01963029 -0.06953442 0.03832808 0.087773584
0001d0 77 db 1c 3e 5e 2e 04 3d 6c 82 11 be 0d 21 7d 3c
       0.15318094 0.03227078 -0.14209908 0.015449774
0001e0 3d 38 a6 3d 77 02 f5 bc a6 fc 00 3e 02 37 b7 3d
       0.08116195 -0.029908402 0.12596378 0.08946039
0001f0 a2 40 a5 3d be bd 29 bc 53 7b 68 3d eb a2 b3 3d
       0.08068968 -0.0103601795 0.056758236 0.087713085
000200 59 d4 cc 3d 02 d5 0b 3e ac 0a 03 be cb 48 6c 3d
       0.100014396 0.13655475 -0.1279704 0.05768661
000210 91 8b aa bc b2 47 bc 3d e9 67 da bd 89 75 35 bd
       -0.020818504 0.09193362 -0.106643505 -0.044301543
000220 d3 65 31 bc 6a d2 d5 bd be ba 17 3e ab 5f a2 3d
       -0.010827499 -0.10440524 0.1481733 0.079284035
000230 4c a2 86 bd be 75 6e bd b0 50 1d be 9e a8 a4 3b
       -0.065739244 -0.058217756 -0.15362811 0.0050249835
000240 4b 0a 22 bd 60 ca f6 3c 20 b6 4c 3d c3 54 28 3e
       -0.039560597 0.030125797 0.049978375 0.16438584
000250 af 48 41 3d 71 e8 d9 3d 0e 2f 41 bd 75 f7 76 3d
       0.047188457 0.10640038 -0.047164015 0.060294587
000260 82 c9 81 bc 53 e6 07 bd c3 89 0a 3e 37 9f d0 bd
       -0.015843157 -0.03317864 0.13529114 -0.10186618
000270 80 45 7d bd 3e 3f c8 bd 4a 7b 25 bc 06 73 95 3d
       -0.06183386 -0.097776875 -0.010100195 0.072973296
000280 5f b4 f9 3d f2 0e fe bd 31 91 43 3d f4 a9 02 3c
       0.12192606 -0.12405194 0.047745887 0.00797509
000290 5c 0a 89 3d c9 bf e9 bd 32 b4 e9 3c 5d 0b 0e be
       0.06691429 -0.11413533 0.028528307 -0.13871522
0002a0 2b a3 da bd 5d 76 73 bd 5b 48 ce 3b 1d 09 8c bd
       -0.10675653 -0.059439052 0.0062952465 -0.06837676
0002b0 d4 2f c9 3d 3a c5 92 3d 6a 7e 75 bd fe 6f 12 bd
       0.098235756 0.07166524 -0.05993501 -0.035751335
0002c0 2c 69 14 3e 0f c1 87 bd 95 df aa 3d 1f e3 bb ba
       0.14493245 -0.0662862 0.08343426 -0.0014334655
0002d0 db 32 51 3d 9a fc 37 3e 83 db 99 bd 74 2f 0d be
       0.05107389 0.17967454 -0.07512572 -0.13787633
0002e0 11 7c 19 bd 65 b9 c2 bc 65 27 e7 bd bb 71 78 bd
       -0.037471835 -0.023770044 -0.11286811 -0.060655337
0002f0 c4 09 33 bc a3 8c ec 3d 0a 4e e7 bd c5 aa a5 3d
       -0.010927621 0.11550262 -0.11294182 0.08089212
000300 46 d5 0a be 9e 8b f8 bd 37 e7 a6 bd a4 db 51 bc
       -0.1355792 -0.12136005 -0.081495695 -0.012808714
000310 91 bf f2 bd 0f d7 cc bb 56 72 a4 3d 0f b4 9c 3d
       -0.11852945 -0.006251223 0.0802962 0.07651531
000320 7a a6 f0 3d 9d 6d 91 3c 5f 88 ba bd 88 e7 18 3d
       0.11750503 0.017752463 -0.09108042 0.03733018
000330 71 b8 d3 bd 23 3f cc 3d a1 0b e7 3d 08 f7 41 3d
       -0.10337914 0.0997298 0.11281515 0.047354728
000340 c1 aa 48 3d e5 26 e9 bd f1 72 a7 3b 34 ca 08 3e
       0.04899097 -0.11384372 0.0051101376 0.13358384
000350 52 33 2a 3d ee bf b8 bc 4b 89 49 3c 5e 15 e9 3d
       0.04155285 -0.022552457 0.0123008 0.113810286
000360 ed ac 6b bd cb 74 c3 bc 59 0c 27 be ee 48 15 3d
       -0.05753796 -0.023859402 -0.16313304 0.036446504
000370 40 7e 25 be bb c1 22 3d 69 59 87 3b 60 79 dc bd
       -0.16161442 0.039735537 0.0041305316 -0.10765338
000380 65 88 d3 bd 7b bb e4 bd 15 f6 10 bd 33 10 26 3a
       -0.103287496 -0.111685716 -0.035390932 0.00063348113
000390 ac 13 ef 3d 95 5f 55 3e 21 c5 57 bd 4c f1 5a 3d
       0.11673674 0.20837243 -0.05267823 0.053452775
0003a0 5e d9 38 3d 02 e2 e2 bc b8 3a 99 3b c9 dc 9e 3d
       0.045129173 -0.02769566 0.0046761893 0.07756955
0003b0 57 c7 9c 3d 81 d3 de bc bd b7 22 3d 22 4a 9f 3c
       0.076552086 -0.027200462 0.039726008 0.019444529
0003c0 c8 6b b1 3d a4 35 c3 3d 25 3e d5 3d e0 d2 ba bd
       0.08663136 0.095317155 0.10412244 -0.091222525
0003d0 18 4e 22 bd 72 16 6e bd 3f 89 5e bd f4 a0 70 bc
       -0.039625257 -0.058126874 -0.054330107 -0.014686812
0003e0 25 1b 07 be d3 fc 0d 3e 39 49 09 3e 0f 03 06 3d
       -0.13193949 0.13865976 0.13406838 0.03271776
0003f0 ff e4 e7 3b 49 ce aa bd 81 9b a9 3c e4 b5 40 3b
       0.007076859 -0.08340127 0.020704033 0.002940529

lstm.weight_hh_l1 f4 [200, 50]
000000 ca 8a 38 3d 15 b4 ba bd 5e 0a 64 3d 1d 13 b5 3b
       0.045054235 -0.09116379 0.05567395 0.00552596
000010 40 98 90 3d 38 38 fb bc b0 ae 22 3e 98 3b f3 3d
       0.070602894 -0.030666456 0.1588695 0.11876601
000020 b4 fb d0 3c 8c cd 8e bd 84 11 0c 3e 31 52 7b bd
       0.025510646 -0.06972799 0.13678557 -0.06135768
000030 74 7f 49 3d c4 af 04 3e 92 70 b3 3d 4c 10 63 bd
       0.049193814 0.12957674 0.087617055 -0.055435464
000040 d3 56 cd 3d 22 a9 07 3e 3a 6a 5d bb 94 da fc 3d
       0.10026326 0.13248113 -0.003378524 0.12346378
000050 65 f6 07 be d1 4a b8 bd d6 64 b1 bc 37 ab b2 3d
       -0.13277586 -0.08998645 -0.021654528 0.08724063
000060 c3 b3 a6 3d 34 65 2a bd 29 ea af 3b c5 d3 e4 bd
       0.081397556 -0.04160042 0.0053684902 -0.11173204
000070 0a 7e b0 3d 61 36 e1 3d 6e dc 62 3d d1 20 91 bd
       0.0861779 0.109967 0.055386 -0.07086337
000080 af 9d d7 3d 87 59 4b 3d df fc f5 bb e7 5c 37 3b
       0.10528123 0.049645927 -0.007506951 0.0027978958
000090 ff ef f7 bd 6d 52 95 bd 5d 70 0a bd 5d 5f ab bc
       -0.121063225 -0.07291112 -0.033798564 -0.020919496
0000a0 b4 0d 5a 3d ba dc b2 bd a7 af 08 bc 99 f3 92 3d
       0.053235725 -0.087335065 -0.00834266 0.07175369
0000b0 04 c4 ec 3c 4d 26 1e bb 66 63 f7 bd 61 76 59 3d
       0.028902061 -0.0024131716 -0.120795056 0.05309141
0000c0 c7 93 ff 3d 3c f7 95 3c 54 e4 e3 3b bc 38 a2 3d
       0.12479358 0.018306367 0.006954709 0.079209775
0000d0 5e b8 cf 3d ce 16 21 bd a8 f3 03 3e 26 04 81 3d
       0.10142587 -0.03932839 0.12885916 0.062996194
0000e0 b9 8b 49 bb ea 5b 9c bd 67 ce 50 3d d8 d2 6b bd
       -0.0030753447 -0.07634719 0.05097809 -0.057574123
0000f0 a7 26 a6 3d 33 7e 0a 3e 02 4e 73 3d bc ab 8b bd
       0.08112841 0.13524704 0.059400566 -0.06819865
000100 de b0 9e bc f5 ed 5a bc db 1e f0 3c 59 41 ba 3d
       -0.019371446 -0.013362397 0.029311588 0.09094495
000110 85 e1 fa bb 02 42 c4 3d ed 5a ed bd 08 72 ad bd
       -0.0076562786 0.095829025 -0.11589608 -0.08469015
000120 a1 e9 10 be 10 a4 c8 bd 8f 12 65 bd 9c 57 a2 3d
       -0.14151622 -0.097969174 -0.055925902 0.079268664
000130 3e 82 ae bd e9 d5 8f 3d 11 70 61 bc d6 23 87 bd
       -0.085209355 0.07023222 -0.013759629 -0.06598632
000140 12 f5 8e bd f2 f0 e3 bc 9b 52 4b bd 73 91 f5 bd
       -0.06980337 -0.027824853 -0.049639326 -0.11990633
000150 a2 f4 6c bd b9 d6 7a 3c ec 22 97 3b fa c8 a4 bd
       -0.057850488 0.015309983 0.0046123173 -0.08046146
000160 53 ad 09 be d7 d1 e3 bd 2a 9c ca 3d e4 d2 81 bc
       -0.13445024 -0.11124008 0.09893067 -0.01584763
000170 ce 67 08 be 27 57 eb 3d 53 55 e8 3c c9 3a 89 3d
       -0.13320848 0.11491232 0.028360998 0.067006655
000180 3f db ab 3d 00 cc 9f 3b 1d a8 f9 3d ec 7b cc 3d
       0.08391427 0.0048766136 0.12190268 0.09984574
000190 ff d0 11 3d 6b ae fd 3a 13 25 72 3d d5 2f 06 3e
       0.035599705 0.0019354349 0.059117388 0.13104184
0001a0 3f 5e fd 3d f4 0a ca bd 1d 93 84 3d 36 7f a8 bd
       0.12371492 -0.098653704 0.06473372 -0.082273886
0001b0 75 e0 d5 3d 6d cb fc bd 36 74 fd 3d 90 8d 07 3d
       0.104432024 -0.12343488 0.12375681 0.03309399
0001c0 92 2b 20 3b f2 a1 21 3a 57 e6 6b bd 58 04 dd 3c
       0.0024440032 0.00061657943 -0.057592716 0.02697961
0001d0 d1 24 25 3d 78 6f 92 3d 0b 60 56 bd c6 66 82 3c
       0.040318314 0.07150167 -0.052337687 0.015918147
0001e0 22 4a c1 bd 19 25 11 3e f0 f2 0f be a3 6c e2 3d
       -0.09437968 0.14174308 -0.14057517 0.11055877
0001f0 36 f7 e6 bd 70 ef 09 3e 3b 59 76 3c 87 2c 33 bd
       -0.112776205 0.13470244 0.015035923 -0.043743636
000200 09 6c 03 be 9f bb fd bd 44 5e 08 3d 1e f8 30 bd
       -0.12834181 -0.123893015 0.033293024 -0.043205373
000210 f2 42 7d 3c c0 97 13 3d f1 91 3d bd 8a e7 0e 3d
       0.015457856 0.036033392 -0.04628176 0.03488878
000220 fc a5 53 bd a2 eb f0 bd 89 70 fa bd 65 e3 9c bc
       -0.051671967 -0.117636934 -0.12228496 -0.019151399
000230 a9 27 4d 3d 97 8a 01 3c 84 50 fd bd cc f3 ef 3d
       0.05008665 0.007906578 -0.12368873 0.117164224
000240 9a 03 5d 3d 3e bd 47 bd 46 21 03 3e aa 0d 26 bd
       0.053958513 -0.04876446 0.12805662 -0.040540375
000250 1b 4e dd bd f9 7b 88 3d 54 e0 e9 3d f1 9e 9e 3d
       -0.10805913 0.06664271 0.1141974 0.077451594
000260 f2 f9 5d 3d 9b 6d c2 3d 4c 80 03 be 60 2c b9 bd
       0.054193445 0.09493562 -0.1284191 -0.09041667
000270 90 a6 2f 3e 9e 91 80 3d 6e eb 8c 3d 01 37 92 3d
       0.17153382 0.06277774 0.06880842 0.071393974
000280 4c 42 df 3d 0b 5c 89 3d 09 26 78 3d 7e 40 13 3e
       0.10901317 0.06707009 0.06058315 0.1438007
000290 b4 5d eb 3d 24 9b 5c 3d e2 f2 e9 3d e3 08 02 be
       0.11492482 0.05385889 0.11423279 -0.12698703
0002a0 82 5c cc 3d 1a 8e 5c bd f5 20 4d 3d 04 8a 09 3d
       0.09978582 -0.053846456 0.05008026 0.033578888
0002b0 cc 2e 26 3d 30 c9 d4 bc 30 a6 e6 3d 97 ee 06 3c
       0.040571973 -0.02597484 0.112621665 0.008235595
0002c0 cf 39 2e bd 55 3e d8 bc bb ef f8 3d 2a 69 4f 3d
       -0.0425356 -0.02639691 0.121551 0.0506374
0002d0 82 c3 19 3e a6 dd 3f bd 15 4c 85 3d e3 e4 0a 3d
       0.15015987 -0.04684224 0.06508652 0.03390969
0002e0 c7 4b d4 bd 46 6b 09 be 80 1d 77 3d 28 e4 47 bd
       -0.10366016 -0.13419828 0.060330868 -0.04880157
0002f0 e9 99 74 bd e0 70 a7 bd 87 e9 8b bd af 02 1e 3d
       -0.059717093 -0.08175826 -0.06831651 0.038576778
000300 56 79 b3 bc 2e 33 3a bd d0 b3 17 be 78 61 1f bd
       -0.021908443 -0.045458965 -0.14814687 -0.038911313
000310 0a 6e 1e 3d a3 cf 58 bc d0 ab f6 bd d5 4b b2 bb
       0.03867916 -0.013233098 -0.120444894 -0.005441169
000320 7e 10 b3 3d 9a e7 85 3d 1a 72 85 3d be 61 ba bd
       0.0874338 0.06538315 0.06515904 -0.09100674
000330 46 0a c6 bd 12 64 ea 3d 3e e0 15 3e f0 14 fe 3d
       -0.09669928 0.11444868 0.14636323 0.12406337
000340 60 85 49 bc a5 bb f8 3d 09 e4 32 3c af 23 ba bd
       -0.0122998655 0.12145165 0.010918626 -0.09088837
000350 2b 5a 2b 3c 32 f3 a0 bd 2b 66 6e bd 22 4b d6 3d
       0.010458509 -0.07858886 -0.058202904 0.10463549
000360 28 e8 d0 3d a2 e8 ad 3d 4f d4 95 3d c0 eb af bd
       0.1020053 0.08491637 0.07315885 -0.085898876
000370 29 de b1 bd 5c df ec 3c f7 cd b8 bd 00 09 c3 bd
       -0.08684952 0.0289151 -0.0902366 -0.09523201
000380 07 06 5a bc 11 b2 95 3d 99 96 85 3d 7f 16 8e bc
       -0.013307101 0.07309354 0.06522865 -0.017344711
000390 bb 69 1d be eb ca 3b bd 13 90 5f bb d5 65 62 bc
       -0.15372364 -0.045847815 -0.0034112975 -0.013818224
0003a0 52 92 40 bb 3b 2a e9 bc a1 40 05 be a5 a0 a1 bd
       -0.0029384089 -0.02846252 -0.13012935 -0.07891969
0003b0 19 7a 1a be 3e f1 19 3d 91 67 b2 3c 40 2a 97 3d
       -0.15085639 0.037583582 0.0217779 0.073811054
0003c0 bc 76 8e 3d ee ed 2a 3d e9 8f db bd eb 20 fa bc
       0.069562405 0.041730814 -0.10720808 -0.030533275
0003d0 f6 1d c8 bd 04 cf eb 3c ea bc 98 3d 87 d0 eb bd
       -0.097713396 0.028785236 0.074579075 -0.11514383
0003e0 a2 b9 60 3d 37 0e be bc ee db 89 bd d1 08 01 3e
       0.054864533 -0.023200138 -0.067314014 0.1260102
0003f0 1e 17 17 bc d6 af c9 bc 64 13 01 bd 3a ee 1c 3e
       -0.00922182 -0.024619978 -0.031512633 0.15325251

lstm.bias_ih_l1 f4 [200]
000000 0e a0 c1 bd 6b 11 9b 3d dd 62 89 bd 7e b7 a2 bd
       -0.09454356 0.075716816 -0.0670831 -0.079451546
000010 cf 23 eb bd 5b 09 af bc 9b 87 86 bd 30 77 8c 3d
       -0.11481439 -0.021366766 -0.065688334 0.06858671
000020 a0 dd a0 bd 1b 48 05 3e b2 45 09 3e 59 f9 af 3d
       -0.078547716 0.13015787 0.13405493 0.08592481
000030 fb 68 18 bc 1a f3 55 3d 0e fe 22 3e ce 7c 36 bd
       -0.009302373 0.052233793 0.15917227 -0.044552617
000040 e9 2d d5 bd b3 05 91 bb 62 05 01 bd ed 44 66 3d
       -0.10409147 -0.004425728 -0.031499274 0.056218076
000050 68 5a 5d 3d 5b 7a c9 bd dd d5 ac ba ca be 0b bd
       0.054041296 -0.098377906 -0.0013186295 -0.034117498
000060 f7 c0 fc 3c bf 83 59 3d 36 18 0b be ec de a6 3d
       0.030853732 0.05310416 -0.13583454 0.08147988
000070 97 92 5e bd a9 17 d6 bd 53 6c 6c 3d 03 ba bc bd
       -0.054339018 -0.104537316 0.057720494 -0.092151664
000080 a9 5a 9c bc 1c e3 9a ba fd cc 43 bd 56 f4 91 bd
       -0.019086199 -0.0011816951 -0.047802914 -0.071266815
000090 48 30 2d bd a7 93 eb bc 32 66 f8 3d 5d f3 0e 3d
       -0.042282373 -0.02875693 0.12128867 0.034900058
0000a0 1f 60 01 bd 89 55 c0 3c 60 93 dd 3b d8 f6 f6 3d
       -0.03158581 0.023478286 0.0067619532 0.120588005
0000b0 0e 4c c8 3d f5 6f d4 bc 07 ee 05 3e 80 69 c5 bd
       0.09780131 -0.025932292 0.13079081 -0.09639263
0000c0 ed 7b 14 3e 8e 2b b1 3d 51 e3 d3 bd dd b1 9f b9
       0.14500399 0.086508855 -0.103460915 -0.00030459362
0000d0 99 cf e8 bc ae 75 bd 3d 5c 07 c3 3d 29 eb d5 3b
       -0.028419303 0.09250961 0.09522888 0.0065282774
0000e0 12 6e 3e 3d d3 cf fe bd e1 b4 52 bc d0 1f aa 3d
       0.04649169 -0.12441983 -0.012860508 0.08306849
0000f0 45 aa e1 bd 21 c6 b7 bd 19 61 e0 3c 09 e9 c4 3d
       -0.110188045 -0.08973337 0.02739005 0.096147604
000100 26 28 54 bd 7a b8 f3 bd 9e d6 d9 bb 66 78 b3 bd
       -0.0517961 -0.119004205 -0.006647899 -0.087631986
000110 95 fd 4c bd d3 15 e6 bc 54 8c e8 3d a3 2f 99 3d
       -0.050046522 -0.028086578 0.113548905 0.07479789
000120 95 b0 58 3a b8 ae d2 bd 8f 9d 01 3e 35 8b ce bd
       0.0008266059 -0.10287231 0.1265776 -0.100851454
000130 32 76 ee 3c 2b 71 94 3c 9b a9 3f bd 45 07 c6 3d
       0.029109094 0.018120369 -0.046792608 0.09669355
000140 19 ed f8 bd 0f 50 bd bd a0 02 c4 bb 64 f2 c2 bc
       -0.12154598 -0.092437856 -0.0059817582 -0.023797221
000150 8e e6 28 3b 3c e6 65 bb 1d ed b8 3c 42 3d cd bd
       0.0025772187 -0.0035079857 0.022574002 -0.100214496
000160 63 5f b1 bc f5 23 ad bd 57 4d 5d bd 76 d7 f0 bd
       -0.02165193 -0.08454124 -0.054028835 -0.11759846
000170 57 32 19 3e 26 13 f2 3d e9 c1 91 3d 2b fd 48 3d
       0.1496061 0.118200585 0.071170636 0.049069565
000180 55 6c 80 bd 86 c9 16 be ce ad fa 3d a7 c7 df 3d
       -0.06270663 -0.14725313 0.12240182 0.109267525
000190 98 75 06 3d a8 58 4d 3d fe 08 2f 3b e5 8f 67 3d
       0.03282699 0.050133377 0.002670824 0.056533713
0001a0 5d 10 54 3d bf 5f 11 3d 84 4d c5 3d 07 2b 49 3d
       0.051773418 0.0354917 0.096339256 0.0491133
0001b0 65 d9 0c 3b 51 c2 08 be 1c a8 85 bd 9c 1a 04 be
       0.0021491882 -0.13355376 -0.06526205 -0.12900776
0001c0 78 d3 8c 3d f6 d7 bd 3b af 00 33 3d 4c 1a ce bd
       0.06876272 0.005793567 0.043701824 -0.100636095
0001d0 f1 14 16 3d 8f ef 9a 3d ae 06 80 3a 7e d7 36 bd
       0.036641065 0.075652234 0.0009767616 -0.044639103
0001e0 bd df cd bd 3d 17 58 3d 05 bf 20 be bd ef 7e bb
       -0.1005244 0.052756537 -0.15697868 -0.003890022
0001f0 2d 5a 3c 3d db 2b ac 3c 2b 24 04 3e 7b 57 dc bc
       0.045984436 0.021017006 0.12904422 -0.026897183
000200 e7 2f fd bd 1f 3c 51 3d 2f db de 3c 25 66 2f 3d
       -0.12362652 0.051082727 0.027204124 0.042822022
000210 91 86 1b 3e bf fa 16 be 79 8a 0e be 3f a5 19 be
       0.15188052 -0.1474409 -0.1392001 -0.15004443
000220 8b b1 01 be b5 77 6a bd 09 a9 8f bd 54 70 2c bd
       -0.12665384 -0.057243068 -0.07014663 -0.042099312
000230 88 43 a4 3d 37 31 00 3e b9 f2 30 3b e2 ff 94 3d
       0.08020693 0.12518774 0.0027000143 0.07275368
000240 5f 66 e5 bd f7 1c ae bd c7 76 6b 3b a7 63 e7 bc
       -0.11201166 -0.08501618 0.003592895 -0.02824576
000250 da e6 94 bd ed d7 63 3c 14 6f ac bc 58 f1 7c 3d
       -0.07270594 0.013906461 -0.02104906 0.0617536
000260 52 10 c6 bd 5f 45 73 3d 33 4a 55 3d 99 2a f4 bd
       -0.096710816 0.05939233 0.052072715 -0.11922187
000270 8c 3d 9a bd 69 ff 6f 3b 23 2c f7 3d ed 3a ee bd
       -0.075312704 0.0036620742 0.12068965 -0.11632333
000280 fc 0c bf bd 68 5d cc 3d d7 1f bc 3c b1 9a 5a 3d
       -0.093286484 0.09978753 0.022964401 0.05337018
000290 28 81 ce 3d 6e 10 2b bd ce 2e a1 bc 36 e8 d0 bd
       0.10083228 -0.041763715 -0.019675639 -0.10200541
0002a0 9b c8 23 3c 0b 91 1d bd 81 53 82 3d 2a 89 2a b7
       0.009996559 -0.038468402 0.06363583 -1.0164726e-05
0002b0 68 87 81 3c db e1 cd 3d db fc 4c 3c 7a 84 e9 bc
       0.015811637 0.10052844 0.012511457 -0.028505553
0002c0 e0 c9 9f bc fc 34 87 bd db f3 ce bc 6d 9e 23 3e
       -0.019505441 -0.06601903 -0.025262764 0.15978403
0002d0 63 c9 0f 3d 21 dd 17 3d d1 8a d9 3d 73 19 de bd
       0.035104167 0.03707612 0.1062218 -0.10844698
0002e0 d2 1b 8f bd e1 24 8c bd 7b 98 0a 3e d3 fe 44 3c
       -0.06987728 -0.068429716 0.13534729 0.012023645
0002f0 84 df 47 3d 5f 44 0b be 6c dc 93 3d 69 61 5e bd
       0.048797145 -0.136003 0.072197765 -0.054292116
000300 a6 4d 4f bd f4 97 ad 3c 7a 28 43 bc f9 f9 b3 3c
       -0.05061116 0.021190621 -0.011911506 0.021969782
000310 c3 93 ea 3d 95 90 94 bd 56 6a 95 3d 71 3f 8d bd
       0.114539646 -0.07254139 0.072956726 -0.06896866

lstm.bias_hh_l1 f4 [200]
000000 05 f8 c8 bd 2f 28 8b bd 3d 42 0d be 9b 78 2b 38
       -0.09812931 -0.06794774 -0.13794799 4.08819e-05
000010 89 e1 7f bd ed df b6 3c 5a 8e 8d bd 0d 3b b6 3d
       -0.062470946 0.022323573 -0.06911917 0.08897982
000020 74 1e 23 3c 7e 7d b6 bd 59 55 eb bd 01 09 c1 bd
       0.009955991 -0.089106545 -0.11490888 -0.094255455
000030 8b 0e ea bb 12 19 53 3d 2a 47 15 3c 32 ce 06 3e
       -0.007142847 0.05153758 0.009111205 0.13164595
000040 c2 e5 4e bd da 27 50 bd 05 26 8d bd 01 1c 0c bd
       -0.050512083 -0.050819255 -0.06892017 -0.034206394
000050 19 f0 66 bd 0e 1b 59 3c 93 2b 99 3c 9d 87 2b bd
       -0.05638132 0.013251079 0.018697536 -0.041877378
000060 06 ea ff 3d c2 38 c2 bd 41 65 10 3c 90 4d de bd
       0.12495808 -0.09483482 0.008813203 -0.108546376
000070 45 da 53 bd 93 ea a4 3d 15 5a f2 3d d5 b7 71 3d
       -0.05172183 0.08052554 0.11833588 0.059013207
000080 89 4a 1b 3c 27 a5 e5 3d 77 e5 ae bd 44 e8 50 bd
       0.00947822 0.11213141 -0.08539861 -0.051002756
000090 c5 a9 c5 bd 79 f5 f7 3d 53 a3 22 3e bd c6 87 bd
       -0.096515216 0.12107367 0.15882616 -0.06629703
0000a0 4e 4a 7d 3d 89 20 65 3d 4f 52 1f 3e 96 8b 89 bd
       0.06183844 0.05593923 0.15558742 -0.06716077
0000b0 0c 6c 23 be 5b 33 13 3c 6c d1 4a bd a0 dd 8d bd
       -0.15959185 0.008984412 -0.049516127 -0.06927037
0000c0 88 4f 43 bd 71 01 da bd 11 9b c9 bd f5 d3 8b bd
       -0.04768327 -0.10644806 -0.0984403 -0.06827537
0000d0 40 67 14 be 92 ad 0b 3e db 81 15 3d 9a 90 cd 3d
       -0.14492512 0.1364043 0.036500793 0.10037346
0000e0 b5 07 a9 bd 23 f2 82 3d 80 f7 b0 bc 15 b7 63 3d
       -0.08253423 0.0639384 -0.021602392 0.055594523
0000f0 05 41 d0 3d 47 8d ad bd 1c c4 f7 bd 9d 3a ad bd
       0.101686515 -0.08474212 -0.12097952 -0.08458445
000100 6b d9 e6 bc e0 9e ef 3d d4 c5 fd bd bd 89 61 3d
       -0.028179845 0.11700225 -0.12391248 0.055062998
000110 a7 89 1c 3e d3 9f a8 3d ae e8 b8 bd 48 27 46 bd
       0.15286885 0.08233609 -0.09028755 -0.048377305
000120 98 5a ae 3d 1b d0 19 be 27 2f 93 bd fb 91 a4 bd
       0.08513373 -0.15020792 -0.07186728 -0.08035656
000130 82 1f e4 3c 8d d8 97 bd f8 eb ed 3d 5d 2b bf 3d
       0.027847055 -0.07414351 0.11617273 0.09334443
000140 55 19 d5 bd b9 54 24 bd 96 25 81 bd a7 87 b6 bd
       -0.10405222 -0.04011986 -0.06305997 -0.089125924
000150 95 60 ac 3d 7b 03 39 3d 35 ca 5f 3c 83 f2 ac 3c
       0.08416859 0.045169335 0.01365905 0.021111732
000160 58 20 09 3e 43 13 e1 3d f8 c3 1c 3c f9 e0 fe 3d
       0.13391244 0.10990002 0.009568207 0.12445254
000170 f2 82 48 3b 96 35 81 bd 1a cb 5f 3b d6 4d d2 bc
       0.0030595628 -0.06309049 0.0034148158 -0.02567188
000180 a0 ed b5 bc 9f ee 2b bd 86 45 bd 3d 59 b3 99 bd
       -0.022208035 -0.041975614 0.09241776 -0.07504911
000190 f1 46 9e bd 50 66 0e bd 3e af 3d 3b bb 0c 11 be
       -0.07728375 -0.03476554 0.0028943564 -0.14165013
0001a0 a1 ad 0f 3d 1e ef 89 bd d4 9e d8 3d 67 88 7c 3d
       0.035077695 -0.06735061 0.10577169 0.06165352
0001b0 be c1 39 bd 34 7b 1f be 90 46 fb 3d d2 44 bf 3d
       -0.045350783 -0.15574342 0.12269318 0.09339298
0001c0 d9 ca 8d bd 89 e1 19 3e 05 0a a2 bc 31 9a a9 bd
       -0.06923456 0.15027441 -0.019780168 -0.08281363
0001d0 9f a6 c5 bd d4 1a 60 3d 4f 32 81 3d 00 17 b1 3d
       -0.09650921 0.054713085 0.06308424 0.08646965
0001e0 c7 4b 47 bb 50 60 a4 bc 5f fe 84 3d 06 3b ac bc
       -0.0030410157 -0.020065457 0.0649383 -0.021024238
0001f0 55 48 20 3d cc 49 eb bd 28 fd f0 3d 64 08 e9 3d
       0.03913148 -0.11488685 0.11767036 0.113785535
000200 77 80 86 bd b9 13 e7 3d f5 5e be bb 3d ea f1 bd
       -0.065674715 0.11283059 -0.0058096596 -0.118122555
000210 eb ae ae bd c4 7d d7 bd 5f 57 02 be 8d b4 1e 3d
       -0.08529457 -0.10522035 -0.12728642 0.038746405
000220 58 03 da 39 2c 31 d0 bd 0b 99 ad 3c 8a 69 33 3d
       0.00041582691 -0.10165629 0.02119114 0.04380182
000230 22 9b 5d bd be a5 63 bd 37 4c aa 3d db 21 f4 3d
       -0.054103024 -0.055577986 0.08315318 0.1192052
000240 a3 75 e5 3d 96 61 0d 3e de 2a 9c bd 04 d7 87 3d
       0.11204078 0.13806757 -0.07625364 0.06632808
000250 ec 70 ca 3d c5 a7 c2 bd 31 d0 19 bd be 38 93 bd
       0.098848194 -0.09504656 -0.037552062 -0.07188557
000260 3c 85 aa bd 1b ad 87 bd 1f 7f a0 3d 43 6b bb bd
       -0.08326194 -0.06624814 0.078367464 -0.09151318
000270 f7 f3 be bc 5e 55 b9 bd 49 42 8f bd df a0 9b 3d
       -0.02330969 -0.090494856 -0.06995065 0.07599043
000280 96 a6 38 3d 5d 1c de ba ab 05 ea bd ea 96 9d bd
       0.045080744 -0.0016945709 -0.11426862 -0.076948
000290 a8 a6 a8 3d d9 b5 d7 3d 57 6b e0 bd dc a3 9f 3d
       0.08234912 0.105327316 -0.109579735 0.077949256
0002a0 66 be 71 3d a9 76 1a bd 96 4c da bc 15 b1 8a bc
       0.05901947 -0.03771082 -0.026647847 -0.016930142
0002b0 08 63 db 3c e3 45 e9 3d 82 80 ca 3d 62 72 be bc
       0.02678062 0.11390283 0.09887792 -0.023247901
0002c0 e8 4f 67 bd 29 c8 7e bd 60 f7 af bb 59 50 66 3c
       -0.05647269 -0.062202606 -0.0053700656 0.014057242
0002d0 2c 92 bb bd 9c 43 ab 3d 03 47 d2 bc dd 6d 8e bd
       -0.091587394 0.08362505 -0.025668627 -0.069545485
0002e0 f7 da 4b bc 5e d6 14 3e 87 05 d4 3d 3c d3 b6 bd
       -0.012442342 0.145349 0.10352617 -0.089270085
0002f0 06 17 29 3e aa c3 5d 3d c4 32 13 bd 61 33 88 3c
       0.16512689 0.054141678 -0.035937086 0.016626062
000300 96 ba 1e 3c 54 77 e9 bc cc 77 de 3d 28 4d 9c 3d
       0.00968804 -0.028499283 0.10862693 0.07631904
000310 fa dd 19 bd bd 54 c0 bd b1 8b f1 bd 0c b2 84 3d
       -0.03756521 -0.093911625 -0.11794222 0.06479272

fc.weight f4 [1, 50]
000000 37 d9 cf bc 61 eb 22 3d 84 fe fa bd b8 9c d4 3c
       -0.02537213 0.039775256 -0.12255576 0.025953636
000010 dd 96 b4 3d 5d 51 b6 3d ac e9 a9 bd 35 89 aa 3d
       0.088178374 0.089022376 -0.082965225 0.083269514
000020 9c 1f d6 bc 6e a6 24 be 01 cb 40 bc 75 ba 0b be
       -0.02613812 -0.16079113 -0.01176715 -0.13645346
000030 c6 9d 07 be 3f 16 05 3e da ac 91 3d 67 15 0f be
       -0.1324378 0.12996767 0.07113047 -0.13973008
000040 fe 99 f3 bd a3 2c 2d 3d 6a 46 a0 3d ef e1 fb bd
       -0.11894606 0.042278897 0.078259304 -0.12298953
000050 05 d9 92 bb e0 81 f7 bd a3 2e f4 bd 1a d9 c8 3d
       -0.004481437 -0.120853186 -0.11922958 0.09807034
000060 d4 f7 73 3c b7 7c 40 bd 28 d9 74 b9 cd a6 e6 3d
       0.01489063 -0.046993937 -0.0002335055 0.112622835
000070 b3 8a 9e bd 5b fb e2 3d 39 08 84 3d 46 7c ef 3d
       -0.077412985 0.110830985 0.06446881 0.11693625
000080 23 c4 83 3d 29 f9 7f bd 85 cc 85 bd b6 ab f9 bd
       0.064338945 -0.062493477 -0.0653315 -0.121909544
000090 56 8d fb bd 6e 53 69 3d 14 36 f1 3d a6 38 ec 3d
       -0.12282817 0.05696433 0.11777893 0.11534242
0000a0 9e 2d 73 3c bc 4b d2 3d 28 94 c6 3d 79 42 05 3c
       0.014842419 0.102683514 0.09696227 0.008133524
0000b0 67 89 d9 3d 2e 5c 0f 3e 36 a5 dc bc 4f 84 a2 3d
       0.106219105 0.14000008 -0.026934247 0.07935392
0000c0 a3 14 8e 3d 68 3d a4 bd
       0.0693753 -0.08019525
