models/lstm_model_1h.pt (torch, 127756 bytes, 9 tensors)

lstm.weight_ih_l0 f4 [200, 1]
-0.037814744 -0.0063821166 0.11875393 0.034870453 0.072897665 0.12542184 -0.09615617 -0.07312576
-0.04037982 -0.0032673802 -0.1236703 0.063826516 0.12687553 0.06261531 0.105276994 0.012477573
0.042883456 0.051731437 0.069354065 0.12112517 0.012366948 0.032990564 -0.12121161 -0.046033036
0.031082219 0.13132256 0.19592051 0.1657968 -0.0121255135 -0.039580856 0.047036037 0.08166384
-0.10564088 0.056193408 -0.055004463 0.21348916 0.07526513 0.020302879 0.13427216 -0.02799237
-0.11797621 0.109535806 -0.06386118 0.07641934 -0.028736066 0.015459271 0.11712762 0.2176256
0.124959566 0.06388952 0.12970912 -0.13243401 -0.016927728 -0.109425955 0.092054084 0.07680416
0.044581007 0.16134633 0.12919067 -0.04001661 -0.038818296 0.19436736 0.056215703 -0.041161068
-0.153653 0.17383203 0.09387156 0.070541166 -0.05168541 0.11878135 0.11437983 0.063361056
-0.16348933 0.010084131 0.15060815 0.11135738 0.08780599 0.013091922 0.20562811 0.1329746
-0.09956247 0.13388745 -0.12789206 -0.03472988 -0.07077858 0.1622242 -0.017206715 0.13390377
0.12387147 -0.07405614 0.12670282 0.047228195 0.057977848 0.13763933 0.13539034 0.13542227
0.21278006 0.009218721 0.028759604 -0.03815294 0.18327375 0.0055356496 0.073802665 0.045489505
-0.13503833 -0.01594534 0.08975339 0.124773234 -0.03669697 -0.0082399305 0.1683622 -0.19802517
0.0983481 0.09508969 -0.12858811 0.09726316 -0.071037 -0.01847098 0.007679655 0.005559129
-0.038066216 0.025909122 -0.0026004235 0.020018656 0.14758362 -0.17853537 -0.23976904 0.17151496
0.14154845 0.104042046 -0.10685423 -0.07769032 0.16097939 -0.07676734 -0.067219235 0.20381491
-0.141115 0.093528405 0.18606408 0.1311916 -0.095785186 0.17498958 -0.112713195 0.16219258
0.05193518 0.13258362 0.13035089 -0.19941618 -0.04851199 0.13880368 -0.016510967 -0.074458204
0.054982174 0.02699332 0.099469386 -0.0527436 -0.045365285 0.019553425 0.17601441 0.005317946
-0.042471416 0.22073667 0.19315451 -0.06447926 0.100480065 0.01448037 0.17580698 -0.06030172
0.09184975 -0.06411507 -0.06661123 0.019276515 -0.18298894 -0.028526109 0.23779881 0.010475358
0.05220545 -0.053642005 0.089194514 -0.054706406 0.11195203 0.18188056 -0.09361671 0.116738625
0.14762253 0.055962253 0.06259363 0.19391981 0.029848373 -0.030179424 0.019365858 0.035913482
0.053962693 0.1991273 0.14430305 0.14632283 0.2335943 0.015383491 -0.09190157 0.06508214
00000000: a2e3 1abd 1321 d1bb 4335 f33d 52d4 0e3d
00000010: 5f4b 953d 956e 003e 87ed c4bd f5c2 95bd
00000020: 4f65 25bd 8b21 56bb db46 fdbd 7ab7 823d
00000030: a9eb 013e 753c 803d 779b d73d bc6e 4c3c
00000040: 90a6 2f3d 58e4 533d 8109 8e3d 7910 f83d
00000050: bd9e 4a3c 1d21 073d cb3d f8bd 238d 3cbd
00000060: 23a0 fe3c 6c79 063e 639f 483e a3c6 293e
00000070: 17aa 46bc 891f 22bd dca8 403d 5f3f a73d
00000080: 3f5a d8bd 0f2b 663d 5c4c 61bd e79c 5a3e
00000090: 9b24 9a3d 3952 a63c a47e 093e 4150 e5bc
000000a0: 839d f1bd 4f54 e03d a6c9 82bd be81 9c3d
000000b0: e667 ebbc e248 7d3c 9be0 ef3d 3fd9 5e3e
000000c0: cdea ff3d 82d8 823d 78d2 043e c89c 07be
000000d0: 05ac 8abc b71a e0bd da86 bc3d 804b 9d3d
000000e0: 939a 363d f937 253e 8f4a 043e 75e8 23bd
000000f0: efff 1ebd 3d08 473e 7042 663d 8298 28bd
00000100: 3657 1dbe 0601 323e bc3f c03d e377 903d
00000110: 15b4 53bd a343 f33d f93f ea3d 71c3 813d
00000120: bf69 27be e937 253c 0639 1a3e 570f e43d
00000130: a0d3 b33d 807f 563c 2d90 523e 7e2a 083e
00000140: 69e7 cbbd cb19 093e 23f6 02be eb40 0ebd
00000150: 5cf4 90bd 1a1e 263e 19f5 8cbc 121e 093e
00000160: 53b0 fd3d bfaa 97bd 62be 013e 5a72 413d
00000170: 2e7a 6d3d 53f1 0c3e c4a3 0a3e 23ac 0a3e
00000180: 04e3 593e 1e0a 173c 4399 eb3c 4246 1cbd
00000190: 1dac 3b3e 6564 b53b da25 973d 3453 3a3d
000001a0: 7d47 0abe cd9f 82bc a0d0 b73d 1c89 ff3d
000001b0: 904f 16bd c600 07bc 2467 2c3e 1cc7 4abe
000001c0: bb6a c93d 62be c23d 9aac 03be e831 c73d
000001d0: d97b 91bd 7450 97bc 9ea5 fb3b 5b29 b63b
000001e0: 52eb 1bbd 5e3f d43c de6b 2abb 2afe a33c
000001f0: 2920 173e fad1 36be 0486 75be 9ea1 2f3e
00000200: 14f2 103e ff13 d53d 64d6 dabd 1a1c 9fbd
00000210: c8d7 243e 3238 9dbd 3daa 89bd dbb4 503e
00000220: 7380 10be d28b bf3d 9587 3e3e 1757 063e
00000230: 062b c4bd 7830 333e 2dd6 e6bd d015 263e
00000240: fcb9 543d 00c4 073e b47a 053e c133 4cbe
00000250: 82b4 46bd 8d22 0e3e 0242 87bc 8b7d 98bd
00000260: fd34 613d 1821 dd3c 9bb6 cb3d ac09 58bd
00000270: f3d0 39bd 812e a03c 1f3d 343e 2a42 ae3b
00000280: 82f6 2dbd cb08 623e 4cca 453e b40d 84bd
00000290: 7ec8 cd3d 133f 6d3c bf06 343e f0fe 76bd
000002a0: b91b bc3d c34e 83bd 786b 88bd c8e9 9d3c
000002b0: 7461 3bbe 96af e9bc 8881 733e d6a0 2b3c
000002c0: 62d5 553d b8b7 5bbd 9dab b63d d313 60bd
000002d0: 1b47 e53d e63e 3a3e 1eba bfbd a914 ef3d
000002e0: 5c2a 173e ad38 653d 1731 803d ea92 463e
000002f0: 9384 f43c d73a f7bc 26a5 9e3c 041a 133d
00000300: fc07 5d3d 07e8 4b3e 2ec4 133e a7d5 153e
00000310: 5833 6f3e 0a0b 7c3c e436 bcbd c949 853d

lstm.weight_hh_l0 f4 [200, 50]
0.033533648 -0.06458315 0.070447646 -0.009203566 -0.007907751 0.07999615 -0.1068738 -0.123199664
0.018202247 0.11678199 0.08085446 0.053870335 -0.1174226 0.15997224 -0.014970351 -0.075651996
0.009249873 0.10695683 -0.15581578 -0.029015576 -0.009528391 -0.018653972 -0.038132075 -0.033275697
0.09498602 0.07400239 -0.13608323 -0.012617815 -0.10619583 -0.0052648066 -0.037117355 0.038043328
-0.0478954 -0.0012203377 -0.087959595 0.078954674 0.085789084 -0.00918308 -0.08382927 0.10299513
0.12131214 0.07351789 0.106751665 0.08138223 0.044854123 -0.07137089 0.124117255 -0.096265316
0.07693421 0.019291615 0.052543968 -0.08052679 -0.14649057 -0.11996294 -0.13985005 0.054282427
0.116424315 0.122516885 0.01946523 -0.09900825 -0.10956436 0.0163105 0.09570938 0.11338767
-0.088768356 0.094203204 -0.07408394 -0.10315787 -0.122613005 0.026530964 0.1150474 -0.12836477
-0.123457186 -0.04018109 -0.056699894 -0.05856308 0.089091375 -0.12027452 -0.021228574 0.056025445
-0.06927924 0.10239718 0.061526887 -0.028489502 0.057625614 0.088162184 0.09219416 -0.05962348
-0.046357144 -0.12874526 -0.014788128 0.11437688 0.035411958 0.05542352 0.03898092 0.10968581
0.11965099 -0.022304669 0.06472395 -0.09337844 -0.10848182 -0.03967352 0.040521894 0.025730086
0.01524041 0.07605017 0.083615854 0.12882756 0.13130574 0.09580882 -0.057682123 -0.067030385
-0.10863003 -0.08623743 -0.021151198 -0.0082389265 -0.007496492 -0.054014724 0.14064361 0.044879183
-0.14360136 0.05719994 0.103922255 -0.12564114 0.11164309 -0.023522621 -0.08852894 0.14128265
0.016593063 0.012527952 -0.1362028 0.09184167 -0.11888011 0.077052295 0.10020746 -0.04688563
-0.0824426 -0.10733293 0.049873464 0.04605893 -0.061913263 -0.025761504 0.1245093 -0.07749512
0.032139998 0.12628973 0.062069338 -0.06313102 -0.036754135 -0.027408294 -0.0052466076 0.07796707
0.07477121 -0.01240258 0.035511408 -0.10009744 -0.018112661 -0.1303711 -0.006302398 -0.07477285
0.13283403 0.037333142 -0.040013652 -0.052317828 0.013493278 -0.048628792 -0.038657468 -0.0026199
-0.07667057 0.09951056 -0.009487325 -0.12562877 -0.12101145 -0.061177287 -0.06214238 -0.054408934
-0.11095679 0.016869975 0.15115005 -0.06505262 -0.12870958 -0.07338476 0.08328574 0.059598085
-0.1254752 0.05825003 0.04945741 -0.048413474 0.03702384 0.1088007 -0.05591918 0.14557356
-0.08275695 -0.00087731617 -0.1446435 0.14242968 0.12691747 -0.10911131 -0.07050703 -0.012660928
0.090833046 -0.06743657 -0.027572 0.02636048 0.0116672795 0.083108045 0.08310769 -0.09633457
0.15416585 -0.10140166 0.09152281 -0.14584422 -0.09415377 -0.10175856 -0.079615235 -0.011484764
-0.053785287 -0.057698235 -0.0988428 0.08755688 -0.032411937 0.04251089 0.050639965 0.00035317166
-0.005082356 0.06675126 -0.06553007 0.021578053 -0.014105056 -0.08110806 0.05476452 -0.112826146
-0.07304434 0.033217695 -0.1295697 0.015209201 0.0047854534 -0.022274172 0.06555893 -0.027940474
0.039551694 0.13992366 -0.07497881 -0.0563545 0.02056995 0.038513206 0.15530121 -0.03678975
-0.040721703 -0.08629931 -0.111736454 0.059244525 -0.051531952 -0.011070877 -0.04277064 -0.1209777
00000000: 945a 093d 2c44 84bd db46 903d 8eca 16bc
00000010: 838f 01bc 06d5 a33d a7e0 dabd 1b50 fcbd
00000020: e11c 953c 652b ef3d 0697 a53d 24a7 5c3d
00000030: 437b f0bd c3cf 233e 3446 75bc 6fef 9abd
00000040: c88c 173c 2f0c db3d 2c8e 1fbe 13b2 edbc
00000050: f81c 1cbc 37d0 98bc 6130 1cbd 194c 08bd
00000060: 0888 c23d 918e 973d 6759 0bbe f4ba 4ebc
00000070: 337d d9bd 6684 acbb 5e08 18bd 52d3 1b3d
00000080: f82d 44bd bdf3 9fba 2924 b4bd fdb2 a13d
00000090: 30b2 af3d a174 16bc aeae abbd 1cef d23d
000000a0: 8072 f83d 8c90 963d 9ea0 da3d baab a63d
000000b0: f5b8 373d e72a 92bd 3031 fe3d c026 c5bd
000000c0: af8f 9d3d 7309 9e3c 5838 573d 3beb a4bd
000000d0: a001 16be 21af f5bd da34 0fbe 4057 5e3d
000000e0: df6f ee3d 22ea fa3d 8c75 9f3c d6c4 cabd
000000f0: 4763 e0bd 999d 853c 4803 c43d cb37 e83d
00000100: 2fcc b5bd 9ced c03d 52b9 97bd 6f44 d3bd
00000110: 871c fbbd 7757 d93c f99d eb3d 0e72 03be
00000120: 1fd7 fcbd ed94 24bd 263e 68bd d7df 6fbd
00000130: 8a75 b63d 7d52 f6bd 8ce7 adbc f07a 653d
00000140: 46e2 8dbd 9db5 d13d 9e03 7c3d d162 e9bc
00000150: d608 6c3d 608e b43d 4bd0 bc3d c037 74bd
00000160: fde0 3dbd ccd5 03be e849 72bc 6d3e ea3d
00000170: 210c 113d c603 633d 75aa 1f3d f4a2 e03d
00000180: 940b f53d 48b8 b6bc fe8d 843d 323d bfbd
00000190: b72b debd b380 22bd 49fa 253d e7c7 d23c
000001a0: eab2 793c 31c0 9b3d ca3e ab3d 5feb 033e
000001b0: 0375 063e 6a37 c43d 1744 6cbd 3a47 89bd
000001c0: 6c79 debd 409d b0bd 4745 adbc 90fc 06bc
000001d0: 22a5 f5bb 8b3e 5dbd e104 103e 3cd3 373d
000001e0: 3c0c 13be 7c4a 6a3d 31d5 d43d 12a8 00be
000001f0: 22a5 e43d 83b2 c0bc a94e b5bd 66ac 103e
00000200: 2dee 873c 0a42 4d3c bf78 0bbe 7c17 bc3d
00000210: 6a77 f3bd 98cd 9d3d 9239 cd3d 250b 40bd
00000220: aad7 a8bd 5ed1 dbbd 1e48 4c3d 4aa8 3c3d
00000230: c398 7dbd ca09 d3bc bbfe fe3d c3b5 9ebd
00000240: 3ba5 033d 1852 013e 6b3c 7e3d d64a 81bd
00000250: 818b 16bd 5c87 e0bc bceb abbb 33ad 9f3d
00000260: a621 993d 3134 4bbc 6974 113d e3ff ccbd
00000270: 0161 94bc 0080 05be 5984 cebb 8222 99bd
00000280: a505 083e a3ea 183d 5be5 23bd 384b 56bd
00000290: e912 5d3c fc2e 47bd 4b57 1ebd a1b2 2bbb
000002a0: 7605 9dbd 31cc cb3d ba70 1bbc d4a4 00be
000002b0: dad4 f7bd 0995 7abd 0289 7ebd e7db 5ebd
000002c0: 503d e3bd e732 8a3c 14c7 1a3e 4f3a 85bd
000002d0: 72cc 03be c04a 96bd b791 aa3d 1f1d 743d
000002e0: 927c 00be 9597 6e3d da93 4a3d 354d 46bd
000002f0: 4fa6 173d e7d2 de3d 830b 65bd 3c11 153e
00000300: 7a7c a9bd b1fb 65ba 6d1d 14be 16d9 113e
00000310: a7f6 013e c075 dfbd fd65 90bd c86f 4fbc
00000320: ad06 ba3d 2f1c 8abd adde e1bc eff1 d73c
00000330: 1e28 3f3c 8d34 aa3d 5d34 aa3d 0f4b c5bd
00000340: a7dd 1d3e acab cfbd 5070 bb3d 3058 15be
00000350: b1d3 c0bd cb66 d0bd 500d a3bd 972a 3cbc
00000360: f64d 5cbd fc54 6cbd 186e cabd 0651 b33d
00000370: 61c2 04bd e61f 2e3d da6b 4f3d e629 b939
00000380: e489 a6bb e2b4 883d a134 86bd 75c4 b03c
00000390: e518 67bc fc1b a6bd c350 603d 6511 e7bd
000003a0: 4598 95bd 470f 083d ebad 04be 0330 793c
000003b0: 4bcf 9c3b 5378 b6bc c343 863d 6ce3 e4bc
000003c0: f500 223d 2648 0f3e 7e8e 99bd fad3 66bd
000003d0: 5082 a83c 06c0 1d3d 4807 1f3e d9b0 16bd
000003e0: cdcb 26bd b1bd b0bd 15d6 e4bd 63aa 723d
000003f0: 2b13 53bd a062 35bc 4430 2fbd 28c3 f7bd

lstm.bias_ih_l0 f4 [200]
-0.056156237 -0.030870408 -0.076330826 0.14581975 0.017078131 0.052402113 -0.12762947 0.07436017
-0.020423746 -0.055532865 0.00935015 0.012644841 -0.11902241 -0.00084250484 0.060093734 0.08946437
-0.043648392 0.034787845 -0.091964826 -0.031613555 0.1465192 0.12499495 0.081097804 -0.058634527
0.2035294 0.13788316 0.13098729 0.021732114 -0.038871963 0.12938982 -0.08712738 0.0007040573
0.0014955548 -0.020551598 -0.07631229 -0.009964704 0.11553211 -0.05514724 0.079298995 0.15451173
0.03624154 -0.07837216 0.1323086 0.1083569 0.12199614 -0.07561715 0.089548565 0.05930349
0.059503395 -0.11266339 -0.048094995 -0.09339914 0.012912055 -0.012157721 -0.035095096 -0.020859938
-0.017855387 -0.10948422 -0.07488398 -0.050598055 -0.14468105 0.04255466 0.040696587 0.06076796
0.04395574 -0.10612216 0.014096128 0.14979878 -0.002608027 -0.08612488 0.09377512 -0.062280137
-0.04378988 0.02955722 0.11692226 0.054220695 0.028652225 -0.1387996 0.09776428 -0.08724522
-0.09133381 -0.07082674 0.1321235 -0.09203801 -0.030540068 -0.07739395 0.096094735 0.06441881
0.13563155 -0.11261846 0.08665305 0.11431493 0.03280203 0.12234976 -0.0478412 -0.113418065
0.051221363 0.04140334 -0.09717755 -0.103514895 0.14242429 0.113523886 0.013617021 -0.11970122
0.046632927 0.12563698 0.1212459 -0.12310735 0.036745936 -0.050136175 -0.09733648 0.11245453
-0.011415336 0.036581587 -0.021407546 0.069205925 0.046128716 0.016238747 0.062755354 -0.006768233
0.08653987 0.03366754 -0.07009916 0.049853064 -0.09419629 0.12563184 0.019897418 -0.0031732798
-0.068270154 0.097730875 -0.06902012 -0.057254307 0.023621336 0.036942217 -0.011427222 -0.029508784
-0.08117033 0.13598649 -0.11125489 0.11861075 0.008377209 0.13495784 0.034414817 -0.022912094
-0.1419652 0.04496119 0.01617152 -0.12360167 0.08257295 -0.119480476 -0.10291508 -0.033302795
0.008519421 -0.044314273 -0.113393545 -0.092698894 0.08619127 0.1296738 -0.09348617 -0.043281473
0.10020369 -0.011225765 0.06997535 0.0059333425 0.0061812513 0.017195169 -0.092647485 0.007548248
0.12204021 0.08729376 0.008728638 0.058472935 0.029199418 0.034694172 0.19147196 -0.07009025
0.21275727 0.0071829185 0.1705046 0.1480107 -0.07546686 -0.08381847 0.0017654622 -0.076326124
-0.06702637 0.17388694 0.0837554 0.04224239 0.15494198 -0.020206964 -0.0044611366 0.012599061
-0.00847584 -0.008332791 0.07363909 0.12884648 -0.085415594 0.13031478 -0.0958936 -0.13130859
00000000: 1504 66bd f0e3 fcbc 5653 9cbd c651 153e
00000010: 70e7 8b3c 99a3 563d 4db1 02be 254a 983d
00000020: b34f a7bc 6e76 63bd 5f31 193c 4f2c 4f3c
00000030: 05c2 f3bd 8bdb 5cba d924 763d 1839 b73d
00000040: a8c8 32bd b37d 0e3d 0e58 bcbd 377d 01bd
00000050: 2109 163e 5afd ff3d 9b16 a63d c22a 70bd
00000060: 036a 503e 3e31 0d3e 8821 063e 8c07 b23c
00000070: 3538 1fbd c47e 043e d76f b2bd 7c90 383a
00000080: 7e06 c43a d35b a8bc 9e49 9cbd ff42 23bc
00000090: 199c ec3d 13e2 61bd 8367 a23d 5338 1e3e
000000a0: 0272 143d 9581 a0bd e87b 073e 39ea dd3d
000000b0: 1dd9 f93d 2add 9abd 3d65 b73d 37e8 723d
000000c0: d5b9 733d 10bc e6bd 42ff 44bd 0c48 bfbd
000000d0: 158d 533c 2e31 47bc e0bf 0fbd 76e2 aabc
000000e0: 7645 92bc 4339 e0bd c65c 99bd e83f 4fbd
000000f0: 4527 14be cc4d 2e3d 77b1 263d d3e7 783d
00000100: ef0a 343d 9356 d9bd 72f3 663c da64 193e
00000110: 6feb 2abb 3e62 b0bd 2c0d c03d 7519 7fbd
00000120: 045d 33bd fc21 f23c f074 ef3d 8516 5e3d
00000130: 12b8 ea3c 7b21 0ebe a438 c83d 9fad b2bd
00000140: 380d bbbd 9c0d 91bd 624b 073e 6d7e bcbd
00000150: 2a2f fabc b880 9ebd 51cd c43d 02ee 833d
00000160: ffe2 0a3e 82a4 e6bd 2777 b13d f21d ea3d
00000170: 6c5b 063d 8392 fa3d 22f5 43bd bb47 e8bd
00000180: 7ecd 513d 8c96 293d 0605 c7bd 9eff d3bd
00000190: acd7 113e 367f e83d ed19 5f3c ea25 f5bd
000001a0: 2b02 3f3d fba6 003e c54f f83d b51f fcbd
000001b0: e882 163d 975b 4dbd 5958 c7bd 904e e63d
000001c0: 6407 3bbc 93d6 153d e15e afbc d6bb 8d3d
000001d0: 77f1 3c3d 1f07 853c e185 803d 0ec8 ddbb
000001e0: d13b b13d f9e6 093d 2690 8fbd ba32 4c3d
000001f0: fce9 c0bd a2a5 003e e9ff a23c cdf6 4fbb
00000200: 39d1 8bbd 2027 c83d 6c5a 8dbd 7e83 6abd
00000210: 8881 c13c b950 173d 3e39 3bbc 68bc f1bc
00000220: a13c a6bd 0b40 0b3e 9bd9 e3bd 31ea f23d
00000230: 9040 093c 6332 0a3e 8df6 0c3d 25b2 bbbc
00000240: 535f 11be 3a29 383d 237a 843c df22 fdbd
00000250: 021c a93d 2eb2 f4bd 24c5 d2bd 8368 08bd
00000260: 0b95 0b3c e282 35bd e03a e8bd ebd8 bdbd
00000270: 0c85 b03d 35c9 043e ad75 bfbd ea47 31bd
00000280: 9837 cd3d 45ec 37bc 3c4f 8f3d 7c6c c23b
00000290: 188c ca3b e2dc 8c3c f7bd bdbd 4b57 f73b
000002a0: 38f0 f93d 12c7 b23d 9002 0f3c 5181 6f3d
000002b0: 9e33 ef3c 7a1b 0e3d 3a11 443e 7a8b 8fbd
000002c0: 0bdd 593e b05e eb3b c298 2e3e 1e90 173e
000002d0: 5e8e 9abd 05a9 abbd 1567 e73a df50 9cbd
000002e0: 1f45 89bd 6b0f 323e f387 ab3d 5b06 2d3d
000002f0: 1ca9 1e3e 1389 a5bc ba2e 92bb 4b6c 4e3c
00000300: 40de 0abc 4286 08bc 17d0 963d 55f0 033e
00000310: 5fee aebd 3d71 053e dd63 c4bd c275 06be

lstm.bias_hh_l0 f4 [200]
-0.086251326 -0.10219934 -0.02653415 -0.035693314 -0.08816647 -0.021386813 0.14220688 -0.07981756
0.13210498 -0.00023393928 -0.12874472 0.07298109 0.15148304 0.048518337 -0.10094823 0.13368228
-0.016774118 0.020789038 0.08261089 -0.053134874 0.041239932 -0.058673494 -0.13013095 -0.06991895
0.0117171025 -0.0035207518 0.0560294 -0.06332129 0.015198115 0.027562208 -0.020405766 -0.026910732
0.12814797 -0.13629313 -0.028515153 0.181009 -0.0027704195 0.09828064 0.07336709 0.13643761
0.11301518 0.029100947 0.033326436 0.010781858 -0.11862657 -0.06692044 -0.05398324 -0.11569782
0.03828494 -0.026030665 -0.044113755 0.071832046 0.1370443 0.09940123 0.036229976 -0.03677599
-0.025965294 -0.105489306 0.0016112749 0.10746701 0.025234317 0.10053057 0.13549021 -0.067686394
-0.027552187 -0.104748234 -0.062282983 0.09409966 0.10235377 0.003681753 -0.09320947 -0.08940799
0.078526266 -0.13473801 0.05457924 0.111191794 0.047309835 -0.10474485 0.1457787 -0.00045743227
0.014107675 0.08553164 -0.09341712 -0.02872366 0.049658306 -0.1086992 0.09178976 0.019747976
0.10999757 0.057536416 0.08344988 -0.12141624 0.09739844 0.0065727215 -0.10606619 0.14702071
0.104968235 -0.11919741 0.10909407 -0.04627722 -0.004326309 0.0033787915 -0.08195497 0.06589558
-0.02980369 0.12511426 0.057406347 0.034402918 0.075461626 -0.08721795 0.021017188 -0.14499766
0.11162692 -0.027345099 0.0031101387 0.006526573 -0.06453348 0.042842437 -0.1365466 0.07067998
-0.07900103 -0.05310576 0.01766057 0.028212 0.120643705 -0.11081415 0.063666955 0.0351362
0.04611991 0.14739077 0.09616648 -0.11047572 0.08682552 0.0286017 0.0010840008 -0.03805971
0.11324911 0.02930522 0.11995997 -0.033188317 -0.11034035 0.077790596 -0.08652779 -0.006591593
-0.04241601 -0.032586653 0.0059127733 -0.054317843 0.019927246 -0.12571743 -0.08578837 -0.11229421
-0.124295905 -0.042440563 0.13943174 -0.073095314 0.06274675 -0.08290959 -0.13657227 -0.096064836
0.0073445616 0.09575323 0.10529652 0.12555318 -0.043828018 -0.08175528 0.11005623 0.112335764
0.018675033 0.15105024 -0.017510677 0.08279434 0.040245783 0.022892233 0.05920019 -0.059560522
0.104655005 -0.06807491 -0.0029234043 0.050489657 -0.0329468 -0.016530875 -0.013319681 0.019198265
0.11322007 0.1051239 0.1407766 -0.08281311 -0.09075625 -0.010107872 0.054452717 0.07716869
0.0866491 -0.10149542 0.12614778 -0.08496498 0.15963599 0.019181186 0.08850295 0.11800311
00000000: 89a4 b0bd e34d d1bd 255e d9bc 2733 12bd
00000010: 9f90 b4bd 6633 afbc ae9e 113e 6477 a3bd
00000020: 8746 073e 994d 75b9 a8d5 03be 1c77 953d
00000030: 5f1e 1b3e 2abb 463d f2bd cebd 02e4 083e
00000040: e069 89bc c64d aa3c e62f a93d f4a3 59bd
00000050: 34eb 283d 9e53 70bd 0c41 05be ab31 8fbd
00000060: 17f9 3f3c 6abc 66bb 167f 653d 98ae 81bd
00000070: 8401 793c 24ca e13c fe29 a7bc e573 dcbc
00000080: 3939 033e 6d90 0bbe 9c98 e9bc 6c5a 393e
00000090: ed8f 35bb 5c47 c93d 7c41 963d 4db6 0b3e
000000a0: 8174 e73d 1c65 ee3c 4d81 083d 64a6 303c
000000b0: 7df2 f2bd 950d 89bd 881d 5dbd fbf2 ecbd
000000c0: abd0 1c3d 433e d5bc a0b0 34bd ae1c 933d
000000d0: 5755 0c3e df92 cb3d e265 143d 6ca2 16bd
000000e0: 2bb5 d4bc c70a d8bd 6a31 d33a aa17 dc3d
000000f0: 33b8 ce3c f9e2 cd3d f2bd 0a3e 2a9f 8abd
00000100: 20b5 e1bc 3e86 d6bd 711c 7fbd 53b7 c03d
00000110: da9e d13d 9149 713b 9be4 bebd 891b b7bd
00000120: 61d2 a03d c3f8 09be 7b8e 5f3d 86b8 e33d
00000130: f5c7 413d 7884 d6bd 0347 153e 85d3 efb9
00000140: e123 673c 362b af3d 7a51 bfbd e24d ebbc
00000150: 8266 4b3d b09d debd 45fc bb3d 82c6 a13c
00000160: 6846 e13d 4eab 6b3d c5e7 aa3d 14a9 f8bd
00000170: d578 c73d fc5f d73b 3b39 d9bd 998c 163e
00000180: 96f9 d63d c61d f4bd b66c df3d 2f8d 3dbd
00000190: b6c3 8dbb b76e 5d3b 02d8 a7bd 43f4 863d
000001a0: de26 f4bc f41d 003e eb22 6b3d 13ea 0c3d
000001b0: a08b 9a3d 539f b2bd 3d2c ac3c 447a 14be
000001c0: a89c e43d d402 e0bc 78d3 4b3b dddc d53b
000001d0: 212a 84bd 8d7b 2f3d dfd2 0bbe aac0 903d
000001e0: 4bcb a1bd 6d85 59bd e6ac 903c da1c e73c
000001f0: 0c14 f73d 87f2 e2bd d263 823d faea 0f3d
00000200: 3be8 3c3d 9bed 163e eef2 c43d 1841 e2bd
00000210: 94d1 b13d 1d4e ea3c 0815 8e3a 80e4 1bbd
00000220: 26ef e73d 8011 f03c 93ad f53d 79f0 07bd
00000230: 1ffa e1bd ad50 9f3d 7b35 b1bd 4afe d7bb
00000240: 69bc 2dbd 9579 05bd f0bf c13b 637c 5ebd
00000250: 773e a33c 12bc 00be d0b1 afbd 82fa e5bd
00000260: da8e febd 28d6 2dbd 32c7 0e3e ffb2 95bd
00000270: 5e81 803d 81cc a9bd 9ad9 0bbe a4bd c4bd
00000280: a6aa f03b 451a c43d b4a5 d73d 0391 003e
00000290: 0285 33bd 506f a7bd 2965 e13d 4b10 e63d
000002a0: 62fc 983c eaac 1a3e 8d72 8fbc 1490 a93d
000002b0: c3d8 243d 7e88 bb3c e67b 723d bcf5 73bd
000002c0: 5d55 d63d dc6a 8bbd 9696 3fbb 3ece 4e3d
000002d0: 39f3 06bd c26b 87bc cb3a 5abc ae45 9d3c
000002e0: eddf e73d 334b d73d be27 103e eb99 a9bd
000002f0: 6ade b9bd 7d9b 25bc d009 5f3d 9e0a 9e3d
00000300: 1575 b13d d5dc cfbd e22c 013e 1f02 aebd
00000310: 9e77 233e dd21 9d3c 0941 b53d 9dab f13d

lstm.weight_ih_l1 f4 [200, 50]
0.15666007 -0.0765165 0.051043916 -0.0035608767 -0.121009395 -0.0151225375 -0.098338 -0.09952589
-0.03207405 -0.10414751 0.052349795 0.07760601 0.1385937 -0.027135845 0.11189429 0.107085116
-0.050749853 -0.1779176 0.108237796 -0.09346075 0.03360412 -0.1061743 -0.04584138 0.0029685684
0.017031537 -0.13373739 -0.24480619 0.1447585 0.03599196 -0.01307981 0.051890504 -0.02076976
-0.043749757 -0.17587082 0.08823677 0.01775734 0.033764433 0.10465205 0.030587617 0.049714994
0.13691546 -0.006274417 0.021195754 -0.06638363 -0.014568874 -0.07085679 0.0790895 -0.12134806
0.10407845 0.09762779 0.04321284 0.0188392 -0.0871879 0.07375923 -0.12450766 -0.11161134
0.048234183 0.12932687 0.008198579 0.03774296 -0.059260968 -0.060105223 0.10189106 -0.049248204
-0.17499869 -0.075949065 -0.115293056 -0.1165096 -0.006298979 -0.06730892 -0.021614617 0.02662745
0.06598341 -0.009592867 0.11032333 -0.10669349 -0.21838583 0.09684419 0.077662095 0.07310073
0.08113875 0.11138139 0.1405776 -0.039773587 -0.09332505 0.0719701 -0.1581992 0.00342085
-0.065100715 -0.10149554 0.004314053 -0.076738246 0.06648922 -0.088364564 0.037949573 -0.06846094
0.01242097 -0.13308212 -0.027579015 -0.028068902 -0.026431791 0.08782153 0.05663571 0.062140122
-0.17273347 0.024878392 -0.0933783 -0.035933547 -0.019559221 -0.040236287 -0.08759829 -0.03798166
0.15212181 0.022057116 -0.16471158 -0.048026804 -0.0743741 -0.07497873 0.06370285 0.046581846
-0.012961529 -0.0025438822 0.11782677 -0.12152923 0.25406465 -0.05922993 -0.19191512 -0.010619739
0.005937108 -0.11983832 0.007411028 -0.09866898 0.15772276 -0.07725481 0.02289231 0.19214123
-0.09191843 0.058912467 -0.07740798 -0.05787313 -0.12097702 0.10729042 0.032947764 0.13797392
-0.08006686 0.032893702 0.14060532 0.06145812 0.12636445 -0.101938106 -0.14750127 -0.09611615
0.11557268 0.081347354 0.12289507 -0.09102569 -0.024361074 0.052282967 -0.057177965 -0.067450136
0.019720856 0.13734907 0.042060915 -0.12269154 0.0048688794 0.0098989615 0.028439598 -0.04870223
-0.10878363 0.093825676 0.13099279 -0.046728764 0.072644904 0.08594046 0.10591673 0.0041581118
-0.03129849 -0.10776817 -0.08462698 -0.10991557 -0.06585557 -0.00950122 -0.0781713 0.044875927
-0.08676689 0.031665906 -0.040137086 -0.11862848 -0.09705769 0.101271294 -0.0040577296 -0.067912266
0.053869043 0.12403015 0.041125085 0.0056952187 0.12682527 -0.01051444 0.07050414 -0.10928929
0.14494123 -0.09403882 -0.007647267 -0.052438423 -0.021137536 0.054836206 -0.013090904 0.1520208
0.116320245 -0.009449238 0.02501533 -0.14814681 -0.06272356 0.09949238 -0.117361136 0.14637503
0.04419863 0.04357539 -0.10309924 0.021281661 -0.1280904 0.08476007 0.040822994 0.084925964
-0.009744188 -0.16367216 -0.06572136 0.014771935 0.13736017 0.020780496 0.03421186 -0.16195427
0.084245265 -0.06224326 -0.16005653 0.069555365 -0.081359655 0.091287166 -0.033212118 0.10267387
0.08206984 0.13421486 -0.13511068 0.18681899 -0.008971807 0.17128313 0.07511737 -0.005301318
-0.06646453 -0.021554073 0.15641958 0.008750518 0.008080337 0.0019119213 0.09093336 0.070389695
00000000: 7f6b 203e afb4 9cbd 6d13 513d 995d 69bb
00000010: c6d3 f7bd 85c4 77bc 6f65 c9bd 3bd4 cbbd
00000020: 1460 03bd 4a4b d5bd bd6c 563d e6ef 9e3d
00000030: 82eb 0d3e fe4b debc d528 e53d 714f db3d
00000040: 14df 4fbd 0830 36be c7ab dd3d 5a68 bfbd
00000050: 79a4 093d e971 d9bd 2cc4 3bbd 508c 423b
00000060: b985 8b3c 74f2 08be 79ae 7abe 923b 143e
00000070: 4e6c 133d b34c 56bc 238b 543d 5825 aabc
00000080: f232 33bd 7b17 34be 7bb5 b43d d777 913c
00000090: 934c 0a3d d053 d63d e292 fa3c f3a1 4b3d
000000a0: 9133 0c3e a099 cdbb b8a2 ad3c 24f4 87bd
000000b0: 49b2 6ebc 5d1d 91bd adf9 a13d 5585 f8bd
000000c0: 1527 d53d 14f1 c73d f2ff 303d aa54 9a3c
000000d0: 928f b2bd 140f 973d dffd febd 7c94 e4bd
000000e0: 3591 453d 436e 043e 5553 063c 5d98 1a3d
000000f0: a1bb 72bd e530 76bd 43ac d03d 7cb8 49bd
00000100: db32 33be 2f8b 9bbd c41e ecbd 969c eebd
00000110: aa67 cebb 42d9 89bd 2311 b1bc cf21 da3c
00000120: 4f22 873d 672b 1dbc 33f1 e13d 1e82 dabd
00000130: 89a0 5fbe 3f56 c63d 4e0d 9f3d d6b5 953d
00000140: 132c a63d ed1b e43d 93f3 0f3e a1e9 22bd
00000150: 3421 bfbd 0f65 933d f9fe 21be 5730 603b
00000160: 8653 85bd e5dc cfbd e65c 8d3b f128 9dbd
00000170: 802b 883d 7bf8 b4bd 0371 1b3d 4035 8cbd
00000180: 5381 4b3c ae46 08be 63ed e1bc c1f0 e5bc
00000190: 7c87 d8bc c6db b33d d9fa 673d a486 7e3d
000001a0: 0be1 30be c5cd cb3c 1f3d bfbd 0e2f 13bd
000001b0: a93a a0bc cece 24bd bb66 b3bd a892 1bbd
000001c0: d2c5 1b3e 20b1 b43c 27aa 28be c1b7 44bd
000001d0: 7351 98bd 738e 99bd a476 823d 9bcc 3e3d
000001e0: 985c 54bc 43b7 26bb 294f f13d 51e4 f8bd
000001f0: c314 823e 159b 72bd 6685 44be 6afe 2dbc
00000200: 128c c23b cb6d f5bd 35d8 f23b f612 cabd
00000210: 1382 213e c537 9ebd a788 bb3c acc0 443e
00000220: bb3f bcbd 334e 713d 1388 9ebd 600c 6dbd
00000230: cdc2 f7bd 14bb db3d 3cf4 063d 0949 0d3e
00000240: 18fa a3bd 8cbb 063d d7fa 0f3e 82bb 7b3d
00000250: af65 013e edc4 d0bd 930a 17be 8bd8 c4bd
00000260: 5fb1 ec3d 7199 a63d 69b0 fb3d ad6b babd
00000270: e090 c7bc aa26 563d 7133 6abd 4c23 8abd
00000280: a28d a13c 3ca5 0c3e 1148 2c3d b445 fbbd
00000290: 1f8b 9f3b 412f 223c 29fa e83c fd7b 47bd
000002a0: f4c9 debd ad27 c03d f922 063e a966 3fbd
000002b0: dac6 943d 8d01 b03d dfea d83d c540 883b
000002c0: d832 00bd 8fb5 dcbd e950 adbd 6a1b e1bd
000002d0: 49df 86bd 01ab 1bbc 4618 a0bd d2cf 373d
000002e0: d7b2 b1bd 1cb4 013d c966 24bd 7df3 f2bd
000002f0: 2fc6 c6bd 5367 cf3d b4f6 84bb 9615 8bbd
00000300: c9a5 5c3d 8503 fe3d c772 283d f59e ba3b
00000310: 7cde 013e c244 2cbc 7964 903d 10d3 dfbd
00000320: 796b 143e 6d97 c0bd ed95 fabb acc9 56bd
00000330: a028 adbc ee9b 603d 3b7b 56bc 57ab 1b3e
00000340: 4f39 ee3d fad0 1abc f3ec cc3c ccb3 17be
00000350: 3675 80bd a9c2 cb3d 095b f0bd 56e3 153e
00000360: 9f09 353d 1c7c 323d b225 d3bd e156 ae3c
00000370: 212a 03be b096 ad3d 0336 273d aaed ad3d
00000380: 16a6 1fbc ad99 27be ec98 86bd fc05 723c
00000390: 25a8 0c3e dc3b aa3c bc21 0c3d 57d7 25be
000003a0: c888 ac3d caf2 7ebd dce5 23be 0b73 8e3d
000003b0: e49f a6bd c4f4 ba3d 6e09 08bd ae46 d23d
000003c0: 3b14 a83d 9f6f 093e 745a 0abe 7a4d 3f3e
000003d0: 7cfe 12bc d864 2f3e 23d7 993d aeb6 adbb
000003e0: 8e1e 88bd 2b92 b0bc 742c 203e 555e 0f3c
000003f0: 6463 043c 6f99 fa3a 453b ba3d 7928 903d

lstm.weight_hh_l1 f4 [200, 50]
-0.10352841 0.006442099 -0.017134238 -0.034200072 -0.030940985 0.09395153 0.051420826 -0.12101643
-0.18874975 -0.08965567 0.12108476 -0.13409424 0.06933472 0.0835256 -0.055749364 0.15194958
0.050444543 0.049061414 0.013904524 -0.08313505 -0.0263184 -0.068869196 -0.108053505 0.038963255
0.06314749 0.032783967 -0.09715759 -0.09013227 0.03024989 -0.102003194 -0.032290682 0.022841286
-0.0064884927 0.10830773 -0.10550727 0.14069931 0.09232994 0.04884194 0.1328859 0.016510773
-0.120821655 0.1037927 -0.024056751 0.04187722 -0.059253175 0.09232871 0.16424991 0.0847971
0.076547384 0.061726097 -0.11246021 -0.03361643 0.121344104 0.08540218 0.011844402 0.044530638
0.03909265 -0.08466447 0.072895154 0.07515033 0.10202854 0.09066455 0.011970054 -0.015504142
0.13325205 -0.03437207 -0.06251484 -0.02281732 -0.0022880207 -0.071501575 -0.04768897 -0.12526812
0.0850302 0.08656849 -0.01592185 0.08790626 0.09062351 -0.07550941 -0.10938891 0.03805905
-0.08982605 -0.09900645 -0.010377173 0.09145334 -0.050205324 0.057819746 -0.026351588 -0.12978
-0.07453055 0.1212863 -0.042224072 0.025982728 0.04314846 0.011118095 0.005936595 0.061043862
0.05072607 -0.0077905515 -0.011076051 -0.023241956 0.10395031 0.023602568 -0.06742057 0.015124159
-0.097136535 0.059272315 0.14995208 -0.07267353 -0.030598702 0.10507768 0.10297392 -0.1445211
0.037829906 0.014271002 0.13739558 -0.020015744 -0.00424243 0.105749674 -0.081606746 -0.07011987
-0.0043783244 -0.08027667 0.02343411 -0.017087305 0.027389 -0.02442576 0.13875593 0.122610025
-0.091052815 -0.070053786 -0.0044977874 0.124257766 0.10819748 -0.060858075 -0.07349348 0.118325144
-0.08681528 -0.09445948 0.04867939 -0.11773046 -0.08645698 0.12807362 -0.14352356 -0.11381355
0.05702344 0.01676152 -0.08971321 0.10021496 0.05928522 0.12543179 -0.020786062 -0.0053484216
0.117246404 -0.09550512 0.016963756 -0.13653833 -0.14960305 0.044136595 -0.016069261 -0.0060964013
-0.106596105 0.06340072 -0.011752361 0.07916343 0.091521665 -0.013977557 -0.116660506 0.0121180825
0.0931336 0.009935813 0.036411952 -0.06273906 -0.08192291 -0.06385372 0.14570154 -0.018781396
0.07778465 0.011350377 0.084360495 0.019838814 -0.0094781695 0.037163995 -0.019131241 -0.15290153
-0.029118953 -0.08200398 -0.012568574 0.045914844 -0.045278948 -0.09566137 0.024271632 -0.06690114
0.08350478 0.083448045 -0.049111843 -0.13404302 0.15369579 -0.13328522 -0.06983088 -0.08189444
0.023978487 0.079804495 -0.0032997997 0.0072287074 -0.025819091 0.058313195 -0.03474302 0.043068513
0.10991384 -0.091189876 0.16318537 -0.004669536 -0.07800494 -0.034856945 -0.05712424 0.1278293
0.041166473 -0.1671497 0.00095844216 0.10339717 0.051037136 -0.032569036 -0.14859878 0.054802194
0.06836766 0.087462604 0.014684359 -0.10408455 -0.068055324 0.081986494 -0.04677501 -0.0700396
0.15599407 0.05887682 -0.1007455 0.13825089 0.11244593 -0.026037395 0.015521364 -0.02998801
-0.05233948 0.13040246 -0.10102547 0.056832768 -0.10923932 0.0463711 -0.123310044 -0.04321837
0.07585386 0.1457694 -0.101535484 -0.015234024 0.082353406 0.111535504 -0.02542373 0.051041547
00000000: b406 d4bd 3e18 d33b 1a5d 8cbc 6015 0cbd
00000010: f377 fdbc a969 c03d a59e 523d 76d7 f7bd
00000020: 9d47 41be 649d b7bd 49fb f73d 0050 09be
00000030: 5dff 8d3d 780f ab3d 7259 64bd ac98 1b3e
00000040: f09e 4e3d 9ff4 483d cdcf 633c b642 aabd
00000050: af99 d7bc 4b0b 8dbd 284b ddbd ef97 1f3d
00000060: 7953 813d 7b48 063d 8ffa c6bd 4497 b8bd
00000070: 9ece f73c 0de7 d0bd 3c43 04bd a61d bb3c
00000080: 6c9d d4bb 71d0 dd3d 3214 d8bd 7b13 103e
00000090: 7b17 bd3d 7c0e 483d 3e13 083e 9a41 873c
000000a0: 5871 f7bd 4491 d43d aa12 c5bc 7387 2b3d
000000b0: 75b3 72bd d616 bd3d 2131 283e 1aaa ad3d
000000c0: e0c4 9c3d 81d4 7c3d 8a51 e6bd 62b1 09bd
000000d0: 4283 f83d 57e7 ae3d 060f 423c c265 363d
000000e0: 9d1f 203d 9164 adbd 0e4a 953d 6be8 993d
000000f0: 57f4 d03d 56ae b93d 0c1e 443c 1605 7ebc
00000100: 3a73 083e bac9 0cbd c807 80bd 63eb babc
00000110: 9ef2 15bb 6b6f 92bd 8255 43bd 4946 00be
00000120: 5024 ae3d d24a b13d 8a6e 82bc 3208 b43d
00000130: d298 b93d ada4 9abd 4b07 e0bd cee3 1b3d
00000140: b8f6 b7bd e5c3 cabd 0505 2abc e44b bb3d
00000150: 19a4 4dbd 66d4 6c3d 49df d7bc 0ce5 04be
00000160: 79a3 98bd f464 f83d 26f3 2cbd bbd9 d43c
00000170: 71bc 303d ac28 363c c587 c23b 2109 7a3d
00000180: 24c6 4f3d e247 ffbb 5378 35bc ea65 bebc
00000190: e6e3 d43d 2c5a c13c cc13 8abd 52cb 773c
000001a0: 85ef c6bd 87c7 723d 0a8d 193e dcd5 94bd
000001b0: 21aa fabc f732 d73d fee3 d23d 57fd 13be
000001c0: 88f3 1a3d ecd0 693c 6db1 0c3e 0ff8 a3bc
000001d0: 1504 8bbb 4993 d83d 7021 a7bd 029b 8fbd
000001e0: 0c78 8fbb 1868 a4bd e4f8 bf3c adfa 8bbc
000001f0: e55e e03c 8818 c8bc 0916 0e3e f71a fb3d
00000200: e679 babd 5c78 8fbd 2d62 93bb db7a fe3d
00000210: a496 dd3d 5146 79bd c083 96bd 7454 f23d
00000220: 36cc b1bd f973 c1bd 0a64 473d ab1c f1bd
00000230: 5b10 b1bd bb25 033e d7f7 12be 1417 e9bd
00000240: 6991 693d 754f 893c 8fbb b7bd 803d cd3d
00000250: 0fd5 723d 3171 003e 8847 aabc d041 afbb
00000260: e21e f03d 3098 c3bd 93f7 8a3c b4d0 0bbe
00000270: 8b31 19be 93c8 343d afa3 83bc 52c4 c7bb
00000280: 0f4f dabd 3dd8 813d fa8c 40bc 7020 a23d
00000290: b66f bb3d 2002 65bc b4eb eebd ec8a 463c
000002a0: d4bc be3d d2c9 223c b324 153d 567d 80bd
000002b0: 33c7 a7bd bdc5 82bd c932 153e 71db 99bc
000002c0: 8f4d 9f3d eff6 393c 32c5 ac3d 0285 a23c
000002d0: 534a 1bbc 4639 183d 1fb9 9cbc 3892 1cbe
000002e0: df8a eebc b4f1 a7bd 6cec 4dbc 3411 3c3d
000002f0: 6b76 39bd 1cea c3bd 4dd5 c63c 7703 89bd
00000300: 8e04 ab3d cfe6 aa3d 8029 49bd 9342 09be
00000310: 6e62 1d3e ec7b 08be 7e03 8fbd 46b8 a7bd
00000320: 886e c43c 8a70 a33d 7441 58bb cbde ec3b
00000330: 8f82 d3bc d1d9 6e3d b24e 0ebd 9c68 303d
00000340: 821a e13d c2c1 babd 111a 273e e802 99bb
00000350: 0ec1 9fbd 28c6 0ebd 1bfb 69bd afe5 023e
00000360: 2d9e 283d 4a29 2bbe f73f 7b3a e5c1 d33d
00000370: 510c 513d 1c67 05bd 472a 18be 4478 603d
00000380: 5804 8c3d 981f b33d aa96 703c 482a d5bd
00000390: 9760 8bbd 89e8 a73d 2797 3fbd ec70 8fbd
000003a0: e9bc 1f3e d228 713d a853 cebd a491 0d3e
000003b0: 0d4a e63d 604c d5bc 524d 7e3c 6aa9 f5bc
000003c0: ec61 56bd 3988 053e 71e6 cebd 7ac9 683d
000003d0: ddb8 dfbd 9fef 3d3d fa89 fcbd bf05 31bd
000003e0: 4559 9b3d 9344 153e d6f1 cfbd 2198 79bc
000003f0: e7a8 a83d ba6c e43d 6d45 d0bc f110 513d

lstm.bias_ih_l1 f4 [200]
-0.12213114 -0.11944682 -0.047296595 0.0071012867 0.07560724 0.1387587 0.0012365739 0.010590575
-0.14430217 -0.02643566 0.12907642 -0.026030427 0.13101631 0.008459286 -0.13605775 0.048797317
0.08964864 -0.118520595 -0.06562787 0.11232597 -0.025745416 0.062071186 -0.12311248 -0.001195576
0.076180905 0.14440013 0.059033684 -0.013448907 0.042042136 0.13892223 -0.09728996 0.045631472
-0.047766324 0.047363706 0.12264757 0.055531263 0.041295763 0.048827693 0.079867765 -0.144524
0.08291936 -0.010506804 -0.08103456 0.011499996 -0.06544912 -0.025172766 0.1026212 0.040318873
-0.03556735 -0.094716966 -0.11342385 0.013846466 -0.04958372 -0.11044184 -0.10323568 0.09603994
0.023011351 -0.041252762 0.0029879466 -0.05330592 -0.06906427 0.07404005 -0.08722931 0.11292937
-0.001594254 0.033576123 0.11182229 0.004497682 -0.0036360933 -0.0002931258 -0.019830618 0.14372474
-0.100607485 -0.010506509 0.06709136 -0.08998829 0.07892195 0.065817915 0.13651483 -0.04646748
0.10079101 0.057247568 0.1235388 0.09561367 0.1422258 -0.07353995 -0.10777011 0.028403988
0.068527356 0.07527261 -0.0777037 -0.059664037 -0.034043413 -0.0070827957 -0.06539293 0.041233618
-0.01921182 -0.073408306 0.088135056 0.030475322 0.034007914 0.04598852 0.08642005 0.11695042
0.1444607 0.04994924 0.09730943 -0.06764674 -0.011293559 0.049906343 0.14361581 -0.09384149
-0.07775537 0.07975619 0.10634547 -0.08110428 -0.10870861 -0.09359008 -0.060824774 -0.034321405
0.03557244 0.10291927 0.0791404 0.111556426 -0.07774728 -0.07355755 0.039098136 0.006463304
-0.09507013 -0.10405453 0.06462872 0.06341538 0.12943701 0.10499232 -0.06620399 -0.09429366
-0.076000355 -0.010528268 7.107443e-05 0.037186358 -0.08179378 -0.10497121 -0.07626821 -0.031347316
-0.09095055 0.07738538 -0.082870506 0.11999851 -0.08387317 0.14768195 0.13289157 -0.0790242
0.0063652107 0.0610786 -0.070811644 -0.09253129 0.099978745 -0.037963998 -0.120949395 0.031073362
-0.112672344 0.12794986 0.09073509 -0.062085167 0.011747443 0.01817292 -0.13099292 -0.038334068
-0.111514404 0.017002981 -0.04968293 0.12648909 0.113501266 -0.008964073 0.11013329 0.0175957
0.11832275 -0.09886936 0.0119089605 -0.032009315 -0.071448945 -0.029565359 0.009990397 0.095474124
0.107731864 0.099647164 -0.0016594444 0.05326781 0.10752804 -0.025020607 0.019329323 -0.13767609
0.13045184 0.0034995126 0.09221059 -0.12344491 0.13033724 -0.06146348 0.071266316 -0.020320669
00000000: e41f fabd 89a0 f4bd 13ba 41bd e9b1 e83b
00000010: f8d7 9a3d c316 0e3e 8914 a23a 1784 2d3c
00000020: f3c3 13be 998f d8bc 9c2c 043e c33d d5bc
00000030: 2429 063e d198 0a3c b952 0bbe b2df 473d
00000040: b599 b73d edba f2bd e867 86bd 280b e63d
00000050: 0de8 d2bc 5b3e 7e3d 6522 fcbd e0b4 9cba
00000060: bc04 9c3d a1dd 133e 4ecd 713d ce58 5cbc
00000070: 6034 2c3d a141 0e3e f53f c7bd 11e8 3a3d
00000080: 9fa6 43bd 7200 423d a62e fb3d c074 633d
00000090: bf25 293d 8cff 473d b691 a33d 19fe 13be
000000a0: a0d1 a93d bb24 2cbc 73f5 a5bd 7b6a 3c3c
000000b0: 300a 86bd 1e37 cebc 102b d23d 6725 253d
000000c0: 12af 11bd f8fa c1bd c34a e8bd 4adc 623c
000000d0: 4c18 4bbd 552f e2bd 3a6d d3bd 97b0 c43d
000000e0: 4d82 bc3c a8f8 28bd 6dd1 433b 4f57 5abd
000000f0: 9171 8dbd 4fa2 973d 48a5 b2bd 8347 e73d
00000100: 4af6 d0ba 1e87 093d 1603 e53d 4b61 933b
00000110: 864b 6ebb aeae 99b9 d273 a2bc 942c 133e
00000120: 4c0b cebd 7e23 2cbc 3267 893d c84b b8bd
00000130: d5a1 a13d 8bcb 863d 8bca 0b3e af54 3ebd
00000140: 846b ce3d 6d7c 6a3d e901 fd3d 1ad1 c33d
00000150: a4a3 113e 1d9c 96bd 93b6 dcbd 7baf e83c
00000160: 1258 8c3d 8728 9a3d 1e23 9fbd 4762 74bd
00000170: 1b71 0bbd cc16 e8bb baec 85bd 95e4 283d
00000180: 1b62 9dbc 1857 96bd 2780 b43d 62a7 f93c
00000190: e24b 0b3d 755e 3c3d fffc b03d b483 ef3d
000001a0: 81ed 133e 9397 4c3d 2b4a c73d 608a 8abd
000001b0: 9f08 39bc 986a 4c3d 0610 133e f82f c0bd
000001c0: 353e 9fbd 3757 a33d a7cb d93d 001a a6bd
000001d0: 9fa2 debd 28ac bfbd 6623 79bd 9a94 0cbd
000001e0: 68b4 113d 57c7 d23d 5d14 a23d b277 e43d
000001f0: f739 9fbd 57a5 96bd 5e25 203d 20ca d33b
00000200: 21b4 c2bd 8b1a d5bd 105c 843d ecdf 813d
00000210: 238b 043e 3706 d73d f595 87bd 091d c1bd
00000220: 13a6 9bbd c27e 2cbc cb0d 9538 b950 183d
00000230: 7f83 a7bd 25fb d6bd 8232 9cbd 0b66 00bd
00000240: 4844 babd 3a7c 9e3d 03b8 a9bd c7c1 f53d
00000250: b2c5 abbd f039 173e ba14 083e 71d7 a1bd
00000260: 4293 d03b 8e2d 7a3d b205 91bd 0c81 bdbd
00000270: a8c1 cc3d 2380 1bbd 51b4 f7bd 908d fe3c
00000280: c2c0 e6bd 4a05 033e 52d3 b93d 044d 7ebd
00000290: 5978 403c 60df 943c 0223 06be 2f04 1dbd
000002a0: aa61 e4bd d649 8b3c 5480 4bbd 5b86 013e
000002b0: 5a73 e83d 0cde 12bc 908d e13d dc24 903c
000002c0: 3353 f23d 057c cabd cd1d 433c 331c 03bd
000002d0: d353 92bd 0d33 f2bc c3ae 233c f087 c33d
000002e0: 86a2 dc3d d013 cc3d b781 d9ba 592f 5a3d
000002f0: a937 dc3d 04f8 ccbc 8758 9e3c f6fa 0cbe
00000300: 2b95 053e 1458 653b e8d8 bc3d afd0 fcbd
00000310: 2077 053e 21c1 7bbd 13f4 913d 8877 a6bc

lstm.bias_hh_l1 f4 [200]
0.112483904 0.06011455 -0.08571441 0.067180105 0.13197613 0.06920282 0.027163772 -0.07329501
0.00019252607 0.025452705 -0.03765194 0.0535459 0.011796597 -0.038095266 -0.08465063 -0.08625656
-0.084509976 0.010610029 0.117620185 0.0013834967 0.11951651 -0.028207358 -0.027832208 -0.12903075
0.067800194 -0.056563996 0.12652309 -0.14542401 -0.11135364 0.13339059 0.027688026 0.18509308
-0.009145949 0.09363481 -0.09871434 0.10375865 0.047150757 -0.090952665 -0.018328667 -0.016269682
-0.049247116 0.027869042 -0.00888846 -0.0967008 0.06913188 0.02346633 -0.14581147 -0.07308406
-0.07948837 0.02422605 -0.14103365 0.084689766 0.078546524 -0.09469742 -0.056569252 -0.08548664
-0.074930206 -0.0028455486 0.09440417 -0.026383178 0.13787094 0.08387555 0.15440074 -0.05690381
0.064602725 -0.11409926 -0.087086804 0.0035397406 0.08728977 0.03993803 0.080586635 -0.11240876
0.12547821 0.09199457 0.11447852 -0.072695576 0.007847158 -0.010376522 0.017719503 0.029417587
0.08114903 0.028211962 -0.016248344 0.004167074 0.039852805 -0.027565278 -0.057749882 -0.06039217
0.12620823 -0.12399623 0.12067438 0.12340819 -0.0772586 0.09659346 0.031234317 -0.032122057
0.030682305 -0.06701347 -0.035771694 0.13077132 -0.018331662 0.100313924 0.019815762 0.0457546
-0.03721448 0.04217663 0.095636986 -0.008657618 -0.010288966 -0.036278345 -0.092843235 -0.006867826
0.08844662 -0.117793314 -0.023643963 -0.027466908 -0.051643647 -0.06605274 -0.08866777 -0.03581384
-0.14072567 -0.099524885 -0.09247324 -0.0658647 0.069866896 0.12692773 0.07095874 0.10750563
-0.11208097 0.06627097 0.06174656 -0.016493963 0.05518151 -0.072317 0.03368109 -0.048682153
0.091479026 0.10744034 0.14721578 0.12005202 0.07090864 0.00961249 0.0044068177 0.009002582
-0.047989357 -0.024098191 -0.04127927 0.057624992 -0.10697512 -0.07910379 -0.13719676 -0.0060183425
-0.024924496 0.00080468366 0.037980355 -0.11785227 0.14549012 -0.08496592 -0.020441636 0.15798439
0.08712372 0.15611894 0.19301943 0.04412988 -0.12660728 -0.0941588 -0.05136159 0.077673584
-0.1073637 0.16243643 -0.09681019 0.08112883 -0.0074294936 -0.01614652 0.024193898 -0.027159845
0.003459468 -0.054094076 -0.040760193 -0.035061304 -0.11406361 0.0028998062 0.048959073 -0.10911086
0.022328828 0.055721115 -0.10762083 0.0131308865 -0.05235613 0.08219491 -0.014407566 -0.0040657357
0.027576152 0.05007188 -0.14688303 0.044838157 0.029946245 0.02436076 0.005441375 0.035077177
00000000: f65d e63d ad3a 763d 098b afbd b995 893d
00000010: c024 073e 35ba 8d3d 8f86 de3c b21b 96bd
00000020: d3e0 4939 3182 d03c ec38 1abd f252 5b3d
00000030: 8446 413c c809 1cbd 4f5d adbd 48a7 b0bd
00000040: 9113 adbd b0d5 2d3c dae2 f03d 7256 b53a
00000050: 12c5 f43d 1e13 e7bc 5f00 e4bc a320 04be
00000060: d4da 8a3d a6af 67bd 458f 013e 08ea 14be
00000070: 610d e4bd 8b97 083e 00d2 e23c 0a89 3d3e
00000080: e4d8 15bc 9bc3 bf3d be2a cabd 6a7f d43d
00000090: 2721 413d 6445 babd 0026 96bc ff47 85bc
000000a0: 58b7 49bd 9e4d e43c e7a0 11bc 120b c6bd
000000b0: 0495 8d3d 763c c03c 9a4f 15be 18ad 95bd
000000c0: ccca a2bd b675 c63c 206b 10be d471 ad3d
000000d0: 00dd a03d b9f0 c1bd 29b5 67bd 9f13 afbd
000000e0: 0275 99bd 627c 3abb f956 c13d 8921 d8bc
000000f0: 0a2e 0d3e f2c6 ab3d 3a1b 1e3e f813 69bd
00000100: 6f4e 843d dfac e9bd 915a b2bd fefa 673b
00000110: fbc4 b23d 0f96 233d 9b0a a53d 9036 e6bd
00000120: 5c7d 003e a667 bc3d b773 ea3d 6be1 94bd
00000130: 5e91 003c 4a02 2abc 7e28 913c 27fd f03c
00000140: 7631 a63d c61c e73c 3f1b 85bc f38b 883b
00000150: b23c 233d 94d0 e1bc 248b 6cbd c85d 77bd
00000160: bb3c 013e bcf1 fdbd 2124 f73d 6fbd fc3d
00000170: c239 9ebd cbd2 c53d 1cdf ff3c 6b92 03bd
00000180: 7559 fb3c 5c3e 89bd 5785 12bd ebe8 053e
00000190: 482c 96bc 6371 cd3d aa54 a23c 2d69 3b3d
000001a0: 366e 18bd 67c1 2c3d 53dd c33d afd8 0dbc
000001b0: 0d93 28bc 9a98 14bd 9824 bebd 800b e1bb
000001c0: 8023 b53d 9f3d f1bd fcb0 c1bc 4802 e1bc
000001d0: 4a88 53bd a946 87bd 7397 b5bd 88b1 12bd
000001e0: 641a 10be b4d3 cbbd 9c62 bdbd 12e4 86bd
000001f0: 6016 8f3d 58f9 013e d152 913d e92b dc3d
00000200: b58a e5bd 13b9 873d f6e9 7c3d 591e 87bc
00000210: 0206 623d ef1a 94bd 2ff5 093d f066 47bd
00000220: 5b59 bb3d ae09 dc3d bcbf 163e d5dd f53d
00000230: 8d38 913d b57d 1d3c 1167 903b 917f 133c
00000240: 7d90 44bd 9269 c5bc 7414 29bd 2f08 6c3d
00000250: c615 dbbd 2b01 a2bd 4f7d 0cbe 8435 c5bb
00000260: 752e ccbc 68f1 523a 4a91 1b3d 885c f1bd
00000270: 5dfb 143e 9d02 aebd 3875 a7bc a9c6 213e
00000280: ec6d b23d a5dd 1f3e e3a6 453e 88c1 343d
00000290: 57a5 01be 54d6 c0bd 8860 52bd 5413 9f3d
000002a0: 80e1 dbbd bc55 263e 6c44 c6bd df26 a63d
000002b0: 1c73 f3bb b545 84bc 4832 c63c 537e debc
000002c0: 3eb8 623b c091 5dbd 29f4 26bd 719c 0fbd
000002d0: 2f9a e9bd ad0a 3e3b 4f89 483d 8475 dfbd
000002e0: f2ea b63c d33b 643d 4f68 dcbd ee22 573c
000002f0: 6273 56bd ce55 a83d b60d 6cbc dd39 85bb
00000300: 62e7 e13c 2c18 4d3d 8168 16be 37a8 373d
00000310: d451 f53c 3790 c73c 904d b23b 16ad 0f3d

fc.weight f4 [1, 50]
0.080605246 0.03103341 0.1321425 -0.12341529 0.14435738 0.015059104 0.13546996 -0.14433049
-0.09624052 0.122508615 0.124136046 -0.10256399 0.12909281 0.01858368 -0.055572487 0.123027936
0.047916394 -0.1414388 -0.068957075 0.062749505 -0.14427117 -0.14458987 -0.024256116 0.02905555
0.051066402 0.06462467 0.13786305 -0.016343508 -0.04913413 0.10791147 -0.099321425 0.088807985
0.12024455 0.02990499 -0.09059051 0.0053021717 0.065860674 -0.13696454 0.11756083 -0.08518487
0.08665258 0.058698066 -0.13838431 -0.13326883 0.08113934 -0.046183426 0.13311452 -0.004907028
0.008130863 0.010922958
00000000: 5d14 a53d c739 fe3c 5d50 073e 28c1 fcbd
00000010: 6cd2 133e 76ba 763c a3b8 0a3e 5fcb 13be
00000020: c019 c5bd cce5 fa3d 0a3b fe3d 120d d2bd
00000030: e830 043e cd3c 983c fa9f 63bd 12f6 fb3d
00000040: fb43 443d 55d5 10be 5e39 8dbd d082 803d
00000050: d2bb 13be 5e0f 14be c3b4 c6bc e805 ee3c
00000060: 012b 513d f059 843d f92b 0d3e d2e2 85bc
00000070: df40 49bd b000 dd3d 0869 cbbd f6e0 b53d
00000080: c642 f63d 4ffb f43c 8487 b9bd d7bd ad3b
00000090: f6e1 863d 6f40 0cbe bcc3 f03d 6875 aebd
000000a0: e876 b13d 626d 703d 9eb4 0dbe a077 08be
000000b0: 622c a63d d52a 3dbd 2c4f 083e 22cb a0bb
000000c0: 5037 053c 35f6 323c
