models/lstm_model_5m.pt (torch, 127756 bytes, 9 tensors)

lstm.weight_ih_l0 f4 [200, 1]
000000 67 2c 87 bd e1 e6 30 3d 25 a9 0a be 3c 4b 1a 3d
       -0.06600266 0.043188933 -0.13541086 0.037669405
000010 17 7c 1a 3e 13 a3 42 3e 5a c4 83 3d 42 b0 9c 3d
       0.15086399 0.1900752 0.064339355 0.07650806
000020 c8 4b 07 3d 04 ff 8c 3d 78 e9 86 3d c4 70 a2 3d
       0.033031255 0.06884578 0.065874994 0.079316646
000030 c0 ea 21 bd 96 1a 29 bd 26 f4 25 3e 31 3a 02 be
       -0.039530516 -0.04128512 0.16206416 -0.12717511
000040 8d e6 8e bc 82 2f 8f 3d 18 07 db 3d 4c 34 b4 3d
       -0.01744392 0.06991483 0.106947124 0.08799037
000050 84 cc b4 3d 98 45 67 bd c5 77 22 3d 7b 9d a3 bd
       0.08828071 -0.056462854 0.039665002 -0.079890214
000060 a7 36 8b bd 37 4f cb bd ec 93 26 3d e8 db d6 3d
       -0.067975335 -0.099272184 0.040668413 0.104911625
000070 65 e3 95 bd c8 81 93 bd 9e b7 4e bc 9d 13 bf 3d
       -0.07318763 -0.07202488 -0.01261702 0.09329913
000080 4a ca 5c bd 63 8d 0c 3e 76 4b 5d bd 30 f7 8a 3d
       -0.053903855 0.1372581 -0.054027043 0.067854285
000090 d1 3a 23 3e 14 b5 8e 3d c7 17 f0 bd 35 a7 c5 bb
       0.15940405 0.06968132 -0.11723285 -0.0060318955
0000a0 50 09 22 3e 2a 08 cf 3d e2 7c b1 bd 62 dd 2e bc
       0.15823865 0.10108979 -0.08666398 -0.010672899
0000b0 0f 14 8d bc c8 97 b5 3d 8d 44 18 bd a7 d3 1d 3e
       -0.017221479 0.088668406 -0.03717475 0.1541277
0000c0 4f da 4d 3e c4 76 37 bd d1 67 e8 bc a2 1f 0a 3e
       0.2010281 -0.044790998 -0.028369816 0.1348863
0000d0 8c 87 cc 3c fb 94 07 bd c8 95 1f 3e d7 4c a8 bc
       0.024966978 -0.033101063 0.15584481 -0.020544453
0000e0 6b 4f 2b 3e a1 e6 29 bd 17 5b dc bd 6c f2 b3 3c
       0.16729514 -0.04147971 -0.107595615 0.021966182
0000f0 04 f2 2f 3d 7d 2f 6b 3c 64 e1 ca 3d f3 a1 9e 3d
       0.042955413 0.014354584 0.09906271 0.07745733
000100 05 27 ba 3d b0 28 a4 3d 3c 04 b4 bd 3e aa ac 3d
       0.09089474 0.08015573 -0.0878987 0.084309086
000110 f1 fa eb bd d4 0d ab bd 70 50 13 bc 63 33 31 3d
       -0.11522473 -0.08352247 -0.008991346 0.043261897
000120 f8 6b 12 3d c6 e6 d0 bd d2 1d 4d 3d cd 61 ac 3d
       0.0357475 -0.102002665 0.050077267 0.084170915
000130 dd a2 26 3d af c0 40 3e e5 cb a7 3d fd a9 01 3e
       0.040682662 0.18823503 0.08193187 0.12662502
000140 b0 0d 29 3e 2b 92 1e 3d 16 fa a2 bc dd 8b 0c 3e
       0.16509128 0.038713615 -0.01989464 0.13725229
000150 db d6 84 bd d0 da a5 bd d0 c0 02 3d 1b 8a ab bd
       -0.06486293 -0.08098376 0.03192216 -0.08375951
000160 b7 b6 fb bc ed 2a 5d bd 69 1f 45 3e 76 ce f6 bb
       -0.030726774 -0.053996015 0.19250263 -0.0075319363
000170 b1 1a 6b 3d 7f 33 53 bd 35 e7 23 3d ac 74 b2 bd
       0.0573985 -0.051562782 0.040015418 -0.0871366
000180 51 05 8e bc 45 62 de 3d 04 95 a2 3d ce 1c c6 bd
       -0.01733652 0.10858587 0.07938579 -0.09673463
000190 b8 10 1f 3e 22 8a da bd 55 19 2d be 39 f9 de bd
       0.15533721 -0.10670878 -0.16904195 -0.10887379
0001a0 9d f2 9a bd 48 13 84 bd 1f 95 da bd 5a 92 1f 3e
       -0.07565806 -0.0644899 -0.10672974 0.15583172
0001b0 b0 54 e0 bb c2 70 af 3d 0f 31 3f be 96 f6 02 be
       -0.006846033 0.08566429 -0.18671058 -0.12789378
0001c0 6d 91 ab 3d c0 b2 bd 3c 3a 96 fd 3d 28 c3 c2 3d
       0.08377347 0.023156524 0.12382169 0.09509879
0001d0 a9 f8 02 bc 83 df 3c 3e a1 4e 69 3d a1 c1 22 3e
       -0.0079938555 0.18444638 0.056959752 0.15894176
0001e0 e2 18 97 bd 7f 84 e3 3c c7 41 30 3d 5d 93 0e be
       -0.07377793 0.02777314 0.04303148 -0.13923402
0001f0 24 f2 3d 3e c6 fc 85 3d 23 cc 23 be 4a da b1 bd
       0.185494 0.06542353 -0.1599584 -0.086842135
000200 d4 8c 9e bd 7a ec 3c bd a5 16 3a 3e 3c 26 1a bd
       -0.077417046 -0.04612396 0.181727 -0.03763412
000210 d7 53 9e bd 6e 35 21 be 3e 62 c8 3d 3d 2f 0d 3e
       -0.07730835 -0.15743038 0.09784363 0.13787551
000220 d3 48 29 3e 0c 79 3f be cd 91 b7 bd 10 f9 3a 3e
       0.16531686 -0.1869852 -0.08963356 0.18259072
000230 6b 49 b0 bd dc fc a8 bd b8 e2 9e bd 7b 64 15 bd
       -0.08607753 -0.08251354 -0.07758087 -0.03647278
000240 8a 3f 1b be ed 1d 2f be 93 69 9d 3d 36 e0 12 be
       -0.15160957 -0.1710126 0.07686152 -0.14343342
000250 79 56 46 3e ef 98 cd 3c 09 02 64 3d 4c 9d c1 bd
       0.19368924 0.025097338 0.055666003 -0.0945383
000260 11 38 e4 3b 2f 2e 00 be a5 8f 3c bc 84 9b be 3d
       0.0069646914 -0.12517618 -0.011508857 0.09307006
000270 27 33 f5 3d d9 3d 16 3e f4 e4 9e bc 4f a7 14 3e
       0.11972647 0.1467203 -0.019396283 0.14516948
000280 df ab 1a 3e 0d 76 49 bd 4d 6d 84 3c 77 0d 6c 3c
       0.15104626 -0.049184848 0.0161654 0.014407507
000290 55 e5 6f 3d 71 a5 0d 3d 06 23 fa 3d 99 3c 7d bd
       0.058568317 0.034581605 0.122137114 -0.06182537
0002a0 30 3e 9c bd d3 ff a8 3d 0c 44 17 bc 34 3f eb 3b
       -0.07629049 0.082519196 -0.009232532 0.0071791653
0002b0 cb 93 07 39 a2 08 fa 3d ad 06 3f bb 8f 82 6a 3c
       0.0001292966 0.12208678 -0.0029148266 0.014313354
0002c0 36 01 ad bd bb a8 a3 3d 84 07 a1 bd d2 a7 f0 bc
       -0.084474966 0.07991167 -0.078627616 -0.029376898
0002d0 76 38 82 3c 84 e1 37 3b 00 0f 5d bd da fe 0d 3c
       0.015896063 0.0028058002 -0.053969383 0.008666718
0002e0 d4 cc 18 3e 51 49 38 3e eb da 80 bd f7 2e 16 3e
       0.14921886 0.17996718 -0.06291755 0.14666353
0002f0 b5 3d 75 3d 95 da c4 3d 79 3d a7 3d fc cd 60 bd
       0.0598733 0.09612004 0.08166022 -0.054883942
000300 ba 84 14 be 5d 19 62 3d 63 62 5e 3d 4a 91 a0 3d
       -0.14503756 0.05519997 0.054293048 0.07840212
000310 9f 59 22 3e 91 43 3a 3e 1a 0a 06 3b 9a 7c ff bc
       0.158545 0.18189837 0.0020452798 -0.031187344

lstm.weight_hh_l0 f4 [200, 50]
000000 56 49 4c be a5 d8 52 3e d5 2c 49 3e cf ed 52 3b
       -0.1994985 0.20590456 0.19646008 0.0032185202
000010 3f 7b f9 bd 64 6d 3d 3e fd be 05 be ff 52 cf bd
       -0.121817105 0.1849876 -0.13061137 -0.10123252
000020 42 65 46 3d 54 62 2f 3e 36 b4 a2 3b 7b d3 5f 3e
       0.04843641 0.17127353 0.0049653305 0.21858017
000030 82 c5 86 bd 6b e2 2d 3e 58 15 82 3d 8d 40 db bd
       -0.065806404 0.16980903 0.06351727 -0.107056715
000040 8b 9f 72 bd 61 be 94 3d 1f 65 82 3d 35 30 63 be
       -0.059234183 0.072628744 0.063669436 -0.22186358
000050 70 93 f6 bc 77 a0 c3 bd fb 9a 43 3e f5 0c 2f bd
       -0.0300996 -0.095520906 0.19102089 -0.042736966
000060 97 97 a0 bc 94 a4 54 bc 54 c9 03 bd e3 dd af bd
       -0.019603534 -0.012978692 -0.032174423 -0.085872434
000070 9d 46 c8 bd 92 e8 66 bd 13 64 e7 bb c4 17 46 be
       -0.097790934 -0.05637414 -0.0070614903 -0.19345003
000080 9e 29 05 3e 62 08 e6 bb d8 62 08 3d 34 a4 59 3d
       0.13004157 -0.0070200423 0.03329739 0.053135112
000090 81 56 16 3e c2 05 ac 3d 91 b3 21 3c a2 52 96 bc
       0.14681436 0.08399536 0.009869472 -0.01834995
0000a0 d5 62 6d bd e3 03 25 be 42 a1 32 3e 84 18 fb 3d
       -0.05795558 -0.16114764 0.17444327 0.12260535
0000b0 b9 3e 21 3e b2 93 c2 bd e4 95 a3 bd c1 1c 2d bb
       0.15746583 -0.09500827 -0.07987574 -0.0026414844
0000c0 c0 74 2c bc 4c 9d b8 3d ff 88 43 3d d1 e6 cc bd
       -0.010525882 0.09014377 0.04773807 -0.10004962
0000d0 29 06 25 bd c6 f8 ef 3b 3e 34 e5 3d d1 ac ac 3d
       -0.040289078 0.0073233573 0.11191605 0.084313996
0000e0 86 03 c9 3d 64 59 8b bd 3c f3 90 bd 70 02 fe 3d
       0.09815125 -0.06804159 -0.07077643 0.12402809
0000f0 9a 42 2f be 74 35 bd bd 1f 64 4d bd 09 3b 10 bd
       -0.1711525 -0.09238711 -0.05014431 -0.03521255
000100 d9 23 59 3d a0 a3 c4 3d ca 98 08 bd ad 78 9a bd
       0.053012703 0.096015215 -0.033348836 -0.07542548
000110 0b 33 f4 bd 04 58 c6 3d f2 6c c5 3b 7c a7 c8 bd
       -0.11923798 0.096847564 0.00602495 -0.0979757
000120 f1 21 f6 bd 5b 43 0e be 54 a4 48 3d 12 6a 51 3d
       -0.120181926 -0.13892882 0.04898484 0.051126547
000130 58 e6 de 3d 2f b7 7b bd dd bc 1f be 47 96 ec 3d
       0.10883778 -0.061453994 -0.1559939 0.11552101
000140 da b8 b9 bd f1 79 10 be 93 1d 93 bc 2a 5d 81 bd
       -0.09068461 -0.14109017 -0.017958438 -0.06316598
000150 be bc 62 bc dc 56 83 bd 92 fe ed 3d b3 e1 9b bd
       -0.013838945 -0.064130515 0.11620821 -0.07611408
000160 cc 12 60 3b 01 09 57 3d 7b b3 91 bb 38 1d 17 3d
       0.0034190891 0.05249882 -0.0044464446 0.0368931
000170 58 a8 bc 3d 80 26 f5 3c 0b f5 22 be fc a9 0a 3b
       0.092117965 0.029925585 -0.15913789 0.0021158447
000180 e7 5f 62 bd f2 af 95 3d 17 01 e2 bb 17 5c ac 3c
       -0.05526724 0.073089495 -0.0068971026 0.021040006
000190 d9 38 43 be 90 a0 1f 3e 9a 47 2a 3e a4 ae 14 3e
       -0.19064654 0.15588593 0.16628876 0.14519745
0001a0 04 e1 d4 bd 30 9c c8 3c d4 ab e1 bd 70 1d 16 3e
       -0.10394481 0.024488539 -0.11019102 0.14659667
0001b0 c1 33 9b 3d 8c e1 03 bc df a4 3b bd b4 a6 83 3d
       0.07578231 -0.00804938 -0.04581153 0.064282805
0001c0 23 f5 7b bd 6d b5 da bd e5 86 2b 3d b0 72 19 bb
       -0.061513077 -0.106791355 0.041876692 -0.0023414306
0001d0 ed b8 17 3d b3 69 e9 bb d3 62 1c bc 73 6b 8b bc
       0.037041593 -0.007123196 -0.009545046 -0.01701901
0001e0 8c fd 0b 3e d9 8a ba 3d 17 49 c1 bd 3c fb cf bd
       0.13670939 0.09108514 -0.09437769 -0.10155341
0001f0 24 76 0c 3e 51 29 87 bd 8f 5a 70 3c 9c f5 1f bc
       0.13716942 -0.06599677 0.014670028 -0.009763148
000200 b6 94 05 be 24 46 dc 3c 55 af 26 3d ef 22 3c 3d
       -0.1304501 0.026888914 0.040694553 0.045931753
000210 24 cf 27 be 41 5b f2 bd 1d fb 83 3d 27 46 d9 3d
       -0.16387612 -0.118338116 0.064443804 0.106090836
000220 21 a3 01 bd 7c 4b 97 3d 38 f4 a7 3b d0 1b b8 bd
       -0.031649712 0.073874444 0.0051255487 -0.0898968
000230 9b 81 d0 3d 68 0a 96 3d be e1 74 bd 17 30 97 bd
       0.1018097 0.073262036 -0.059785597 -0.07382219
000240 7f 20 ed 3d a6 7a c0 bd 9b 8b 9f bd e7 1a c9 bd
       0.11578464 -0.09398393 -0.077902995 -0.09819584
000250 3c 40 ed bd 9a 8d ca bc 8d 08 74 bd 16 8f 15 3e
       -0.11584517 -0.024725724 -0.059578467 0.14605364
000260 69 52 45 3e d2 a2 bb 3d a8 bb ef bd 89 29 a8 3d
       0.19269718 0.09161915 -0.117057145 0.08211047
000270 84 32 83 3d e3 8d 94 bd c2 d6 02 be 83 18 c0 3d
       0.064061195 -0.07253625 -0.12777236 0.09379675
000280 3f eb 1e bd 49 6d bc 3d cb f6 24 be 1f 47 58 3d
       -0.038798567 0.09200532 -0.16109769 0.0528022
000290 74 5c 7c bd 6d c4 1c be 29 29 0a 3e 0f c4 7a bc
       -0.061611608 -0.15309305 0.13492264 -0.015305533
0002a0 3c 73 f6 bd 0c 80 9e bd ee 0c 4b 3d 88 a4 80 3d
       -0.12033698 -0.07739267 0.049572878 0.06281382
0002b0 84 5a 81 bd 20 47 8a bd b7 c5 48 bd 00 e5 82 3d
       -0.063160926 -0.06751847 -0.04901668 0.063913345
0002c0 0c 00 06 3e 08 1e ea 3d 93 6f e8 3d fc 88 89 bd
       0.13085955 0.11431509 0.11349406 -0.06715581
0002d0 f0 86 13 be a7 6b 0c bd 09 9d 14 bd 76 b5 82 bd
       -0.14406943 -0.034282353 -0.036282573 -0.06382267
0002e0 fd 36 02 3e 1a 1f 11 3d 7e c9 49 ba d3 b2 7d bd
       0.12716289 0.03543005 -0.0007697566 -0.06193812
0002f0 f5 71 07 be 78 4c c0 bd 46 72 99 3d a0 98 dd 3d
       -0.13227065 -0.09389585 0.07492499 0.108201265
000300 47 29 92 3d cc 1e 78 bc 3c 6e 4a 3e c9 d3 b9 bc
       0.07136779 -0.015144061 0.19768614 -0.022683995
000310 4f c8 f4 bd 53 1c 03 be 7f 32 14 be 36 d0 82 3d
       -0.11952268 -0.12803774 -0.14472388 0.06387369
000320 d0 81 77 3c d2 f3 c5 3d f1 0f 2a 3d 2c 04 ac 3d
       0.015106633 0.09665646 0.04151911 0.08399233
000330 78 25 f4 3c 22 9f b2 3c b4 bb cc bd 44 53 22 3e
       0.029803023 0.021804396 -0.09996739 0.15852076
000340 9f f9 a1 3c f4 68 a5 3d ed a7 dc bc 86 21 87 bd
       0.019772349 0.08076659 -0.026935542 -0.06598191
000350 f2 43 f9 bd 74 87 d0 3d bf ab 7d 3d f2 d9 a8 bd
       -0.12171163 0.10182086 0.061931368 -0.08244695
000360 bd af f2 bd 8b 9d 98 bc 74 b2 d8 3d 08 05 6a 3d
       -0.11849926 -0.01862981 0.10580912 0.057133704
000370 41 c0 3a bd 29 16 af bd bd 18 7e 3d 07 ce 2e 3d
       -0.045593504 -0.085491486 0.06203531 0.04267695
000380 f5 a5 e9 bd d7 43 d1 bd 90 a2 f8 bd b9 9f 67 bd
       -0.11408607 -0.102180175 -0.12140381 -0.056548808
000390 33 01 a6 b9 54 ab fc 3d d2 f3 81 bc cf 72 51 bd
       -0.0003166288 0.12337366 -0.015863333 -0.05113488
0003a0 b7 2d 5e bd a6 27 f0 bd 69 96 8e 3d 2c c9 e9 3c
       -0.054242816 -0.11726312 0.06962282 0.028538309
0003b0 a1 e7 97 3d 57 2c cc bd 4b 7e 17 3a 60 ce f1 3d
       0.074172266 -0.09969395 0.0005779012 0.11806941
0003c0 f5 7c 0c be fa a9 0d be 53 ee ed 3c 6b d9 50 bd
       -0.13719542 -0.13834372 0.029044306 -0.050988596
0003d0 a3 55 ee 3d e4 56 bd bd 62 77 fc bc f8 57 8a bc
       0.11637428 -0.09245089 -0.030818645 -0.01688765
0003e0 86 5b fa 3d 64 61 c8 3d 8d a6 3a 3e fd 9b 29 3c
       0.12224488 0.09784201 0.18227597 0.010352132
0003f0 3a 87 71 3c 0c 2f 14 bd cd c0 ef 3d aa 71 04 3b
       0.014741713 -0.03617768 0.11706696 0.002020935

lstm.bias_ih_l0 f4 [200]
000000 19 2d bb bc 79 04 81 3d 32 6c 97 3d c1 3c cc bd
       -0.022848653 0.06299681 0.073936835 -0.099725254
000010 1c d5 bb 3c 83 7a 3d bd 88 1b 05 3e 89 61 40 3d
       0.022928767 -0.046259414 0.12998784 0.046968017
000020 f1 98 65 3d 0e 3d 01 be 5f 9e 52 3e 62 55 c0 3c
       0.05605406 -0.12620947 0.20568226 0.023478214
000030 57 b4 89 3d 68 5f f8 bb 1d 07 be 3d 9d 04 ca bd
       0.0672385 -0.0075797327 0.092787005 -0.09864161
000040 47 ae 41 3c cc e3 c7 3d e8 58 32 3a c7 9b 33 3e
       0.011821336 0.09760246 0.0006803409 0.17539893
000050 c6 ae 07 be b9 cb f4 bd 45 5f 6f 3d 5b b8 35 3d
       -0.13250265 -0.119529195 0.058440465 0.04436527
000060 1e 97 17 3e a6 c6 97 bd db d8 dd 3c e5 95 e6 3d
       0.1480374 -0.07410936 0.027080944 0.11259059
000070 b0 0f 03 bd 4a 7e cc 3d 53 7a 21 3b d8 74 6d bd
       -0.031997383 0.09985025 0.0024639561 -0.05797276
000080 42 e4 2a 3e 22 c0 05 be 90 26 0a 3e 92 bf 3b 3d
       0.16688636 -0.13061574 0.13491273 0.045836993
000090 69 24 e2 3c 3b 85 27 3e 4d d7 73 bd 73 47 e3 3d
       0.027605252 0.16359417 -0.0595315 0.11097612
0000a0 2f a3 22 3e 3e bc f8 bd d6 3d 2f bd e3 08 85 3d
       0.15882562 -0.12145279 -0.04278358 0.06495836
0000b0 76 7f 9a bc e1 e5 28 3e fc 25 ca bd 06 28 f1 bc
       -0.018859606 0.16493942 -0.09870526 -0.02943803
0000c0 fb 2a ac bb 89 e1 e5 3c ed d3 42 bb 55 d8 0b bb
       -0.005254147 0.028061645 -0.0029728368 -0.002133866
0000d0 5f 16 96 3d 61 c5 24 3d 7f 4a b4 bd 1e 2b c9 3c
       0.07328486 0.040227298 -0.088032715 0.024556693
0000e0 14 c6 e3 3d de 9c 4b 3a 46 27 13 be a6 7d 0e bd
       0.11121765 0.00077672105 -0.1437045 -0.034787796
0000f0 29 0c ad bd f9 d2 e7 bd c6 15 98 3d f6 6e 93 3c
       -0.08449585 -0.11319537 0.07426028 0.017997246
000100 18 c9 41 bd 48 da 0d be 0e d1 e0 ba 33 55 f5 3c
       -0.04731092 -0.13852799 -0.0017152147 0.029947853
000110 91 79 42 bc cb 4e 90 bc a1 c6 c0 3c 84 dd 80 3d
       -0.011869804 -0.017615696 0.023532214 0.06292251
000120 8e b8 f6 bd f2 d9 13 be 82 e0 24 3e 5c 33 11 be
       -0.1204692 -0.14438608 0.16101268 -0.14179748
000130 8f 37 94 3d f3 f8 0e bb 6b c9 5d 3c 18 28 b2 ba
       0.072371595 -0.0021815866 0.013536791 -0.0013592271
000140 36 c8 68 3d f5 77 05 be f9 66 4a 3d 39 7d 5b bc
       0.05683156 -0.13034041 0.04941461 -0.013396555
000150 c3 0a 33 3d 14 21 b3 bd 66 f6 81 3d 78 4e 9f 3d
       0.043711435 -0.087465435 0.06345825 0.077786386
000160 c5 62 87 bd 59 84 ea bc b0 9f f4 3c bd 16 27 3b
       -0.06610636 -0.028627561 0.029861301 0.002549573
000170 f5 61 0a be 1d 1e a2 bd e1 76 e9 bd cf 87 70 bd
       -0.1351393 -0.079159 -0.113996275 -0.058723267
000180 7a 86 4a 3d 60 b5 26 3e 08 26 fa 3d 6e 01 93 bd
       0.049444653 0.16280127 0.12214285 -0.07178007
000190 31 46 be 3b 72 c5 02 3e 09 73 ce 3c ca 5e 09 bd
       0.0058067073 0.12770632 0.025201337 -0.033537664
0001a0 0c 84 e6 3d b9 86 13 3e 63 ff c7 3a 48 5d 53 3d
       0.11255655 0.14406861 0.0015258606 0.05160263
0001b0 65 fb 07 3d f8 f3 0c 3e 31 00 bd 3d 1b 3f 1a 3d
       0.033198733 0.13764942 0.09228552 0.03765784
0001c0 f4 7b 6d bd 0a e7 39 3c cc 21 da 3c 58 d5 29 3c
       -0.05797954 0.011346588 0.026627444 0.0103658065
0001d0 cf 0e fb 3d ae 1d 85 3d f2 fd 85 3d a8 86 c5 bd
       0.12258684 0.064998016 0.06542577 -0.09644824
0001e0 af 73 e8 bd 94 53 01 be 6f b3 90 3d cd 69 03 bc
       -0.1135019 -0.12629539 0.07065474 -0.00802083
0001f0 35 3e ac 3c 3e d8 b0 3d 42 50 19 3d 6a 45 f2 bd
       0.021025756 0.08634995 0.037430055 -0.11829646
000200 79 73 77 3d be c4 cc 3a 56 68 10 3e 36 6f c7 bd
       0.060412858 0.0015622599 0.14102301 -0.09738009
000210 bf 0e b1 bc 82 bc b2 3c 6d 7d 98 3d 43 63 75 3d
       -0.021613477 0.021818403 0.07445798 0.059909116
000220 2e 37 27 3c 5c 58 40 bc a6 64 14 3d 49 9f 50 bd
       0.010206027 -0.0117398165 0.0362288 -0.050933156
000230 d8 de 99 bd aa b2 f8 bd 43 cf c8 3d 71 08 1f 3d
       -0.07513207 -0.121434525 0.09805157 0.03882641
000240 e7 2a 8a bd 7c 8f c1 bd 00 89 13 3c 9b dc cc bd
       -0.06746464 -0.094511956 0.009004831 -0.10003015
000250 a0 c4 cf 3d fc 61 3f bd f9 56 6d 3d fc e9 ae 3d
       0.10144925 -0.046724305 0.05794427 0.08540723
000260 61 b3 d7 3b 21 fc d3 bd a4 17 41 bd 05 1d ca 3d
       0.006582663 -0.10350824 -0.047141686 0.09868816
000270 7d 17 04 be aa 76 de 3d 2c 00 11 3e ba 84 f8 bd
       -0.12899585 0.10862477 0.14160222 -0.121346906
000280 72 06 17 3e 21 79 9f bd 0d be da bd 5d 4f 8c 3c
       0.14748552 -0.077867754 -0.106807806 0.017127687
000290 ed 70 8b bd f0 7f 16 bd 8b 52 9f 3d 38 d6 11 3e
       -0.06808648 -0.036743104 0.07779416 0.14241874
0002a0 39 f2 fb bc be 7f 2d 3e 57 03 83 bb c2 a3 08 be
       -0.03075515 0.16943261 -0.003998201 -0.13343719
0002b0 66 6e a5 bc ea ff e9 3c 86 e4 08 3e e5 51 76 bd
       -0.020194244 0.028564412 0.13368425 -0.060136694
0002c0 5d 76 ab 3d e4 b5 e9 3d 64 43 e0 3d ad 4d 01 be
       0.083721854 0.11411646 0.10950354 -0.12627287
0002d0 56 e3 4d 3c e7 ec 8b bd f3 26 0e 3e 7f 7c 73 bd
       0.012566408 -0.06832295 0.13882045 -0.0594449
0002e0 ee d2 41 3d be 22 b0 3d 65 39 8c bd 44 c0 7d bd
       0.0473203 0.086003765 -0.06846885 -0.061950937
0002f0 4f 9d af bd 26 9b 2f 3e 9f 6d 8e 3d 96 91 f1 3d
       -0.08574926 0.17149028 0.06954502 0.117953464
000300 af 43 50 3a 77 3b c7 bd d5 46 22 3e 00 96 9e 3d
       0.0007944656 -0.09728139 0.15847333 0.07743454
000310 29 fe 4c 3d 24 b3 e2 bd 86 d7 1b 3d 8e 5d 19 be
       0.050047074 -0.110693246 0.038047336 -0.14977095

lstm.bias_hh_l0 f4 [200]
000000 80 4d 3f 3e 7f 82 56 bb cc 1b 98 bd f4 b1 47 38
       0.18681908 -0.003273159 -0.07427177 4.761103e-05
000010 b2 75 06 be ba 3e 0c 3e ce 1b f3 bd fd 1c 04 3e
       -0.13130835 0.13695803 -0.11870538 0.12901683
000020 cc e6 72 3d d7 e1 e0 bc 07 2f b2 3d 27 68 b9 bd
       0.059302136 -0.027451439 0.08700376 -0.090530686
000030 83 c8 8b bd f7 ff 52 bd 6a bf bf bc 46 0f 18 3e
       -0.06825354 -0.05151364 -0.023406703 0.14849576
000040 39 54 6a bd 9f e4 0d bd 04 23 05 be f1 fa 37 3e
       -0.057209227 -0.03464186 -0.13001639 0.1796682
000050 19 c0 50 3d 4f 4c da bd cd 53 4d 3d f1 65 5c bd
       0.05096445 -0.10659086 0.050128747 -0.053808156
000060 e3 02 2e 3e d9 50 05 be 1f 58 6e bd a7 ea 20 3d
       0.16993289 -0.13019122 -0.058189508 0.039286282
000070 90 f8 02 3d 3d 59 98 bd ac f2 57 bd 45 9a c8 3d
       0.03197533 -0.07438896 -0.052721664 0.097950496
000080 14 45 96 3c 9a 53 ae 3c a0 c1 0f 3e dd b0 4c 3d
       0.018343486 0.021280099 0.14038706 0.049973357
000090 58 9c f7 3d 5c 86 8d 3c 15 82 2f 3d 2a c8 2f 3d
       0.12090367 0.017275982 0.042848665 0.0429155
0000a0 4e b0 eb 3d ce 2b 05 be 8c 6a 41 3d d0 26 e3 3c
       0.11508237 -0.13004991 0.04722075 0.027728468
0000b0 55 e9 20 3e 1a 5e 96 3d e8 20 0f 3e 8a bd d1 bd
       0.15714009 0.07342167 0.13977396 -0.1024123
0000c0 f2 a2 a7 3d d1 75 c7 3d 06 e9 00 3e df 76 95 3d
       0.08185376 0.097392686 0.12588891 0.072980635
0000d0 ee fe b3 bc 9d b6 c3 bd ee b1 47 bd 17 1e 27 bc
       -0.021972146 -0.09556315 -0.04875367 -0.010200045
0000e0 b6 60 09 3e 40 d8 15 3e eb 88 ec bb 34 2e fb bd
       0.13415799 0.14633274 -0.0072184703 -0.12264672
0000f0 c2 88 5c bd 94 98 3f bd 71 85 04 3e 99 25 0e be
       -0.05384136 -0.04677637 0.12941529 -0.1388153
000100 09 15 93 3d 24 5f 95 ba 13 7e 0f bd ce d0 60 bd
       0.071817465 -0.0011396152 -0.035032343 -0.05488663
000110 47 30 97 3d 62 7d a0 bd 92 55 dc bd 9c 73 8f 3b
       0.07382255 -0.07836415 -0.10758509 0.0043777954
000120 2b 34 a2 bd 89 2f 93 bd 41 9e 38 3d 4f 1f a8 bd
       -0.079201065 -0.07186801 0.045072798 -0.08209097
000130 13 46 de bd e4 1d ed 3d e9 5b 0c bd 0a 22 06 3e
       -0.10853209 0.11577967 -0.03426734 0.13098922
000140 0e 8e 0c 3d 23 c4 16 be 87 b4 64 bb 08 c2 7c bd
       0.03431516 -0.14723258 -0.0034897642 -0.06170848
000150 ef 8f 61 3c 22 1c 46 3d 42 09 cb bd 85 c8 26 3e
       0.013767227 0.048366673 -0.09913875 0.1628743
000160 d2 66 10 be db 05 1e 3e f4 08 8d ba ca 7d 09 3e
       -0.14101723 0.15431921 -0.0010760115 0.13426891
000170 37 5c 8d 3d 3c 1a 06 3e fb 4c 54 bd 68 f7 83 bc
       0.06902354 0.13095945 -0.051831227 -0.016109183
000180 67 f5 71 bb 3a 5e 69 3d 05 bf 31 3e 35 0f 22 be
       -0.0036919953 0.056974627 0.17358024 -0.15826114
000190 8b 57 2a bd 7c 18 a9 3c dc cf 71 3d c4 aa 07 3d
       -0.041587394 0.020641558 0.05903612 0.03312184
0001a0 97 c8 63 bd 2d 08 3c 3d 97 af ee bd 6d 4b c1 bd
       -0.05561122 0.045906235 -0.11654585 -0.094382145
0001b0 aa cc b4 bd a5 44 2f 3d 90 4e 27 bd 12 db b0 3d
       -0.08828099 0.042790074 -0.040846407 0.08635534
0001c0 84 7b 0e be 96 54 72 bd be 6f 82 3d 42 50 06 bd
       -0.13914305 -0.0591627 0.063689694 -0.032791384
0001d0 7a 1b bd 3c 7a 1d 5f bc a4 54 a0 bd 78 2f cd bd
       0.02308439 -0.013617868 -0.07828644 -0.100188196
0001e0 22 ca c7 3b 2e 13 fe bd bd b3 4e 3d 99 ad 9d bd
       0.006097094 -0.12406002 0.05046438 -0.07699127
0001f0 61 a3 cc bd f3 eb c0 bd 7c 9d a1 3d 1b 01 0d be
       -0.099920996 -0.09420004 0.07891366 -0.13769953
000200 10 09 88 bc 89 40 95 bd 9b e6 77 bd 37 bf ad bd
       -0.016605884 -0.072877 -0.060522657 -0.08483737
000210 12 2e e3 3d 0a b9 82 bd 92 28 8e 3c 55 1d 67 3d
       0.110927716 -0.0638295 0.01735333 0.056424458
000220 c1 de e9 3d 99 56 92 3c 3e 7d b9 3d 82 a5 07 3e
       0.1141944 0.017863559 0.09057091 0.1324673
000230 62 12 e6 3c 72 16 da bd 6a ad b3 bd fd d1 fe 3c
       0.028084937 -0.10648812 -0.087733105 0.03110599
000240 6a 7e 0f 3e 46 f7 b7 3d c2 c7 e7 bd 87 63 85 3d
       0.14013067 0.089827105 -0.11317398 0.06513124
000250 2a 2c eb bd a3 88 96 bd 71 45 d0 3d 9f 8f 06 be
       -0.11483033 -0.0735028 0.10169495 -0.13140725
000260 52 d5 9a bc 96 bd 90 bd e5 39 99 3d 79 97 fb bd
       -0.018900547 -0.07067411 0.07481746 -0.122847505
000270 ea 57 e8 3c 17 01 25 3c 64 82 4a 3d 65 3a 17 3e
       0.028362233 0.010071061 0.049440756 0.1476837
000280 0f 0c a6 3d 12 92 ac bd 5c 6e 9a bd a0 d4 6f bb
       0.08107769 -0.08426298 -0.07540581 -0.003659524
000290 9f a8 d3 3d 25 33 fc bd 0d 81 83 bd cc cd d2 bd
       0.10334896 -0.123144425 -0.06421099 -0.10293159
0002a0 cf b0 85 bd f5 60 26 3e 7e 06 f3 bd 67 5d 8f bc
       -0.06527864 0.16247924 -0.11866473 -0.017500592
0002b0 d2 38 4e bd 31 fe 02 3e 3a 69 99 3c e1 d5 fe 3d
       -0.050347157 0.12792279 0.018726934 0.12443138
0002c0 bb d8 73 bc d1 8a 5d bd 87 cb 3d 3d 55 ee 0e 3d
       -0.014883216 -0.054087464 0.046336677 0.03489526
0002d0 53 f3 1d 3e e1 6d 1b bc ca 5d 9f bc e2 72 c8 bc
       0.15424852 -0.009486646 -0.019453902 -0.024468843
0002e0 a0 03 e2 bc f4 9a b6 3d 9f df 39 3c 98 c2 43 3e
       -0.02758962 0.08916274 0.011344819 0.191172
0002f0 16 c0 f8 3a e2 c8 74 bd 89 5e d3 bd 4c 44 d6 bd
       0.0018978145 -0.05976189 -0.103207655 -0.10462245
000300 78 f4 62 bd d4 97 9d bd ee 91 aa 3d a8 a3 30 3d
       -0.055408925 -0.076949745 0.08328615 0.043124825
000310 54 55 85 3d d9 ab 03 3e 57 1e db bb 27 3f 93 3d
       0.06510416 0.12858523 -0.0066869664 0.0718978

lstm.weight_ih_l1 f4 [200, 50]
000000 de fe 24 be 6d a3 00 3e 9c 2b 96 bc bb 88 29 3e
       -0.16112849 0.12562342 -0.018331341 0.16556065
000010 4f 35 ed 3d d8 b8 9c 3d 13 74 84 bc a9 40 a7 bd
       0.115824334 0.07652444 -0.01616863 -0.0816663
000020 d5 fa e3 bd d4 bf fa 3d 00 fe 52 3d 59 4b d2 3d
       -0.11131827 0.122436196 0.051511765 0.10268278
000030 62 1b 13 3d 53 7c ed 3d f5 62 6f 3d 1e 32 ec 3c
       0.035914786 0.115959786 0.058443982 0.028832491
000040 28 3d 9a bc da df 20 ba 9c bc 45 3c de 3a 8b bd
       -0.01882799 -0.0006136872 0.012068894 -0.067983374
000050 eb 97 3d bd 6e 81 16 be 3e 8f 9d 3c 25 bf e3 bd
       -0.04628746 -0.14697811 0.019233342 -0.11120442
000060 4d 6e 77 3d 23 81 a5 bd 30 68 c5 3d 7d be 9f 3d
       0.060407925 -0.080812715 0.09639013 0.07800005
000070 c1 87 42 bd 00 46 a5 3d 66 c3 c4 3d 68 e9 33 be
       -0.047492746 0.08069992 0.09607582 -0.17569506
000080 05 90 ad 3d f5 33 c4 3d 03 18 cd 3d 55 02 2e 3d
       0.08474735 0.095802225 0.100143455 0.042482693
000090 32 61 b5 3b 06 b6 1e 3d a2 fd 78 bd 79 64 93 3d
       0.005535268 0.03874781 -0.060788758 0.07196898
0000a0 ac 14 e7 3c 29 58 4b be 0f f2 5d 3d e7 39 36 3e
       0.0282081 -0.19857849 0.054185923 0.17795525
0000b0 79 e4 41 3e a6 53 12 be b6 04 39 bd a1 79 21 be
       0.18934812 -0.14289722 -0.04517051 -0.15769054
0000c0 97 c5 23 bd e9 f1 e4 bd 7b b2 1b 3e 10 10 24 3d
       -0.03998336 -0.11178953 0.15204804 0.04005438
0000d0 68 5a e1 3d 28 18 03 be 1e 86 0f be 5f 14 cc bd
       0.11003572 -0.12802184 -0.14016005 -0.09964823
0000e0 57 f6 ac 3d fc 36 31 3e 5a bc 4d bd 29 3b 84 bc
       0.08445423 0.17306131 -0.050228454 -0.016141491
0000f0 f2 22 1e be 80 ac 81 3d 35 12 b4 bd 3b ae 58 3c
       -0.15443018 0.0633173 -0.08792535 0.0132251335
000100 db 08 6e bd d6 1e 64 3d 0d 7e 12 3e b5 d3 a9 3d
       -0.058113914 0.05569347 0.14305897 0.08292333
000110 72 8b 77 bd 79 3b 2e 3e 5f a2 14 be 37 a0 87 3c
       -0.06043572 0.17014875 -0.14515065 0.016555889
000120 90 a5 be bd ec e7 0b be d3 0f bd bc 92 a7 6c 3d
       -0.09308922 -0.1366269 -0.023078835 0.057776995
000130 1e 81 ac bd b6 fd 14 bd eb 82 13 bd ce a4 94 bd
       -0.08423065 -0.03637477 -0.036013525 -0.072579965
000140 66 3f 8f 3d 9e 0c ab 3b 8c ad 1d 3c 99 d6 8b bd
       0.06994514 0.00522001 0.009623896 -0.06828041
000150 e3 48 00 3e a6 9e 42 3d b5 e2 42 3b 1d b1 a9 3c
       0.12527804 0.04751458 0.0029737179 0.020714337
000160 42 1a e6 bd 39 10 2e bd de 0d 9c 3d 0a cd 85 bd
       -0.11235477 -0.04249594 0.076198325 -0.06533249
000170 26 7c 02 be 3f 3b 1f be 92 16 48 3d 2e 46 98 bd
       -0.12742671 -0.15549944 0.04884965 -0.07435261
000180 16 ba 98 3c f8 1e dd 3d 45 1e 79 3d 83 c8 af bd
       0.01864342 0.107969224 0.060819883 -0.085831665
000190 2f ba e6 3c f5 93 9b bd 62 d5 70 3d 59 f1 a4 3d
       0.028164951 -0.0759658 0.058797248 0.08053846
0001a0 6a a0 ca bc f8 66 df 3c e7 d7 7b 3d 62 05 ff 3c
       -0.024734695 0.027270779 0.061485197 0.031130496
0001b0 82 d8 aa 3d 7a 68 8a bc ce ab cd bd 9d c1 90 3d
       0.08342077 -0.016895521 -0.10042535 0.07068179
0001c0 3d eb 06 3e ac c7 43 3d 72 bc 0a bc 69 d1 0e 3d
       0.13175674 0.047797844 -0.00846778 0.034867678
0001d0 f5 1c b3 3d 32 30 7d 3d 68 d6 d8 3d c9 cb 5d bb
       0.087457575 0.06181354 0.1058777 -0.003384339
0001e0 a1 85 15 be 19 70 f6 3d 58 68 de 3b 7e d7 b8 bd
       -0.14601757 0.120331 0.006787341 -0.09025477
0001f0 10 b0 4d bd 07 2c f1 3d 60 bd a5 3d b0 55 bc bb
       -0.050216734 0.11775976 0.08092761 -0.0057475194
000200 6a c5 4c be aa 9f 1c 3c ce a8 1a 3d a6 c4 c4 3b
       -0.19997182 0.009559551 0.03775864 0.0060048876
000210 68 35 7b bd cd 3f 63 bd 16 cd 92 bd d5 43 12 3e
       -0.06133023 -0.055480767 -0.07168023 0.14283688
000220 c7 d9 50 bd 87 81 55 bc 72 19 48 be 0c e6 d8 bd
       -0.05098894 -0.01303137 -0.19540957 -0.10590753
000230 f1 a9 ee 3d eb 35 93 3d d4 da fc 3c cd 97 ae bb
       0.116535075 0.071880184 0.030866064 -0.0053281547
000240 fd 74 26 bd 1d 49 00 be d4 15 ee 3d dc a5 a4 bd
       -0.040638912 -0.1252789 0.11625257 -0.08039448
000250 d1 96 22 3e dd 3a 9f bd 5b a5 65 3d 93 d3 02 3e
       0.15877844 -0.07774899 0.0560659 0.12776022
000260 27 79 e7 bd 45 7f 85 bd 7e 6c cb bc c9 b3 44 3d
       -0.11302405 -0.06518415 -0.024832007 0.04802302
000270 12 b0 15 be 2b aa fa 3d 12 07 26 bd 43 18 38 bd
       -0.14617947 0.12239488 -0.040534087 -0.044945013
000280 bd c8 3e 3d 8e f9 e9 3d 59 3b fc bd 45 dc d8 bd
       0.046578158 0.11424552 -0.12316007 -0.10588888
000290 2e ac ac 3d 18 a8 7b 3c 2f 46 47 3d 38 e5 cf bc
       0.08431278 0.015359901 0.048650917 -0.025377855
0002a0 c7 67 91 3d 91 3e fb 3d ba 4e a7 bc e7 9c d0 3b
       0.07099872 0.12267793 -0.020423282 0.0063663605
0002b0 87 45 5a bd 56 16 01 be 6b e2 b5 3d 89 00 85 bd
       -0.053288963 -0.12606177 0.088810764 -0.06494243
0002c0 b0 76 a4 ba ec e5 70 3d f5 e8 55 3d e0 68 4d bd
       -0.0012547579 0.05881302 0.05222412 -0.050148845
0002d0 f7 a9 0b 3e 96 48 75 bd ae 1e 30 3d 4f 43 cb 3c
       0.13639055 -0.059883676 0.04299801 0.024812369
0002e0 85 02 94 bd 88 3d 12 bd a8 22 04 bd 2c 6b 97 bd
       -0.07227043 -0.035703212 -0.032259613 -0.07393488
0002f0 f2 7c d0 3d e3 77 8a 3d 85 f8 24 be c5 a4 45 3d
       0.101800814 0.06761148 -0.16110428 0.04825284
000300 0b 93 45 bc a0 f7 b7 bd 74 15 91 3d 13 bc 79 3d
       -0.012058984 -0.089827776 0.0708417 0.060970377
000310 ca c3 0e be 45 86 c8 bd 7f 98 d7 bc 0e 0c 0b bd
       -0.13941875 -0.09791235 -0.026317833 -0.033947043
000320 5a 4b 84 bd 6f 7f 7d 3d a7 0d dc bc d8 8c 68 3d
       -0.06459685 0.06188911 -0.026861979 0.056774944
000330 46 cc 9e bd 55 c9 d4 3d 1a 3a 8b 3d d3 01 e5 3d
       -0.07753806 0.103899635 0.06798191 0.111819886
000340 e9 95 45 3d 6e c5 43 bb 6d 34 bb bd ed c1 a9 bd
       0.04823867 -0.0029872316 -0.09140859 -0.082889415
000350 12 26 3e 3d 3c be f4 bc 8e da 55 3d 73 28 b9 bc
       0.046423025 -0.029875867 0.052210383 -0.022602296
000360 93 48 1e 3e ab 8e 01 3e e6 76 55 bd 4f ef 2c 3e
       0.15457372 0.1265208 -0.052115344 0.16888164
000370 f8 3f e2 3c e7 b3 ae 3d 17 07 02 3e 8e a8 c9 bd
       0.027618393 0.085304074 0.12698017 -0.098466024
000380 3c 03 fb 3b fe 76 a2 bd 99 7c 54 3c e3 d8 1a bc
       0.0076602977 -0.07932852 0.0129691595 -0.009451124
000390 1e ef c2 bd fb 26 f7 bc e2 83 ef bc e2 6f 8e bd
       -0.09518264 -0.030169955 -0.029237691 -0.06954934
0003a0 db ae 1b be c4 21 e4 bc bc 36 22 3e ed 32 cb bd
       -0.15203421 -0.027848132 0.15841192 -0.09921823
0003b0 b4 ee ca 3d 10 69 2a be a6 92 c6 3d 56 7d 2f 3e
       0.0990881 -0.1664164 0.0969594 0.17137656
0003c0 5e 79 97 bd e0 99 8b 3d 08 76 0c be e9 9e 8f bc
       -0.07396196 0.06816459 -0.137169 -0.017531829
0003d0 42 4b cf 3d da ab 2f be 29 7d bd bc 60 3f c0 bd
       0.10121776 -0.171554 -0.02313097 -0.09387088
0003e0 78 34 7e 3d 30 49 fb bd 7b b2 07 3e f7 f8 8b 3d
       0.062061757 -0.12269819 0.13251679 0.06834596
0003f0 64 b1 18 3c fa 16 67 3d bb 59 f9 bd 52 6a f4 3d
       0.009319637 0.056418397 -0.12175318 0.119343415

lstm.weight_hh_l1 f4 [200, 50]
000000 30 64 fa bd 3c a5 2c 3e ed 0e 18 3e fb db 24 be
       -0.122261405 0.16859907 0.14849444 -0.16099541
000010 7b 86 a9 bd 29 44 36 be f4 97 17 be 10 d6 6d be
       -0.08277603 -0.17799439 -0.1480406 -0.2322619
000020 a1 5e 56 bc 27 ed bf bc c5 ea 38 3d 7f 5e d3 bd
       -0.013084085 -0.023428513 0.04514577 -0.10320758
000030 8f 9c d4 3d 85 59 ec 3d f7 f5 00 3e ca e0 6c 3d
       0.10381424 0.11540512 0.12593828 0.057831563
000040 ae 08 46 3d b1 47 cf 3d 20 e9 0c 3d db 60 1f 3e
       0.04834812 0.10121096 0.034402013 0.15564291
000050 4a d2 12 3e 74 91 36 bd ee 40 b0 3b d4 54 cb 3d
       0.14338031 -0.04457231 0.005378834 0.09928289
000060 16 cc 2e 3e 73 fc 6d bd e7 2f 87 3d 67 17 ad bd
       0.1707004 -0.058102082 0.066009335 -0.08451729
000070 c9 64 2c 3e 46 32 23 bd 62 ce 75 3c ae 17 de bd
       0.16835321 -0.039842866 0.015002819 -0.1084436
000080 d3 4e 0a 3d 0d 82 34 be e1 2d 69 3e 93 4d 26 3d
       0.03376658 -0.17627735 0.22771408 0.040601324
000090 7d e2 a1 bd f7 d6 f4 3b 75 a5 02 3e ef b8 4f 3d
       -0.07904527 0.007471915 0.1275843 0.050713476
0000a0 a3 93 6c bb 88 86 03 be 09 13 7a be de 34 5f bd
       -0.003609874 -0.12844288 -0.24421324 -0.054493777
0000b0 c3 b6 34 ba 2f 4e cf 3c d5 59 df bb 05 0c 32 3d
       -0.00068936887 0.025305836 -0.0068161287 0.043468494
0000c0 d9 d5 cd 3d c5 b8 e1 3d 27 08 97 3d 01 f3 14 3d
       0.10050554 0.1102157 0.07374602 0.03636456
0000d0 41 e5 f7 bd 03 58 f6 3d 6e 4f c4 3d 6e a4 00 be
       -0.121042736 0.12028506 0.095854625 -0.12562725
0000e0 03 56 04 3e b6 4f e1 bd 55 0f 52 3d df 34 81 bd
       0.12923436 -0.11001532 0.051284153 -0.063089125
0000f0 b4 ac 64 3d 6b 1f ed 3b 1c 57 a7 3c 38 09 f9 bc
       0.055828765 0.0072364113 0.02042728 -0.030399904
000100 2d 58 9a 3d 02 e3 96 3d 67 cd 3a bc 97 16 f4 3d
       0.075363494 0.07367517 -0.011401511 0.11918371
000110 ca 62 81 bb 2c d6 eb bd 92 6a ea 3d 56 e2 62 3d
       -0.003948544 -0.115154594 0.11446108 0.055391632
000120 8a b4 c2 bd 46 a8 04 3d de 13 85 bc da 12 e2 bd
       -0.09507091 0.03238704 -0.016244825 -0.11038752
000130 c8 97 30 3d b5 cd f5 bd 87 43 08 3e 50 1f 92 bd
       0.0431135 -0.12002126 0.1330701 -0.07134879
000140 67 db b0 bd 3b 3e c9 bd 2f 7e a0 bd ab 11 ca bd
       -0.08635598 -0.09826323 -0.078365676 -0.09866651
000150 7a c9 9f 3d ee 97 c5 bd a6 eb fb bd 82 d8 1b 3e
       0.078021005 -0.09648119 -0.12300806 0.1521931
000160 48 26 cd bd 1a 64 c1 3d e5 85 fb 3b 41 99 db bc
       -0.10017067 0.09442921 0.0076758736 -0.026806476
000170 77 35 0a 3d 92 c9 de 3d 33 bd 50 3c 40 52 af 3d
       0.033742394 0.1087829 0.012740421 0.0856061
000180 d0 dc 69 bd 3a 57 37 3d ca 5d e9 3d 6c 33 95 bd
       -0.05709535 0.04476092 0.11394842 -0.072851986
000190 34 71 42 3d 59 8e 06 3e cc 7f 19 be 4a fa b4 3d
       0.04747124 0.13140239 -0.14990157 0.08836801
0001a0 2f 6d d1 3d 37 66 08 be b2 02 dd 3d d5 a2 65 3d
       0.10225903 -0.13320242 0.1079153 0.05606349
0001b0 e1 41 bf 3d d6 32 d8 bc cd d1 8b bc f2 b8 e5 3d
       0.09338737 -0.026391428 -0.017067814 0.11216916
0001c0 b3 16 fe 3d f9 db ff bc d4 ad 06 be 7d f2 3c bd
       0.12406673 -0.03123282 -0.13152248 -0.046129692
0001d0 bf 87 21 bd 70 fd 76 3d c7 ae b6 3d 38 37 00 bc
       -0.0394361 0.06030029 0.08920055 -0.007825665
0001e0 7a c9 04 be 91 45 61 bd a4 4e 48 3d 6d dd 04 bd
       -0.12967482 -0.054997984 0.048903123 -0.03243773
0001f0 68 29 8e 3d 85 b0 0f 3e 5d d8 56 bd 15 60 b6 bd
       0.06941491 0.1403218 -0.052452434 -0.08905045
000200 55 cd 03 3e ea 94 9a 3d 03 a5 a7 bc c6 4f 0a 3d
       0.12871297 0.07547934 -0.020464426 0.033767484
000210 af 9a a9 3d 66 74 f8 bd e4 e4 e8 3d 3f 69 3c 3d
       0.08281457 -0.12131576 0.113717824 0.045998808
000220 34 cb de 3d a3 89 f6 bc 37 a9 ad 3d b6 88 9d bd
       0.10878602 -0.030094927 0.08479541 -0.07692091
000230 32 e5 b1 bd f5 8c 07 be 32 34 2a bd 15 68 a6 bb
       -0.08686294 -0.13237365 -0.041553684 -0.0050783255
000240 46 7a d0 3d f6 57 da bc 41 4c 16 3e 04 db 99 3d
       0.10179572 -0.026653271 0.14677526 0.07512477
000250 38 86 7d bd 83 fc fe bc 63 5a ee 3d ad ed 26 3c
       -0.06189558 -0.031126266 0.11638334 0.010188502
000260 77 4b cb 3d 52 6f 5f 3d ac e0 93 3d e0 8f 2b 3d
       0.09926503 0.054549523 0.07220587 0.041885257
000270 bb 96 93 3b ac 1b 8e bd cf c7 08 3e 3c f1 ed 3d
       0.0045040525 -0.06938872 0.13357471 0.116182774
000280 cb 6f 58 bd 32 e2 c1 3d 5f 24 e0 3d cf d1 bf bd
       -0.05284099 0.094669715 0.10944437 -0.0936619
000290 98 05 ee bd dc d4 18 be 3e 8e c1 bd a7 44 dd 3d
       -0.11622161 -0.1492495 -0.09450959 0.1080411
0002a0 33 88 93 bc 9d 4e a4 bd f9 81 d2 bd d0 24 1f bd
       -0.01800928 -0.08022807 -0.102786966 -0.038853467
0002b0 1d 16 12 3e d8 a4 46 bd 39 31 18 3e 83 91 39 bd
       0.14266248 -0.04849705 0.14862527 -0.045304786
0002c0 92 77 98 3d 6d 48 b0 3d 9f cc f5 3d 9e de 27 3e
       0.07444681 0.08607564 0.12001919 0.16393515
0002d0 c9 3f e4 3d 06 32 cb bd c8 53 45 bd dc d0 0f 3d
       0.111449786 -0.099216506 -0.048175603 0.035111293
0002e0 42 fe 23 3e a0 76 a2 3d 0f 1d 12 bd 7d d5 81 bc
       0.1601496 0.07932782 -0.035672244 -0.01584887
0002f0 63 de cd 3d 6a 88 99 bd 5c 9e de bd 0e 6e 77 bd
       0.100521825 -0.07496722 -0.108700484 -0.06040769
000300 ef 62 77 bd 11 f3 a5 3d 2b 0c 0d 3e f6 0d ee 3c
       -0.060397085 0.08103002 0.13774173 0.029059391
000310 95 5c 7e bc 7d d3 11 3d 32 22 f1 bd ef 5b a3 bd
       -0.015525003 0.03560208 -0.117741 -0.07976519
000320 72 c8 95 bd 05 29 0d 3e f9 af bc 3d 99 22 be 3c
       -0.073136225 0.13785179 0.092132516 0.023209857
000330 ae ae be bd cf a5 e9 bc d6 dd 80 bd c5 db 84 3d
       -0.09310661 -0.028521447 -0.06292312 0.0648723
000340 e9 83 cc 3d 82 59 f1 bd 80 54 06 3e 94 6b cc 3c
       0.09986097 -0.117846504 0.13118172 0.024953641
000350 fa b3 8a bd 3a a9 d7 bd f8 af ed bd be db d7 3d
       -0.06772609 -0.10530324 -0.11605829 0.10539959
000360 59 f7 b1 3d b7 50 a7 bd 5e 7d 7b 3c 4f aa 9b 3d
       0.08689756 -0.08169692 0.015349714 0.07600843
000370 25 ad c0 3d 11 b9 02 be 04 6f 01 be b8 02 a0 bc
       0.09408025 -0.1276591 -0.12640005 -0.019532546
000380 f0 b0 e9 3d db 44 f3 bd 84 7d 23 bd 18 f6 05 3e
       0.11410701 -0.118783675 -0.039914623 0.13082159
000390 9a de 8b bd c2 69 e5 bd cc 5d 91 bd 10 eb 8b 3d
       -0.06829567 -0.11201812 -0.070979685 0.06831944
0003a0 f7 fe 0a 3e c2 00 1d be 66 a5 ee 3d 5d 52 bb bd
       0.13573824 -0.1533232 0.11652641 -0.09146569
0003b0 b8 d6 3f bc 20 f7 da 3d bf 42 e2 3d e8 5f 92 bd
       -0.011708908 0.106916666 0.11047887 -0.07147199
0003c0 bd 9b 07 3e 4d 38 24 be d5 d2 28 3c 3f 10 ce bd
       0.13243003 -0.16037102 0.0103041725 -0.100616924
0003d0 9d 0b 8a 3d fe 8f 96 bd 79 d3 94 bc c6 85 03 bc
       0.06740496 -0.07351683 -0.018167244 -0.0080275
0003e0 74 8d d3 3b 53 10 de 3b ad 66 9d bd a3 9b e7 3d
       0.0064560715 0.0067768483 -0.076855995 0.11308982
0003f0 db a7 fb bc dc 3b 11 3d 9f 94 63 3d 11 db af 3d
       -0.030719688 0.035457477 0.055561658 0.085867055

lstm.bias_ih_l1 f4 [200]
000000 1d 47 cb 3d 7c bc c6 3d 02 c3 ef bd b1 0d 3a 3c
       0.09925673 0.09703919 -0.11707117 0.011355803
000010 1e 9d cc 3d e8 ba 90 3d 8c b5 16 3e 0e 98 47 3b
       0.09990905 0.070668995 0.14717692 0.0030455622
000020 f4 e1 1b 3e 82 3d 42 3d dd a7 f3 3c 34 31 ea 3d
       0.15222913 0.04742194 0.02974313 0.11435166
000030 4d c6 53 bd 8c 37 c5 bc ba 75 70 bd 78 fa 72 3d
       -0.051702786 -0.024074338 -0.058706023 0.059320897
000040 d9 1d e6 bd 58 f4 20 3c e8 02 ff 3d 8d fa ab 3d
       -0.11236162 0.009823881 0.12451726 0.08397398
000050 55 e1 17 3d 64 8b 7c 3d 0d 31 c7 bd 52 f7 1c bd
       0.037080128 0.06165637 -0.097261526 -0.0383218
000060 5b f6 8d 3d bd e3 b1 bd 62 5e 90 3d d0 13 d3 3d
       0.06931754 -0.08686016 0.07049252 0.10306513
000070 31 88 cd 3c be ae 63 bd a1 bd a4 bd de e9 0f 3e
       0.025089355 -0.05558657 -0.08043981 0.14054057
000080 a1 8c bf 3d b1 1a bc bd 74 cd 42 3e 41 20 b2 3d
       0.09352995 -0.091847785 0.19023687 0.08697558
000090 4e 6e a9 3d 82 ad d7 bd fb bf 90 bd 07 01 19 3e
       0.08272992 -0.10531141 -0.07067867 0.14941798
0000a0 1a 09 06 3e 09 02 25 bd b3 c4 4d 3c 14 7a be bc
       0.1308941 -0.040285144 0.012559104 -0.02325157
0000b0 4e 89 aa 3d 8f 6c 04 3e 44 bc f8 3d 04 bc c6 bc
       0.0832697 0.12932037 0.12145284 -0.024259575
0000c0 ed f8 05 3e 4f ea d3 bd 7a 0b 04 bd 68 01 43 bd
       0.13083239 -0.10347425 -0.032237507 -0.047608763
0000d0 ea ba 0a bd ae c0 22 bd d2 39 fb bc bc 85 8c 3d
       -0.03386966 -0.039734535 -0.03066722 0.06861445
0000e0 65 bb 99 bc c1 09 0e be 10 4b 2f 3c fc 18 a3 bd
       -0.018766114 -0.13870908 0.010699049 -0.0796375
0000f0 ec 5d e5 bd 8e ff a6 bd 30 27 d7 3c 08 64 b5 bd
       -0.11199555 -0.08154212 0.026263803 -0.0885697
000100 e0 78 8c 3d 73 3c d1 3d 80 6c 09 be 5b 56 09 3d
       0.068589926 0.10216608 -0.13420296 0.03352962
000110 78 c4 b6 3d 1f b1 b9 bd eb 0f 04 3e 2c eb 91 bd
       0.08924192 -0.09066986 0.12896697 -0.071249336
000120 53 a3 1c bd 4b ad 63 bc 65 26 a6 3d 07 68 5c 3d
       -0.038241696 -0.013896297 0.08112792 0.053810146
000130 75 2c 9e bd 80 7d 74 3d 05 9c f9 bd fa df 2c bd
       -0.07723323 0.05969 -0.121879615 -0.04220579
000140 61 5c e1 bc 20 d1 ae 3d 0f f3 8d 3d f1 0c ed bd
       -0.02750987 0.08535981 0.069311254 -0.11574734
000150 4c 0c 7e 3d 62 a0 81 bd a7 b0 77 3c f9 40 85 3d
       0.062023446 -0.06329419 0.015117801 0.06506533
000160 37 43 cb bd e7 eb b6 3d bc ad a4 3d ce b1 9d bb
       -0.099249296 0.089317136 0.0804095 -0.0048124557
000170 b4 b7 f3 bd 2b 2e e1 3d ef 2e 0c 3e 9a eb a6 bd
       -0.11900273 0.10995134 0.13689779 -0.08150406
000180 1d 96 96 bd 22 d8 7a 3d 43 7e 85 3d ad d2 c2 bd
       -0.073528506 0.061241277 0.06518223 -0.095128395
000190 0c 5c 88 3d 90 7d 14 3d dd b7 0a 3e e6 97 ba 3d
       0.066581815 0.03625256 0.13546701 0.091110036
0001a0 ea 1b b4 3d 9a d5 02 3c f6 19 c0 3c 6d 55 16 bd
       0.08794387 0.007985497 0.02344988 -0.036702562
0001b0 82 68 2e bd 29 d7 a9 3d 45 46 96 3c d6 f5 96 bd
       -0.042580135 0.08292992 0.018344054 -0.07371108
0001c0 81 bc d8 3c b3 88 14 3e 14 67 38 3d a9 05 0e 3b
       0.026457073 0.14505272 0.045020178 0.0021670854
0001d0 0b c5 78 3d 52 ce 96 3d 3d 11 50 3d 8c c1 2a bd
       0.06073479 0.07363571 0.05079769 -0.041688487
0001e0 b0 6f 97 3d 95 95 85 bd 1b f3 f8 3b 5c f7 aa bd
       0.073943496 -0.06522671 0.00759734 -0.08347961
0001f0 37 93 0c 3e db 17 ae bd 78 b9 73 3d 63 ba 0e 3e
       0.13728033 -0.08500644 0.05950305 0.13938288
000200 b8 7b be bd ac e1 73 bc 70 75 d7 3d 4f 06 f1 3d
       -0.09300941 -0.014885347 0.10520446 0.117687814
000210 26 1c 16 3e 77 77 4f bd 42 13 e3 3d 25 da 70 3c
       0.14659175 -0.05065104 0.110876575 0.014700447
000220 69 f6 75 bc 07 7c f1 bd 8a 17 2f 3d 04 c6 13 3e
       -0.015012362 -0.117912345 0.042747058 0.14431006
000230 db 71 d6 3d 43 b3 4e bc a6 2a 1d bd f2 f2 ff bd
       0.10470935 -0.0126159815 -0.03837075 -0.1249751
000240 f8 ab ca 3d 35 ae 65 3b 51 1f 61 3d 5b 5f a9 bb
       0.09896082 0.0035046462 0.054961506 -0.005168838
000250 bb fa 66 bd 7b 5f cc bd 32 9a 0e 3b 5b 07 9e bc
       -0.05639146 -0.09979149 0.0021759388 -0.019290617
000260 7b d5 3a 3d db db 5c 3d e3 62 b7 3d fe 55 03 3e
       0.045613747 0.053920608 0.08954408 0.12825772
000270 41 7b f6 bd 13 d9 01 be 9e 68 8b bd 71 57 b4 3d
       -0.120352276 -0.12680463 -0.068070635 0.088057406
000280 18 80 67 bc 3e 18 e2 3d 94 b4 83 bd e3 1f 10 3d
       -0.014129661 0.1103978 -0.06430927 0.03518666
000290 d0 db 02 3e f6 7a 74 bc 3b 6c b9 bc 58 fb d6 3c
       0.12779164 -0.014921894 -0.022634616 0.026242897
0002a0 2d 0a b3 bd ea 72 c5 3d 02 4e 66 bd 77 e5 db 3d
       -0.08742175 0.09641059 -0.056226738 0.10737126
0002b0 ea 92 70 3d 48 ca cd bc 8c 65 8b bd 84 c4 98 3d
       0.05873386 -0.02512087 -0.06806478 0.074593574
0002c0 dd be 8e bd 76 d0 0f 3e f4 86 bb 3d 15 71 72 bd
       -0.06969998 0.14044365 0.091566 -0.059189875
0002d0 44 66 03 3d 1d 43 39 bd df 13 74 3d 69 ef 37 3c
       0.03207995 -0.04523002 0.059589263 0.011226513
0002e0 20 70 76 b9 6b 82 ff 3c d8 1b eb 3c 98 c6 f2 37
       -0.00023502158 0.031190118 0.0286998 2.8941125e-05
0002f0 5f 30 d0 3d ce ec f5 bd d2 d2 bd 3c 32 3e 01 be
       0.10165476 -0.120080575 0.023171816 -0.12621382
000300 95 18 65 3d 53 b2 0f bc 89 bc 59 bd bf be 8f 3d
       0.055931646 -0.008770543 -0.053158317 0.07018804
000310 ab d2 a2 bd 74 57 ae 3d 9d 10 c5 3d 46 34 40 3c
       -0.07950338 0.08512774 0.09622309 0.011731213

lstm.bias_hh_l1 f4 [200]
000000 6e 42 5b 3e 1c e6 a3 bd 5e ff 2a bd e7 19 ee bd
       0.2141206 -0.08002874 -0.041747443 -0.11626034
000010 aa 79 e6 bd 6b ee 68 3d 3e bc b8 3d 99 88 d7 bd
       -0.11253674 0.056867998 0.09020279 -0.10524101
000020 0f 5f 87 3d d4 9a 80 3d fc be 3b 3c 7c 54 d5 bd
       0.06609928 0.06279531 0.011459108 -0.10416505
000030 62 ec fd 3d 68 e3 99 bc 28 41 51 bd 47 cb 84 3d
       0.12398602 -0.018785194 -0.05108753 0.064840846
000040 1c c1 ed bd e9 94 99 3d e6 cf e7 3d 7c 12 18 3d
       -0.11609098 0.074991055 0.1131895 0.037127003
000050 6c 31 5e bd ff 33 95 bd 13 84 b1 3d 7e da 09 be
       -0.05424635 -0.07285308 0.08667769 -0.13462254
000060 77 b5 e8 3d dd 8a 91 b9 7e 59 1c 3c 3d a9 16 3c
       0.11362737 -0.00027760016 0.009542821 0.009195623
000070 bb 00 47 bd c0 f4 ce bd 67 5e 0d 3e 17 d3 8c 3d
       -0.04858468 -0.10105276 0.13805543 0.068762
000080 bb 97 14 3e 0b a2 1e bd 6a 91 93 bc ac bc ce bd
       0.14511006 -0.038728755 -0.018013675 -0.1009458
000090 f7 5a 0f bd fb ef fe 3d 36 5c c1 3d 58 6b f0 3d
       -0.03499886 0.124481164 0.09441416 0.11739224
0000a0 81 cb aa 3d 2b 99 84 3d 4b 6b 02 3e 99 d0 2c bb
       0.083395965 0.06474527 0.12736242 -0.002636945
0000b0 52 8e 3b bd ac c7 e5 3d 9c a6 0d 3e 80 c8 1e bd
       -0.045790024 0.11219725 0.13833088 -0.03876543
0000c0 ca 69 ed 3d ad dd b8 bd d6 4f 91 3d 7f fb 39 bc
       0.11592443 -0.09026656 0.070953056 -0.011351465
0000d0 71 84 d2 3c c1 a7 81 bc 35 6c 79 3d b0 66 c9 3d
       0.025697919 -0.015827062 0.06089421 0.09834039
0000e0 04 aa 9f bd 47 5c 17 be 72 22 33 3d 10 61 ea 3d
       -0.077961 -0.14781295 0.04373402 0.114442945
0000f0 f3 99 a6 ba 0a 50 48 bb 26 ed a0 bd 6d 72 77 3d
       -0.0012710675 -0.0030565285 -0.078577325 0.06041186
000100 28 3d 09 bd b2 f3 69 bd 29 f3 35 3c 1d 15 eb bd
       -0.03350559 -0.05711717 0.011105337 -0.114786364
000110 60 de 52 bc 7d 85 21 3e 9d ce eb 3d 3c 70 14 3a
       -0.012870401 0.15773578 0.11514018 0.0005662476
000120 40 67 fe bd c7 3e 90 3d 51 e6 cb bd 3c 23 e1 bd
       -0.12422037 0.07043224 -0.09956039 -0.109930485
000130 39 06 32 3a 83 20 e1 3d 56 84 ce bd f6 01 7a bb
       0.00067910884 0.10992529 -0.10083835 -0.0038148141
000140 90 1e c1 bd a3 ac 03 3e f9 51 02 3d 28 f7 fb bc
       -0.094296575 0.12858824 0.031816456 -0.030757502
000150 c5 51 94 bd 0e f6 0f be 6b 09 06 3e 4a 09 6b 3c
       -0.07242159 -0.14058706 0.1308953 0.014345476
000160 02 7d 13 3e ff da 5a 3d f2 6c 23 bd 6b 51 90 bd
       0.14403155 0.053431507 -0.03989882 -0.07046779
000170 d0 7a 87 3d 22 42 46 3d 23 e9 0e bd 36 70 e8 3d
       0.066152215 0.048402913 -0.034890305 0.113495275
000180 0d 3d a4 3d 9c 04 0c 3e 4a 52 46 bc 2f 5d a5 3d
       0.08019457 0.13673633 -0.01210458 0.08074414
000190 f8 49 d4 bc 47 68 80 3a e7 00 81 3d 57 0a b5 bd
       -0.025914177 0.0009796702 0.06299 -0.08839863
0001a0 be e2 0e 3e 50 07 65 bd 0d 92 0b be de 39 d4 bd
       0.13953683 -0.055915177 -0.13629933 -0.103626
0001b0 56 f4 06 3e 0d e7 0b 3e 49 73 cc bd 64 c4 b9 3d
       0.13179144 0.13662358 -0.099829264 0.09070662
0001c0 67 52 b8 3c 6c 4e 97 3c fd e3 f5 3d 11 ab a6 bd
       0.02250023 0.018470012 0.12006376 -0.08138097
0001d0 d8 4f 9a bd 46 66 64 bc c8 ad 78 bb a1 0b 18 3e
       -0.0753476 -0.0139403995 -0.0037945379 0.14848186
0001e0 c6 a1 d9 3d 23 5b 91 3d 57 23 50 bd f7 75 ae 3d
       0.10626559 0.07097461 -0.050814953 0.08518594
0001f0 56 d3 d0 3d 6e 83 76 3d 28 bf 2a 3c 8f 99 08 3e
       0.10196559 0.060183935 0.010421552 0.13339828
000200 49 63 ff 3d 28 83 be 3d 40 09 9a bd f5 21 e0 bd
       0.12470109 0.0930236 -0.075212955 -0.10943977
000210 9c 7a 13 3e 12 05 e8 bd 59 58 8f bd d9 95 f9 bd
       0.1440224 -0.11329092 -0.06999273 -0.12186784
000220 ab 2b 19 3d a7 dc fe 3d 0c ef 78 3d a4 0b e4 3d
       0.03739516 0.1244443 0.060774848 0.11135033
000230 a9 17 de ba d0 60 8b bd f0 d9 3a 3c f4 09 db 3c
       -0.0016944307 -0.06805575 0.011404499 0.026738144
000240 20 6c c3 3d 6d 22 d7 bd 9a bb eb bd 5c 93 55 3d
       0.095421076 -0.10504613 -0.115103915 0.052142486
000250 db 76 a5 3d 9e d8 4c 3d c8 e5 27 3e be 82 0c 3e
       0.080793105 0.05001127 0.16396248 0.13721749
000260 2a 63 07 bd 11 a8 ab 3d 69 aa b7 bd e9 c6 a2 3d
       -0.033053555 0.083816655 -0.0896805 0.07948095
000270 e7 98 84 bd 96 bf b4 bd 8c cb 5a bd 01 5b e9 3d
       -0.06474476 -0.088256046 -0.053416774 0.11394311
000280 9c 49 0a be 85 22 40 bd 14 6e 08 3e 9a a8 e6 bd
       -0.13504642 -0.04690792 0.13323241 -0.11262627
000290 c6 bf 01 3e fd 8c 29 bd 7c 8b 01 be 31 a1 dd bd
       0.12670812 -0.041394223 -0.12650865 -0.108217604
0002a0 6d a4 e6 3c 3d ce f0 3c b6 29 cd 3d 59 88 9b 3d
       0.028154576 0.029395217 0.10017721 0.075943656
0002b0 ec 99 eb bd ce c4 1f be ca 1e fc bd a6 28 cf bd
       -0.11503968 -0.15602419 -0.1231056 -0.10115175
0002c0 db 3c 72 bb 16 a3 85 3d 42 e5 f9 bc 2c e2 d1 bd
       -0.0036962542 0.06525247 -0.030504826 -0.10248217
0002d0 1f b2 a3 bd 4b 67 b0 bd 18 1e f8 bd 7f 2f bb 3d
       -0.07992958 -0.086134516 -0.12115115 0.091399185
0002e0 c0 02 63 3e 7f 93 8b bd 85 6d 88 bd d9 0d ab 3c
       0.22169018 -0.06815242 -0.06661514 0.020880627
0002f0 61 aa b6 bd da 71 02 3e a7 02 bc 3d 4c dd e9 3c
       -0.08919216 0.12738743 0.091801934 0.028547905
000300 4a d2 93 3c bb 80 93 3d b4 29 54 3d 26 2d 18 3d
       0.01804461 0.07202288 0.051797584 0.037152432
000310 b2 b9 87 bd 50 84 b4 3d ef 08 d2 3d ba 14 de bd
       -0.066272154 0.08814299 0.1025561 -0.10843797

fc.weight f4 [1, 50]
000000 b3 6e b0 bd 7c d7 79 3d d7 40 a6 3c 5e 14 1d be
       -0.08614864 0.060996518 0.02029459 -0.153398
000010 73 ea cd 3d 6b 49 e0 bd ff f6 ea bd e5 e3 12 3e
       0.10054483 -0.10951503 -0.11472892 0.14344747
000020 0e e6 43 3d 00 1c 84 3d 4c 16 49 3d 7a 5b c3 bc
       0.04782682 0.06450653 0.04909353 -0.02384733
000030 31 04 28 be e2 e5 e7 3d c0 1f 7a 3d e4 b4 18 be
       -0.16407849 0.113231435 0.061065435 -0.14912754
000040 26 3d 1c 3e 44 e2 da bd a3 74 be bd ca a6 7f 3d
       0.15257701 -0.10687688 -0.092995904 0.06241492
000050 49 78 18 3e 9b 9a 90 3d d8 88 4d 3d 05 60 bb bd
       0.14889635 0.07060739 0.050179332 -0.09149174
000060 c5 a1 c6 3d ef 08 0b 3e 9d af 00 be 35 cc 72 3d
       0.09698824 0.13577627 -0.12566991 0.05927678
000070 ba 0e 08 bd f2 ec 97 bd dc 38 21 3e d7 79 b9 3d
       -0.03321717 -0.074182406 0.15744346 0.09056442
000080 b6 e0 f8 3d 6c f9 4e 3d 16 66 db bd da e7 35 3d
       0.12152235 0.050530836 -0.10712831 0.044410564
000090 7b a8 a5 3d 20 f1 a8 bd 43 9d b4 3d a3 44 d0 3d
       0.08088776 -0.08249116 0.08819058 0.101693414
0000a0 af 01 8d 3d c9 49 1a 3d a9 8a 09 3d 4c 5b b3 bc
       0.06885087 0.037668023 0.033579502 -0.02189412
0000b0 67 26 0d 3e 51 c0 f1 3d 36 22 8b 3d 31 74 fe 3c
       0.1378418 0.118042596 0.067936346 0.031061264
0000c0 14 9e 99 bd 4c 0d e7 3d
       -0.07500854 0.11281833
