models/lstm_model_15m.pt (torch, 127770 bytes, 9 tensors)

lstm.weight_ih_l0 f4 [200, 1]
0	0xbce33d40	-0.027739167
1	0x3e0b3ce8	0.13597453
2	0xbdac8aca	-0.084249094
3	0x3d8e5f87	0.06951814
4	0x3e081df4	0.13292676
5	0xbb34e5e4	-0.0027602846
6	0x3cc5bb23	0.024137085
7	0xbd612892	-0.05497033
8	0xbd465868	-0.048424155
9	0x3e2785f9	0.163597
10	0xbd017656	-0.031606995
11	0x3d1d5420	0.038410306
12	0x3e549b14	0.20762283
13	0x3e0219b7	0.12705122
14	0xbd8e6d84	-0.06954482
15	0x3ddbc3b5	0.107306875
16	0xbce95a9c	-0.028485589
17	0x3dffa54f	0.12482702
18	0xbc0c5d20	-0.008567125
19	0x3e48e35f	0.19617985
20	0x3cbf2da6	0.023337197
21	0xbd17e389	-0.03708223
22	0xbc6e8833	-0.01455884
23	0x3d932215	0.07184235
24	0x3d9e402e	0.07727085
25	0x3dd73256	0.10507648
26	0x3e27c82e	0.16384956
27	0x3c59669d	0.013269094
28	0x3d8c3c79	0.06847472
29	0xbd712a94	-0.058878496
30	0xbd3a286e	-0.045448713
31	0x3e0bdda9	0.13658775
32	0xbdbcf37e	-0.0922613
33	0x3d22244f	0.039585408
34	0x3d8712c7	0.06595378
35	0x3e010b94	0.12602073
36	0xbda9b9e4	-0.08287409
37	0x3e2597db	0.1617121
38	0x3dc623a2	0.09674765
39	0x3d09e43f	0.033664938
40	0xbd83e99b	-0.06441041
41	0x3daa5037	0.08316081
42	0x3d0a23cb	0.03372554
43	0x3d811acf	0.063039415
44	0xbd9272f3	-0.07150831
45	0xbd2ab26f	-0.041674074
46	0xbd0d1b68	-0.034449965
47	0xbcda656a	-0.026659686
48	0x3da0d722	0.07853533
49	0xbe44363e	-0.19161317
50	0xbddee20f	-0.10882961
51	0xbdd5462d	-0.104137756
52	0x3e2ae28c	0.16687983
53	0x3dd14b6e	0.10219465
54	0x3de15ff1	0.110046275
55	0x3d9665df	0.07343649
56	0x3e164e94	0.14678413
57	0x3d9f897d	0.07789896
58	0xbd3a06f8	-0.045416802
59	0x3e65ed92	0.22453907
60	0xbd2e31d2	-0.04252798
61	0x3c8a559f	0.01688653
62	0x3e3efcaf	0.18651079
63	0xbd60d412	-0.054889746
64	0x3e01e5b8	0.12685287
65	0x3e042950	0.12906384
66	0x3cc07b62	0.023496334
67	0x3e49d190	0.19708848
68	0xbd3b04df	-0.045658942
69	0x3dd11926	0.10209875
70	0x3e49eb58	0.19718683
71	0x3cbcc5dc	0.023043565
72	0xbdabd82b	-0.0839084
73	0xbdb3993a	-0.0876946
74	0xbca07ec7	-0.019591702
75	0xbe1b86d4	-0.15188152
76	0x3e099af0	0.1343801
77	0xbdcb34a4	-0.0992215
78	0x3e0f8cb8	0.14018524
79	0xbdacc6ed	-0.084363796
80	0x3dfb6972	0.122759715
81	0x3e00f02f	0.12591623
82	0x3deae2f7	0.11469071
83	0xbc9d2409	-0.019182222
84	0xbd461873	-0.04836316
85	0xbd3ae48a	-0.045628108
86	0x3de860dd	0.113466
87	0x3dd84c7f	0.105614655
88	0xbda3c3e8	-0.079963505
89	0x3e4c09b7	0.19925581
90	0xbd237f17	-0.039916124
91	0x3a837c0c	0.0010031476
92	0x3dc13c4b	0.09435328
93	0xbe0d7e53	-0.1381772
94	0xbc93e185	-0.018051872
95	0x3d99b84b	0.07505854
96	0x3e51a56e	0.20473263
97	0x3d8321bd	0.064029194
98	0xbdd7ad3d	-0.105310895
99	0xbe57ee17	-0.21086918
100	0x3ddda919	0.108232684
101	0x3e6c6d96	0.23088679
102	0xbc8edfe3	-0.017440742
103	0xbd68a370	-0.05679649
104	0x3e041e19	0.12902106
105	0xbe3d573c	-0.18490309
106	0xbce25432	-0.027628038
107	0xbc28b309	-0.010296592
108	0x3d59ab69	0.053141985
109	0x3e2ec054	0.17065555
110	0xbe3ec334	-0.18629152
111	0x3c577aad	0.013151807
112	0xbe47fb5e	-0.19529483
113	0xbe3337ce	-0.17501757
114	0xbd750d00	-0.05982685
115	0x3e07abfd	0.13249202
116	0xbe41c8f2	-0.18924311
117	0x3e804ce4	0.25058663
118	0x3d9c2804	0.0762482
119	0xbe3eb726	-0.18624553
120	0xbdb0a1d3	-0.086246155
121	0xbe0cb886	-0.13742265
122	0x3cb729cc	0.022358797
123	0x3d742cf9	0.0596132
124	0xbe4f4fb1	-0.20245244
125	0xbe032439	-0.12806787
126	0x3dc55f87	0.09637361
127	0x3d895bb6	0.067069456
128	0x3d40cdc5	0.047071237
129	0x3dc7023b	0.09717222
130	0x3de9d537	0.11417621
131	0xbdc9b9aa	-0.09849866
132	0x3dc2d83b	0.09513899
133	0xbdfcd609	-0.123455115
134	0xbd9f7a0e	-0.07786952
135	0x3dd20b13	0.102560185
136	0x3d8e72c4	0.069554836
137	0xbe43340a	-0.1906282
138	0xbe29877d	-0.16555591
139	0x3da0bd4a	0.07848604
140	0x3e0aa295	0.13538583
141	0xbd0c3a07	-0.034235027
142	0x3c83290c	0.016010784
143	0x3d332abd	0.04374193
144	0x3df3f036	0.11911051
145	0x3d19935e	0.037494056
146	0x3e4e3556	0.20137534
147	0x3e215c10	0.15757775
148	0x3e2d856e	0.1694543
149	0xbdc68f26	-0.09695272
150	0x3e0ea614	0.13930541
151	0x3d1fd915	0.039025385
152	0xbc901be3	-0.017591422
153	0xbda5a6fa	-0.08088489
154	0x3d9930fa	0.07480045
155	0x3d9789e2	0.07399346
156	0x3dd75ee8	0.10516149
157	0xbd190ec8	-0.037367612
158	0x3d8e86cb	0.069593035
159	0x3dd6e796	0.1049339
160	0x3d0c54a4	0.034260407
161	0x3ddfbaaa	0.10924275
162	0x3cf7d3f2	0.03025243
163	0x3e4452bc	0.19172186
164	0x3e530807	0.20608531
165	0x3e58d115	0.21173508
166	0xbcbad5cb	-0.022807023
167	0x3dac9ecf	0.08428728
168	0x3e265bdd	0.1624598
169	0xbc7d0d7b	-0.0154451085
170	0x3d342461	0.043980006
171	0x3d804791	0.0626365
172	0x3ded59f3	0.11589422
173	0xbbd21046	-0.0064106314
174	0xbdb05633	-0.08610191
175	0xbda84de6	-0.08217983
176	0xbd20c408	-0.03924945
177	0xbdaf7d13	-0.08568778
178	0xbd570934	-0.05249901
179	0xbd5f0cd9	-0.05445561
180	0xbb8e430e	-0.0043414896
181	0x3e17ee1c	0.14836925
182	0xbd9286b5	-0.071545996
183	0xbdd4b78b	-0.103865705
184	0x3af79cbe	0.0018891317
185	0xbe16de6f	-0.14733289
186	0xbc868aab	-0.016423544
187	0x3e25e78b	0.16201608
188	0xbd785b0d	-0.060633708
189	0x3e442123	0.19153266
190	0xbda6c341	-0.081427105
191	0x3ddc4508	0.10755354
192	0xbbeddb05	-0.007258775
193	0xbde7b205	-0.113132514
194	0xbe049a36	-0.12949452
195	0x3d8a5873	0.067551516
196	0x3de95044	0.113922626
197	0x3dbb4983	0.091448806
198	0x3d77d553	0.060506176
199	0xbc60ca5b	-0.01372012

lstm.weight_hh_l0 f4 [200, 50]
0	0x3d2782a8	0.040896088
1	0x3e5c116c	0.21491021
2	0x3dd2aac8	0.1028648
3	0xbd5de5fe	-0.054174416
4	0xbdd5b697	-0.10435217
5	0x3daf4cbe	0.08559559
6	0xbdbef8aa	-0.09324773
7	0xba942d6a	-0.0011305038
8	0x3df1823e	0.1179242
9	0xbd7e0aa9	-0.062021885
10	0x3d3fe14b	0.046845715
11	0xbd3546c4	-0.04425694
12	0xbdd5f508	-0.104471266
13	0xbd7a6033	-0.0611269
14	0x3c881154	0.016609825
15	0xbccef4f9	-0.025263296
16	0xbe4b5359	-0.19856013
17	0x3e091572	0.13387087
18	0x3d8ea9d5	0.06965987
19	0xbdd62ff2	-0.104583636
20	0x3deec024	0.11657742
21	0xbe1f17f4	-0.15536481
22	0xbcd4dcff	-0.025984285
23	0x3cc55774	0.024089552
24	0x3deee736	0.11665194
25	0xbe11b619	-0.14229621
26	0x3c9e45cf	0.019320397
27	0xbd3bbab1	-0.04583234
28	0x3dbefabc	0.093251675
29	0xbd58ed60	-0.052960753
30	0x3d1bb03a	0.03800986
31	0xbdea46c2	-0.11439277
32	0xbdc5bbc4	-0.09654954
33	0xbe262347	-0.16224395
34	0xbda41d53	-0.08013406
35	0x3dd45919	0.103685565
36	0x3d660a58	0.05616221
37	0xbe17e46c	-0.1483323
38	0xbddf5212	-0.109043255
39	0x3de901f5	0.113773264
40	0xbdb1630b	-0.08661469
41	0x3d471806	0.048606895
42	0xbdb832c2	-0.08994056
43	0x3de7296a	0.11287196
44	0xbd0dd0f9	-0.03462312
45	0x3d6fb90a	0.058526076
46	0x3dd49e8c	0.10381803
47	0xbdc6bdf5	-0.097042
48	0x3dccca3a	0.09999509
49	0x3cc54e47	0.024085177
50	0xbe8f34c5	-0.27969947
51	0x3d3c8221	0.046022538
52	0xbe6ef9c1	-0.23337461
53	0xbe45c551	-0.19313551
54	0x3e6a442f	0.22877572
55	0xbe6d84ac	-0.23195142
56	0xbe2e66fd	-0.17031474
57	0x3dc5c25e	0.09656213
58	0x3deb24fc	0.114816636
59	0x3e287289	0.16449942
60	0xbd423018	-0.047409147
61	0xbea09b2d	-0.3136839
62	0xbd942528	-0.072336495
63	0xbe55c29a	-0.20875016
64	0xbdd57716	-0.104231045
65	0x3dceeb55	0.1010348
66	0x3e271451	0.16316344
67	0x3d39f228	0.045396954
68	0x3e60ba46	0.21946058
69	0xbd8b5569	-0.068034
70	0xbdd6ec0e	-0.104942426
71	0xbd19d328	-0.03755489
72	0x3e0c2391	0.13685443
73	0xbe6908d8	-0.2275728
74	0x3dc51629	0.09623367
75	0x3e5e1f57	0.21691643
76	0xbc07fde5	-0.008300279
77	0x3dc0e1e9	0.09418089
78	0x3d60ed4c	0.054913804
79	0x3dbab880	0.09117222
80	0x3cd9eab4	0.026601173
81	0xbdf7c6f3	-0.120984934
82	0xbe01b43a	-0.12666407
83	0x3e660d70	0.22466063
84	0x3c736eb8	0.01485794
85	0xbde3f134	-0.1112999
86	0xbe0b6fd3	-0.13616876
87	0xbe2a314b	-0.16620366
88	0xbd554cde	-0.05207526
89	0x3c81fcfd	0.015867705
90	0xbe8f3190	-0.279675
91	0xbdb3492e	-0.08754192
92	0xbe96f492	-0.29483467
93	0x3eb11c01	0.34591678
94	0xbe1cefcf	-0.15325855
95	0x3db59a7f	0.088673584
96	0x3e50d096	0.20392069
97	0x3d81deaa	0.06341298
98	0xbe8171f5	-0.25282255
99	0x3e011ba1	0.12608196
100	0xbb3b0172	-0.0028534797
101	0x3e064968	0.1311394
102	0xbd679eb3	-0.05654783
103	0xbda01a1c	-0.0781748
104	0xbd282ca7	-0.04105821
105	0x3dab13b3	0.08353367
106	0x3de9e18d	0.114199735
107	0x3d556761	0.052100543
108	0x3d59c7b6	0.053168975
109	0xbd1fa4c1	-0.03897548
110	0x3c6b8836	0.014375737
111	0x3c9aa1d0	0.018875986
112	0xbd322128	-0.04348865
113	0xbde1649a	-0.11005516
114	0x3e0ff29a	0.14057389
115	0x3d693b42	0.05694128
116	0x3bd6a51b	0.006550444
117	0x3dad31ae	0.08456741
118	0x3e05f25c	0.13080734
119	0xbdf08016	-0.117431805
120	0xbdd1c24a	-0.10242136
121	0x3da77b5b	0.08177825
122	0x3ababb96	0.0014246579
123	0x3cb08828	0.0215493
124	0xbd7dc635	-0.061956603
125	0xbe33292a	-0.17496172
126	0xbdae35c4	-0.08506349
127	0xbadedad5	-0.0017002473
128	0x3dc34e69	0.0953644
129	0xbdb45808	-0.08805853
130	0x3da10853	0.07862916
131	0x3d667521	0.056264047
132	0xbd8fd3d1	-0.07022823
133	0x3ca5df12	0.02024797
134	0x3dbead17	0.09310358
135	0xbd364702	-0.044501312
136	0xbd504750	-0.05084926
137	0x3d0185e2	0.03162182
138	0xbd68a003	-0.056793224
139	0xbe069675	-0.13143332
140	0xbd95caae	-0.07314049
141	0x3e05a39c	0.13050693
142	0xbdf36a42	-0.118855014
143	0xbda41b47	-0.08013015
144	0xbdb7ddc7	-0.089778475
145	0x3d8a5102	0.06753732
146	0xbdf7c8a7	-0.12098818
147	0xbd15eec9	-0.036604676
148	0x3da5114a	0.08059938
149	0xbde8c529	-0.1136573
150	0x3da55ea6	0.080746934
151	0x3d96a315	0.07355324
152	0x3d57fc30	0.05273074
153	0xbdc179c7	-0.09447055
154	0xbde2103f	-0.11038255
155	0xbdd5ae81	-0.104336746
156	0xbd4be579	-0.04977939
157	0x3dcae245	0.09906439
158	0x3ce3450b	0.027742883
159	0x3dc2eb06	0.095174834
160	0x3da60654	0.08106676
161	0xbd633469	-0.055469904
162	0x3cab05d8	0.02087681
163	0x3d68f666	0.05687561
164	0x3db7e8f9	0.08979983
165	0x3de9a058	0.11407536
166	0x3ddc0e2f	0.10744893
167	0x3bb08f38	0.0053881668
168	0xbd0ef687	-0.034903076
169	0xbdeea270	-0.11652076
170	0xbd49e36e	-0.04928916
171	0x3e0bc8e9	0.1365086
172	0x3d9b4521	0.07581545
173	0xbd4e3333	-0.050341796
174	0x3d4d1efd	0.05007838
175	0xbce9b566	-0.02852888
176	0x3d9508fa	0.07277103
177	0x3cf53033	0.02993021
178	0xbe04d06f	-0.12970136
179	0xbe0cebf8	-0.1376189
180	0x3e06e664	0.13173825
181	0xbdfc263d	-0.12311981
182	0xbdd9226b	-0.10602268
183	0xbc787c01	-0.015166284
184	0x3d284dce	0.041089825
185	0x3dd03cfd	0.101678826
186	0x3e068268	0.13135684
187	0x3d87e805	0.06636051
188	0x3ca6356b	0.020289144
189	0x3d468e11	0.04847533
190	0x3d78eaf7	0.060770955
191	0x3df7b1ef	0.12094485
192	0xbdebb08a	-0.115082815
193	0xbd6d9e54	-0.05801232
194	0x3db24fa3	0.08706596
195	0x3cf63760	0.030055702
196	0xbdba0794	-0.09083477
197	0xbde4ce5a	-0.11172171
198	0xbe1a6f30	-0.15081477
199	0x3da4a7d3	0.080398224
200	0x3db7558c	0.08951864
201	0x3e0be001	0.1365967
202	0xbd76e8b8	-0.06028053
203	0x3e04b213	0.12958555
204	0x3d23d22f	0.03999537
205	0x3da0de4b	0.07854899
206	0xbc854f49	-0.016273158
207	0x3e0f7ca2	0.14012387
208	0x3de00ccf	0.10939943
209	0xbdaf9c27	-0.085747056
210	0xbdad59e5	-0.08464412
211	0xbd9bd9bd	-0.0760989
212	0xbd7c22dc	-0.061556682
213	0x3daa39a6	0.08311777
214	0xbe15424c	-0.14576072
215	0xbd2f299e	-0.0427643
216	0xbd285487	-0.041096237
217	0x3d1a55c7	0.03767946
218	0xbd6010e1	-0.054703597
219	0x3d909bb2	0.070609465
220	0x3ce54e59	0.02799146
221	0xbe12fb3e	-0.14353654
222	0x3debd34f	0.11514913
223	0x3d7b5f55	0.061370213
224	0x3d3b2b53	0.045695614
225	0x3de0fced	0.10985742
226	0xbdba251f	-0.090891115
227	0xbdfe19d4	-0.1240727
228	0x3c9f6da6	0.019461464
229	0xbdea58e4	-0.11442736
230	0xbd8976b0	-0.06712091
231	0xbd70bd5d	-0.05877434
232	0xbcdde5bd	-0.027087087
233	0x3dba6e50	0.09103072
234	0xbaadd7f3	-0.001326321
235	0xbd6a1325	-0.057147164
236	0xbd1a1697	-0.0376192
237	0xbe07fd28	-0.13280165
238	0x3dacdca9	0.08440525
239	0xbcd41b32	-0.025891874
240	0x3e1e0b7f	0.15434073
241	0x3cd36005	0.025802622
242	0xbdf7befe	-0.12096976
243	0xbde161f9	-0.11005015
244	0x3d2088f2	0.0391931
245	0xbbd78ccd	-0.006578064
246	0xbd11d9ef	-0.03560823
247	0xbd1aca10	-0.037790358
248	0xbdc1546f	-0.094399326
249	0x3b9b775d	0.004744454
250	0xbdc03f40	-0.09387064
251	0xbca11f59	-0.019668268
252	0x3d64a977	0.055825677
253	0x3e0569d2	0.13028648
254	0x3dd986f6	0.10621445
255	0x3dd3a1df	0.10333609

lstm.bias_ih_l0 f4 [200]
0	0xbdc2ea46	-0.0951734
1	0x3e9018ab	0.2814382
2	0xbd81db5a	-0.06340666
3	0xbe1295ce	-0.14314958
4	0xbd109fc6	-0.03530862
5	0x3b82d665	0.003992843
6	0x3e050aec	0.12992448
7	0xbde00b5e	-0.10939668
8	0x3d649517	0.055806246
9	0x3db74027	0.08947783
10	0x3df4ccf7	0.119531564
11	0xbdeb440a	-0.11487587
12	0xbd39e9b6	-0.0453889
13	0x3d48bfb1	0.049010936
14	0xbd129d2a	-0.035794415
15	0x3e0a3ae9	0.13499035
16	0x3d624ac7	0.055247094
17	0x3db55cbb	0.088555776
18	0x3e2e09b2	0.16995886
19	0x3dfc19bf	0.12309598
20	0xbdab952e	-0.08378063
21	0xbbf8e514	-0.0075956676
22	0x3d6d3a9b	0.05791722
23	0x3d7baf43	0.06144644
24	0x3dc57dbe	0.09643124
25	0x3dea3eed	0.114377834
26	0x3b96b5a4	0.00459929
27	0x3c8508d4	0.016239561
28	0xbd744b26	-0.05964198
29	0xbda0d8f5	-0.07853881
30	0x3d244766	0.040107153
31	0x3dcce7bf	0.100051396
32	0x3e056d24	0.13029915
33	0xbb0c528c	-0.0021411506
34	0x3dd84f15	0.10561959
35	0x3cfea2fe	0.03108358
36	0xbdb84a76	-0.08998577
37	0x3e1cddde	0.1531901
38	0xbca2baab	-0.0198644
39	0x3c45acb7	0.012065104
40	0x3d337cfe	0.043820374
41	0xbd833abf	-0.06407689
42	0xbda58090	-0.08081162
43	0xbd5b7044	-0.05357386
44	0x3c7da5e1	0.015481443
45	0x3dc90b23	0.09816577
46	0x3e02e2e7	0.12781869
47	0x3cef75f9	0.029231058
48	0xbce186d5	-0.027530113
49	0x3e1cf813	0.15329008
50	0xbd7a8bec	-0.061168596
51	0x3d994a00	0.074848175
52	0xbdcac2df	-0.0990045
53	0xbd305659	-0.043051098
54	0x3e14ea9a	0.14542618
55	0xbd5cb31a	-0.053881742
56	0x3d93c370	0.07215011
57	0x3dcfa7ed	0.10139451
58	0x3c98271b	0.018573334
59	0x3bb36ed0	0.0054758564
60	0x3d380d67	0.044934656
61	0xbe1cc34b	-0.15308873
62	0x3dc56ff6	0.096404955
63	0xbd87ad77	-0.06624883
64	0x3c9f6eef	0.019462077
65	0x3d51964a	0.051168717
66	0xbd813a07	-0.06309896
67	0x3dbd4ed0	0.09243548
68	0xbb937a89	-0.0045006913
69	0x3df9b4c9	0.12192685
70	0x3c8c0272	0.01709101
71	0x3d482d35	0.048871238
72	0x3d1037f7	0.035209622
73	0x3d3dafcc	0.04631023
74	0x3c43698c	0.01192702
75	0x3ce6dbd1	0.028180989
76	0x3de13cd6	0.10997932
77	0x3d51cbc5	0.05121972
78	0xba94c9d2	-0.0011351651
79	0x3c9f15f8	0.019419655
80	0x3d54372d	0.051810432
81	0x3d7b87b8	0.06140873
82	0x3a9af5b2	0.001182249
83	0xbd189733	-0.03725357
84	0xbe1e6154	-0.15466815
85	0xbe02d4d9	-0.12776507
86	0xbcd1078c	-0.025516294
87	0xbdc0e2da	-0.094182685
88	0x3db53cbb	0.08849474
89	0x3cca9a71	0.024731847
90	0xbd9356c5	-0.07194284
91	0xbd0b6ffb	-0.03404234
92	0xbdf8498d	-0.12123404
93	0xbd62ebd4	-0.055400684
94	0x3dd2d37d	0.102942444
95	0xbdeb8c71	-0.115013964
96	0xbdd81289	-0.1055041
97	0x3cd9f704	0.026607044
98	0x3e10dd3d	0.14146896
99	0x3e097918	0.134251
100	0xbca8abb2	-0.020589683
101	0x3d4b1941	0.04958463
102	0xba9ebd34	-0.001211083
103	0xbd653047	-0.055954244
104	0x3e0a5b9a	0.13511506
105	0xbe0581af	-0.13037752
106	0xbd41d609	-0.04732326
107	0x3d91bbdf	0.07115912
108	0xbda15c23	-0.07878902
109	0xbd02e638	-0.031957835
110	0xbd8bb4e3	-0.06821611
111	0x3c529346	0.012852496
112	0xbddd1505	-0.10795025
113	0x3d0c1d89	0.034207854
114	0xbd1b6a89	-0.037943397
115	0x3d41e358	0.047335953
116	0x3dfb5850	0.12272704
117	0x3d571056	0.052505814
118	0xbcf1f5e5	-0.029536197
119	0xbd2d6778	-0.042335004
120	0xbdff059b	-0.12452241
121	0xbd1d6170	-0.038423
122	0x3d45d7a5	0.048301358
123	0x3d80db9b	0.062918864
124	0x3e21eabb	0.15812199
125	0x3d47aa2f	0.048746284
126	0x3d6f68e1	0.05844963
127	0x3d6371cd	0.05552845
128	0x3e0de75d	0.1385779
129	0xbd58958b	-0.05287699
130	0x3d4d14b2	0.050068565
131	0xbd20a168	-0.03921643
132	0xbdfd0dff	-0.12356185
133	0x3c6af6ae	0.01434104
134	0x3e0f63ea	0.14002958
135	0xbb260576	-0.0025332845
136	0xbdf8e12b	-0.121523224
137	0x3cc8e20a	0.024521846
138	0x3d530050	0.05151397
139	0xbd532861	-0.05155218
140	0x3cbf93dd	0.023385936
141	0xbdfcc4ce	-0.12342225
142	0xbdd078d2	-0.10179295
143	0x3df7c4e7	0.12098103
144	0xbdef5461	-0.11686016
145	0xbaf1ad54	-0.0018438497
146	0x3d00585f	0.031334277
147	0xbc82f140	-0.015984178
148	0xbca164a8	-0.019701317
149	0x3df2e1b4	0.11859456
150	0x3e15cc65	0.14628752
151	0x3ead38db	0.3383244
152	0x3e0009a6	0.1250368
153	0x3c8e3686	0.017359983
154	0x3d97e99f	0.074176066
155	0x3dab5eb9	0.08367676
156	0xbd14bf63	-0.036315333
157	0x3db6f47c	0.089333504
158	0xbd0d75a4	-0.03453602
159	0x3b2b3bf4	0.0026128264
160	0xbbe59a1f	-0.007006898
161	0x3ce10c66	0.027471732
162	0xbdc8fc76	-0.09813778
163	0x3db91de6	0.09038906
164	0x3e0a9c96	0.13536295
165	0x3da63679	0.081158586
166	0xbd18d342	-0.037310846
167	0x3deb0fef	0.114776485
168	0x3d992ab7	0.0747885
169	0x3d3232bb	0.04350541
170	0xbdb50e9f	-0.088406794
171	0xbd706a9a	-0.058695413
172	0xbd2c1b7c	-0.0420184
173	0x3e14ae1a	0.1451954
174	0x3cf5d7e0	0.030010164
175	0xbc3495e8	-0.011022069
176	0xbc9fac02	-0.0194912
177	0x3cb14821	0.021640839
178	0x3e0cb3b6	0.1374043
179	0xbd922d81	-0.071375854
180	0x3d29e00a	0.041473426
181	0x3d6c94bc	0.05775903
182	0x3dcb7b1b	0.0993559
183	0xbdd218b8	-0.10258621
184	0x3c394aa0	0.011309296
185	0x3db69278	0.089146554
186	0xbc848949	-0.016178744
187	0xbddb159e	-0.106974825
188	0xbce641ce	-0.02810755
189	0x3dbe3290	0.09286988
190	0xbd925ae9	-0.07146246
191	0x3e1d7920	0.15378237
192	0x3dda8bb1	0.10671175
193	0x3c3269c2	0.010889472
194	0x3e05d028	0.13067687
195	0xbd868ee7	-0.06570225
196	0x3dacb35f	0.0843265
197	0x3e210458	0.15724313
198	0xbdc1bff3	-0.094604395
199	0x3e3a4e67	0.1819397

lstm.bias_hh_l0 f4 [200]
0	0xbd09865b	-0.033575397
1	0x3e4e3dcb	0.2014076
2	0xbdf28b5b	-0.11842986
3	0x3daadde8	0.083431065
4	0x3d9b1604	0.075725585
5	0xbdbe5e1f	-0.09295296
6	0x3b86fc85	0.004119458
7	0xbc89486d	-0.016758168
8	0xbb906d04	-0.004407527
9	0xbd8a5f35	-0.067564406
10	0xbd8ee8e3	-0.06978013
11	0xbdd8009e	-0.10546993
12	0x3e071d03	0.13194661
13	0x3d817d22	0.06322695
14	0xbd20dc8c	-0.03927283
15	0x3e284145	0.16431148
16	0x3e295b38	0.16538703
17	0x3c8c91e1	0.017159404
18	0x3dd41bbe	0.10356854
19	0xbcb4d9bd	-0.022076482
20	0x3d10fd22	0.035397656
21	0x3e05f42c	0.13081425
22	0xbdd94633	-0.106090926
23	0x3e209864	0.15683132
24	0x3da05b34	0.078298956
25	0x3e2e9af5	0.17051299
26	0x3db2efc2	0.087371364
27	0xbd8d0742	-0.0688615
28	0x3dcb0498	0.099129856
29	0x3d2537c9	0.040336404
30	0x3e04df5a	0.12975827
31	0x3e045639	0.12923516
32	0xbbc1c4d9	-0.0059133586
33	0x3d738101	0.0594492
34	0xbda30355	-0.0795962
35	0xbdc46341	-0.09589244
36	0x3d8aaeae	0.06771599
37	0xbb85a47c	-0.004078446
38	0xbddf2e90	-0.10897553
39	0x3de21853	0.11039796
40	0x3dab6d92	0.08370508
41	0x3dc141e9	0.094363995
42	0x3dd6b682	0.10484029
43	0xbd46cdf6	-0.048536263
44	0x3d9c8e15	0.076442875
45	0xbda2edf9	-0.07955546
46	0xbd2fc623	-0.042913567
47	0x3d985d47	0.07439666
48	0x3dd0f538	0.10203022
49	0x3e046055	0.12927373
50	0xbda54bef	-0.08071124
51	0x3e1528c4	0.14566332
52	0xbd8ddbb6	-0.06926672
53	0x3db1aa4a	0.08675058
54	0x3c9d07ba	0.019168723
55	0x3d5103dc	0.05102907
56	0xbd35abde	-0.04435336
57	0xbd932b5b	-0.07186004
58	0xbc208868	-0.009798147
59	0xbdccfb70	-0.100088954
60	0x3cf2bfdf	0.029632507
61	0x3d1f1ff4	0.038848832
62	0x3dd87564	0.105692655
63	0xbda5d9dc	-0.08098194
64	0x3d8e67e0	0.06953406
65	0x3d76b79d	0.0602337
66	0xbd661027	-0.056167748
67	0x3d1abb30	0.037776172
68	0xbd105618	-0.035238355
69	0x3b1e87e5	0.0024189886
70	0xbdeeb865	-0.11656264
71	0x3a577a67	0.00082198385
72	0x3d5799bb	0.052636843
73	0x3d62f59a	0.055410005
74	0xbd62f4f3	-0.055409383
75	0x3da558b0	0.080735564
76	0x3d8aff34	0.067869574
77	0xbdb48183	-0.08813765
78	0xbcdc6fb6	-0.026908737
79	0xbccd74ac	-0.025080048
80	0x3cab0a92	0.020879064
81	0x3dbc460c	0.09193048
82	0x3cb2a440	0.021806836
83	0x3df7ac43	0.12093403
84	0xbbe98563	-0.0071264966
85	0x3dad224b	0.084538065
86	0x3dd6dbb4	0.10491124
87	0x3e1271fb	0.14301293
88	0xbdef0c69	-0.11672289
89	0xbdc97b9f	-0.09838032
90	0xbdeb19b1	-0.114795096
91	0x397fa729	0.00024380967
92	0xbd08c61d	-0.03339206
93	0x3de2ee05	0.11080555
94	0x3db454a9	0.0880521
95	0xbe1f4589	-0.1555387
96	0x3d88cc62	0.06679608
97	0xbd1a676a	-0.03769628
98	0xbd8dace0	-0.06917739
99	0xbd86c823	-0.06581142
100	0xbe0362a1	-0.12830593
101	0xbd90cebb	-0.07070681
102	0xbd92cfc4	-0.071685344
103	0xbaf69d74	-0.0018815235
104	0xbca5cffd	-0.020240778
105	0xbd3c060f	-0.045904215
106	0x3be40ffa	0.0069599124
107	0x3e043969	0.12912525
108	0x3d823dc5	0.06359438
109	0x3e1398aa	0.14413705
110	0xbd591218	-0.05299577
111	0xbdec9014	-0.11550918
112	0xbd493f9b	-0.049132925
113	0xbce4d091	-0.027931483
114	0xbd0b7703	-0.034049045
115	0xbd8766f2	-0.06611432
116	0x3d1c6ffb	0.03819273
117	0xbc1dd133	-0.0096323965
118	0x3d6fc6c2	0.05853916
119	0xbd8d0145	-0.06885008
120	0x3de5e4fe	0.112253174
121	0xbdee1684	-0.11625388
122	0x3dc4e50b	0.09613999
123	0xbe10680d	-0.14102192
124	0xbd0b0ad9	-0.033945892
125	0xbbf5edf5	-0.0075051733
126	0x3d45fd61	0.048337344
127	0x3cd27c0f	0.025693921
128	0xbd587d9d	-0.05285417
129	0x3da25a3c	0.07927367
130	0x3d4a0b4e	0.049327187
131	0xbd9cc8c7	-0.07655483
132	0x3d3b6eb8	0.045759887
133	0xbd3699e2	-0.044580348
134	0xbde4467a	-0.11146255
135	0xbba5c9fe	-0.0050594797
136	0xbe201336	-0.15632328
137	0xbe130310	-0.14356637
138	0xbbc9b432	-0.006155514
139	0x3e069e8b	0.13146417
140	0xbc0b08d0	-0.008485988
141	0xbccf201a	-0.025283862
142	0xbd4be34b	-0.04977731
143	0x3c1c1dbb	0.009528573
144	0xbd14686e	-0.036232404
145	0x3dc1493b	0.09437796
146	0x3d1fa5e4	0.038976565
147	0x3d5e9006	0.05433657
148	0x3cdd9af4	0.027051426
149	0xbd8142a6	-0.0631154
150	0xbda86fe2	-0.08224465
151	0x3e270d50	0.16313672
152	0xbd283cb5	-0.04107352
153	0xbdf27ae9	-0.118398495
154	0x3cac5c7e	0.021040197
155	0xbdb3dbd1	-0.08782161
156	0x3e197226	0.1498495
157	0xbda9086a	-0.08253558
158	0x3df116e0	0.11771941
159	0x3d385e8a	0.045012034
160	0x3e261541	0.16219045
161	0xbe223061	-0.15838768
162	0x3c7684de	0.015046326
163	0xbbdfcf09	-0.0068301004
164	0x3d3cfd5d	0.046140064
165	0x3c38897b	0.011263247
166	0x3dfd11a3	0.123568796
167	0x3d8922e1	0.06696106
168	0xbd085ec1	-0.03329349
169	0x3e211007	0.1572877
170	0x3de4619f	0.11151432
171	0xbdca6b9d	-0.09883807
172	0x3d5b30a2	0.053513177
173	0x3df6951d	0.1204016
174	0x3e377d0c	0.17918795
175	0x3c72d2a2	0.014820727
176	0xbd5dbb92	-0.05413396
177	0xbd58a9b6	-0.052896224
178	0x3df8ed4a	0.12154634
179	0xbe03a589	-0.12856115
180	0xbc9e98fe	-0.019360062
181	0x3e1cc14c	0.15308112
182	0xbd99d5ef	-0.07511508
183	0x3de9ee44	0.11422399
184	0xbc7ef6ba	-0.015561754
185	0x3d61201e	0.05496227
186	0x3d901811	0.0703584
187	0x3d923e19	0.071407504
188	0xbd9ec9e6	-0.07753353
189	0x3d93a758	0.07209653
190	0x3e0a166d	0.13485117
191	0xbdb34026	-0.0875247
192	0xbde597c3	-0.11210587
193	0xba377ed9	-0.0006999798
194	0x3d8bb46e	0.068215236
195	0x3d5f83ee	0.054569177
196	0x3d032d94	0.03202589
197	0xbda2e589	-0.079539366
198	0x3d9782df	0.073980086
199	0xbd0a07db	-0.033698898

lstm.weight_ih_l1 f4 [200, 50]
0	0xbd1d2d8e	-0.038373522
1	0x3d9a5545	0.07535795
2	0xbe01528e	-0.12629148
3	0xbdc7ed5c	-0.097620696
4	0x3d732a19	0.05936632
5	0xbb829a80	-0.003985703
6	0xbd21ca3a	-0.0394995
7	0x3d496451	0.049167935
8	0x3d89ab6b	0.067221485
9	0x3e193733	0.14962463
10	0xbbed19df	-0.00723575
11	0xbdf97e68	-0.12182313
12	0xbd5be4e6	-0.05368509
13	0xbe351537	-0.17683874
14	0xbd0afcd6	-0.03393253
15	0x3d41e8fd	0.047341336
16	0xbdd97467	-0.10617905
17	0x3de944f0	0.11390102
18	0x3e00fd03	0.12596516
19	0xbcf06c49	-0.02934851
20	0xbe258b82	-0.161665
21	0x3c3876ad	0.011258763
22	0x3dc57c87	0.09642892
23	0x3d232f6b	0.039840143
24	0xbe1b176d	-0.15145655
25	0xbd396f67	-0.045272257
26	0xbd446b80	-0.047954082
27	0xbd81ede6	-0.06344204
28	0x3cc2adcd	0.023764515
29	0xbb85d3b9	-0.004084077
30	0xbd98abfb	-0.07454678
31	0x3c48fe26	0.012267625
32	0x3db7267e	0.08942889
33	0x3d06f7e1	0.03295124
34	0xbe339477	-0.17537104
35	0x3e5a9b4a	0.213483
36	0xbd84fd22	-0.06493594
37	0xbdec7e00	-0.1154747
38	0x3c0de6a2	0.008660944
39	0x3e24a87c	0.16079897
40	0x3d2dc200	0.04242134
41	0xbe345530	-0.17610621
42	0xbe1cda39	-0.1531762
43	0x3d635b6e	0.055507116
44	0x3e08089b	0.13284533
45	0xbdbff647	-0.093731456
46	0xbd942271	-0.07233132
47	0xbd0f5f26	-0.03500285
48	0x3d9842d5	0.07434622
49	0xbd68a1e8	-0.05679503
50	0xbdd125ca	-0.10212286
51	0x3d6af9a4	0.057366982
52	0x3d79db40	0.06100011
53	0xbd9c48d9	-0.07631082
54	0xbd83d3a6	-0.06436853
55	0x3d215780	0.039390087
56	0xbdeb9165	-0.11502341
57	0xbdb16ff6	-0.08663933
58	0xbc2ba2ef	-0.010475858
59	0xbbd884b5	-0.006607617
60	0xbd884c92	-0.0665523
61	0xbd9de960	-0.077105284
62	0x3d1816ee	0.037131242
63	0xbbaee713	-0.005337605
64	0xbd8dc967	-0.0692318
65	0x3cdf9306	0.027291786
66	0xbda9dcfa	-0.08294101
67	0x3ce03230	0.027367681
68	0x3d86bed4	0.06579366
69	0x3ca380fe	0.01995897
70	0xbded7f30	-0.11596525
71	0xbdf935d7	-0.12168472
72	0xbc4a9d85	-0.012366657
73	0xbd998bf6	-0.074973986
74	0xbcb1b134	-0.021690942
75	0x3d4e5c24	0.05038084
76	0x3ddfa164	0.10919455
77	0x3cee2c50	0.029073864
78	0x3dba0556	0.09083049
79	0xba871171	-0.001030488
80	0xbc0341fb	-0.008011336
81	0xbc8adc6c	-0.016950808
82	0x3ce0f343	0.027459746
83	0xbe08ef31	-0.13372494
84	0xbde4979c	-0.1116173
85	0xbdaa51dc	-0.08316395
86	0x3db25a8f	0.08708679
87	0x3d654bac	0.05598037
88	0xbdd76ff8	-0.10519403
89	0xbca81167	-0.02051611
90	0x3e335a15	0.17514832
91	0xbd780fe7	-0.06056204
92	0xbdec1d46	-0.11529021
93	0x3dd1ce3f	0.102444164
94	0xbcd3d252	-0.025857124
95	0x3dfa371d	0.12217543
96	0xbc73cc9d	-0.014880327
97	0x3dbb16b7	0.09135192
98	0x3d6ee9dd	0.0583285
99	0x3d7991a0	0.060929894
100	0xbe0dc3ea	-0.13844267
101	0x3d866a54	0.06563249
102	0xbe1fa226	-0.15589198
103	0x3dc632b2	0.09677638
104	0xbd4cebcb	-0.050029557
105	0xbdc0ee94	-0.09420505
106	0x3d73c811	0.05951697
107	0xbd3236d8	-0.043509334
108	0x3de25684	0.11051658
109	0x3dba8901	0.09108163
110	0x3dbee1b9	0.09320397
111	0xbddb4ae3	-0.10707643
112	0xbdd86b65	-0.10567359
113	0xbc2ec5ef	-0.010667308
114	0x3d20120e	0.03907972
115	0x3de6d956	0.11271922
116	0xbd7a7270	-0.061144292
117	0x3e5fb0fb	0.21844856
118	0x3de531f3	0.11191168
119	0x3c53a88a	0.012918601
120	0xbe17bb36	-0.14817509
121	0xbcf90fd5	-0.030403057
122	0x3e14ba6a	0.14524236
123	0xbcb93a6e	-0.02261087
124	0xbe051dfb	-0.12999718
125	0xbddff466	-0.10935287
126	0x3df9dd83	0.12200453
127	0xbd479172	-0.04872269
128	0xbd56c0dd	-0.052430023
129	0x3d0531b9	0.032518122
130	0x3e13309f	0.14374016
131	0x3cb4aa7f	0.022053955
132	0x3d658cf6	0.056042634
133	0x3d35a0dc	0.04434286
134	0xbe0a4e9d	-0.13506551
135	0x3ceb5294	0.0287259
136	0xbd5aa9d4	-0.053384617
137	0xba2ca2de	-0.00065855484
138	0xbe270465	-0.1631027
139	0x3dbe9a52	0.09306778
140	0x3dc6ee3b	0.097134076
141	0x3d67425e	0.056459777
142	0x3d354c6b	0.04426233
143	0x3e1ec4c8	0.15504754
144	0xbc49e4f7	-0.012322656
145	0x3de159a0	0.11003423
146	0x3d5710be	0.0525062
147	0xbc3e12c3	-0.011601153
148	0x3e07ada6	0.13249835
149	0xba8f4745	-0.0010931274
150	0x3caa4621	0.020785393
151	0xbdb678de	-0.08909772
152	0x3dd8c48e	0.10584365
153	0xbd84808e	-0.06469832
154	0x3dcd2e96	0.10018651
155	0xbdc7c516	-0.09754388
156	0xbde33693	-0.110943936
157	0xbc8db525	-0.01729829
158	0x3db548a5	0.088517465
159	0xbcf90607	-0.030398382
160	0x3d90ec22	0.07076289
161	0xbd0abf40	-0.033873796
162	0x3cc320c5	0.023819337
163	0x3d5c6cee	0.05381482
164	0xbdd1858c	-0.1023055
165	0x3e4935f3	0.19649486
166	0x3b07f716	0.002074664
167	0x3e22d062	0.15899804
168	0x3d57e509	0.05270866
169	0xbda927b3	-0.08259525
170	0x3c104976	0.008806577
171	0xbd8c51eb	-0.06851562
172	0x3dd2a5ce	0.10285531
173	0xbe297dea	-0.16551939
174	0xbc54fee2	-0.013000222
175	0xbd98ff8b	-0.07470616
176	0x3dbe9b68	0.09306985
177	0xbe00b5d8	-0.12569368
178	0x3ce9be54	0.028533138
179	0xbd4e2cc2	-0.050335653
180	0xbddf3d82	-0.109004036
181	0x3db7d674	0.089764506
182	0x3d7e595d	0.062096942
183	0x3deddb32	0.11614074
184	0xbd2509c0	-0.0402925
185	0x3d088b1d	0.033335794
186	0x3e0e702a	0.13909975
187	0x3d068f8c	0.03285174
188	0x3bd6b7a0	0.0065526515
189	0x3d8a4300	0.067510605
190	0x3ddde402	0.10834505
191	0xbd4739dc	-0.048639163
192	0xbd1a5061	-0.03767431
193	0xbdbbdffd	-0.09173582
194	0xbd7cf807	-0.061759975
195	0x3de9a622	0.114086404
196	0xbc479fb2	-0.01218407
197	0x3d531c4e	0.051540665
198	0xbdb15ef5	-0.0866069
199	0xbd18a3a7	-0.037265446
200	0x3de89395	0.11356274
201	0x3cb9c27d	0.022675747
202	0x3e03000d	0.12792988
203	0xbd88ebb8	-0.06685585
204	0xbd16ac5b	-0.036785465
205	0xbc92d4db	-0.017923763
206	0x3c5e293b	0.013559635
207	0x3ce54151	0.027985247
208	0xbe0c842b	-0.13722293
209	0xbd6622c4	-0.0561855
210	0xbdf8922e	-0.121372566
211	0xbe01fe6e	-0.12694713
212	0x3d030c98	0.031994432
213	0xbdc32f3a	-0.09530492
214	0xbdc375b8	-0.095439374
215	0x3dc1d935	0.09465257
216	0xbdcea087	-0.10089212
217	0x3d0d17ce	0.03444653
218	0x3e0b0ea3	0.13579802
219	0xbe2497cc	-0.16073531
220	0x38b8ab6c	8.8057335e-05
221	0xbdc6daf0	-0.09709728
222	0xbcd8b15c	-0.026451759
223	0xbb9a6c9e	-0.004712655
224	0xbe158e56	-0.14605078
225	0xbe4b390a	-0.19845977
226	0x3deb1e4e	0.114803895
227	0xbd9deeaa	-0.07711537
228	0xbc2f50bf	-0.010700404
229	0xbdb7c41f	-0.08972954
230	0xbd0a28b3	-0.03373022
231	0x3d36960b	0.044576686
232	0x3e078151	0.13232924
233	0xbc71dca1	-0.014762075
234	0xbdeb9e54	-0.11504808
235	0xbcf1ef0c	-0.029532932
236	0xbc175d3d	-0.009238538
237	0x3d9538c9	0.072862215
238	0xbe04e3b6	-0.1297749
239	0x3d306448	0.043064386
240	0x3cc6fe5a	0.024291206
241	0xbd1dfe15	-0.03857239
242	0xbdfdb3d4	-0.12387815
243	0x3de3a20e	0.11114894
244	0xbc58fac7	-0.013243384
245	0x3da0c5b0	0.07850206
246	0xbad3ac43	-0.001614936
247	0xbdba0e24	-0.09084728
248	0xbd0d1a0c	-0.03444867
249	0xbdd9d6df	-0.106366865
250	0x3d11c7cf	0.035590943
251	0x3e09d1c9	0.13458933
252	0xbe00a3d6	-0.12562498
253	0x3d973127	0.07382422
254	0xbbff80d1	-0.0077973385
255	0xbd475d25	-0.048672814

lstm.weight_hh_l1 f4 [200, 50]
0	0xbdec66ad	-0.11543021
1	0xbd915cf4	-0.070978075
2	0xbd7593d4	-0.059955433
3	0x3d29fe5e	0.04150235
4	0xbdf663cf	-0.12030756
5	0x3dd50ad4	0.10402456
6	0x3dae873c	0.08521888
7	0xbbfa8297	-0.007644962
8	0x3da3f515	0.0800573
9	0x3c6d17d2	0.014471011
10	0xbc28723a	-0.01028114
11	0x3d9c1872	0.0762185
12	0x3c61dfa5	0.013786231
13	0x3ce90f49	0.028449671
14	0x3cc16c5f	0.023611246
15	0xbdf7fdac	-0.12108931
16	0xbd5ae304	-0.053439155
17	0xbd54dfd0	-0.051971257
18	0xbcf8587d	-0.030315632
19	0xbc37a462	-0.0112086255
20	0xbe15c5c8	-0.14626229
21	0xbae7aed1	-0.0017676001
22	0xbdbb1e2b	-0.091366135
23	0x3dfe905a	0.124298766
24	0x3cb73907	0.02236606
25	0xbe0fb368	-0.14033282
26	0x3d10001d	0.035156358
27	0xbdc8cae1	-0.09804321
28	0xbd418342	-0.047244318
29	0xbd455222	-0.04817403
30	0xbe17ffe0	-0.14843702
31	0xbd1d13f4	-0.038349107
32	0xbd7ed5bd	-0.062215555
33	0xbe04e47d	-0.12977786
34	0x3e003dd0	0.1252358
35	0xbd0d0c0a	-0.03443531
36	0xbdf56786	-0.11982636
37	0xbdcdbd34	-0.10045853
38	0x3c154cb4	0.009112526
39	0xba3d6fa9	-0.00072264165
40	0xbb47ea22	-0.0030504544
41	0xbe210d19	-0.15727653
42	0x3d066448	0.03281048
43	0xbd544e2a	-0.051832356
44	0xbc310a1c	-0.010805633
45	0x3c8a6cbf	0.016897557
46	0xbe1a19bf	-0.15048884
47	0x3da6241e	0.081123576
48	0x3d505150	0.050858796
49	0x3d66db9c	0.05636178
50	0x3df433a7	0.119239144
51	0x3dfc87ba	0.12330575
52	0x3d688ca5	0.056774754
53	0xbdb1d14e	-0.086825
54	0x3d1989a0	0.037484765
55	0x3e0a5fcd	0.13513108
56	0x3dd2ba4d	0.1028944
57	0xbac9aa82	-0.0015385898
58	0xbd80c925	-0.06288365
59	0xbe18f834	-0.14938432
60	0x3ddd39e6	0.10802059
61	0x3db58929	0.08864052
62	0xbd94a289	-0.072575636
63	0xbdcc80d3	-0.09985509
64	0x3cadd4a8	0.021219566
65	0xbd9f43fb	-0.07776638
66	0x3d0b7f36	0.034056865
67	0xbe157726	-0.14596233
68	0x3d0ded20	0.03464997
69	0x3da890b0	0.08230722
70	0xbe1263b5	-0.14295848
71	0x3d4cd300	0.050005913
72	0x3e0422ea	0.12903944
73	0x3dc5bfea	0.09655745
74	0xbda58941	-0.0808282
75	0xbe2500ce	-0.16113588
76	0xbdf3017a	-0.11865516
77	0x3dc85c61	0.09783245
78	0x3c83d91a	0.016094733
79	0xbdaf206e	-0.08551107
80	0x3e0c8667	0.13723145
81	0x3c6dde89	0.014518389
82	0x3daeefd1	0.08541835
83	0xbe1656fa	-0.14681616
84	0xbe1bc41a	-0.15211526
85	0x3dd1cf57	0.10244625
86	0x3daab476	0.083352014
87	0x3e235c31	0.15953137
88	0x3c9b0f3e	0.018928166
89	0x3da69291	0.08133424
90	0x3de96f16	0.11398141
91	0xbd3eab57	-0.04655012
92	0x3b64ff50	0.0034942217
93	0xbca311be	-0.019905921
94	0x3df82797	0.12116926
95	0x3ddf44ea	0.10901816
96	0x3ddedaaf	0.10881554
97	0x3cd61a44	0.026135571
98	0xbda79992	-0.08183588
99	0xbc0a1a49	-0.008429118
100	0xbe08b855	-0.13351567
101	0x3d7c428e	0.06158691
102	0xbd2cab9a	-0.04215584
103	0x3dc8b5bc	0.09800288
104	0x3e04b8d1	0.12961127
105	0x3d9d4e5b	0.07680961
106	0x3e0d0d76	0.13774666
107	0x3c6e706e	0.0145531725
108	0x3d6e0dd9	0.058118675
109	0xbbbb7791	-0.0057210405
110	0x3d6804a0	0.056645036
111	0xb91d1340	-0.00014979858
112	0xbd929c98	-0.07158774
113	0xbe20c0bf	-0.15698527
114	0x3e19c91e	0.15018126
115	0xbd5caa27	-0.053873207
116	0x3d2172bf	0.03941607
117	0x3c9eb59e	0.019373711
118	0xbc1d8fd6	-0.009616813
119	0x3dff4f32	0.12466277
120	0xbd9ef9ef	-0.07762515
121	0xbd2e697a	-0.04258106
122	0xbd752d80	-0.059857845
123	0xbd8dfb62	-0.06932713
124	0xbb4cabdd	-0.0031230368
125	0xbdadc53d	-0.08484886
126	0x3df8b5bd	0.12144039
127	0x3c513335	0.012768556
128	0x3ddef065	0.10885695
129	0x3cb630a6	0.022239994
130	0xbb9bb1d3	-0.004751423
131	0x3da1e345	0.07904676
132	0xbd8f453c	-0.06995627
133	0xbd80bab2	-0.06285609
134	0x3ad7ea3b	0.0016473004
135	0x3cae40d5	0.021271149
136	0xbe03f30b	-0.12885682
137	0x3e03e1c4	0.12879092
138	0x3d7cc6f5	0.061713178
139	0xb9d5b48a	-0.00040761038
140	0x3d311472	0.04323239
141	0x3cc98ca1	0.02460319
142	0xbd817f40	-0.06323099
143	0x3e239023	0.15972953
144	0x3d3f3b42	0.046687372
145	0xbccc7b01	-0.024960997
146	0x3de04f30	0.10952604
147	0xbc6298d6	-0.013830384
148	0xbbb90972	-0.005646878
149	0xbdf780b2	-0.120850936
150	0x3bce9e8b	0.006305521
151	0x3e110a69	0.14164127
152	0x3ddc59b1	0.10759295
153	0x3d9a9c9b	0.075494014
154	0xbe3db522	-0.18526128
155	0xbc20b38a	-0.00980843
156	0x3d035d4c	0.032071397
157	0x3dc386f4	0.09547225
158	0x3cc54d26	0.024084639
159	0x3ddff83e	0.1093602
160	0x3da3a4ad	0.07990394
161	0x3c34334b	0.010998557
162	0x3e0bf525	0.13667734
163	0x3d9a0d77	0.075220995
164	0xbcb437e6	-0.02199931
165	0xbb17a642	-0.002313987
166	0x3e0423c4	0.12904269
167	0x3d66bc93	0.056332182
168	0xbd1d1f8c	-0.038360164
169	0xbdfe9664	-0.124310285
170	0xbd65c9ac	-0.056100532
171	0x3cb5c76a	0.022189815
172	0x3d421f35	0.047393043
173	0x3e0b4b89	0.13603033
174	0xbd8d9cf5	-0.06914703
175	0xbdc11e24	-0.09429577
176	0xbd2344b9	-0.03986046
177	0xbe1ed5d6	-0.1551126
178	0x3d33fb28	0.043940693
179	0x3df3d577	0.119059496
180	0xbda29832	-0.07939185
181	0xbd1a6308	-0.0376921
182	0xbd7bb1b3	-0.061448764
183	0x3cd032bd	0.025414819
184	0xbd826c63	-0.063683294
185	0xbbdb4c7d	-0.0066924677
186	0xbd5ca639	-0.05386946
187	0xbd7c8dee	-0.061658792
188	0xbd23f40b	-0.04002766
189	0x3cc1c1a8	0.023651913
190	0x3cdc36b1	0.026881548
191	0x3d4bc6ea	0.049750246
192	0xbe1d5bb0	-0.15367007
193	0x3e0a6c56	0.1351789
194	0x3d196f8e	0.037459902
195	0xbe018822	-0.12649587
196	0x3d9ce6d5	0.07661215
197	0x3dab5629	0.08366043
198	0x3d9a44da	0.07532664
199	0xbd4bcd48	-0.04975632
200	0xbd107c91	-0.035275046
201	0xbc91f5ff	-0.017817495
202	0xbcc80e99	-0.024421023
203	0xbd8e1317	-0.06937235
204	0xbc883946	-0.016628873
205	0xbd0ee4b4	-0.034886077
206	0xbd237958	-0.039910644
207	0x3cc77303	0.024346834
208	0x3d30d4a2	0.043171532
209	0x3d5e7e74	0.054319814
210	0x3d800812	0.06251539
211	0xbd183ab3	-0.037165355
212	0xbd457751	-0.048209492
213	0xbdc251dc	-0.0948827
214	0x3d1a8317	0.037722673
215	0x3e096431	0.13417126
216	0x3d27e25d	0.04098736
217	0xbd088eba	-0.03333924
218	0x3d8bc242	0.06824161
219	0xbdac99bf	-0.08427762
220	0x3d32aa5c	0.0436195
221	0x3deb5bff	0.11492156
222	0x3de4c920	0.11171174
223	0xbc7516cd	-0.014959049
224	0xbdd81726	-0.1055129
225	0x3e001ac5	0.12510212
226	0xbbe28ca5	-0.006913739
227	0xbcc3bdac	-0.023894154
228	0x3d2f1c54	0.042751625
229	0x3e05c6ec	0.13064164
230	0x3e05cd14	0.13066512
231	0xbca0bd16	-0.019621413
232	0xbdea3913	-0.11436667
233	0x3c945377	0.018106205
234	0xbdcd906a	-0.100373104
235	0xbd84566f	-0.064617984
236	0xbdd6cfdd	-0.104888655
237	0xbdc10bd9	-0.09426088
238	0x3ce6bb74	0.028165556
239	0xbc0e45e4	-0.008683655
240	0xbd2cf292	-0.04222352
241	0x3d97f4c7	0.074197344
242	0x3dfd7c0d	0.123771764
243	0x3d90ec79	0.070763536
244	0x3dab93db	0.083778106
245	0xbcd773ae	-0.026300278
246	0xbe16671f	-0.14687775
247	0x3d4e4122	0.050355084
248	0x3dc12b62	0.09432103
249	0xbb057fec	-0.0020370437
250	0xbc574348	-0.0131386
251	0xbb8fb21a	-0.004385245
252	0xbdb1b748	-0.08677536
253	0xbbc6dd00	-0.0060688257
254	0xbde480b3	-0.1115736
255	0x3e04e490	0.12977815

lstm.bias_ih_l1 f4 [200]
0	0xbd9ad461	-0.07560039
1	0xbd0d341c	-0.034473523
2	0x3d0a61fb	0.033784848
3	0x3d8255b7	0.06364005
4	0x3e011c87	0.12608539
5	0xbdae4985	-0.085101165
6	0xbdb5eaf1	-0.08882702
7	0x3da02667	0.07819825
8	0xbe042153	-0.12903337
9	0xbde282ca	-0.11060102
10	0x3ca0bd9f	0.019621668
11	0xbd4dbe1e	-0.050230138
12	0x3dd07004	0.10177615
13	0x3e0d4a41	0.13797857
14	0xbb613eab	-0.0034369628
15	0x3dccf3b3	0.100074194
16	0xbd437a1a	-0.047723867
17	0xbdb4c655	-0.08826891
18	0x3e12d0f2	0.14337519
19	0x3d97d505	0.07413677
20	0x3e17f492	0.1483939
21	0x3d0ad020	0.03388989
22	0xbdb632c7	-0.08896404
23	0x3e13c12c	0.14429158
24	0xbd438d3b	-0.04774211
25	0xbded57a4	-0.11588982
26	0x3de04eeb	0.109525524
27	0xbe1aa16e	-0.15100643
28	0xbdbd53ff	-0.092445366
29	0xbcab1ecd	-0.02088871
30	0x3db5a9ff	0.08870315
31	0x3d4c31eb	0.049852293
32	0xbd899c41	-0.06719256
33	0x3cc14e5a	0.023596931
34	0xbda16137	-0.078798704
35	0xbde0c0e3	-0.1097429
36	0xbd7c84df	-0.061650153
37	0xbd3fa006	-0.04678347
38	0xbceba5f8	-0.028765664
39	0x3c34814e	0.011017157
40	0x3d40d929	0.0470821
41	0xbd1bf0e7	-0.03807154
42	0x3cf7a631	0.030230613
43	0x3d9a1071	0.07522667
44	0x3d0a6101	0.033783916
45	0x3dcc9507	0.09989362
46	0x3d21cc8e	0.03950172
47	0xbc8caee7	-0.017173244
48	0x3dcbd543	0.09952786
49	0x3bbd1871	0.005770736
50	0x3c873426	0.016504359
51	0x3ccae23b	0.024766078
52	0x3d1ab9e3	0.03777493
53	0xbde2e1d8	-0.110782325
54	0xbddb1e26	-0.1069911
55	0xbbd00013	-0.006347665
56	0xbcd3863c	-0.025820844
57	0x3db48357	0.088141136
58	0xbd0692dc	-0.0328549
59	0x3df437cf	0.11924707
60	0xbd8bd383	-0.06827452
61	0xbe040a2a	-0.12894502
62	0xbda71993	-0.08159175
63	0x3e06e4b9	0.13173188
64	0xbb88dbaf	-0.004176579
65	0x3db05140	0.08609247
66	0xbdea8f9e	-0.11453174
67	0x3d1f12b7	0.038836207
68	0x3df97661	0.12180782
69	0xbdccee5a	-0.100063995
70	0x3c01bbca	0.007918308
71	0x3dd6a2e0	0.10480285
72	0x3d5dc8f9	0.05414674
73	0xbcbc5c8f	-0.022993354
74	0xbd65f8bf	-0.056145426
75	0x3dd91065	0.1059883
76	0xbdf93c4e	-0.12169705
77	0xbb596258	-0.003317019
78	0x3cd8d8fc	0.026470654
79	0x3e1cc5c1	0.15309812
80	0xbd5d68a2	-0.054054864
81	0x3dc65998	0.096850574
82	0xbc5c3ab7	-0.013441733
83	0x3dd439f5	0.10362617
84	0x3c1443cf	0.00904937
85	0xbb5a90cf	-0.0033350473
86	0x3cfd1342	0.030892972
87	0x3d0304cf	0.031987008
88	0x3e0956cd	0.13412018
89	0xbe180510	-0.14845681
90	0xbddd3ec0	-0.10802984
91	0xbc24d93e	-0.01006156
92	0x3d5df4fe	0.05418872
93	0xbd74339f	-0.059619542
94	0xbdbd009f	-0.09228634
95	0x3d219bd3	0.039455246
96	0x3d59cfdf	0.053176757
97	0xbe111a41	-0.14170171
98	0x3de04d99	0.109523006
99	0xbe0362aa	-0.12830606
100	0xbe1d5550	-0.15364575
101	0x3d19f35c	0.0375856
102	0x3c66cf9c	0.014087584
103	0x3d737567	0.059438135
104	0xbb254508	-0.0025218148
105	0x3dcd2852	0.10017456
106	0xbda01fcf	-0.07818567
107	0xbd891a97	-0.06694525
108	0x3d6d0c7e	0.05787324
109	0xbda47d6e	-0.08031736
110	0xbd0cfdc9	-0.034421716
111	0x3cb278de	0.02178615
112	0xbda82280	-0.08209705
113	0x3d4f204a	0.050567903
114	0x3dbc99c7	0.09209018
115	0xbd1a7665	-0.037710566
116	0x3da97aef	0.08275401
117	0xbe00181d	-0.12509198
118	0xbde9efec	-0.114227146
119	0x3ba61688	0.005068604
120	0xbd0b0868	-0.033943564
121	0xbd9ed1e1	-0.07754875
122	0x3d157daf	0.036496814
123	0xbd14eaab	-0.03635661
124	0xbd21e80a	-0.03952793
125	0xbd01c7c0	-0.031684637
126	0x3d435f0f	0.047698077
127	0x3d7143b8	0.058902472
128	0x3dc504be	0.09620045
129	0x3e0815a9	0.13289513
130	0x3df5abc2	0.11995651
131	0x3d118e9b	0.03553639
132	0x3d21280e	0.03934484
133	0xbd6c09cf	-0.05762654
134	0xbdee04b9	-0.116219945
135	0xbd06a950	-0.032876313
136	0x3df7e280	0.12103748
137	0x3d01cc4b	0.03168897
138	0x3aa46ad2	0.0012544042
139	0xbde6cd66	-0.112696454
140	0xbe137a38	-0.14402092
141	0x3d2318af	0.039818462
142	0x3c9fa794	0.019489087
143	0x3df9525f	0.12173914
144	0x3c3f5ef1	0.011680351
145	0x3c67e120	0.014152795
146	0xbd819e83	-0.06329062
147	0x3d8360e5	0.064149655
148	0xbda80d15	-0.0820562
149	0xbd3e3456	-0.04643663
150	0x3dafbff9	0.08581538
151	0xbd6d214e	-0.05789309
152	0xbd9c83f4	-0.076423556
153	0xbd73098f	-0.059335288
154	0x3d78cb6b	0.06074087
155	0x3dbb53b7	0.09146827
156	0xbd48b5ad	-0.049001385
157	0x3e0a32a9	0.13495888
158	0xbc9cb729	-0.019130306
159	0x3e0c2bff	0.13688658
160	0x3dd216c4	0.102582484
161	0xbd8668f2	-0.065629855
162	0xbddae918	-0.1068899
163	0x3d843d68	0.06457025
164	0xbaa71fd7	-0.0012750578
165	0xbdf91e82	-0.12164022
166	0xbd9c7f4a	-0.07641466
167	0x3df9441a	0.121711925
168	0x3d22ba7e	0.039728634
169	0x3d8c8837	0.068619184
170	0xbde82fc4	-0.113372356
171	0x3decf0aa	0.115693405
172	0xbc9aab88	-0.01888062
173	0x3d332c6a	0.04374353
174	0xbdef13ac	-0.11673674
175	0xbd90860d	-0.07056818
176	0x3d9d7f01	0.0769024
177	0x3dc1e553	0.09467568
178	0xbdb00ebc	-0.0859656
179	0xbdf7498c	-0.12074575
180	0x3d57a8bb	0.05265115
181	0xbcb6f5ff	-0.022334097
182	0xbdde4328	-0.10852653
183	0x3dd74555	0.10511271
184	0x3c3a201a	0.011360193
185	0x3d744c2b	0.059642952
186	0x3d668a35	0.05628415
187	0xbddfb1fd	-0.109226204
188	0x3e0e3423	0.13887076
189	0xbc175c09	-0.0092382515
190	0x3e1071bb	0.14105885
191	0xbe1a5670	-0.15072036
192	0x3db44107	0.088014655
193	0x3e1b86d5	0.15188153
194	0xbd9fb28b	-0.07797726
195	0x3d5dd362	0.05415667
196	0x3e04eb91	0.12980486
197	0xbc9d115b	-0.019173315
198	0x3d9a4bfa	0.07534023
199	0xbd803cd9	-0.06261606

lstm.bias_hh_l1 f4 [200]
0	0x3d3d69f4	0.046243623
1	0x3cad38e6	0.021145295
2	0x3c5fe43d	0.013665256
3	0xbe0cb00f	-0.13739036
4	0x3e03c6a2	0.12868741
5	0x3e0393d0	0.12849355
6	0xbe0db4ad	-0.13838454
7	0x3e168d1e	0.1470227
8	0x3de9d309	0.11417205
9	0xbbeff7be	-0.0073232343
10	0xbc83ca46	-0.016087662
11	0x3caacfdf	0.020851074
12	0x3dfa9934	0.122362524
13	0x3d81e145	0.06341795
14	0xbbddcb31	-0.006768607
15	0x3d974eb7	0.073880605
16	0x3d4f8790	0.05066639
17	0x3d9252dc	0.071447104
18	0xbdc0446a	-0.09388049
19	0x3d45f41f	0.048328515
20	0xbd7ca348	-0.061679155
21	0x3e0240e6	0.1272007
22	0x3e280eb7	0.16411863
23	0xbd60292a	-0.054726757
24	0x3d8c26f0	0.06843364
25	0xbdd9a5c8	-0.106273234
26	0xbddaf7b2	-0.106917754
27	0x3d20d772	0.039267965
28	0x3e035bcb	0.12827985
29	0x3dd8d70b	0.10587891
30	0x3aeec641	0.0018217043
31	0x3d385d98	0.045011133
32	0xbdacbf46	-0.0843492
33	0x3e1b0a2e	0.15140602
34	0xbd8a1c3b	-0.06743666
35	0xbe0200dc	-0.1269564
36	0x3c246c0c	0.010035526
37	0x3d4825c2	0.048864134
38	0xbdbe6418	-0.09296435
39	0x3da2007c	0.07910249
40	0xbccf7b7c	-0.025327437
41	0xbd872f31	-0.06600798
42	0x3d97c5c0	0.07410765
43	0x3b8830e5	0.0041562193
44	0xbd5995c7	-0.053121354
45	0x3d32d769	0.043662462
46	0xbd45e04e	-0.048309617
47	0xbb238312	-0.002494995
48	0x3db765fd	0.089549996
49	0xbd8d1345	-0.06888441
50	0x3bf29006	0.007402423
51	0x3d4485d4	0.04797919
52	0xbdc366be	-0.09541081
53	0xbd61ab75	-0.055095155
54	0x3e02440c	0.1272127
55	0xbcbcd9d5	-0.02305309
56	0x3d350b4f	0.044200238
57	0xbcba7e61	-0.02276534
58	0x3d9ff56f	0.078104846
59	0xbc9e6ccd	-0.01933899
60	0xbcbaee29	-0.022818642
61	0x3d371c8e	0.044704966
62	0x3bd86749	0.0066041094
63	0x3d819999	0.063281246
64	0xbdade873	-0.08491602
65	0x3d85c73e	0.06532143
66	0xbd496d9a	-0.04917679
67	0xbd6687f5	-0.056282002
68	0x3e1b45a8	0.1516329
69	0xbca6aa22	-0.020344798
70	0xbda24f64	-0.07925299
71	0x3dbe4b34	0.092916876
72	0x3dd01c05	0.10161594
73	0x3c5be473	0.013421166
74	0xbdd11fe9	-0.102111645
75	0x3b85c870	0.004082732
76	0xbbf4ab95	-0.0074667432
77	0xbc85fbfa	-0.016355503
78	0xbcb095fa	-0.02155589
79	0xbdec13bd	-0.11527202
80	0x3d8b5568	0.06803399
81	0x3ddba6c4	0.107251674
82	0x3e1ed95b	0.15512602
83	0x3cc651a4	0.024208851
84	0xbdc227e2	-0.09480263
85	0xbd1e453b	-0.038640242
86	0x3d0e3a36	0.034723483
87	0x3dd73078	0.105072916
88	0xbc7723e5	-0.0150842415
89	0xbbc2741a	-0.0059342505
90	0xbdc77c30	-0.09740484
91	0x3c85b540	0.016321778
92	0x3d7a9fa0	0.061187387
93	0x3d723d37	0.05914041
94	0x3db210e0	0.08694625
95	0xbd9a3768	-0.07530099
96	0xbbd79e80	-0.006580174
97	0xbc79c38f	-0.015244379
98	0x3e1523f8	0.14564502
99	0xbdb8f6ce	-0.09031449
100	0x3dfdbd59	0.12389631
101	0x3d9b6657	0.07587879
102	0xbe171105	-0.14752586
103	0x3c8172d4	0.015801825
104	0x3d801f56	0.06255977
105	0x3dbe1640	0.092815876
106	0x3d753808	0.05986789
107	0x3d297c60	0.04137838
108	0x3cc9466f	0.024569718
109	0xbdb2a84c	-0.08723506
110	0xbd907c8a	-0.07055004
111	0x3dc3f26a	0.09567721
112	0x3c902c64	0.017599292
113	0xbdd1dfb3	-0.10247745
114	0x3d5b1dfe	0.0534954
115	0x3d22e65b	0.039770465
116	0xbd614938	-0.055001467
117	0x3db1e03c	0.086853474
118	0x3db34a8a	0.087544516
119	0x3d5a226d	0.053255487
120	0xbdc848dc	-0.09779522
121	0xbbc22f68	-0.0059260614
122	0x3d1c2e2f	0.03812998
123	0x3e1a8df6	0.15093216
124	0xbc4d139c	-0.012516882
125	0xbdd841e5	-0.105594434
126	0xbd0371cd	-0.03209095
127	0x3c966546	0.018358838
128	0x3d27aeae	0.040938072
129	0x3d6c0fb5	0.057632167
130	0xbd156b9a	-0.03647957
131	0x3dda84f4	0.1066989
132	0xbe150298	-0.1455177
133	0xbdad285b	-0.08454963
134	0x3ddcb096	0.107758686
135	0x3db99287	0.09061151
136	0x3d15f8a4	0.036614075
137	0x3cf558c9	0.029949563
138	0x3de86661	0.11347652
139	0x3d24e470	0.040256917
140	0x3ce8b85b	0.02840822
141	0x3d3553b3	0.044269275
142	0x3da03f40	0.07824564
143	0x3b36b1a3	0.0027876876
144	0x3d52c80d	0.051460315
145	0xbdfe6fae	-0.12423645
146	0x3de1afdc	0.11019871
147	0x3dae5e10	0.08514035
148	0x3dd777a4	0.105208665
149	0x3d3b4b6e	0.045726232
150	0x3e2c929b	0.168528
151	0x3c9e692d	0.019337261
152	0x3de11166	0.109896466
153	0x3df337d4	0.11875883
154	0xbac3fefe	-0.0014953313
155	0x3ddbcd91	0.10732568
156	0xbdd80533	-0.10547867
157	0xbd7e94e9	-0.06215373
158	0x3d0c014a	0.034180917
159	0x3da15404	0.07877353
160	0xbc71c6fc	-0.014756914
161	0x3dae2c55	0.085045494
162	0xbde3c378	-0.11121267
163	0xbdef68f3	-0.11689939
164	0x3d2a6ee1	0.04160965
165	0x3d0b0928	0.03394428
166	0xbd4083eb	-0.047000807
167	0xbdd06385	-0.10175232
168	0x3e0de83c	0.13858122
169	0xbd0efb50	-0.03490764
170	0xbd8c8ca8	-0.068627656
171	0xbd94287c	-0.07234284
172	0x3e222330	0.15833735
173	0x3dc55d24	0.09636906
174	0x3d194814	0.037422255
175	0x3dd40c45	0.10353903
176	0xbda1ace3	-0.07894304
177	0x3d1e8f62	0.03871096
178	0x3961fb9b	0.00021551402
179	0x3cede633	0.029040432
180	0xbdc08eb0	-0.094022155
181	0xbc357bb7	-0.011076859
182	0xbdc6efd6	-0.09713714
183	0xbd4e9938	-0.05043909
184	0xbe041fc2	-0.1290274
185	0x3dcdd704	0.100507766
186	0xbc477253	-0.012173253
187	0x3dd39c37	0.1033253
188	0x3d843579	0.064555116
189	0xbdb3bb9d	-0.08776019
190	0xbdf453b6	-0.11930029
191	0x3d16dacf	0.036829766
192	0x3c63b4b9	0.013898068
193	0x3e15112d	0.14557333
194	0xbdb3b66f	-0.08775031
195	0x3d496f76	0.049178563
196	0xbc656332	-0.014000701
197	0x3da9b950	0.08287299
198	0x3e264452	0.16237
199	0xbdc46581	-0.09589673

fc.weight f4 [1, 50]
0	0xbe16c8bc	-0.14725012
1	0x3e01d4f5	0.12678893
2	0xbded50c5	-0.11587671
3	0xbde827c8	-0.11335713
4	0xbd85945c	-0.06522438
5	0x3badaa35	0.0052998313
6	0xbd31615a	-0.043305732
7	0x3de18ddf	0.11013388
8	0x3cadddde	0.021223959
9	0xbdfa1cc6	-0.12212519
10	0xbe291bfd	-0.16514583
11	0xbde4dff9	-0.11175532
12	0x3cee3eaf	0.029082624
13	0xbda586df	-0.08082365
14	0x3db0541b	0.08609792
15	0x3c6aaf1c	0.014323976
16	0x3df56017	0.11981218
17	0x3ded5c18	0.11589831
18	0x3e168dff	0.14702605
19	0xbd9eefd8	-0.0776059
20	0xbdb91d7f	-0.09038829
21	0xbdcfc1f5	-0.10144416
22	0x3e259f35	0.16174014
23	0x3ddc8b13	0.10768714
24	0x3d3d61ae	0.046235733
25	0xbc1879b9	-0.009306365
26	0xbe1ae30b	-0.15125673
27	0xbd15ad64	-0.03654231
28	0xbdb5f967	-0.0888546
29	0x3d98bd78	0.07458013
30	0xbde54c7a	-0.11196227
31	0xbd380eb6	-0.044935904
32	0xbd73bc80	-0.05950594
33	0xbdf9705b	-0.12179633
34	0x3d74a7cb	0.059730332
35	0xbda44f79	-0.08022971
36	0xbd20f3e6	-0.0392951
37	0x3e0a702f	0.13519357
38	0x3dc97dab	0.098384224
39	0x3daee590	0.08539879
40	0x3ca4635f	0.020066915
41	0xbde340af	-0.11096322
42	0xbda627e3	-0.081130765
43	0x3d7f0ee4	0.06227006
44	0x3e2b90de	0.16754481
45	0xbe2981bd	-0.16553397
46	0xbe0111f6	-0.12604508
47	0xbdb152dc	-0.08658382
48	0x3dc4e5ea	0.09614165
49	0x3de4cf47	0.111723475
