models/lstm_model_1h.pt (torch, 127756 bytes, 9 tensors)

lstm.weight_ih_l0 f4 [200, 1]
000000 fb 9e 9d b9 59 2e a5 bd 7d 91 2a bd 29 93 01 3e
       -0.00030063823 -0.08065481 -0.041642655 0.12653793
000010 85 f8 63 3d 0c dd d0 bd b8 36 be bc 8a db 24 3d
       0.05565693 -0.10198411 -0.023219451 0.04024843
000020 f5 07 b0 bc 37 8a 0e bd 8e 47 b3 3d 97 c4 ef bd
       -0.02148817 -0.03479978 0.08753882 -0.117074184
000030 8d 55 d6 3d fe 9b ba 3d f9 a5 86 3d d9 e7 09 3e
       0.10465536 0.091117844 0.065746255 0.13467349
000040 f9 75 3e 3d ae 88 05 3e 2b cc 7e 3d ac 97 82 b9
       0.046499226 0.1304042 0.06220643 -0.00024908537
000050 31 a5 30 3e ed 99 19 3e 31 7a 10 bd 2f 66 a2 bd
       0.17250516 0.15000124 -0.03527278 -0.07929646
000060 1d 52 bd bd 13 7d 33 3e 4c d2 06 3e fc ff c5 3c
       -0.092441775 0.17528181 0.1316616 0.024169914
000070 a0 f3 6a bd c2 6f 3e 3e 76 63 27 3e 9e c1 24 3e
       -0.057361245 0.1859732 0.16346535 0.16089484
000080 60 28 ad bd f1 5c ca bc cf 6b 26 3e 47 df 7a 3c
       -0.084549665 -0.024702521 0.16252063 0.0153120225
000090 ac 00 1f 3e f6 fc 1c 3d e3 0d a9 bd 4b 26 6b 3d
       0.155276 0.03832718 -0.08254602 0.057409566
0000a0 4d ad 6c bd 0f 49 7c bc 51 89 5c bd 02 80 c9 3d
       -0.05778246 -0.015398278 -0.053841893 0.09838869
0000b0 05 28 1e 3d 2b 5f e1 bc c6 74 42 3e dc 9f c4 bd
       0.038612384 -0.0275112 0.18989858 -0.09600803
0000c0 eb 01 fe 3d 6b a0 52 3e 11 7b 87 bd b0 a5 14 be
       0.124027096 0.20569007 -0.0661527 -0.1451633
0000d0 fc 54 15 bd 16 8b 9f bd cd 93 3f bd 33 cd 0f bd
       -0.036458 -0.077902004 -0.046771813 -0.035107803
0000e0 7e 9d 25 3d ea be 28 bd 6c 5e 9a 3b f3 32 d0 bb
       0.0404334 -0.041197695 0.004710963 -0.00635373
0000f0 e6 05 36 3e af 53 86 bd 05 70 8e bd 27 08 69 bd
       0.17775688 -0.0655893 -0.0695496 -0.05689254
000100 14 d2 01 bd 51 6b 40 3e d4 e6 e2 bc 50 5a 40 3e
       -0.031694487 0.18790938 -0.027697958 0.18784451
000110 9d de 42 3e 90 58 f4 3d 72 6d ba 3d 7f 0d d1 3c
       0.19030233 0.119309545 0.09102906 0.02551913
000120 85 c3 a2 3d 8f f9 56 be 1c 2d db 3c ad c4 ed 3d
       0.07947449 -0.20993637 0.026754908 0.116097786
000130 d4 2d 83 3d 22 6e 38 3e 20 65 86 bd 35 3e 1c 3e
       0.064052254 0.18010762 -0.06562257 0.15258105
000140 7f 84 7f 3d 95 20 8b bd 85 7c 15 3e aa 90 8d 3c
       0.062382217 -0.06793324 0.14598282 0.017280895
000150 da 00 25 bd 2f 59 1a 3e a5 43 23 3e dd d1 57 3d
       -0.040284015 0.15073083 0.15943773 0.052690376
000160 18 3f c0 3d 3a 82 a9 bd 44 ad c3 3d be 25 62 bd
       0.09387034 -0.08276792 0.09554532 -0.055211775
000170 84 23 d4 3d 90 fb 81 bc 8b 11 ee 3d bc 46 89 bd
       0.103583366 -0.015867025 0.1162444 -0.06702945
000180 f8 8a 99 3d 70 4f b9 3d 12 ef 4a bd d7 e7 1e bd
       0.07497209 0.090483546 -0.0495444 -0.03879532
000190 71 39 74 bb ff 68 8e 3d 70 bc bc bd d1 94 58 3e
       -0.0037265683 0.0695362 -0.09215629 0.21150519
0001a0 f6 ce 9b bb 8c 77 eb bd a1 95 18 3e 7e d7 1d 3e
       -0.0047548963 -0.11497411 0.14900829 0.15414235
0001b0 05 0d 4e 3e 0b 53 47 be 4c ad be 3d b7 a1 ef 3d
       0.20122154 -0.19465272 0.093103975 0.117007665
0001c0 97 e6 ae bd 43 bb bb 3c 46 50 ed 3c a0 1a 49 be
       -0.08540075 0.022916442 0.028968941 -0.19639063
0001d0 b5 c1 19 3e 47 9a c0 3c 38 2e c6 bd ab a5 aa bd
       0.150153 0.023511065 -0.09676784 -0.0833238
0001e0 e3 b7 1a 3d b8 fd 90 3d 29 cc ed 3d 5f c0 1c be
       0.037773024 0.07079643 0.11611206 -0.15307759
0001f0 dc da b9 3c 99 ca 9f bb 19 e1 05 3e 84 a4 2c 3d
       0.022687368 -0.0048764464 0.13074149 0.04214908
000200 80 37 44 be 87 65 cb bd 4e 83 1e be af 2d 36 be
       -0.19161797 -0.09931474 -0.15479776 -0.17790864
000210 db 2c 29 3d 40 8b ce bd 0a 20 ed bd 5d ad 91 bc
       0.041302543 -0.100851536 -0.115783766 -0.017782861
000220 fe 7a 1c 3e 37 8b 69 bd df 4a 71 ba 4b 5c 41 bb
       0.15281293 -0.05701753 -0.0009204577 -0.0029504474
000230 e6 db b2 3d 1a d0 28 3e 54 f7 c3 bc 2f 92 d0 bd
       0.087333485 0.16485634 -0.023921646 -0.10184132
000240 62 61 28 3e 82 c7 01 be 23 d9 d0 3d bd 84 98 3d
       0.16443399 -0.12673762 0.101976655 0.07447193
000250 2e e6 99 bd e6 96 d8 3d a4 02 28 bd 16 d1 97 3d
       -0.075146064 0.105756566 -0.041018143 0.07412927
000260 7f 4a 4f 3e 8c f8 a9 3c 7c dd f6 bb 0b bc d4 3c
       0.20243262 0.0207484 -0.007533727 0.025968572
000270 d7 38 2a 3e 40 18 a6 bd 9b 22 3e be 97 80 96 3d
       0.16623245 -0.08110094 -0.18567888 0.07348745
000280 94 f6 5a 3e af d9 cd 3c dd cb 59 3c a4 8b b1 bd
       0.21383125 0.025128214 0.013293234 -0.086692125
000290 8b 1b 92 bd bd 20 fd 3d 04 f0 74 bd 60 bc 0d 3d
       -0.0713416 0.1235976 -0.05979921 0.034603477
0002a0 c5 ca 76 bd 63 bb 4e 3d a5 9b dc 3d 92 08 f9 3d
       -0.06025197 0.050471675 0.10771874 0.12159838
0002b0 dc 30 f5 bc b5 59 80 bd 23 e3 11 be 79 3f 88 3c
       -0.029930525 -0.0626711 -0.14246802 0.016631829
0002c0 62 5a c8 3d 8b 9e 82 3d f8 49 a3 3b 85 cd b6 3c
       0.09782864 0.06377896 0.004983183 0.022314796
0002d0 fe ed 8d bc 0b a3 59 3e f4 57 b6 3d 6e cb 02 3e
       -0.017325398 0.21253602 0.089034945 0.12772915
0002e0 ee aa 29 3e fc 67 02 3e 19 10 12 3c aa f8 37 bd
       0.16569111 0.1273498 0.008914971 -0.04491488
0002f0 4f 51 81 3d 51 be 80 3d 69 10 20 3e a4 36 8d 3d
       0.063143365 0.062863 0.1563126 0.068951875
000300 1e 6d 51 3d 22 14 04 3e 45 f2 9c 3d 9f 04 2e bd
       0.051129453 0.12898305 0.07663397 -0.042484876
000310 4a 85 96 3d 30 e3 13 3d 35 70 c7 bb 3b 8f 53 3e
       0.073496416 0.036105335 -0.006086374 0.20660107

lstm.weight_hh_l0 f4 [200, 50]
000000 6a 11 b6 bd 9e 12 77 3d da a1 cb 3d 2d 65 31 3d
       -0.0889004 0.06032049 0.0994298 0.04330938
000010 e5 94 9c 3d 1e e7 44 bd 5a af 19 be 60 28 3f bd
       0.07645587 -0.048071973 -0.15008298 -0.046669364
000020 2d c6 8b 39 24 f6 e1 3d 2d 68 02 3e 59 72 26 bd
       0.00026659798 0.11033276 0.12735052 -0.040636394
000030 67 fe b4 bd 68 c9 07 3e da bc 07 3d 8f 5e 19 3c
       -0.08837586 0.13260424 0.033139087 0.009360923
000040 ec 78 f3 3c 2a ed 9a bd a7 aa d3 3d 2e d2 bc bd
       0.029720746 -0.07564767 0.10335284 -0.09219776
000050 2c 41 e2 3d 89 0c e5 3d 68 9d 91 bd 12 34 ba 3c
       0.11047587 0.111840315 -0.07110101 0.022729907
000060 ac c2 6c bd 88 58 f2 bd e8 e7 04 be 0b 88 3b bc
       -0.05780284 -0.11833292 -0.1297909 -0.011446009
000070 a3 79 8d bd a7 b3 0d bd f4 56 ff 3d 1a 55 02 3c
       -0.06907966 -0.034595158 0.12467757 0.00795486
000080 69 59 1c 3e 83 82 1b be cd 6f d3 bc f2 e7 d8 bd
       0.15268482 -0.15186505 -0.025810147 -0.10591115
000090 4e 8a 10 bd 3b 91 5c 3d fd 15 83 3d 65 29 bb bd
       -0.035288148 0.05384944 0.06400678 -0.09138755
0000a0 04 cf 8f bd 16 8a 79 bc 59 56 d6 3c 19 0b 67 bd
       -0.07021907 -0.015230676 0.02616422 -0.056407068
0000b0 d2 84 cb 3d e4 67 36 3d 1b 89 ec bd fc 1a 05 be
       0.09937443 0.04453267 -0.11549588 -0.12998575
0000c0 3b 8a 02 3d eb eb 89 bd dd 40 3b bd 8a 31 6f 3d
       0.031870108 -0.06734451 -0.045716155 0.058396854
0000d0 4c dd 0d be 70 38 05 be c2 4c 35 bd 1c e0 11 3e
       -0.1385395 -0.1300981 -0.044262655 0.14245647
0000e0 9d 48 bb bd 7e 73 e0 bd b3 14 2a be 5f 38 a8 3d
       -0.09144709 -0.109595284 -0.16609459 0.08213877
0000f0 49 b5 51 bd 47 15 88 bc 7c 07 05 3e 3f a4 6f bd
       -0.051198278 -0.016611708 0.12991136 -0.058506247
000100 4c 8c 89 bd 8c 4b b6 bd 63 5f 1d bd 8b 6e bf bc
       -0.06716213 -0.08901128 -0.038421046 -0.02336814
000110 9a 76 a8 bd ac 19 95 bd 7b 99 0d bc 25 d6 dd 3d
       -0.082257465 -0.07280287 -0.00864255 0.108318605
000120 b7 5e 3d bd 33 6b 82 bd 92 fc e2 bd d0 88 be ba
       -0.046232905 -0.06368103 -0.1108333 -0.0014536623
000130 15 35 f1 3d 2c 48 ba 3c bf 7a 3c bd 9e b3 b0 3d
       0.11777703 0.022739492 -0.046015497 0.08628009
000140 2b 13 58 3c 39 03 b9 bd 01 68 20 3d 26 f8 98 bd
       0.013188164 -0.09033818 0.039161686 -0.074692056
000150 ab e5 bd 3d 55 33 11 3e 70 bc 0b 3e 65 1b 08 3e
       0.09272321 0.14179738 0.13646102 0.132917
000160 4d eb 87 3d de e2 ed 3d 3e af 0c bc 75 0e 5b bd
       0.06636677 0.11615537 -0.008586703 -0.053480584
000170 75 6f c8 bd 3d 0f 42 3d e6 f6 16 bc 98 e7 68 bd
       -0.09786884 0.047377814 -0.009214139 -0.05686149
000180 0f 56 50 bd 57 c9 03 be b9 35 9c 3c 8c 14 11 be
       -0.050863322 -0.12869774 0.019068586 -0.14167994
000190 fe b0 db bc f3 9f 4f 3d f1 5a 73 3d 51 96 d6 bc
       -0.026817795 0.05068965 0.0594129 -0.026194723
0001a0 9f 9a 2a bd 96 f8 87 bc 46 be 11 bd db f1 08 bd
       -0.041651364 -0.016598027 -0.03558185 -0.033433776
0001b0 6b 98 95 bc 48 01 b2 bd 17 c0 82 bd b0 b2 16 3e
       -0.018261155 -0.08691651 -0.063842945 0.14716601
0001c0 be e8 a8 bd 16 e9 d6 bc ec 35 97 3a 12 67 29 be
       -0.08247517 -0.02623419 0.0011536456 -0.16543224
0001d0 ff b2 85 3d ae 5d 6f 3d de 24 fc bd e6 1c d7 bd
       0.065282814 0.05843895 -0.12311719 -0.10503559
0001e0 2c 08 d0 3d 1f cd 87 3c e2 0a 04 3e 92 d7 95 3d
       0.10157809 0.016577302 0.12894776 0.073165074
0001f0 41 f1 b4 bd 0e 9f 15 3e 04 a0 90 3d 82 34 57 bd
       -0.08835078 0.14611456 0.070617706 -0.05254031
000200 64 a0 a5 bd f5 f6 55 3c 6b 69 ac 3d 4a 77 20 be
       -0.08087233 0.013059367 0.084185444 -0.15670505
000210 47 ec ba 3c 3b 04 03 be a8 2c bb bd fb eb 0b 3e
       0.022817744 -0.12794583 -0.09139377 0.13664238
000220 52 0e d0 bc 3d dd 5a 3d 72 49 9f 3d db 9d c5 bc
       -0.025397453 0.053433646 0.077776805 -0.024123123
000230 23 a1 cb 3b 8f fd b0 3d a2 f1 b5 bc f6 bb d6 bc
       0.0062142774 0.086421125 -0.022209946 -0.026212674
000240 11 10 41 3d 72 26 28 be 20 06 83 3b c2 22 4a 3d
       0.047134463 -0.16420916 0.003998533 0.049349554
000250 74 b2 90 bd e8 17 fc 3d 2e bc 5b 3e 05 d2 2f be
       -0.07065287 0.12309247 0.21458504 -0.1716996
000260 f6 35 d8 bd 91 c8 87 bd 9e 9f 01 3e 24 19 26 3e
       -0.10557167 -0.06630052 0.12658545 0.16220528
000270 a8 aa 12 3d 77 36 c8 bd 7a a2 8e be 03 be 2b be
       0.03580728 -0.09776013 -0.27858335 -0.16771702
000280 4b 76 1d 3e 1c d4 60 be 80 3f 91 3d ab 08 ae bd
       0.15377156 -0.21955913 0.0709219 -0.08497747
000290 4b 07 32 3e a8 04 e6 bc 8c ac 30 3d 79 81 72 3e
       0.17385595 -0.028078392 0.043133304 0.23682202
0002a0 e4 e4 03 3c b4 ef e6 bd 8d 29 44 be 20 4f 15 3e
       0.008050177 -0.112761885 -0.19156475 0.14580965
0002b0 f4 3b 27 bc b1 3a 01 3e 3c f0 f6 3d d0 ba 53 3e
       -0.010207165 0.12620045 0.1205754 0.20676732
0002c0 1e ee 23 bd 03 fd 2c bd 64 b5 5d bc 4c ee 99 bd
       -0.040022008 -0.04223348 -0.013532016 -0.07516155
0002d0 57 64 60 bd 8a 75 00 be 8c ea 32 be e7 9a bc 3d
       -0.05478319 -0.12544838 -0.17472285 0.09209233
0002e0 18 9e 36 be e7 32 d8 ba 16 6b 50 3c 31 b2 03 bc
       -0.17833745 -0.0016494662 0.012720844 -0.00803809
0002f0 7c ee 62 3e e1 7c 14 3d 45 d1 21 bd 19 fd 71 bd
       0.22161287 0.036251906 -0.039506216 -0.059079263
000300 f4 40 8b bd 79 b1 3d be e7 11 d7 bc d1 73 a8 bb
       -0.06799498 -0.18524732 -0.026253654 -0.0051407595
000310 eb b9 14 3e a5 3d 36 3d 40 a6 17 bd e9 3c 5e 3e
       0.14524047 0.044492383 -0.037023783 0.21702923
000320 8a fe f2 bd 8c a6 9e bd 4d 19 2e 3d 94 0a 66 3e
       -0.11864956 -0.0774661 0.042504597 0.22464973
000330 25 c9 1a be 94 82 cf 3c d1 e0 8d 3d 60 ca 9b bd
       -0.15115793 0.02533082 0.06927646 -0.07606959
000340 07 c6 fa 3b 7f 6f 78 bd 19 1e 91 bd 57 fe d2 bb
       0.007653001 -0.060653206 -0.07085819 -0.006439011
000350 8a 99 c8 3d 4c 94 cf 3d 9d 60 18 be ea 4d 91 3d
       0.0979491 0.10135707 -0.14880605 0.07094939
000360 d1 14 ec 3d aa 46 5f 3d 23 5e a0 3d b9 36 7a bd
       0.11527408 0.05451075 0.07830455 -0.061087344
000370 da 73 42 bd ed 23 af bd 56 07 f6 3d 63 6c 2e be
       -0.047473766 -0.08551774 0.12013118 -0.17033534
000380 7b dc d1 3d 71 db 25 3d ec c9 0c be 4c 41 04 3e
       0.102471314 0.04049248 -0.13748902 0.12915534
000390 d9 6f 00 3d 8d e0 62 3b b7 24 c4 3d 20 04 dd 3d
       0.031356666 0.0034618706 0.09577315 0.107918024
0003a0 41 06 01 3e 42 c5 2f 3d 7d 30 1d 3e df 92 1c bd
       0.12600042 0.04291273 0.15350528 -0.038226005
0003b0 ff 46 f8 bb 4e 52 10 3d 90 bb d3 3d f4 2b 7a 3d
       -0.007576823 0.035234742 0.10338509 0.061077073
0003c0 9a 9e bc bd 76 5c cb 3d 7d 66 a6 3d dc 76 fa 3c
       -0.09209938 0.09929745 0.08125017 0.030574255
0003d0 5f 35 07 3d 25 06 d2 3d 46 6e ec bc ca e3 72 bd
       0.033009883 0.10255078 -0.028861176 -0.059299268
0003e0 91 e0 2d bc 5d 06 f2 bc 91 73 08 bc 06 46 b2 3d
       -0.010612623 -0.02954405 -0.008328334 0.08704762
0003f0 c1 77 01 be 43 16 d3 bc 66 4e eb 3a b8 9b 83 bd
       -0.12643339 -0.025767451 0.0017952442 -0.06426185

lstm.bias_ih_l0 f4 [200]
000000 83 90 88 bd 87 91 ba bd 40 45 71 3d 9c 22 b5 3b
       -0.066681884 -0.091097884 0.058903933 0.0055278074
000010 77 2d f8 bd 6a 8a e2 bd 7b 23 87 bc bc 75 01 3b
       -0.12118047 -0.11061557 -0.01649641 0.0019754013
000020 c5 fa 3e 3e 9e ca cf bd e9 d8 a1 bc 1e 14 fa 3d
       0.18650348 -0.10146068 -0.019756751 0.12210868
000030 2b f3 61 3b 61 e0 e6 3d fa 4d 43 bd 03 04 3d 3d
       0.0034477215 0.11273266 -0.047681786 0.046146404
000040 a6 b3 0c 3e 28 ef 01 3e 13 96 cc bd 74 2e ba 3d
       0.13740405 0.12688887 -0.09989562 0.090908915
000050 68 10 15 bc af 5c 42 3d 8b 3d d7 bd f7 5a 54 3e
       -0.00909815 0.04745167 -0.10509785 0.20737825
000060 ae f5 0e 3a 8c f3 a2 bd 1c ff fa bc 1b 92 c8 bb
       0.0005453479 -0.07956609 -0.030639224 -0.0061209328
000070 a1 1e e5 3d a7 08 de 3c f5 90 00 3e 89 66 a6 3d
       0.111874826 0.027103735 0.12555297 0.08125026
000080 9e a4 bc bd 63 a6 c6 3c 81 5d 56 bd a1 5c 48 3c
       -0.09211086 0.024249261 -0.052335266 0.012229116
000090 ae 4b 9a bc a0 44 af bd 08 a3 0c 3d d2 07 48 bc
       -0.018834915 -0.08558011 0.034335166 -0.012208896
0000a0 8c 8c 0a 3e 2e bc de bc f3 17 4c 3c c7 d5 12 bd
       0.13530177 -0.02718934 0.012456882 -0.035848405
0000b0 90 ce 32 3e 68 e1 df 3d 6d 91 8b bd c2 22 19 be
       0.1746161 0.10931665 -0.06814847 -0.14954665
0000c0 c8 d3 8f bd 32 f4 25 bd b7 99 cd bd 3e db dc bc
       -0.07022816 -0.040516086 -0.100390844 -0.026960012
0000d0 4b ac e8 bb 13 78 2f 3d 7f 46 6d 3d 18 78 72 bd
       -0.007100617 0.04283912 0.05792856 -0.05919656
0000e0 b4 32 40 3d cc ed 27 3d ea 67 db 3c 6f 0e 7d bc
       0.046923354 0.040998265 0.026782949 -0.015445336
0000f0 9b b5 e8 bd 1a cc 19 bc 36 78 e4 bd 20 ec 5f 3d
       -0.113627635 -0.0093870405 -0.11155741 0.054668546
000100 71 dc da bd a5 b4 44 3e 43 20 f1 bd db e2 a6 bd
       -0.10686577 0.19209535 -0.117737316 -0.08148738
000110 70 ae ea 3d 71 29 06 be 5d 5d 2b 3d a5 d7 3a bd
       0.114590526 -0.13101746 0.041837085 -0.04561581
000120 a7 ab fe 3d d0 84 19 3e 96 94 22 be a4 9d fa 3b
       0.12435084 0.1499207 -0.15876994 0.0076481868
000130 37 f6 cb bd 4c f9 58 ba 35 d3 fa bd 44 34 f1 bd
       -0.09959071 -0.0008276894 -0.12247316 -0.11777547
000140 20 45 10 be 4f cb 30 bd 66 20 f8 3d 8b e3 b7 bd
       -0.14088869 -0.04316264 0.121155545 -0.08978947
000150 29 04 de 3d da 1a 17 3d 0a 32 93 3d b6 57 d2 3d
       0.10840637 0.036890842 0.071872786 0.10270636
000160 b2 ef c2 3d 9c c9 00 be ea e1 aa 3c ce 83 b5 3d
       0.095183745 -0.12576908 0.020859677 0.088630304
000170 2e 9b a9 3d 81 a4 f4 3d a3 9e 96 3d 3e 15 db 3d
       0.08281551 0.11945439 0.07354476 0.10697411
000180 0b d0 00 3e 40 ae eb 3d df 79 d8 3d dc bf a9 3d
       0.12579362 0.11507845 0.1057012 0.082885474
000190 24 ad 15 3d f2 48 7c bc 16 fc 06 be eb ef 2a bd
       0.036542073 -0.015398251 -0.131821 -0.04173271
0001a0 8f 95 ff 3c d5 a9 87 3d 2a a5 e0 3d 43 4b ab ba
       0.031199245 0.0662419 0.109690025 -0.0013068694
0001b0 32 80 30 3c c1 a8 bc bd 17 74 c0 bc e0 43 f1 bd
       0.010772752 -0.09211875 -0.023492856 -0.11780524
0001c0 43 39 17 3e 9a e3 13 be 6d 53 1d 3d 2a ef 48 bd
       0.14767937 -0.14442292 0.03840964 -0.04905621
0001d0 5f 6b 5a bc 46 a4 9b 3d 0e ec cc bd f1 73 ab 3d
       -0.013331263 0.07599692 -0.10005961 0.083717234
0001e0 eb b3 c9 bd a7 08 ab bd 1d b0 4f bd e7 9e fc 3d
       -0.0984877 -0.0835126 -0.050705064 0.12334996
0001f0 e8 82 10 3c ea 7f 0b 3e db 41 f8 3d 0b 9f a3 bd
       0.008820273 0.13623014 0.12121936 -0.079893194
000200 f8 bb ba bc 24 04 ce bd ee e7 2d bd 8b c7 de bd
       -0.022794709 -0.100593835 -0.042457514 -0.108779036
000210 68 33 9a bd f6 c0 1c bd ce 54 1a be 6d f8 c0 3d
       -0.07529336 -0.03826996 -0.15071413 0.094223835
000220 5e 7d b7 3d ba f3 14 be ae 65 51 3d f8 9d 48 3d
       0.08959459 -0.145461 0.05112236 0.048978776
000230 cd ce 8c 3d d6 fe 8f bd ee ed 50 bd 29 41 16 bd
       0.068753816 -0.07031028 -0.051008157 -0.036683235
000240 be c2 e4 3b 4b 6d a6 bd 49 4b 06 3e 30 12 33 bd
       0.006981223 -0.08126315 0.13114657 -0.043718517
000250 24 2f 60 bd 62 e9 d3 3d 63 d5 bc 3d 20 eb b0 bd
       -0.054732457 0.103472486 0.09220388 -0.086385965
000260 e5 33 02 3e 5e cb 2a 3d a2 35 d8 3d 22 01 03 3e
       0.12715109 0.041697852 0.10557105 0.12793401
000270 29 44 b4 3d dc 64 5b 3e 7c 04 16 3e c1 ee b9 bd
       0.08802063 0.21425194 0.14650148 -0.09078742
000280 f0 5b f3 3d 05 93 36 bd f0 13 e1 bd 9a 33 ba 3a
       0.1188277 -0.044573803 -0.10990131 0.0014206052
000290 bb a1 b2 3d ea c0 49 3e 12 bb ce bb d8 5d 18 bd
       0.08722254 0.19702497 -0.0063089216 -0.03719887
0002a0 28 59 34 bd e5 52 0f 3e 03 aa 0e 3e 15 3c c6 bd
       -0.04403034 0.13996466 0.13932042 -0.096794285
0002b0 0f 1e 0f 3e 1b d7 cd 3d 2a d8 86 bc 49 be f2 ba
       0.1397631 0.10050794 -0.016460497 -0.0018519844
0002c0 c7 50 18 3e 17 0c fc bd 71 cf d7 bd fc 4b 6e bc
       0.14874564 -0.123069935 -0.10537613 -0.014544483
0002d0 35 c9 d2 bd 38 d6 b9 3c 59 aa b2 bd 69 48 06 3b
       -0.102922834 0.022685155 -0.087238975 0.0020489937
0002e0 99 a4 a8 bc 43 42 83 3d cf 12 f8 3c ca 50 8e bb
       -0.020586299 0.06409123 0.030282406 -0.004343127
0002f0 7b b2 b2 bd 23 61 c1 bd 19 f3 ec 3d bf 7d 19 3e
       -0.08725449 -0.094423555 0.11569805 0.14989375
000300 47 5a ce bd cc 8b 09 bc 45 b5 e3 bc 2d 37 3d bd
       -0.10075813 -0.008395147 -0.027796397 -0.046195198
000310 2b 14 08 3d 30 3b a3 3d e9 38 cd bd ff 05 2a 3d
       0.03322236 0.079702735 -0.100206204 0.041509625

lstm.bias_hh_l0 f4 [200]
000000 1c af 8e 3c ec 24 20 3c d9 06 f1 bc 76 84 63 3e
       0.017417483 0.009774428 -0.02942221 0.22218499
000010 4b 4d d2 3d 2e 8d 26 bd a3 cc 1a 3e 6e 37 63 3d
       0.10268649 -0.040661983 0.15117125 0.055472784
000020 43 d5 0f 3e d5 78 0e bd a2 c3 79 3c 5e 01 0e 3e
       0.14046197 -0.034783203 0.015244396 0.13867709
000030 fa 88 98 bd ee 06 05 3d e4 89 b8 bd 07 bf 33 3e
       -0.07448001 0.03247731 -0.090106755 0.1755334
000040 72 71 df bc f5 d7 76 3d 42 8c 01 3d 1e bb 29 3e
       -0.027275775 0.060264546 0.0316279 0.16575286
000050 34 0b e1 3d 48 ad c6 3d f1 87 b8 3d f3 f1 d9 3d
       0.10988465 0.097010195 0.09010304 0.10641851
000060 fa 89 b5 bd ef b5 6e bc 23 93 f2 3d be 31 be bd
       -0.088642076 -0.014569744 0.1184447 -0.09286831
000070 07 25 ec 3d 49 32 fd 3c 2d e1 0e 3e c5 d6 8a 3d
       0.115305 0.030907767 0.13953085 0.06779245
000080 d2 2d c8 3d 5a 1a 06 3c 5b 44 db 3d 61 a8 4b bc
       0.097743645 0.008184994 0.10706397 -0.012430281
000090 eb 0c 27 bc 72 24 3c 3c d6 c5 d1 bb 7e 21 52 3c
       -0.010195951 0.011483299 -0.0064017577 0.012825368
0000a0 65 fe f7 bc a6 22 88 bd ae e2 94 3d ce 69 e2 3d
       -0.030272672 -0.06647234 0.07269798 0.11055337
0000b0 11 f8 15 3e f5 80 6a bd 15 58 b3 3d ec 7b 94 3d
       0.14645411 -0.05725189 0.08757035 0.07250199
0000c0 f4 48 ec bb 04 8f 8f 3d 02 7a 1a be 65 04 fc bb
       -0.007210845 0.070097 -0.15085605 -0.0076909536
0000d0 6a 7a 69 3d a1 df 20 3e fe 03 3b bd 42 90 3f 3d
       0.05700151 0.15710308 -0.045658104 0.046768434
0000e0 b2 55 03 3d 58 02 05 3e 94 a4 1f 3d e4 42 9b 3d
       0.032064147 0.12989175 0.038975313 0.07581118
0000f0 c7 bd a1 bd 02 53 91 bc ac 03 dd 3d 3f f8 aa bd
       -0.07897525 -0.017739777 0.10791716 -0.083481304
000100 78 85 f6 39 a3 e1 31 bd 0c d9 e6 bc 4a ae 3f 3d
       0.00047020218 -0.043428075 -0.028179668 0.046797074
000110 6c 46 85 bd c8 d4 04 be 58 2f 02 3e cc 79 8e bd
       -0.065075725 -0.12971795 0.12713373 -0.06956825
000120 5d e4 d8 3c d4 c0 88 bd d4 75 c0 3d 18 ea 02 be
       0.02647608 -0.06677404 0.09397474 -0.12784612
000130 c0 b0 f8 3c fa f5 30 3c f0 7b 34 bd 38 63 83 bc
       0.030357718 0.010800833 -0.04406351 -0.016038522
000140 f0 0c fd bb 3b cf 6c 3d a8 7e e5 bc 45 2e dd 3d
       -0.0077224895 0.057814818 -0.028014496 0.10799841
000150 b3 95 b7 bd e6 c3 5f bd 3e ed 81 3d 18 47 02 be
       -0.089641 -0.054630183 0.063440785 -0.12722433
000160 f6 93 d3 3d 48 af 05 be d6 a3 e9 3d 7d 3f fd 3d
       0.10330956 -0.13055146 0.11408202 0.12365625
000170 8d 33 82 bd 89 58 c9 bd 49 cf e7 bc da 21 8c 3d
       -0.06357489 -0.0983134 -0.028297083 0.06842394
000180 62 42 95 3d d0 d6 d0 bd a5 ba 02 3e 05 8a 00 3e
       0.07288052 -0.10197222 0.12766512 0.1255265
000190 59 c0 ee 3d 2d df 96 3d dd 7b dd 3d 8e 86 35 bd
       0.11657781 0.07366786 0.10814641 -0.044317774
0001a0 cf bb b2 3d cc 44 95 3c d7 75 41 3d 4e 1e fa bc
       0.08727228 0.018221281 0.04723152 -0.030532029
0001b0 17 58 6a bd bf 21 91 3d 39 12 76 3d da b7 89 3d
       -0.057212915 0.07086515 0.060075972 0.0672452
0001c0 60 d0 08 3e 7f 05 fe bc 00 c1 a2 3d 73 d0 9c 3d
       0.13360739 -0.03100848 0.07946968 0.07656946
0001d0 26 19 bb 3d 59 1b 74 3d 81 f9 2a bd 37 13 7c bd
       0.09135656 0.059596393 -0.04174185 -0.061541762
0001e0 6d 58 54 3d 01 7d cd 3d de 0c fb 3d 3b e6 eb bd
       0.051842142 0.10033608 0.122583136 -0.11518522
0001f0 0a de 14 bd 28 ad d8 3d d9 16 8c bd 2b 93 a7 bd
       -0.036344565 0.10579902 -0.06840295 -0.08182367
000200 06 6a 88 bc ae 24 80 3d d8 92 7a b9 05 4e 96 bd
       -0.016652118 0.06256996 -0.00023896561 -0.073391
000210 85 1e f2 bd 58 91 6d 3d 09 0d 86 3d ef 77 eb 3d
       -0.118222274 0.05799994 0.06545455 0.11497485
000220 89 7b 90 bb f4 53 5f bd cc de a2 b9 12 77 5f 3d
       -0.004409258 -0.054523423 -0.00031065044 0.054556914
000230 af 76 91 bd cc 42 ea 3c c2 66 d8 bc 12 57 9e bd
       -0.07102715 0.028596304 -0.026416186 -0.07731451
000240 9d 14 d8 3c 74 27 86 bc 8f f2 18 3c 2e a7 ad 3d
       0.026377017 -0.016376235 0.009335174 0.084791526
000250 9f f4 db bb 15 1d e0 bd 3f 17 7a 3d 45 1a 61 bd
       -0.0067125107 -0.10943047 0.061057325 -0.054956693
000260 37 05 9b bd 90 f8 58 3d 78 4e 29 bd 3c 81 f2 3d
       -0.07569354 0.052971423 -0.0413346 0.11841056
000270 e3 af ee 3d be 60 4c 3e 48 5c 3d 3e 84 a7 3e bc
       0.116546415 0.19958779 0.18492234 -0.0116366185
000280 78 af a9 3d 21 a1 60 bd 00 bd bb 3d 26 17 ae 3d
       0.08285421 -0.054841164 0.09166908 0.08500509
000290 3c 5e 0b bc fa a1 22 3e e0 58 19 3e 42 ad de bd
       -0.008506354 0.15882102 0.1497531 -0.1087289
0002a0 f8 15 bc bd 3f 32 26 3d f3 4e dd bc c4 19 d6 3b
       -0.09183878 0.040575262 -0.027015185 0.006533833
0002b0 ca b7 29 bc fc 2f 98 bc 19 88 1c be fb 2b bf bc
       -0.01035876 -0.018577568 -0.15286292 -0.023336401
0002c0 fe 45 43 3c 7f 16 ec bd b3 6c 2e 3d d5 a3 ca 3c
       0.011918543 -0.11527728 0.042584132 0.024736324
0002d0 43 78 c2 3d 6a a4 e9 3d 5b ba ed 3d db d6 35 3e
       0.09495594 0.114083126 0.1160781 0.17757742
0002e0 60 14 24 3d 3e f8 d7 3c 71 64 16 3e a9 93 f6 bd
       0.040058494 0.026363488 0.14686753 -0.12039883
0002f0 a5 dc ea bd bf ed a3 bc 08 c9 3c 3c 4b f4 82 ba
       -0.11467866 -0.020010827 0.011522539 -0.0009991018
000300 4b 4f 24 bd fd 9f 75 bd 05 5b f2 bb 7f ea e3 bc
       -0.040114682 -0.05996703 -0.0073961043 -0.027821777
000310 ef ed 87 bd c2 28 17 3d a0 88 ad bd ae 77 c0 bc
       -0.06637179 0.036904104 -0.08473325 -0.023494568

lstm.weight_ih_l1 f4 [200, 50]
000000 bd 81 e1 bd 48 b1 0d 3e e1 d3 19 be 35 ee e1 ba
       -0.11011074 0.13837159 -0.15022232 -0.0017237129
000010 e5 37 a1 bd 08 6a 8a 3c 09 6d 7e bd 3d 42 5b bd
       -0.07871989 0.016896263 -0.062115703 -0.053529967
000020 90 bf 08 3d 02 bc 41 be da ea 0a 3e 3f a7 0b 3e
       0.033385813 -0.18919376 0.13566151 0.13638018
000030 55 f7 ce bc 98 b7 16 bc 75 d3 5f bd bf b9 f5 bd
       -0.025264421 -0.009199046 -0.05464502 -0.11998319
000040 a5 ff 95 3d ad e3 c5 ba 23 54 bd 3d 72 14 0b bd
       0.07324151 -0.001509776 0.092445634 -0.033955045
000050 86 c5 1e be 87 8d 02 3e b2 df fc 3c be f9 cf bb
       -0.15505037 0.12749301 0.030868385 -0.0063469103
000060 41 a9 92 3d bf 66 6d 3c 39 8f 91 bd 6f ef 92 bc
       0.07161189 0.014489829 -0.07107396 -0.017936436
000070 c2 e1 1c bd 1f 9e 9a 3c d5 e2 6d bd e8 64 17 be
       -0.038301237 0.018874226 -0.058077652 -0.14784586
000080 e0 10 29 be 23 cb 5a bd 3f ee 53 bb b7 e8 19 3e
       -0.16510344 -0.053416383 -0.003233805 0.1503018
000090 45 dd 00 3e 42 a8 16 be 26 5d 1b 3e af 4f 23 3e
       0.12584408 -0.14712623 0.15172252 0.15948366
0000a0 1f 48 a3 3c 39 e4 2a 3e bc 91 96 bc ed 0b bd 3c
       0.019931851 0.16688623 -0.018380038 0.023076976
0000b0 68 05 27 bd ba 94 93 3d 61 ce 8e bd f8 85 bc 3d
       -0.04077664 0.07206102 -0.069729574 0.0920524
0000c0 f3 78 0b be 67 f2 f8 3d 47 33 f2 3d f6 24 7b 3c
       -0.13620357 0.121556096 0.118261866 0.015328636
0000d0 84 7a 09 bd 5a 32 13 3e 5b 1c f8 3c 41 41 a7 3d
       -0.033564106 0.14374676 0.030286958 0.08166743
0000e0 a5 3d cd bc 4b 7a f3 3d d8 74 6a 3d db 3b 20 be
       -0.025053808 0.1188856 0.057240337 -0.15647833
0000f0 b1 09 73 3d ad 34 31 3b 3b a0 6a bc c6 b4 68 3d
       0.059335414 0.0027039454 -0.0143204285 0.056813024
000100 81 95 07 bd 54 c8 07 bc b5 c3 b5 bc 9b 06 f3 3c
       -0.033101562 -0.008287508 -0.022188047 0.029666236
000110 35 8b fb 3b 32 b1 67 3d 44 9a 84 bd 57 a3 9c bd
       0.007676507 0.05656547 -0.06474736 -0.07648342
000120 81 b2 c2 bc 35 45 15 be 80 d7 e5 bd 85 4e 93 bd
       -0.023766758 -0.14577182 -0.11222744 -0.07192711
000130 d7 95 fa 3d b3 7a 49 bd 9a f9 96 3d a7 59 50 bd
       0.12235611 -0.04918928 0.073718265 -0.05086675
000140 8d 41 ac 3d 15 ea 93 bd 6d 5a b7 3d c4 de ab 3d
       0.0841094 -0.07222382 0.08952794 0.083920985
000150 a5 65 1f be d5 55 03 bd 3a 58 48 3d e2 53 61 3d
       -0.15566118 -0.032064278 0.048912264 0.055011638
000160 e7 ce 63 3d 94 99 96 3d bd 0b 1a 3e 14 8e 35 3e
       0.05561724 0.073535115 0.1504354 0.1772998
000170 3d 11 15 be 0c bc bf bd 23 c6 b4 3d 88 6b 13 be
       -0.14557357 -0.09362039 0.08826854 -0.14396489
000180 b7 7f bb bc d3 04 58 3d 5d 17 11 be 6b 5c 9e 3d
       -0.022888048 0.052738976 -0.14169069 0.07732471
000190 f5 ff d2 3d a4 3d 5f bc ee 74 bb 3d 96 02 7d 3e
       0.10302726 -0.013625536 0.09153162 0.24708018
0001a0 9c 53 26 bd 6b 36 79 bd d9 65 d6 bd 78 0a 57 3e
       -0.04060708 -0.060842913 -0.10468645 0.21000087
0001b0 c1 65 32 3e 52 ca 13 be 70 0b 6f bb ce 21 bf 3c
       0.17421629 -0.14432648 -0.0036475323 0.023331549
0001c0 91 38 cc 3d 24 72 6c bd eb 1d 02 3e 12 a9 9c bd
       0.09971727 -0.05772604 0.12706725 -0.07649435
0001d0 4e df 6e 3d 28 7c d1 bd 58 e4 90 bb e3 63 0c be
       0.05831843 -0.10228759 -0.004421752 -0.13709979
0001e0 87 4a a0 bb 36 d9 4f bc e0 0a 73 3d 36 16 ec bc
       -0.004891697 -0.0126860645 0.059336543 -0.028819185
0001f0 47 30 02 be 9a 67 b4 bd 7e 2b b0 3d b1 46 b4 3d
       -0.12713729 -0.08808823 0.086020455 0.08802546
000200 17 ec 0d bd 8a c7 18 be 80 91 9a 3d 1a 56 20 bd
       -0.03464898 -0.14919868 0.07547283 -0.039144613
000210 37 18 7c bd d6 36 08 bd 08 10 84 3d 31 ad 1c 3e
       -0.06154653 -0.03325542 0.0644837 0.15300442
000220 64 5a e6 3c 58 3a c2 3d 8b 77 d0 3d f8 2b 8f bd
       0.028119273 0.094837844 0.10179051 -0.06990808
000230 e8 80 45 3d 1d f8 db 3d b2 a3 db bd ba 57 02 be
       0.048218638 0.10740683 -0.10724582 -0.12728778
000240 2a 83 89 3d c9 43 99 3b 11 f4 ba bd fc db 6c 3d
       0.06714471 0.00467727 -0.09128583 0.05782698
000250 77 6b cb 3d c0 af 89 3c d5 1b 21 3c 07 cc f7 bd
       0.09932607 0.016807437 0.009833296 -0.12099462
000260 72 26 0a 3e 84 08 04 3e dd e3 cb 3d 89 1a 1e be
       0.13491228 0.12893873 0.09955571 -0.1543981
000270 dc 0a b5 bd 98 91 05 bd e4 5f ae bc dc 99 89 3b
       -0.08839962 -0.032609552 -0.021285959 0.0041992497
000280 5a 39 21 3d 84 a6 40 3c 1a 97 e9 bd a6 f5 86 bd
       0.039361335 0.01175845 -0.114057735 -0.065898225
000290 94 7b c6 3d d3 b2 bb bd b0 79 0c be 05 c1 9a bd
       0.096915394 -0.091649674 -0.13718295 -0.07556347
0002a0 60 10 30 3d b3 9f a8 3d dd 44 ca 3d 1b ad 47 bd
       0.042984366 0.08233585 0.09876416 -0.04874907
0002b0 8d 44 6c 3d a1 2c 3e 3d b7 65 22 3e 06 ca d7 bd
       0.057682563 0.04642928 0.15859114 -0.1053658
0002c0 e3 4b d4 3d 4a 02 ee 3d 79 5b fb 3d 42 5d cf bd
       0.10366037 0.1162153 0.122733064 -0.101252094
0002d0 6f e7 ac bd 47 fe d2 3c 88 e4 e9 bd cf d4 1e 3d
       -0.0844258 0.025756015 -0.11420542 0.03877717
0002e0 a3 e4 03 be c1 d9 82 3d ca 21 8b bd 11 c3 ad bd
       -0.12880187 0.063891895 -0.06793554 -0.084844716
0002f0 de a5 e8 3d c2 c1 3f bc 06 d3 de 3d 0c 54 21 3e
       0.11359762 -0.01170391 0.10880093 0.15754718
000300 44 b1 2c 3d 99 85 9e bd 2f ef 68 bd c2 7e 45 3c
       0.04216124 -0.077403255 -0.05686873 0.012054147
000310 fb 04 0a 3c 1b 7e a2 3d 52 53 0a 3e 5c 14 b5 bd
       0.008424039 0.07934209 0.13508347 -0.08841774
000320 d3 6a 13 bd 21 2c f9 bc 24 7d 78 bd 66 07 cd 3e
       -0.035990547 -0.03041655 -0.06066622 0.40044707
000330 8a dc 18 3d 93 d2 86 3a 4b 02 bc 3d c9 b8 bd 3d
       0.037319697 0.0010286145 0.09180125 0.092637606
000340 93 32 13 3e 3d b4 fd bd 61 9e 75 3d d0 ba f7 3d
       0.14374761 -0.12387893 0.059965495 0.120961785
000350 c9 5f ba bc 26 ad e4 3c 3f 51 3a 3d 14 f6 6c be
       -0.022750752 0.027914595 0.04548764 -0.23140746
000360 8e 7d 05 3e fa d1 4f 3d 4f f6 02 be 11 86 a8 bd
       0.13036177 0.05073736 -0.12789272 -0.08228696
000370 a6 59 89 bd 1d df 95 3d 68 10 a8 bd 31 aa c4 bc
       -0.06706552 0.07317946 -0.08206254 -0.024006935
000380 5a 3e e9 3c 36 1d ef bd e8 2c b8 3d b6 e9 19 3c
       0.028472114 -0.116754934 0.0899294 0.0093941
000390 59 94 5d 3b 7c 7c 95 bd 31 c8 cf bd 47 bb 75 bd
       0.0033810346 -0.07299134 -0.10145605 -0.059993055
0003a0 ef 92 fb bb d9 b9 f3 bd c4 96 05 be 9d 50 e4 3d
       -0.007677428 -0.11900682 -0.13045794 0.11148188
0003b0 c5 7b 0a 3d 3a 86 aa bd 28 dd ae 3d 8d e2 bc bd
       0.033809442 -0.08326383 0.08538276 -0.09222899
0003c0 02 90 df 3d 23 e8 9a 3e 4a b0 8a 3c 1e e2 23 be
       0.10916139 0.3025523 0.016929764 -0.16004226
0003d0 27 0a a3 3d 68 85 95 bd 13 d0 e8 bd be 46 f8 3d
       0.07960921 -0.07300836 -0.11367812 0.12122868
0003e0 f8 2a c7 bd 55 21 1e 3e 26 2f b7 bd 9f 82 3b bc
       -0.097249925 0.15442403 -0.0894454 -0.011444717
0003f0 44 2a e5 3c 3f 40 f1 3d 80 e9 03 3e 31 dd 97 bd
       0.027974255 0.11779832 0.12882042 -0.07415236

lstm.weight_hh_l1 f4 [200, 50]
000000 6c 3d 7c 3d 60 c1 0c bd 49 30 08 3c d2 86 66 3d
       0.061582014 -0.034364104 0.008312293 0.05628092
000010 05 af 03 3e 18 a4 1b 3d 6b 06 36 bb ee c8 09 be
       0.12859733 0.03799829 -0.0027774822 -0.13455555
000020 da 36 b1 bd 20 54 53 3d dc 79 90 3d 18 4d 15 3e
       -0.0865304 0.0515939 0.07054493 0.1458019
000030 4d 96 a1 3c 42 fc bd 3d 5d f3 92 3c b5 55 65 bd
       0.01972499 0.0927663 0.01793831 -0.05598994
000040 39 ff 29 bc 94 3f 5d 3c 76 bd 72 bd 0a c3 ae bd
       -0.010375791 0.013503928 -0.059262715 -0.085332945
000050 e4 63 3d bd c3 5f bf bc cc 33 8a 3d 50 22 7a 3c
       -0.04623784 -0.023361092 0.06748161 0.01526697
000060 f3 bf f2 bc d5 d8 ba bd 8e 06 cf 3d 4f b4 c4 3d
       -0.029632544 -0.09123389 0.10108672 0.09604704
000070 d9 42 04 ba f8 e0 a0 bd f5 fd bd 3d 38 c2 30 bd
       -0.00050453615 -0.078554094 0.09276954 -0.04315397
000080 c8 db e3 bd c2 72 5d 3a 26 c9 d6 3b 76 93 18 bc
       -0.11125904 0.0008447581 0.0065547405 -0.009312501
000090 0d ca aa bd 88 1f 9c 3d 69 b4 5e 3d 61 cd e5 3d
       -0.083393194 0.076232016 0.05437127 0.112208135
0000a0 db 90 51 bd 9a c9 9f bd 46 a5 ad bd be ff 13 be
       -0.051163536 -0.07802124 -0.08478789 -0.14453027
0000b0 b7 d4 71 3c 4f 86 a9 3d f4 69 46 3d 01 0a 9c 3d
       0.014760188 0.082775705 0.04844089 0.076190956
0000c0 c1 52 d2 3d db 82 75 3d dc b3 34 bd d9 f8 83 3d
       0.1026969 0.059939247 -0.04411684 0.06443948
0000d0 5e f0 f3 bd 9b 4a 97 bd c9 ed b4 3d 58 e6 ee 3c
       -0.11911081 -0.07387277 0.088344164 0.02916257
0000e0 13 e7 b5 bd 2d 18 c6 3b 2c 0e c3 3d 7c 0f b6 bd
       -0.088819645 0.0060453624 0.095241874 -0.08889672
0000f0 63 c6 3e 3d a1 0a ac bd da 6c c5 3d b9 2f d4 bd
       0.046575915 -0.08400465 0.096399024 -0.10360665
000100 e0 6c c7 3b f8 c8 10 be 3a 40 04 3d 13 d8 82 3d
       0.006085977 -0.14139163 0.032287814 0.06388869
000110 c2 af 01 3e 87 b8 cd 3d 36 50 7f 3d 50 5d bd 3d
       0.12664703 0.100449614 0.062332354 0.092463136
000120 63 09 e7 bc 3d 8b 52 bc b1 3c c0 bd 7d d9 46 bd
       -0.028202718 -0.01285058 -0.09386576 -0.048547257
000130 5e e3 91 3d 5c b6 69 3d e2 1d 2a 3d 2a 30 9b 3c
       0.07123445 0.057058677 0.041532405 0.018943865
000140 a5 35 79 3d c0 de 47 3d 38 52 59 3d 59 e4 bf bd
       0.060842175 0.048796415 0.053056926 -0.09369726
000150 16 b2 52 3d 1f 23 e3 3d 00 3b ef bd 5a e7 97 3d
       0.051439367 0.11090683 -0.11681175 0.07417174
000160 a6 b7 1a 3e 47 d4 d6 3d 8f 2d c5 3d c9 50 0e 3e
       0.15109119 0.104897074 0.0962783 0.13898005
000170 c9 33 ee bc 8e 4b bb bd 04 6e dc 3d 60 31 b0 3d
       -0.029077427 -0.0914527 0.10763171 0.086031675
000180 1e 8f 9b bd 76 da 00 3e 46 2c 33 3d 2a ac ab bd
       -0.07595657 0.12583336 0.043743394 -0.08382447
000190 ac 58 bd bd ef 11 ae 3d 38 cd 3d 3d bb 28 b3 3d
       -0.092454284 0.08499514 0.04633829 0.08748003
0001a0 75 6d 07 3e ea 41 28 3d 43 e8 28 3d ab c6 7f 3d
       0.13225348 0.041078486 0.041237127 0.062445324
0001b0 a2 cd 5a 3c 66 39 7f 3d 40 4f 92 3d 66 9c 34 bd
       0.013354691 0.0623106 0.07144022 -0.044094466
0001c0 25 f5 e1 bd 26 46 81 3d 03 15 ad bd f2 07 f8 3d
       -0.11033086 0.06312208 -0.08451273 0.121108904
0001d0 95 d8 f5 3d 86 c6 a4 bc 27 70 3e 3d 3d bc f5 bc
       0.120042 -0.020114195 0.046493676 -0.029996986
0001e0 fc 45 fe bc 19 11 12 3c 85 12 1c 3d 60 11 0a 3e
       -0.03103923 0.008915209 0.0381036 0.1348319
0001f0 6f b2 6c bd f1 19 a1 bd ab 11 d1 bc da 64 22 3c
       -0.057787355 -0.07866276 -0.02552112 0.00991174
000200 bc 3f 7d bd fb 38 9f 3d c4 e4 62 bd 92 dd 93 bd
       -0.06182836 0.0777454 -0.05539395 -0.072199956
000210 08 db 4b bd e7 38 b1 bd 9e da 11 be 74 7d 0f 3d
       -0.04976943 -0.086534314 -0.14243552 0.03503175
000220 45 07 ed bb e0 da 8c bd 1a bb ef bc 74 6f 78 3d
       -0.0072335326 -0.068776846 -0.029264022 0.060653165
000230 e1 ae fa bd 53 24 a6 3d 04 ab a5 3c 31 90 e5 3c
       -0.12240387 0.08112397 0.020223148 0.028022857
000240 ee 0d df bc 26 90 ba 3d 83 71 b9 3d 12 d7 ca 3d
       -0.027228322 0.091095254 0.09054854 0.09904303
000250 14 e1 33 bc 7d 55 5e bd 54 fd dd 3d 92 00 79 3d
       -0.010978956 -0.054280747 0.10839334 0.06079156
000260 ef f0 cc bd 7c 30 f0 3c ba 67 bc 3c 2e d1 d9 bd
       -0.10006892 0.029319994 0.02299868 -0.10635601
000270 06 35 99 bd bb 13 93 bd 21 7d d1 3d 7c 60 c2 bd
       -0.074808165 -0.07181498 0.102289446 -0.09491059
000280 6b f3 9a bd 71 06 99 3c 5a ba d5 3d b6 3d 00 bd
       -0.075659595 0.01867983 0.10435934 -0.031308852
000290 0f ef c5 3d e6 29 2d 3d c1 86 16 bd 96 a8 18 3e
       0.096647374 0.042276286 -0.036749605 0.1490806
0002a0 95 68 62 3d dc 04 0f bd ed ae e7 3d cd ed f9 3d
       0.05527552 -0.034916744 0.11312661 0.1220356
0002b0 3e f5 61 bd cb 2d 77 bd dc 42 b2 3d bb de b6 bc
       -0.05516552 -0.060346406 0.08704159 -0.022323003
0002c0 65 f7 01 3e 03 cc 86 3d 58 43 ec bd bf f8 ab 3d
       0.1269203 0.06581881 -0.11536282 0.08397054
0002d0 df ee 8a 3d 5c d1 b9 3d b7 98 9f 3d 57 24 03 3e
       0.06783842 0.09073135 0.077928 0.12806831
0002e0 0d 4a 39 3d e9 94 d6 3d 11 2f d0 bb d8 b3 8a bd
       0.045236636 0.10477621 -0.006353267 -0.06772584
0002f0 71 51 c2 bd ee d9 f8 bd 90 12 61 bd 6a 5e f8 bd
       -0.0948819 -0.12150942 -0.054949343 -0.12127383
000300 c1 98 88 bc fb d8 d2 bd ac 24 e6 ba a4 79 12 be
       -0.016674401 -0.10295292 -0.0017558536 -0.14304215
000310 1b 59 86 3d 20 37 a7 bd 62 00 14 3d 89 07 d3 3d
       0.06559964 -0.08164811 0.036133178 0.103041716
000320 2d 27 3c 3d 4c 31 bb bd f2 3a 4e 3c 34 77 06 3e
       0.0459358 -0.09140262 0.012587296 0.1313141
000330 a3 62 94 bd ef a0 d6 bd 55 af 0d 3d c4 fc 11 be
       -0.07245376 -0.104799144 0.034591038 -0.14256579
000340 29 46 cd 3c d1 6f 75 3d d9 be 8a 39 89 58 13 3e
       0.025057869 0.05992109 0.00026463604 0.14389242
000350 a2 7a a6 bd e5 f8 f5 3d 43 dd c0 3d f9 90 c1 3c
       -0.08128859 0.120103635 0.09417202 0.023628699
000360 46 5a 4e bd d4 a5 eb 3d 5d 68 5b 3d a3 63 60 bd
       -0.05037906 0.115062386 0.053566325 -0.05478252
000370 18 14 a1 bd a5 55 df 3d 2f 2c ef 3d bf d7 37 3d
       -0.07865161 0.10905007 0.11678349 0.044883486
000380 59 43 5f 3d 7a d6 09 3d a7 22 c5 3d f2 bc b6 3d
       0.054507587 0.033651806 0.0962575 0.08922757
000390 6a 00 e9 bd 11 79 8e 3d a3 3a f5 bd 1d 5a 9d bd
       -0.11377032 0.06956685 -0.11974075 -0.07683203
0003a0 d2 32 89 bc 02 f6 bb bd fb 7e 31 3d e3 45 86 bd
       -0.016747866 -0.09177782 0.04333399 -0.065562986
0003b0 d4 21 e6 3d fb 45 8f bd f1 e2 94 3d c9 7f ef 3c
       0.11236921 -0.069957696 0.07269848 0.029235737
0003c0 f0 c6 ff 3c d4 42 b3 bd 35 b7 d8 3d 88 4a 8b bd
       0.03122279 -0.08752981 0.10581819 -0.06801325
0003d0 ef 20 9c 3d f3 47 df bd f1 ad 48 bd c7 35 96 bd
       0.07623469 -0.10902395 -0.04899401 -0.07334476
0003e0 a2 33 00 3e 5e a7 ed 3d 72 36 21 bc 96 e4 04 bd
       0.12519696 0.116041884 -0.009839641 -0.03244456
0003f0 5b d1 9e 3c d5 4d aa 3d eb 0b a7 bd 6a 2c 8c bd
       0.019386938 0.083156265 -0.0815657 -0.06844409

lstm.bias_ih_l1 f4 [200]
000000 49 e1 1e 3e c7 94 94 3d a8 93 42 bd 7e 19 87 3d
       0.15515627 0.072549395 -0.047504097 0.06596659
000010 a2 9c e5 3d 74 a3 53 bd 85 55 ca bd b3 60 e6 bd
       0.11211516 -0.051669553 -0.09879593 -0.11248913
000020 42 47 26 3e b2 36 1d 3e 68 a5 2c 3b 1f 4a 56 3c
       0.1623812 0.15352896 0.0026343707 0.013079195
000030 d6 d8 62 3c fc e1 11 be 73 7a eb 3c fc 04 0d 3d
       0.013845643 -0.14246362 0.028744912 0.03442858
000040 41 5e d4 3d a3 ae a1 bd 0b 5d 2c bc 75 44 c0 3c
       0.1036954 -0.078946374 -0.01052023 0.023470143
000050 55 75 15 bd aa db b6 3c 90 a8 1d bd 7b c2 9c bd
       -0.03648885 0.02232154 -0.03849083 -0.07654282
000060 87 72 d6 3d 62 96 37 3d 3b 15 89 bc 22 aa 0d 3e
       0.10471063 0.04482115 -0.016733756 0.13834432
000070 54 22 92 bd f8 6b d6 3d 9d c8 90 bc d5 8e e8 3d
       -0.07135454 0.10469812 -0.017673785 0.11355368
000080 0d 15 0d be ca c9 7b 3c 51 d8 e5 3d c3 33 31 bd
       -0.13777561 0.0153679345 0.112229 -0.043262254
000090 6a f3 34 3d 04 69 85 bd fc 12 b3 3d 98 3f c8 bd
       0.04417745 -0.06514171 0.08743855 -0.097777545
0000a0 51 76 fe bd 35 66 27 bd ba 84 76 3d 82 34 a8 bd
       -0.12424911 -0.040868957 0.06018517 -0.0821314
0000b0 80 19 a1 3c e8 68 c3 bc d8 26 04 be 84 9b e4 3d
       0.01966548 -0.023853734 -0.12905443 0.11162475
0000c0 93 9f 4b bc 94 2f 12 3d 8b 66 a8 3d 42 17 a5 3d
       -0.012428182 0.035689905 0.082226835 0.08061077
0000d0 d4 52 ae 3c 56 6d b0 3d 8b 79 b4 3d 00 25 98 3d
       0.02127973 0.08614604 0.08812245 0.07428932
0000e0 c1 da 19 3d 21 89 02 bd d7 26 07 3d a7 de 8e bd
       0.037562136 -0.031869058 0.032996025 -0.06976061
0000f0 ae c2 8e 3d c6 47 95 bd 1d 39 4c bc 28 38 f3 bc
       0.06970726 -0.0728908 -0.012464789 -0.029689863
000100 71 37 c6 bd 3e ba fa 3b 31 13 db 3d 08 4b 8f bc
       -0.09678543 0.0076515963 0.1069702 -0.017491832
000110 9a 9e 00 3e 58 7a e2 3d f8 b6 a4 3d 78 66 14 3e
       0.12560502 0.110584915 0.08042711 0.14492214
000120 95 30 3d bd a3 58 17 be c1 95 2e 3d 7c 03 0a 3b
       -0.04618891 -0.14779906 0.042623285 0.0021059206
000130 e1 e0 8d bd f6 73 34 bd 48 47 c8 3d 59 7e 01 3e
       -0.06927658 -0.0440559 0.09779221 0.12645854
000140 98 10 e0 3d 35 50 53 bd a7 f9 05 be 10 ed 37 bc
       0.10940665 -0.051590163 -0.13083516 -0.011225954
000150 a1 e0 a9 3d 29 aa 76 3d 7a 82 d7 3c 47 a7 23 bd
       0.08294798 0.06022087 0.026307333 -0.03995445
000160 af 95 00 3d cb 84 f7 bd cc 49 1d 3c 92 9a c0 3d
       0.03139275 -0.12085875 0.009600114 0.09404482
000170 45 21 63 bd f0 3f a7 bd 27 c0 9b bd b9 85 1d 3d
       -0.05545165 -0.08166492 -0.076050095 0.038457606
000180 7a 41 cf 3d 85 ba bc bd 46 69 58 bd cd c4 d4 3d
       0.101199105 -0.09215263 -0.05283477 0.10389099
000190 ca b9 c4 bd 00 a6 7c 3d 8e eb 30 bc 93 8e f8 3d
       -0.09605749 0.061681747 -0.010798348 0.12136569
0001a0 2b 45 a0 3d ac 17 b7 bd a6 27 9f bd 24 fe d0 3c
       0.07825693 -0.08940062 -0.07771234 0.025511809
0001b0 2a 28 91 bd b5 96 e2 bc 6d 00 0d 3e 4c e0 1d 3e
       -0.07087739 -0.027659753 0.13769694 0.15417594
0001c0 6f 90 1a be 2a 71 7f 3d d7 2b 75 bd 34 66 84 bd
       -0.1509416 0.06236378 -0.059856262 -0.06464806
0001d0 92 60 5e bd 82 62 6a 3d 86 7d de bd 0d b6 f6 3d
       -0.054291315 0.05722285 -0.108637854 0.12046442
0001e0 94 30 cc 3d b4 53 0a bd 7a 18 02 3d ff 9e d5 3d
       0.09970203 -0.03377123 0.031761624 0.10430717
0001f0 bb 28 e3 bd 49 10 0c 3e ad 20 0f 3e b1 4d fd ba
       -0.11091753 0.13678087 0.13977309 -0.0019325522
000200 34 fa a0 bd 6e a7 1c 3e f6 a4 bd 3d 08 81 b1 bd
       -0.078602225 0.15298244 0.092599794 -0.08667189
000210 bb 5f bf 3d 42 29 1f 3e 85 7f 9e bd bc 41 8b 3d
       0.09344431 0.15543082 -0.07739166 0.06799647
000220 1f 5f 88 3c 7c c9 03 be d6 0e ce 3d 03 f1 96 3d
       0.01664692 -0.12869829 0.100614235 0.07370188
000230 08 de 23 bd 40 e2 40 bc 63 d5 bf 3d 4a b8 8e bd
       -0.040006667 -0.011772692 0.09366872 -0.06968744
000240 a8 c9 85 3d bd 53 1c be 10 27 d4 bc 9b 03 5d 3d
       0.065326035 -0.15266319 -0.025897533 0.053958517
000250 83 9f fc bc f4 d0 ba 3d cf c9 1c 3d 4e ff 92 3d
       -0.03083778 0.09121886 0.038278397 0.07177602
000260 4d 08 12 bd f3 e4 cc bd ae 02 9c bd 1d 83 8e bd
       -0.035652447 -0.10004606 -0.076176986 -0.069586016
000270 87 88 0e be 41 85 e7 bd 39 d2 c9 bd db 3f 53 3e
       -0.13919269 -0.11304713 -0.0985455 0.20629828
000280 75 89 e8 bc 50 2c 59 3d 97 0a dc 3d 57 2c 73 3d
       -0.028385857 0.053020775 0.10744207 0.059368458
000290 2e 07 07 3e 95 f1 ee bd 71 6a 3c bd f3 ac fb bc
       0.13186333 -0.11667172 -0.045999948 -0.030722117
0002a0 44 c9 ee bd c7 01 eb bd c9 af 8d 3d 57 2b f6 3d
       -0.11659482 -0.114749484 0.06918294 0.12019985
0002b0 e8 94 8c 3d 71 e3 f9 3d 68 07 dd 3d b2 b3 43 bc
       0.06864339 0.12201584 0.10792428 -0.011944698
0002c0 d9 9d 38 3d e9 06 dd bd 24 cf a1 3c 25 61 46 bd
       0.04507241 -0.10792334 0.019752093 -0.048432488
0002d0 e9 3a b4 3d b1 c9 6d bd 91 90 c4 3d 94 c9 e5 3d
       0.08800299 -0.058053676 0.09597886 0.112200886
0002e0 03 cd a2 bd 14 a5 fd 3d c5 bf 45 bd c9 c8 ff 3d
       -0.07949259 0.12385002 -0.04827859 0.124894686
0002f0 94 b1 b5 3d ad a5 f9 3d 04 a0 11 3d 44 df 6f 3d
       0.08871761 0.12189803 0.035552993 0.058562532
000300 6a 40 c8 3c 78 ce 17 3e 62 65 05 3d 7e 77 ce bd
       0.024444778 0.14824855 0.03256739 -0.10081385
000310 d4 c9 06 be 17 33 a7 3d 26 61 73 3d 86 f9 df 3d
       -0.13162929 0.081640415 0.05941882 0.10936265

lstm.bias_hh_l1 f4 [200]
000000 1f 17 bc 3d b5 e9 ae 3d ac 0c 60 3d e1 30 04 bd
       0.091840975 0.0854067 0.054699585 -0.032273177
000010 a2 72 b5 bd 26 9e f1 3d 4f 23 0d 3e 7d b7 9c 3d
       -0.08859755 0.117977425 0.13783 0.07652185
000020 f6 09 9c bc 0c 4a f5 3d d2 40 f8 b9 44 c2 a3 3d
       -0.019047718 0.11977014 -0.0004735054 0.079960376
000030 6e 81 ee 3d fa a8 a9 3c cc 12 0a 3d eb 9e d2 3d
       0.116457805 0.020710457 0.033709332 0.102842174
000040 6f 93 d6 bd 2f 1f 70 bd 3d 52 9e bd 16 f2 05 3e
       -0.104773395 -0.05862349 -0.077305295 0.1308063
000050 98 41 99 bd 91 3e 03 3d 57 46 88 bd c3 9d d4 bc
       -0.07483214 0.03204209 -0.06654041 -0.025954133
000060 b3 5f a0 3d e0 8e c1 3d 87 01 b6 3d 16 1a 8b 3d
       0.07830753 0.09451079 0.0888701 0.06792085
000070 11 80 be bd fc a8 e2 bd 36 e2 f1 bd 78 b3 c2 bb
       -0.093017705 -0.110673875 -0.118107244 -0.0059418045
000080 ff cb b8 3d 38 9d 75 bd a0 da e9 3d 57 12 20 3e
       0.09023284 -0.05996439 0.114186525 0.15631996
000090 48 c4 67 3d c8 54 d4 bd 7c ac bc 3d 96 0e dc bd
       0.056583673 -0.10367733 0.09212586 -0.107449695
0000a0 ee 06 a5 3d 85 0c c1 bc a7 15 eb 3d 6b e2 dd bc
       0.08057962 -0.02356554 0.11478739 -0.027085504
0000b0 80 e9 22 3e cb 67 f4 3d 16 80 72 bd aa 48 c6 bd
       0.15909386 0.119338594 -0.059204184 -0.09681828
0000c0 4c 38 a2 3d 21 c2 c2 bd a5 f2 f9 bc de eb e2 3d
       0.07920894 -0.095096834 -0.03051121 0.11080144
0000d0 09 e7 7a 3d b6 a0 f5 bb 8d ec dc 3d 1e dd e4 3d
       0.06125549 -0.007495965 0.10787306 0.11174987
0000e0 b1 2a c1 3d 8c e0 59 3d d7 a7 f6 3d ab 92 3d 3e
       0.09431971 0.05319266 0.12043732 0.1851298
0000f0 ff c5 18 3d 0d 4e fb bd c3 40 eb bc f3 c4 0e bd
       0.0372982 -0.122707464 -0.028717404 -0.034855794
000100 b1 88 4f bc a2 af fb 3d 2b 7c 9c bd c1 c7 26 3d
       -0.012666867 0.12289359 -0.07640871 0.040717844
000110 70 85 0c bc a0 4b 81 bd 63 df 1e 3d d0 85 bc 3c
       -0.008576736 -0.063132524 0.038787257 0.023013026
000120 66 3b d0 bb 1d f0 7d bd 19 74 2c bd db 19 29 bd
       -0.006354737 -0.061996568 -0.042102907 -0.041284423
000130 2b 22 dd bd 59 c2 86 3d 3b 52 cc 3c 9d 83 fb 3d
       -0.10797533 0.065800376 0.024941554 0.122809626
000140 f0 33 84 bd 4f 88 95 3d 42 62 da 3d 88 c7 a5 bd
       -0.06455219 0.073013894 0.106632724 -0.08094698
000150 76 1a 4e bd 72 c6 5d 3c 02 84 d8 3c f5 a0 17 3d
       -0.050318204 0.013536083 0.026430134 0.037018735
000160 fa c6 ed bd 91 0d f7 3d a2 15 a4 3d c5 84 01 3e
       -0.116102174 0.120631345 0.08011939 0.12648304
000170 83 fd 90 3d 1f de c6 3c 0a 77 34 3d 81 0a cd bd
       0.070796035 0.024275837 0.044058837 -0.10011769
000180 01 07 8b bd ba 87 74 bd 48 ab 1a 3d 79 0c 68 bd
       -0.06788445 -0.05969975 0.037761003 -0.05665252
000190 de ce 8d bd 91 e5 fa bd 92 bf ff 3d d0 6b 86 3d
       -0.069242224 -0.122508176 0.12487711 0.06563532
0001a0 98 7a 5d bd 19 49 5a 3d 58 9b ae 3d 9f ae 27 3c
       -0.054071993 0.053292368 0.08525723 0.010234504
0001b0 f2 0d b1 3d f4 ba 45 bd 63 70 e4 3d 63 33 a2 bc
       0.08645238 -0.048273996 0.111542486 -0.019799894
0001c0 cb 18 4c bd 2e 25 5a 3c aa 83 06 be ac d3 4a bd
       -0.049828332 0.013314528 -0.13136163 -0.049518272
0001d0 cf 4f e2 3d c8 98 d7 bd e7 a3 61 bd f3 5c 86 3d
       0.110503785 -0.105271876 -0.05508795 0.065606974
0001e0 3f 02 15 3e 9c 77 c6 bd 1d 65 e0 bd e6 22 cc 3c
       0.14551638 -0.096907824 -0.10956786 0.024918985
0001f0 6f 96 d0 3d 31 c1 7a bd a8 83 42 3c 58 8a 17 be
       0.10184943 -0.061219398 0.01187221 -0.14798868
000200 73 c4 0e 3c 06 2d 0f 3e fe 89 8f bd fa ba 2c bb
       0.008713829 0.13982019 -0.07008742 -0.0026356564
000210 56 8c a1 3c 62 b9 80 bc 12 1f 88 bd 01 a4 17 3d
       0.019720238 -0.015713397 -0.06646551 0.03702164
000220 91 0f ff 3d 16 56 95 3d 2c 31 c6 3c 01 26 81 3d
       0.12454141 0.0729181 0.024193369 0.06306077
000230 78 8f 92 bd 88 72 f4 3d f7 b9 c6 3d ce 5b 25 bd
       -0.07156271 0.119359076 0.09703439 -0.040370755
000240 12 95 21 bc 88 e4 3f 3d 2c 52 18 3d 85 67 65 bd
       -0.009862201 0.046848804 0.03718774 -0.056006927
000250 ec b0 75 3d 53 4c f4 3c c9 3f 31 b9 f6 bf d8 3d
       0.05998318 0.02982155 -0.00016903797 0.10583489
000260 ab 6c 6a bc c4 e8 46 bd 69 63 d4 bc 11 32 16 39
       -0.014308135 -0.048561826 -0.025926309 0.00014323766
000270 7c cc 60 bc 50 ff f0 bd 8a 75 7d bd 7c ef 08 3d
       -0.013720628 -0.11767447 -0.061879672 0.033431515
000280 03 fe 9c 3d cf 49 8b 3d 6e 98 0e 3e 37 4a 5a 3d
       0.076656364 0.06801187 0.13925335 0.053293433
000290 c4 92 1c 3e 47 e4 a0 3d 7a 76 ac bd f8 6c 3c bd
       0.15290362 0.078560404 -0.08421035 -0.04600236
0002a0 70 45 86 3d 90 37 13 3e 45 3d 9f 3d d5 e3 d8 3d
       0.06556213 0.14376664 0.07775358 0.105903305
0002b0 45 91 4b 3d 10 f3 d2 bd 5a b1 ee 3d e0 e5 10 3e
       0.049699087 -0.10300267 0.11654921 0.1415019
0002c0 57 5c 2d bd 72 d8 37 bd 67 dd c3 bd 70 8a 11 3e
       -0.04232439 -0.044884153 -0.095637135 0.14212966
0002d0 01 75 97 3c 9a 29 95 3c 88 e4 20 bd d4 d0 e4 bd
       0.018488409 0.018208314 -0.039280444 -0.11172643
0002e0 61 ef b9 3d 78 97 1b 3e 19 c9 71 bd 03 28 37 3d
       0.09078861 0.151945 -0.059029672 0.044715893
0002f0 b7 d4 f8 bd a7 a7 c6 bd c8 da 05 3d 08 64 13 3e
       -0.12149947 -0.09699946 0.03267935 0.14393628
000300 f1 00 a5 3d 03 56 f0 3d 28 01 71 3c 0a ff 4c 3d
       0.0805682 0.117351554 0.014709748 0.05004791
000310 fd 4c e9 bd 63 02 3a 3b 2c a9 c7 3d 84 ef 19 bd
       -0.113916375 0.002838277 0.09749064 -0.037581936

fc.weight f4 [1, 50]
000000 38 d9 ae bc 0f 93 ff bd ec 11 f6 3c 37 0a d4 bd
       -0.021343812 -0.12479221 0.030037843 -0.10353511
000010 15 42 a6 bd 23 99 26 be 49 a4 ae 3d dc c3 03 be
       -0.08118073 -0.16269355 0.08527429 -0.12867683
000020 54 9b 24 be 44 18 d4 3d 1a 25 88 3d 60 5f 82 3d
       -0.16074878 0.10356191 0.066477016 0.063658476
000030 8d 21 28 be e2 b5 b6 bd 42 de 00 bd f4 bc a4 3b
       -0.16419049 -0.0892141 -0.03146196 0.005027408
000040 a2 95 11 3e 31 c2 ad 3d 5f 44 41 3c e6 69 fd 3d
       0.14217237 0.08484305 0.011796086 0.12373714
000050 dc 00 2b 3d 45 86 83 bd c5 11 4b bd c4 f8 d8 bc
       0.041748866 -0.06422094 -0.049577493 -0.026485808
000060 7f 22 c9 3d 08 04 17 3d 3d 02 ca 3d 67 a2 51 bd
       0.09821033 0.03686908 0.09863708 -0.05118027
000070 f7 3b f0 bd f7 d4 ce 3d f2 1e b1 3d 35 2b e6 bd
       -0.117301874 0.100992136 0.086484805 -0.1123871
000080 63 ae 5b bd 14 96 0f 3e 96 e7 47 3d dd 95 af 3d
       -0.053633105 0.14022094 0.048804842 0.08573506
000090 29 52 d4 3d 6c 44 b8 bd 77 7a d2 bb bb fc 3e 3b
       0.10367233 -0.089974254 -0.0064232904 0.0029142338
0000a0 dd 67 7e 3c 92 b6 a6 3d 42 21 f6 bd ac ee f8 bb
       0.015527693 0.08140291 -0.12018062 -0.0075968113
0000b0 d1 bd 1c 3e 45 48 d8 bd 12 12 0a be fa 47 8e bd
       0.15306784 -0.10560659 -0.13483456 -0.06947322
0000c0 9c 02 14 3e 93 c8 71 3d
       0.1445412 0.059029173
