models/lstm_model_5m.pt (torch, 127756 bytes, 9 tensors)

lstm.weight_ih_l0 f4 [200, 1]
00000000: d506 9a3d 4c50 bcbd 1dcf ad3c ac8a adbc
00000010: c919 ffbd 90a5 863d 1af1 4bbd dd75 95bd
00000020: 38cd 4d3d 09fa bc3c f5b0 a4bd 3baf 6b3b
00000030: e73e f43c bf9c 213d 4bfd 22bd ae1e 9f3d
00000040: 6544 de3d 7b44 10bd 1943 aebd efc0 99ba
00000050: acb5 f23c da00 123d c99a 95bd bca5 2f3e
00000060: fc6d 283e 2a98 bebb 68ab 0d3e 80e0 2c3e
00000070: ea86 263e 79b6 b6bd a28c 213e 9ca7 e23c
00000080: b41a cf3a 914f 8c3c 9e2e fcbd e7fe 243e
00000090: 2e67 c2bc b7e2 783b 5cde 0c3e 3487 67bd
000000a0: cbd7 7dbb 1b80 e63c 0130 e13d f5a6 963d
000000b0: 4da2 633e 50ae 90bd 4802 323e 68eb c43d
000000c0: 3760 e8bd fd40 21bd 65c3 7dbd ca27 f0bd
000000d0: 3a2d 1e3e aed5 8bbb ad6e bfbd 5bfc 153e
000000e0: 610d 043d 4796 003d af02 423e c2c7 073e
000000f0: 8570 4bbd 87de 023e 9625 94bd 71ad 6a3d
00000100: 9ed0 3abc 363b 3d3e c338 6dbd db4b 263e
00000110: 0988 a33b 1e60 e73b 4f95 ec3d 784a a73c
00000120: dd57 f1bc 2e32 313e 3b10 6b3d c750 39bd
00000130: a497 103d 7154 c83d bc13 173e d929 a1bd
00000140: fb8d 61bd 0c5b 233d 442a 7bbd 2ed1 c2bc
00000150: f43e c8bd 786b 6b3d f65f 03bd a628 b93d
00000160: 01a2 f73c 06f6 333e 4eae 56bc ff54 2dbc
00000170: 2cc3 e1bd 46d2 0b3e 121c 023e af3d 14bc
00000180: 0731 b83d 09df 0d3e 0fde 8a3d d219 20bd
00000190: 5899 323d 4c61 2bbb 636e cabc 21c0 55bd
000001a0: 7c82 bfbd d69c 04be 1adc 043e 4f3a 14be
000001b0: fb2b 63bd ba79 a33d 8a06 5bbd b8eb b3bd
000001c0: 4dc5 203e 8373 48be a8da 053e a628 a8bc
000001d0: 795f 85bd 176b b1bc 2f63 533c ff72 183e
000001e0: 74c7 b4bd 84eb 72be 09cd b13c efbe 2b3e
000001f0: f8b1 c43d e030 3e3e ba6b 523e bbd6 103e
00000200: d8b0 cbbd dbfd 103c 7cf1 3c3e 3af4 c2bc
00000210: b1e3 aa3d c4cd cdbd 84c9 3e3d a6e1 90bd
00000220: d3f0 4e3e bc30 65bd 71ce d8bc 11ca 3ebd
00000230: 0093 a03d d558 6ebc 4c4a ef3c 6f8f 15bc
00000240: 7835 67be df26 45bd ca8c 4d3e 3664 ef3d
00000250: 042e fb3d aef8 1ebe 0ed1 e33d 0a10 063e
00000260: eac1 febc c613 a53d 3313 81be 0696 a8bc
00000270: d667 8a3d 07b9 16be ecbb 433e 258e e438
00000280: a339 38bd a003 29bb a1db a33d 5d97 02bd
00000290: 5b37 553d fb0d f73c 5135 553d f2e9 0b3e
000002a0: 107d f23d da05 2dbe 79e7 33bd 8292 203e
000002b0: a6b0 523d 8758 333e e373 433e 5656 f33d
000002c0: d9ea 453d 6242 0e3e a986 43bd 1256 903d
000002d0: b5fd eb3d 2bbf c4bd 5ed1 2ebb 3663 6b3d
000002e0: 4933 30bc 96a8 87bd 9fdd 2e3b e2a0 bfbd
000002f0: e084 d43d 78d3 84bc 4e11 013d 1c37 363e
00000300: a345 ecbd 0b9a 7dbd bd6d 373e 73de 993d
00000310: 39da 2c3e 01bc dc3d 0ff1 e53d 8609 2dbe
0.07520834 -0.09195003 0.021216923 -0.021184288 -0.1245609 0.06574547 -0.04979048 -0.07297871
0.05024454 0.023068445 -0.080415644 0.00359626 0.02981515 0.039456125 -0.03979234 0.077695236
0.10852889 -0.035221558 -0.085088916 -0.0011730472 0.029627644 0.035645343 -0.073049136 0.17153066
0.16448206 -0.005816479 0.13834918 0.16882515 0.16262403 -0.08921523 0.15776303 0.027667813
0.0015800805 0.017127784 -0.12313579 0.16112863 -0.02373084 0.003797693 0.13756698 -0.056525424
-0.003873336 0.028137257 0.10995484 0.07356063 0.22229882 -0.070644975 0.17383683 0.09615213
-0.113464765 -0.03936862 -0.06195392 -0.11726339 0.1544694 -0.004267416 -0.093472816 0.14647047
0.03223932 0.031393316 0.18946336 0.13259795 -0.049667854 0.127802 -0.072337314 0.057294313
-0.011402277 0.18479618 -0.05791546 0.16239874 0.004990582 0.0070610186 0.11551916 0.020421252
-0.029460842 0.17304298 0.057388525 -0.04524305 0.035300866 0.09781731 0.14753622 -0.0786931
-0.055067044 0.03988175 -0.061319605 -0.023781385 -0.09777632 0.057475537 -0.032073937 0.09040956
0.030228617 0.17574319 -0.013103081 -0.010579347 -0.11023554 0.13654432 0.1270602 -0.00904791
0.08993726 0.13854612 0.067806356 -0.039087124 0.04360327 -0.0026150523 -0.02471084 -0.05218518
-0.0935106 -0.12950453 0.12974587 -0.14475368 -0.055461865 0.07982202 -0.053473033 -0.08785194
0.15700264 -0.19575314 0.13071692 -0.020527195 -0.065123506 -0.02165751 0.012902065 0.14887618
-0.08827105 -0.23722655 0.021704214 0.16772054 0.09604257 0.18573332 0.20548907 0.14144413
-0.0994584 0.008849586 0.18451494 -0.023798097 0.0834421 -0.10049012 0.0465789 -0.07074289
0.20209055 -0.05595468 -0.026465626 -0.046579424 0.07840538 -0.014547546 0.029210232 -0.0091284355
-0.2257899 -0.048132773 0.20073238 0.116890356 0.12264636 -0.15524551 0.111238584 0.13092056
-0.031098325 0.08060412 -0.2520996 -0.02057935 0.067580864 -0.1471902 0.19114655 0.00010898364
-0.04497684 -0.0025789514 0.08000875 -0.031882633 0.052054744 0.030158034 0.0520528 0.13663462
0.1184026 -0.16896763 -0.04392192 0.15680888 0.051437996 0.17514239 0.19087176 0.11881702
0.04831967 0.1389251 -0.047735844 0.070476666 0.11523 -0.09606775 -0.0026675086 0.05746766
-0.010754415 -0.06623952 0.002668239 -0.09356858 0.103769064 -0.016214117 0.031510644 0.1779446
-0.1153672 -0.061914485 0.17912956 0.07513132 0.1688012 0.107780464 0.11227619 -0.16898164

lstm.weight_hh_l0 f4 [200, 50]
00000000: 5ce5 b93d 67c4 b4bc 3748 873d b594 d83d
00000010: a146 21be 29b7 5d3d 82cd 813d 2400 f83c
00000020: b820 6dba dd8f 48bc 4795 053e 5e1f 813a
00000030: 7904 a83d 126a ef3d bf7a 013d b1f7 29bd
00000040: 4ca9 ed3d aa4d 9cbd 6422 adbd 0b58 083d
00000050: 729c 8dbd 8444 0dbe 33b6 00be 4569 123d
00000060: 4b3a 0bbd 0195 0f3e 16a9 7d3d 7704 a0bc
00000070: ff88 3abc 5997 efbc 422f 253c a775 10be
00000080: 6430 fbbd bb3c 0d3d b8f2 033c b018 bcbc
00000090: 372a c5bb ce80 ed3a d2ca 093e 80c6 b33d
000000a0: e2b5 d3bd 4fa6 79bd 3564 4f3d 1bc4 83bd
000000b0: 250e c43d a1cd 75bd d153 b03d 9b86 e73b
000000c0: 7fee 0c3d d4d4 c2bd d3da 183d c5f5 a43d
000000d0: b64a f9bd 65ae c93d e6d8 ebbd c88e 86bc
000000e0: 05bd 563c 7b26 acbb f870 e5bd eafb bcbd
000000f0: f150 bd3d b97e c4bc ba28 09be ee00 a53d
00000100: 2d95 f7bb db79 08be 08be fe3d e937 24bc
00000110: e324 c03d c652 0dbd 077c 123c 1722 b4bd
00000120: 5605 9b3d 2b11 8fbd 0b98 013e 18ea b83d
00000130: 2e8b a53d 3b55 13be 3360 e8bd a739 9a3d
00000140: 3b1c 11be c594 a0bc 567b 693c b327 003e
00000150: 922d 8abd d82b f5bd d121 e63c cb3b 1fbd
00000160: 55be adbd 0eb7 013d 0475 423d 2f75 4b3d
00000170: 3b34 d73d f5d5 ccbd 5d6d f33d 3aa3 b8bd
00000180: 6310 a23d d6eb cb3d 2d68 053e 9211 053e
00000190: fbf3 c03d f7e8 a0bd 2134 bcbd 6d98 133e
000001a0: f8f2 42bd 2c95 21bd cdc6 673d f010 bcbd
000001b0: 713d 9f3d 2137 ce3d 5d51 ad3d e122 6b3d
000001c0: c845 97bd 75ed c3bd 639c ddbd 5260 f2bb
000001d0: 7fbf 6b3d 5b8d a13d eb39 113e 1f46 86bd
000001e0: e77c df3d b277 dcbd 0f66 98bc f1db 873d
000001f0: ca48 edbc 87b6 0b3d 012d cc3d 1014 9cbd
00000200: 60e8 d8bd 4ee7 c73d e7e7 d8bd 40f1 263d
00000210: 06ad 38bc 1789 d5bd ff14 2b3d 9f0c 0b3e
00000220: a4bc ca3d 3108 f83d 635c a3bc 26a4 ee3d
00000230: 0c8c 0cbe 4b74 513d 7760 043e ed4c 4cbd
00000240: f0e7 9ebc 8348 853d 959f c13d a871 b83d
00000250: 79c7 60bc a294 033d d476 81bc cde4 773d
00000260: f1f4 debc 5418 c7bd 5076 843c f9a2 40bd
00000270: 345b bcbd 886f bb3d 8212 e9bc ce82 283d
00000280: 25fb 89bd 7da1 1abd 6037 3c3d 6218 16be
00000290: 42a0 163c ba8e b13d 25e5 9b3d fa62 38bc
000002a0: 587b 1c3d a458 613d 8b39 7dbd 6610 5fb9
000002b0: f6ea 843d e40d 153e ec3c 993d fec9 5ebd
000002c0: c963 74bd 7eb3 ab3c ce6f 0fbe f2bc ca3c
000002d0: b94f a1bb dd85 91bd d60c c2bd b9fc 0a3d
000002e0: c7da 063e 071a d03d 67b9 d53d 6362 ca3d
000002f0: 26a5 8d3d 0e01 0e3e f2e8 023e e087 6cbd
00000300: 3675 c2bd 61e4 2fbd eaea b7bc e74e 983d
00000310: 0c08 06bd 6ce4 af39 2d4a 853d 9e48 a0bd
00000320: 3ea1 b3b9 96de 04be 7b4f fdbd da63 37be
00000330: df86 a83e ef1d 1f3e ad07 a1bd 497f 5a3e
00000340: 9fdb eb3c 1416 7a3d 270a ffbb fa22 603d
00000350: bab5 f53d 59f5 153d 0f9a 5a3d 61b3 a23d
00000360: 6d80 8d3d 9d16 02be c020 04bd 0e31 b2be
00000370: 4a86 e5bd fa43 923e bddd 9abc d2c2 4dbb
00000380: afb4 3bbd b65a 2d3e 76dc 65bd 8af3 423d
00000390: bdb4 1d3e 3391 57bd fe0d e4bd fa4f 583e
000003a0: 05d3 1cbd 6ad2 343d b798 403e 146b 3cbe
000003b0: dfe9 02be 6540 4dbe ffcc 083e 717f cebd
000003c0: 04fc 08bd 5edd b3bc 1e96 54be 7542 e33c
000003d0: 5666 0f3e 075f 4a3e 6127 8cbd f527 a6bd
000003e0: 6b62 a5bd aaf9 c23e fe10 ddbc cdd9 3d3d
000003f0: 2396 2cbe 73e4 82bd d155 633e 20a0 d9bd
0.0907695 -0.022066308 0.06605571 0.105752386 -0.15749599 0.054129753 0.06338026 0.030273505
-0.0009045708 -0.012241331 0.13045226 0.0009851267 0.08203978 0.11690153 0.0316112 -0.041495983
0.116045564 -0.07632001 -0.08453825 0.03328709 -0.06914605 -0.13795668 -0.12569503 0.035744924
-0.03399114 0.14021684 0.06192883 -0.019533379 -0.0113852015 -0.029246973 0.010082068 -0.14107381
-0.12265089 0.034481745 0.008053474 -0.02296099 -0.0060169953 0.0018120052 0.13456276 0.08778095
-0.10337426 -0.06094962 0.050632674 -0.064338885 0.0957301 -0.060010556 0.08609737 0.007065607
0.034407135 -0.0951325 0.037318062 0.08054689 -0.12172453 0.09847716 -0.115159795 -0.016425505
0.013106589 -0.0052536107 -0.11203188 -0.09227736 0.09243954 -0.023986207 -0.13394442 0.08056818
-0.007555625 -0.13327734 0.12438589 -0.010023096 0.093820356 -0.034502767 0.008940703 -0.087955646
0.07569377 -0.069856964 0.12655656 0.09029025 0.08083187 -0.14387982 -0.113464735 0.075305276
-0.14170925 -0.019602189 0.014250597 0.12515144 -0.06746973 -0.11971253 0.028092297 -0.038875382
-0.084835686 0.031668715 0.047474876 0.0496723 0.10508009 -0.100017466 0.11886094 -0.09015508
0.07913282 0.099570915 0.13028021 0.12994984 0.094215356 -0.078569345 -0.0918963 0.14413615
-0.047594994 -0.039448902 0.056586076 -0.09182918 0.07775391 0.10069109 0.084627844 0.05740631
-0.073863566 -0.09566776 -0.10820844 -0.007396736 0.05755567 0.078882895 0.1418225 -0.06556343
0.10912495 -0.107650176 -0.018603353 0.06633747 -0.028965373 0.03410962 0.09969521 -0.07621014
-0.10591197 0.09760915 -0.10591107 0.040757418 -0.011271721 -0.104265384 0.04176807 0.13579033
0.098992616 0.121109374 -0.019941514 0.116524026 -0.13725299 0.051136296 0.12927423 -0.04987805
-0.019397706 0.06507971 0.09454266 0.09006053 -0.013719433 0.03212417 -0.015803732 0.060520936
-0.027216407 -0.09721437 0.016169697 -0.047030423 -0.09197083 0.09152132 -0.028451208 0.04114037
-0.06737355 -0.037751663 0.045951247 -0.14657739 0.009193482 0.08669801 0.07612065 -0.011254067
0.038203567 0.055016175 -0.061822455 -0.00021273046 0.06490128 0.1455608 0.07482323 -0.054391854
-0.059665475 0.020959612 -0.14007494 0.0247483 -0.0049228338 -0.071056105 -0.094751045 0.03393242
0.13169394 0.10161214 0.10435753 0.09882047 0.06916265 0.1386759 0.12784174 -0.057746768
-0.094950125 -0.04294241 -0.022450883 0.074369244 -0.032722518 0.0003354879 0.065082885 -0.07826351
-0.00034261675 -0.12975535 -0.12368675 -0.17909184 0.32915398 0.15538763 -0.07862792 0.21337618
0.028791247 0.06105621 -0.0077831927 0.054720856 0.11997552 0.036610935 0.053369578 0.0794437
0.06909261 -0.12703939 -0.032257795 -0.3480305 -0.11207254 0.28567487 -0.018904561 -0.003139664
-0.04582661 0.16929135 -0.05611845 0.04759554 0.15400977 -0.052628707 -0.11135481 0.21124259
-0.03828718 0.04414598 0.18808256 -0.18400222 -0.12784527 -0.20044096 0.1335945 -0.10082901
-0.033443466 -0.021956142 -0.2076039 0.02774165 0.14003882 0.19762813 -0.068434484 -0.0811309
-0.08075412 0.38081104 -0.026985642 0.04635029 -0.16854148 -0.063912295 0.22200705 -0.106262445

lstm.bias_ih_l0 f4 [200]
00000000: b483 b0bd 064c adba 8db6 8abc c3f9 fb3d
00000010: 6783 3c3e 314a 983d c4ca 573d bf3e 663d
00000020: af99 36bd d2fc acbd 8e3c d23c 8982 ad3d
00000030: f60d 7ebb 0634 ff3d 94b1 80bc 1461 9d3d
00000040: 039f e23d 206e b9bd 38b7 79bd c7ec c7bd
00000050: bd01 193e 5ce7 283e 9455 f03d 0449 113e
00000060: c177 023d d1ca e63d 20dd 2a3e d3e6 49bd
00000070: 7349 b8bd 681e ed3d 21ce 183e 43ea 0c3e
00000080: 5819 723d 0121 e8bd bd29 c6bd ab08 9dbd
00000090: 1b9a a0bd b238 cb3d b5e0 a53d 5965 0e3e
000000a0: dcd2 4c3d f4b3 e03d 41ea 3cbd 1eec 62bd
000000b0: 7e18 7c3d 030c bc3c f813 a4bc 0186 073d
000000c0: d631 863d fe5a 2c3e c3c6 f2bd 8e7d 4fbd
000000d0: 31c0 03be 6756 fc3d fe49 873c ee99 b2bc
000000e0: 2dc4 013e 5e75 97bd 95a4 e6bd 11c9 c73d
000000f0: 5ae8 f7bd ee11 e1bc 62ea ee3d 3817 8dbd
00000100: af27 54bd 89a5 68bc 558b 0dbe 2cd0 c1bc
00000110: f041 e13d 720a 04bd a65d 88bd a18e 0a3c
00000120: 5560 b03d 0f53 c0bd f6f5 593c 12be 2d3d
00000130: e5a7 d4bd 1a99 1ebd 4166 c6bd 0fcf ca3d
00000140: bfac b13d afb6 343c 80a9 adbd 1e2a 80bd
00000150: ad62 4e3d 1450 edbc 4a92 0c3e 5849 a23d
00000160: 0fe9 8c3c 52ce eabd 6a18 893d 538c dabd
00000170: c59a 1e3d a0fd d53c 8470 343e a701 89bd
00000180: eb6d 6f3d 16fc 563d 542f f2bc 362c 39bc
00000190: 58c6 e1bd 7b89 7e3d e78d 843d af07 0cbe
000001a0: a4ac 6abd fca6 083d 9c30 ffbd 50bd 6f3d
000001b0: 5331 e8bd c006 0e3e 1183 a8bc 6328 ebbd
000001c0: b546 cd3d 3397 d83c 14dc 783d e008 06be
000001d0: 0d16 973d 141a 8fbc 8ff3 c3bc 4777 203c
000001e0: 8aef 83bc 0530 87bb 49e8 bc3d 6a4d dabd
000001f0: 65f1 60bc 1664 fb3c 6691 31bb 83fd 073e
00000200: 7843 8e3d 2858 0bbe de05 cebc bf56 c63d
00000210: d796 e7bd 187f 3d3a 4547 583d f0ab 8cbc
00000220: 765d dc3d 732d f4bb 31c2 b5b9 db74 b5bd
00000230: 7bc8 e33d 97ac f2bd 22d2 f5bd 05ce 8b3d
00000240: 7b5a be3d 5087 293c 9d5f 523d 6718 9f3d
00000250: 0266 b13b af3e 8fbd 2da5 e1bd a111 ec3d
00000260: e0e2 c8bd 158a bd3d 58e5 bc3c fcc7 45bd
00000270: 8d87 87bd b4ba 26bb 15b7 cabc aa6f 3abc
00000280: a796 df3c 3ee1 f83d fc7a 3b3c 43b6 363d
00000290: efcd c03b 422a 01bc d061 01be 4bf5 f43c
000002a0: 501b cbbd 5c47 7a3d d116 e23d 81cf 9c3c
000002b0: c36c dd3c 670e 08bb b3d5 fb3c d9d1 113e
000002c0: 591d aabd 1301 afbd 6c9f 5abd 08d1 4ebd
000002d0: 0abe d43d 1696 5f3d bb5a c4bc b6e0 62bd
000002e0: a94f 47bd 3638 a13d a3e7 dfbc ebaf 38bc
000002f0: 8893 8b3d b76a 9c3d f19e 243d 340c f93d
00000300: 39c2 e73d bcd0 62bd 09f5 163e 389d 04bc
00000310: 2fb8 0fbd 0ee0 bebc 2d55 123e 4bd2 0d3e
-0.086188704 -0.0013221509 -0.01693275 0.12303498 0.18409501 0.07436026 0.052683607 0.056212183
-0.044580158 -0.08446659 0.02566364 0.08472163 -0.0038765646 0.124610946 -0.015709676 0.07684532
0.11065485 -0.09054208 -0.060965747 -0.097619586 0.1494207 0.16494507 0.11735073 0.1418801
0.031852487 0.11269153 0.16685915 -0.049292397 -0.08998384 0.11578065 0.14922382 0.13761239
0.0591062 -0.1133442 -0.0967593 -0.07667669 -0.07841893 0.09922923 0.080995 0.13905849
0.05000578 0.10971823 -0.04612184 -0.05540096 0.061546795 0.022954946 -0.020029053 0.03308678
0.06552474 0.16831586 -0.11854317 -0.050656848 -0.12866284 0.123211674 0.016514774 -0.021801915
0.12672491 -0.07395433 -0.1126186 0.09755147 -0.121048644 -0.02747437 0.11665799 -0.06889194
-0.051795658 -0.014199623 -0.13822682 -0.023658834 0.10998905 -0.032236524 -0.06658487 0.008456857
0.08612124 -0.09390842 0.013303271 0.042417593 -0.10383586 -0.038720228 -0.09687472 0.099027745
0.08675527 0.011029883 -0.08479595 -0.06258033 0.050387073 -0.028968848 0.1372768 0.079241455
0.017200975 -0.11465134 0.0669411 -0.10671296 0.03872182 0.026121914 0.17621046 -0.06689768
0.058454435 0.0524865 -0.029563583 -0.011302045 -0.11024159 0.06214283 0.06472378 -0.13674806
-0.05729355 0.033362374 -0.124604434 0.05853015 -0.11337533 0.13869762 -0.02057031 -0.114823125
0.10023252 0.026439285 0.060756758 -0.13089323 0.07377253 -0.01746849 -0.023919849 0.009794063
-0.016105432 -0.0041255974 0.092239924 -0.10659297 -0.013729428 0.030687373 -0.002709472 0.13280301
0.069464624 -0.13607848 -0.025149282 0.09684514 -0.11308067 0.0007228716 0.052802343 -0.01717183
0.10760014 -0.007451707 -0.00034667694 -0.08860179 0.11122223 -0.11849325 -0.1200297 0.068264045
0.092946015 0.010347202 0.051360715 0.07768326 0.0054137716 -0.06994378 -0.11017833 0.115268
-0.09808898 0.09254853 0.023058578 -0.048286423 -0.06617651 -0.0025440874 -0.024745503 -0.011379162
0.027293516 0.121523365 0.011442896 0.044607412 0.005883924 -0.00788361 -0.12634969 0.029902121
-0.09917319 0.06110321 0.11039508 0.019141914 0.0270294 -0.0020760538 0.030741548 0.14240207
-0.08306379 -0.08545127 -0.053374693 -0.050492316 0.103878096 0.054586492 -0.023969045 -0.055390082
-0.048659954 0.078720495 -0.027332133 -0.011272411 0.06815249 0.07637542 0.04019064 0.12160531
0.11316342 -0.055374846 0.14741911 -0.0080941245 -0.03508776 -0.023300197 0.14290304 0.13849752

lstm.bias_hh_l0 f4 [200]
00000000: 6ada b83d 808d 483d 5835 bbbd 99df d4bd
00000010: b713 8dbc 69e6 ed3c 9b4b dd3d a3af 1c3d
00000020: 4c55 d73d 4d37 96bd 8afc 033e 9388 f23d
00000030: 369c 053e c0e4 18bd 372c 86bd a69f f7bd
00000040: 9d9a 04bd 7772 433c 1bde 843d 7b6c 4abb
00000050: 58ca c83d 94cd ff3c de38 d4bd a61a 203e
00000060: 6e5e 9d3d 9d8f 84bd ecaa cf3c 746b 1dbc
00000070: c9c8 013e af1c 02be 1bef 003e d25d 76bd
00000080: e242 153e e5a0 9f3d 21ac 6b3d ea5c 673d
00000090: 0e86 033d 88da 75bd 710d df3d 053b ba3d
000000a0: 0047 5abb 783c b7bd 40cf 063e 8dd3 0d3e
000000b0: cff4 7e3d 1674 0f3d 866f 0b3e 2c91 e73a
000000c0: 8738 e1bd bcde f93c 1ae8 d1bd 331d 76bd
000000d0: 661d 7bbc 8ce0 a1bd 9964 bd3c 879d 85bd
000000e0: c6b8 7ebd 209b 8bbd 346d 213d 4307 fe3d
000000f0: 86dc f43d d47b 743d 49cc 33bd bfc6 063d
00000100: 0100 acbd cb6f 833d 5a5a ea3c 61d2 92bd
00000110: ec12 133d 3260 a23b d6d5 ecbd 6ea9 03bd
00000120: deb9 a93d 3524 e33d 311b 733d a2f8 3b3d
00000130: 3b61 1d3e 7123 ec3d f681 27bd 167e ebbc
00000140: 2102 7fbd d48c e3bd 9f45 04bb 4f15 aebc
00000150: 97a0 0cbe 4a61 36bc 0a6a 083c 92c0 0f3e
00000160: 789d cb3d cb2f debd ae1b aabc 21ea 113e
00000170: ebcb f6bd 30cd 87bb bbc3 fb3d 77b5 d3bd
00000180: 6b5c cbbb 7e63 45bd 285a ac3d dc32 643d
00000190: 635a 05be 8ccc bcbd 0154 f9bd 8ee9 b13c
000001a0: 479f bc3d bba3 aabd 6592 34bd 1302 2a3d
000001b0: 8614 88bd 9ce5 d03c df1b 6c3d dded d7bd
000001c0: 2d90 a13d 9978 863c b2f5 de3d 2a85 abbd
000001d0: cf1e ec3d 9771 e2bd 03c4 a4bd 9994 1abe
000001e0: 8a13 18be d90e 6e3d 4d29 09bc b039 973d
000001f0: 62bc 05bd 9e26 0d3e 4388 3f3c 7009 d93d
00000200: 2b1d 00bd 135e 13bd f01d d23d f08a f33d
00000210: e878 083e 0793 0bbe 7b9e 6c3d fd76 e0bd
00000220: d22b 12be 1d32 913b fd8d f63d 8799 11be
00000230: ed9d 2d3d cc8b 50bd 4c29 df3d c65d 133e
00000240: db65 fdbc f6ae 103e e1e0 373d ffaa a2bd
00000250: f5c8 65bd d1ed 1d3e 1d97 19bd b285 dcbc
00000260: 9b61 f03d b367 8fbd 9659 0c3d c443 023e
00000270: bb76 e6bc 7f5b 06bd 5ecb a2bb ff5f 103e
00000280: 8678 173d 2908 05bd 53b5 1b3e c768 dbbb
00000290: 4083 e6bd 02da 0f3e eac3 073d 9cf5 9c3c
000002a0: 60b3 eebd 46a3 c8bd 1057 0c3e 617c 0d3e
000002b0: f316 72bd 2079 f83d 13b7 cbbc 9587 663d
000002c0: 4523 d3bd 3108 f13d 6c95 183e 948d 02be
000002d0: 464d fa3d 9366 eebd 3be2 a73d 66ad 1e3e
000002e0: 95b5 15be 0404 903d bb10 ca3d 5468 d23b
000002f0: ff6e 75bd 0911 a23b 74dd 8ebc 960a 84bd
00000300: 45d4 843c cf21 7cbd bcdb 02bd 9e0a b13d
00000310: bd63 34bd 5123 94bd 0a0f 0e3e fe66 a23c
0.09026034 0.04896307 -0.09141034 -0.1039421 -0.017221315 0.029040532 0.10805436 0.038253438
0.10514316 -0.073347665 0.12889305 0.11842456 0.13047871 -0.037327528 -0.06551402 -0.120909974
-0.032374013 0.011929146 0.06487676 -0.0030887413 0.09804219 0.031225957 -0.10362409 0.15635166
0.07684027 -0.064727046 0.025350057 -0.009608138 0.1267425 -0.12706254 0.12591211 -0.060148068
0.14576295 0.0779436 0.0575372 0.056485094 0.032110266 -0.06002286 0.108912356 0.09093288
-0.003330648 -0.089470804 0.13164997 0.13850231 0.062245186 0.035022818 0.13616762 0.0017667166
-0.1099711 0.030501716 -0.10249348 -0.06008644 -0.015326833 -0.07904157 0.023119258 -0.065241866
-0.062187932 -0.06816697 0.039410785 0.12403729 0.11956124 0.059688404 -0.043895993 0.032904383
-0.08398438 0.06417807 0.028607536 -0.07169033 0.035906717 0.004955315 -0.115642235 -0.032144003
0.082874045 0.1109089 0.059352104 0.04589141 0.15369122 0.115301974 -0.040895425 -0.028746646
-0.06225789 -0.11110845 -0.00201831 -0.021250395 -0.13733135 -0.011131594 0.008326063 0.14038303
0.09942144 -0.108489595 -0.020765152 0.1424947 -0.12050613 -0.0041443333 0.12293192 -0.10337346
-0.0062060854 -0.048190586 0.084156334 0.055712566 -0.13022761 -0.09218702 -0.121742256 0.021717813
0.09210067 -0.0833201 -0.044084925 0.041505884 -0.066445395 0.025500111 0.057643767 -0.10543416
0.078888275 0.016414927 0.108867064 -0.083750084 0.11529314 -0.11056822 -0.08045199 -0.15095748
-0.14851204 0.05811963 -0.008371663 0.0738405 -0.03265036 0.13784263 0.011690202 0.10597503
-0.031277817 -0.035978388 0.102596164 0.118917346 0.13327372 -0.13630305 0.057768326 -0.10960195
-0.14274529 0.004431023 0.12038801 -0.14218722 0.042386938 -0.05091457 0.10896549 0.1439124
-0.030932358 0.14129242 0.044892196 -0.07942771 -0.05609985 0.15422751 -0.03749763 -0.02691922
0.11737367 -0.07002201 0.034265123 0.12721163 -0.028132787 -0.0328021 -0.004968091 0.1409912
0.036980174 -0.032478485 0.15205888 -0.00669584 -0.11255503 0.14048007 0.033145823 0.019160084
-0.11655307 -0.09796767 0.13705087 0.13816978 -0.059103917 0.12132478 -0.02486757 0.056281645
-0.103094615 0.117691405 0.1490075 -0.1274932 0.1222177 -0.11640658 0.08197447 0.15495834
-0.1462005 0.07032016 0.09866472 0.0064211283 -0.059920307 0.0049458784 -0.017439581 -0.064473316
0.0162145 -0.06155568 -0.031947836 0.08644603 -0.04404043 -0.072332986 0.13872924 0.019824501

lstm.weight_ih_l1 f4 [200, 50]
00000000: 70e7 e73c ef73 b43d c8e9 ac3d a3b8 e6bd
00000010: 6776 223e d0ac dabb 4c97 9fbd bb68 90bd
00000020: 3cd9 1a3d 538a 343e dfa2 a5bd 3dc3 4dbd
00000030: 5315 fe3d e8c2 d0bc 9439 8cbc 297b 0f3d
00000040: 3d38 f53d 8b51 83bd 9baa 7b3a cc50 a0bd
00000050: 4385 843d d3d6 a2bb 9783 8bbd dfbb 4cbd
00000060: edab 203c b395 1e3d 51d0 98bc 7207 013e
00000070: d6cb 1fbe bbef 453d f365 6c3d 3a3b a83d
00000080: 69f3 023e bab3 6e3d 8d46 d8ba f6dc 0a3c
00000090: 3b47 be3c e374 043e 4888 b7bb d301 aa3b
000000a0: c823 003e 0da6 68bd 0a2c 273e 56c9 003e
000000b0: d48e 05be a29c d6bd 6dde 473e 13f0 d3bd
000000c0: 2df1 713c 8e41 0e3d 80a5 06bd 7e9e bb3d
000000d0: 3176 f0bd fc97 9e3c 830d b7bc 39a0 f1bc
000000e0: 5b90 55bc 8655 463d 3a80 60bd 2509 1ebd
000000f0: 41b3 6a3d 1d7f fbbd a33f a7bd c46e b83d
00000100: bce9 c2bd c7cc 67bc 6c54 0f3e 0538 22bc
00000110: a808 8cbd adbf 9ebd fdbf 443c 6ccf d4bd
00000120: 5bec 543d 51ab 943c 9db8 fc3d a37b 5dbd
00000130: cb07 ec3c 4616 78bd 7eb8 98bd c743 1dbe
00000140: 87cc 2fbd 845d ab3c 4aae fd3d 1925 abbd
00000150: d0e5 f93c a8a7 8cbd a443 eb3d 3c6a 05bd
00000160: cb39 bfbd 127e 03be 5918 19bc 9114 1cbe
00000170: 33cb 91bd e19d 86bd f410 26bc a88e 933d
00000180: 3e19 293e a49a aebd f222 943d 9dd9 b3ba
00000190: 306c 8c3d b1d1 ecbd a68e 7fbd 1bad 92bd
000001a0: 2d01 f93d a09d d73d a341 133e 7f80 78bc
000001b0: def6 abbc 647d a33c f7ca 21be 60f0 0b3e
000001c0: 887e 033e 80e6 b23d ab0c 033e c697 45bd
000001d0: 2e5f b43d da8f 16bd b96c 163c 3ef8 c73d
000001e0: 9170 0e3e 13c1 24bc d809 c2bd 0bd2 a7bc
000001f0: 813f b7bc 5ce8 9bbd 44d9 f8bc 5e9f cfbd
00000200: a7a5 24be 69c0 9f3c 9f5a 74bc 0124 07bd
00000210: f163 5abd a1a2 2cbd 10fb d53b 8dc2 df3d
00000220: dae3 ccbc d244 c1bd 447e 473d 5dca 373d
00000230: a2a8 0ebe 6bc8 aa3d e6fe d53d 00ff 523d
00000240: f225 7ebe 3cb6 613c af3e bc3b 9839 91bd
00000250: 3338 253e 15ed 8b3d 520a c03d b936 f6bd
00000260: c8f5 c1bc 8352 6a3d 37d6 a3bc 72eb 0abd
00000270: ffd7 aa3d a4ed 883d 316e 37bd 642a 5bbd
00000280: 9420 a5bc d41d 18be f15e 763d 637e fdbd
00000290: bbbb 833d 9674 c63d 3f4c febd c051 58bc
000002a0: 6220 243d d9a4 02bc 6f1d 06bd c218 d6bd
000002b0: 31aa f7bd e292 78bc 26c1 b2ba 4ec8 a3bd
000002c0: 0458 0c3e a9e6 273e 43fe 813d 2151 aabd
000002d0: 7361 25bd 9598 e4bd 39d6 99bd 0ce1 ecbd
000002e0: 193b 01bd fbf2 1dbe aa6c 8ebd e896 37bd
000002f0: 1ca1 d4bd 7274 80bd 3425 083d 5f44 f63c
00000300: fe46 17bd 8849 99bd eaff 04be 1638 93bc
00000310: ad0d b63c 3eea 673d 3610 f63d 7c89 45be
00000320: 6c50 833d 09de 733c b78b 8bbd 6378 8a3d
00000330: 8d97 6fbc 9d9f 30be 2f08 203e ecad ccbd
00000340: b0ea c43d 4ff1 8fbd 59dd b63c bec5 c93d
00000350: 72ee 133e ec59 16be 4830 adbd eca5 57bd
00000360: 34d9 1e3d a34f 39bd 33d5 c2bc e234 a13c
00000370: fa10 733d 4f28 44be 28d2 5b3d 8058 303e
00000380: 98f5 4fbd 3be3 4d3c 7838 b3bd cff0 023d
00000390: 1585 33be a4bf f43d 4d6c 3c3e e8d7 3d3d
000003a0: 169e f3bd 948f 923d 182f 21bd 06cf 0fbe
000003b0: e353 253e 1bd5 14bd 697d 7abd eeea e2bd
000003c0: 39f7 e9bd 017c 96bc b07f a3bd 7329 bd3d
000003d0: 0ec1 d0bd de0e db3d c1e8 b8bb 9a0d 2abd
000003e0: ad7e ebbc 6ddd febb b2f9 07be f291 b03d
000003f0: 62d6 743d 793e a8bd 66ce d33d 357d 0a3e
0.0283086 0.08811175 0.08443028 -0.112656854 0.1586548 -0.006673433 -0.077925295 -0.07051226
0.037804827 0.17630892 -0.08087706 -0.05023502 0.12406411 -0.025483564 -0.0171173 0.035029564
0.11973617 -0.064120375 0.00096003123 -0.07827911 0.0647073 -0.0049694567 -0.06812208 -0.049983855
0.009806615 0.038716983 -0.01865402 0.12600496 -0.15605101 0.048324328 0.057714414 0.082144216
0.12788166 0.05827687 -0.0016500518 0.008475533 0.023227325 0.12935214 -0.005600963 0.0051882057
0.1251365 -0.056798983 0.16325393 0.12576804 -0.13042766 -0.10479094 0.19518442 -0.10348525
0.014766973 0.034730487 -0.032872677 0.09161089 -0.11741293 0.019359581 -0.02234531 -0.029495345
-0.013034905 0.048421405 -0.054809786 -0.03858294 0.057299856 -0.12280104 -0.081664346 0.09005502
-0.095172375 -0.014147944 0.13997048 -0.009901051 -0.068375885 -0.07751403 0.012008664 -0.10391125
0.05198322 0.018148096 0.123399 -0.054072987 0.02881231 -0.060568117 -0.07457064 -0.15357886
-0.04291966 0.020918615 0.123867586 -0.08356685 0.030505091 -0.068679154 0.11487511 -0.032572016
-0.09337195 -0.12841061 -0.009344184 -0.1524222 -0.07118835 -0.06573082 -0.010135878 0.07204944
0.16513535 -0.08525589 0.07233228 -0.001372147 0.06856573 -0.11563433 -0.0623919 -0.071619235
0.121584274 0.105281115 0.14380507 -0.015167355 -0.020991739 0.019957252 -0.15800081 0.13665915
0.12841237 0.08735371 0.12797801 -0.048240446 0.088072166 -0.03675828 0.009181195 0.09764145
0.13910128 -0.010055798 -0.09474534 -0.020485898 -0.022369148 -0.076126784 -0.030377038 -0.10137819
-0.16078816 0.019500928 -0.014914184 -0.03299332 -0.053317968 -0.042147283 0.006530173 0.109257795
-0.025010992 -0.094369546 0.0487044 0.044870723 -0.13931516 0.08339008 0.10449009 0.05151272
-0.24819162 0.013776358 0.005744777 -0.07091063 0.1613472 0.06832329 0.093769684 -0.12022156
-0.023676768 0.057207596 -0.019999607 -0.033915944 0.08341979 0.06685951 -0.04478282 -0.053507224
-0.020157136 -0.14855129 0.060149137 -0.12377622 0.06432291 0.09690206 -0.124168865 -0.0132030845
0.040069945 -0.007973873 -0.032742914 -0.10453941 -0.12093008 -0.015171738 -0.0013637885 -0.079971895
0.1370545 0.16396584 0.06347325 -0.08316255 -0.040376138 -0.11161915 -0.07511563 -0.11566362
-0.0315505 -0.15424721 -0.0695432 -0.04482165 -0.10382292 -0.0627221 0.033238605 0.030061899
-0.036932938 -0.07484728 -0.12988248 -0.01797108 0.022223318 0.056619875 0.12014811 -0.19290727
0.06411824 0.01488448 -0.06813758 0.06761243 -0.014623535 -0.17248388 0.15628122 -0.099941105
0.096150756 -0.07028448 0.022322344 0.098521695 0.14446428 -0.1468274 -0.084564745 -0.05264847
0.03878136 -0.045241963 -0.023783302 0.019678537 0.059342362 -0.19156002 0.053667217 0.1722126
-0.050771326 0.012566383 -0.08751005 0.031967934 -0.17531236 0.11950615 0.18400688 0.046348482
-0.11895387 0.071562916 -0.039351553 -0.14043817 0.16145281 -0.036336046 -0.061154757 -0.110799655
-0.11424107 -0.018369677 -0.07983339 0.092364214 -0.10193072 0.10696195 -0.005642981 -0.041516878
-0.028746927 -0.007777861 -0.13278845 0.08621587 0.059774764 -0.08215041 0.10342102 0.13524325

lstm.weight_hh_l1 f4 [200, 50]
00000000: 0284 1c3e 7225 f23a 7d8e 69bd 9f83 d3bb
00000010: b06e de3d d688 70bc beb9 89bd b91b df3c
00000020: 39cf f53b 87db d7bd eba3 a9bc 91cb 4b3d
00000030: edf1 123d 8d81 c1bd 30b2 803d a233 9c3c
00000040: a6ea aebc 161b d7bc 59aa d23d 293f 12be
00000050: 59a1 a5bd db11 3dbd 4d15 2d3d 651f ad3c
00000060: 7c19 f3bd 6cc9 233d f825 cd3d 4e24 12be
00000070: 4ad7 a0bd eb6a 8f3d c40b 063e d1a3 03be
00000080: 70f2 31be 0862 f5bc d9fa 8c3d 154d 5abd
00000090: 2487 963d 036b a53d 14ba 85bb aead 57bd
000000a0: 21f6 09bd 5d23 09be 8873 9abd 17fc 833d
000000b0: 302d 963d 08ce 1c3e 3a47 97bb 0fa5 883d
000000c0: b079 d83d 5c14 263b 23cb ee3c da8f c4bd
000000d0: 6e91 2fbc 2efe adbd 01a6 e1bd 8d62 693d
000000e0: e7d6 aa3d c382 13bd bc74 d6bc 51c4 e2bc
000000f0: 4feb 843d f9b0 15be 6cc4 f03d e7f5 ddbd
00000100: 0d16 6fbb bbc8 ea3d 2cea edbd ede7 e3bd
00000110: ff54 943d 903f d83d ef73 8a3d d745 db3d
00000120: 0a38 cfbd 0926 25be 5d3e cb3d cc2c 083e
00000130: ded8 0b3c 32b8 efbd a257 fe3c a1e4 1ebd
00000140: 74a4 e9bd bab2 883d 4998 553d d6ea 0c3e
00000150: e7a1 41bc 0b3b a63c 4f43 ca3d f1f6 19be
00000160: 37a5 c43d a3db 0e3e 7bb5 3d3d 4f00 b53c
00000170: 965a 8cbd 6d03 3d3c e4cd 8fbd c30d 97bd
00000180: 6b04 23bd cf4a 153b 1592 02bd 2563 c2bd
00000190: df99 0a3e 8569 8cbc 3070 cc3d 4c70 8b3d
000001a0: 8cb0 25bb 0b8c 74bd 0799 52bd 3702 92bd
000001b0: d623 0fbd 5ca0 f9bc 4c9a 87bd ff65 a13c
000001c0: 1340 1dbe 9e95 30bd f6d6 1bbe 7f50 65bc
000001d0: 30ad 3cbc 2aa5 bdbd 43cb f43d 8740 85bd
000001e0: 2401 db3d c2bc c43d c4c3 0fbe 6368 fcbd
000001f0: 641d 52bd 7b19 a83d 1f95 b43d 946d 6cbd
00000200: 2ef1 fabc da34 153e f365 ebbc 9ba0 02bd
00000210: 0aad 0ebd e2ab d33d 0b92 c3bd 108b 93bd
00000220: 9223 f93d 5b5c 28bd 372b 113e 47c8 f8bd
00000230: fd5a 0ebe 4095 253c b6a8 dd3d 3b75 47bc
00000240: 6c92 db3d fad3 183d d448 b53d 1117 e73d
00000250: 606e febd d542 243d 15bd 603d 4cdb e43d
00000260: 1da9 e1bd ad99 243d 4e93 813d 05e9 903c
00000270: c953 0f3d a2ff 9fbd 3ce1 f2bd 8cf3 aabd
00000280: 2abe 8e3b f8f0 b4bc bf85 193e 3f44 cebd
00000290: 90eb 463d 61df 82bd f123 a3bd 3481 efbd
000002a0: c077 c6bc 71fd 9dbd 7075 55bd 945d 16bd
000002b0: 1a31 79bc 2f3b a33d 855a cfbd 90f3 58bd
000002c0: ed69 f4bd 41d8 033e c1e0 23bd 9bb9 cf3d
000002d0: 3ca6 11be 474f c8bd 6368 1b3e 975d f23d
000002e0: 8448 2e3d 7b02 63bd 37dd 813d 6761 0dbe
000002f0: a421 1bbd 9b54 183e 198e 013e 4db9 003e
00000300: 6cd8 103e cc31 63bd 26fc f03d 4026 dabc
00000310: 1198 973d 2ea9 12be 319b acbd fab7 6c3d
00000320: b817 623c b75c 043e 22ba 89bd 80d6 1a3e
00000330: 6fcd 56bc 2221 fc3c be05 a7bd 8b4b 133d
00000340: d530 143e a450 0dbc 1839 1abe b2d8 af3d
00000350: dee6 023e 1944 cdbd 311d 843d a032 473d
00000360: a845 acbc 8174 acbc e02c 02be 5fa4 a6bd
00000370: ae63 a4bd a918 94bd d6e7 e13d 8084 05be
00000380: 908d a43d 971b f63d 979c 0e3e 448d 91bd
00000390: a51a ef3d d333 64bd 81d6 003e 019f af3d
000003a0: 155b b3bd 928e d03d d1ac 123d 4d39 a13d
000003b0: 5dc3 da3d deba da3d 70a3 c0bd e29d 2c3c
000003c0: 2dda ab3d 117e 2d3d d067 ac3d 471d 01be
000003d0: 5eb0 c5bd 5282 a9bd b752 fabd e2c7 e5bb
000003e0: 73fc 563d 3d94 febb 5d2a d2bc a563 ba3d
000003f0: 48e1 273d 64a2 d63d 4c74 1b3e 7a1b f83c
0.15284732 0.0018474294 -0.057020653 -0.0064548994 0.10860956 -0.014681062 -0.06724881 0.027234899
0.0075015095 -0.105399184 -0.020708045 0.049754683 0.03587525 -0.09448538 0.062839866 0.01906759
-0.021352123 -0.026258033 0.102863975 -0.14281906 -0.08087415 -0.046159606 0.042256642 0.021133134
-0.11870095 0.039987013 0.100170076 -0.14271662 -0.07853563 0.07002815 0.13090426 -0.1285546
-0.17377639 -0.029953972 0.06883783 -0.053296167 0.07349995 0.080770515 -0.00408102 -0.05265587
-0.033681992 -0.13392396 -0.07541567 0.06444567 0.073328376 0.1531297 -0.004616645 0.066721074
0.10570085 0.0025341725 0.029149598 -0.0959775 -0.0107158255 -0.084957466 -0.11017991 0.05697875
0.083417706 -0.036013376 -0.02617871 -0.027681502 0.06490194 -0.14618291 0.117562145 -0.10837918
-0.003648165 0.114640675 -0.1161693 -0.11128221 0.07242774 0.105589986 0.06760394 0.1070668
-0.101181105 -0.1612779 0.09924004 0.13298339 0.008535592 -0.11705054 0.031047646 -0.038792256
-0.1140832 0.066747144 0.052147184 0.13761458 -0.011818386 0.020291826 0.09876119 -0.15035607
0.09601825 0.13950972 0.04631565 0.022094874 -0.068532154 0.011536461 -0.070216924 -0.07375672
-0.039799135 0.0022780185 -0.031877596 -0.094915666 0.1353526 -0.01714016 0.099823356 0.06808528
-0.0025282232 -0.059703868 -0.05141547 -0.07129329 -0.034946285 -0.030471973 -0.06621227 0.019701956
-0.15356474 -0.043111436 -0.1521872 -0.013996243 -0.0115159005 -0.09260018 0.119528316 -0.06506448
0.10693577 0.09606315 -0.14039522 -0.12324598 -0.05129756 0.08207985 0.08817505 -0.05772169
-0.030632582 0.14570943 -0.028735137 -0.031891447 -0.03483299 0.103355184 -0.0954934 -0.072042584
0.121649876 -0.041103702 0.14176641 -0.12147575 -0.13901897 0.010106385 0.10823195 -0.012173946
0.10721287 0.03731153 0.088517815 0.112836964 -0.12423396 0.0401028 0.054867823 0.1117464
-0.11018584 0.04018562 0.06326924 0.017689237 0.034992013 -0.0781243 -0.11859366 -0.08347234
0.0043561654 -0.02208756 0.14992426 -0.10071611 0.048564494 -0.063902624 -0.0796584 -0.116945654
-0.024227023 -0.07714356 -0.05211395 -0.036710337 -0.015209461 0.07970273 -0.10124687 -0.052966654
-0.11934266 0.12875463 -0.040009264 0.10142823 -0.1422357 -0.09780746 0.15176539 0.11834257
0.042549625 -0.055422287 0.063410215 -0.13806687 -0.03787388 0.14876024 0.12651862 0.12570687
0.14145058 -0.055467412 0.117668435 -0.026629567 0.07402051 -0.1432235 -0.08428038 0.05779264
0.0137996 0.12925993 -0.06724955 0.15120888 -0.013110503 0.030777518 -0.08155392 0.035960715
0.14471753 -0.008625183 -0.15060842 0.08586253 0.12783381 -0.10022754 0.0645088 0.048632264
-0.021029308 -0.021051647 -0.12712431 -0.0813682 -0.08026825 -0.07231266 0.11030547 -0.13038826
0.080348134 0.12016981 0.13926922 -0.071070224 0.11675004 -0.055713486 0.12581827 0.085752495
-0.08757607 0.10183443 0.03580934 0.078722574 0.10681794 0.10680173 -0.09406173 0.010535689
0.08391223 0.042356554 0.08418238 -0.12608825 -0.0965278 -0.0827681 -0.12222808 -0.0070123533
0.052486848 -0.007769136 -0.025654966 0.09101037 0.04098633 0.10480192 0.15181082 0.03028654

lstm.bias_ih_l1 f4 [200]
00000000: 6d42 a13d 1a58 da3d 90f9 833d 73ad 383d
00000010: 9e8d a5bd bf6a f93c 6ca6 18bd e172 f23d
00000020: 9761 6c3d 4bcb 35bc 5e93 7abb 3a1a 243e
00000030: d5ea 9abd f6d7 14be fc98 073e 88fb debd
00000040: 955f 093e 25de 7d3d 1115 033e 2914 273e
00000050: 3163 4a3d 8e0c 203e 79a0 01bd 8ee9 003e
00000060: 6126 7bbd 5569 07be b408 143d 4eb4 e2bd
00000070: 3d2a 89bd 1445 39bd 81ec 86bd a446 a3bd
00000080: b390 6fbd 6277 67bd 46c6 5fbc 1820 ecbd
00000090: 62d7 ddbd 696e da3d c404 9ebd 117e 37bd
000000a0: 09b0 f53d 466d 5f3d 0cb0 183d 0501 9abd
000000b0: a7a4 eabd 5f29 803d 0700 aa3d 28d8 83bd
000000c0: 4329 2d3d 22dc a23d a868 b8bd 4ef3 dfbd
000000d0: 8df0 963d 034e 333d 8097 073e d3ab aabc
000000e0: c233 5ebc 6fc6 323d f727 f93c 0657 9c3c
000000f0: 9c10 b2bc 498e ca3d ab7d 7fbd 9ac8 82bd
00000100: 20ac ebbc 047e c6bd 17de b83d d942 0d3e
00000110: 720e f2bd 8c83 90bd 193a 0abe 6d6e 67bd
00000120: 9fb6 003d 39c4 493d ac3a 2c3d b816 ea3d
00000130: cc03 b2b8 cf36 73bd f876 eabd 38ac 203d
00000140: 5dad 0abe d9b0 113e 7dbc b9bd 7df7 033e
00000150: 1571 02be 65e8 8dbd e095 863d 94b4 c8bc
00000160: 744c 623d 7b51 b0bd 2b72 e23d 42ca 2abd
00000170: cc76 09bd f1c0 d0bd ea8d df3d 127a 713c
00000180: 6d47 b83d 17a7 adbd f070 c9bd 6d70 1f3d
00000190: 91fb 30bd 3a0a f6bd b847 813d c622 9c3c
000001a0: 85b1 a8bd 491b 8abd b4bd f6bb a534 03bb
000001b0: 47b7 d43d e360 803d fb34 6a3d 2a3b 2a3d
000001c0: adda ed3d fea1 99bd 9871 193e 5be6 19bc
000001d0: 905d 7dba d3a3 90bd b323 563d 10a7 a0bd
000001e0: d2a5 a1bd a13b 7fbd 3c06 fb3c ef83 aabd
000001f0: d0ae 9fbd b037 b83d c455 833d d258 1dbd
00000200: c3a3 d73d 2e99 ebbd 6f4a 7abc aa56 9bbc
00000210: 290e 0fbd 9799 8bbd f874 113e a54b 5fbd
00000220: 085d 723d ca80 8ebd f799 30bd 0d7b 963d
00000230: 0db7 413d b116 f23c 635c 033b bebc e5bc
00000240: ce6a c83d 469b 053a f04f dabd dc92 c6bd
00000250: 79f2 b13d 1c8a 163e 8100 153e eb50 5dbb
00000260: cded b1bd 6961 01be 1f2a acbc 32c6 533d
00000270: f3cb c73c 273f 9d3d 2ba9 c83d 4eac 103c
00000280: 9455 b6bd f990 99bb d9f8 693c ea4b a9bd
00000290: 2d6d 0f3e 4e78 0ebd 5fb9 7d3d 5a98 153e
000002a0: d49f 9f3c f85d c03d 32fe c23c fd6d 063b
000002b0: b3f3 eb3c 3729 88bd bc9f de3c e880 03be
000002c0: 631e c2bd d0bf e93d 9f5b 74bd 9145 ae3d
000002d0: ad0f edbd 0b5d dd3d 71bc b9bd 5587 86bd
000002e0: c43d 743b 5699 46bd be1b 973d 1cc2 303d
000002f0: 1b5b 43bd b687 873d edbd fa3d 03d1 f1bc
00000300: 3902 4dbd 4669 6d3c 5d7f b13b 5736 943d
00000310: f2b5 7bbc 1bf4 a93c ef3a ce3d 6086 6a3c
0.07873998 0.10661335 0.06444085 0.04508729 -0.08083652 0.030446408 -0.037268087 0.11838318
0.057710256 -0.011095832 -0.003823481 0.1602563 -0.07564322 -0.14535508 0.13241953 -0.108878195
0.13415368 0.06197943 0.12801005 0.16316284 0.049411003 0.15629789 -0.03164718 0.12589094
-0.061315898 -0.13223775 0.036141112 -0.11069547 -0.066975094 -0.045231894 -0.06588078 -0.07972458
-0.058487605 -0.056510337 -0.013658112 -0.11529559 -0.10832097 0.1066559 -0.07715753 -0.04479796
0.11996467 0.05454757 0.037277266 -0.07519726 -0.11457186 0.06257891 0.083007865 -0.06437713
0.04227568 0.07952143 -0.090043366 -0.109350786 0.073701 0.04377557 0.13241386 -0.020833885
-0.013562145 0.043646272 0.030414565 0.019084465 -0.021736436 0.0989042 -0.062375706 -0.06385918
-0.028768599 -0.09692004 0.09026735 0.13795032 -0.118191615 -0.070563406 -0.13498725 -0.056501795
0.03142416 0.049259398 0.04204814 0.114301145 -8.488409e-05 -0.05937844 -0.11448473 0.03922674
-0.13542695 0.14227618 -0.090691544 0.12887378 -0.1273845 -0.06929091 0.06571555 -0.024500169
0.055248693 -0.08609291 0.11056932 -0.041696794 -0.03356056 -0.10193051 0.1091574 0.0147385765
0.089979984 -0.084791355 -0.09835994 0.038925577 -0.043208662 -0.12013669 0.063125074 0.01905955
-0.08236984 -0.067434855 -0.0075299386 -0.0020020392 0.1038652 0.0626848 0.057179432 0.04156033
0.11613975 -0.07501601 0.14984739 -0.0093933 -0.0009665126 -0.07062497 0.05228014 -0.07844365
-0.07892956 -0.062312726 0.030642621 -0.083259456 -0.07797015 0.089949965 0.06412843 -0.038414784
0.10529282 -0.11503826 -0.015276535 -0.018962223 -0.034925614 -0.06816404 0.14204776 -0.0545155
0.059170753 -0.06958158 -0.043115582 0.07347689 0.04729371 0.029551836 0.002004408 -0.0280441
0.097859964 0.0005096685 -0.10659778 -0.0969598 0.08688826 0.14701122 0.14550973 -0.0033770155
-0.08687935 -0.12634815 -0.021016179 0.051702686 0.024389243 0.07678061 0.09797891 0.008830143
-0.089030415 -0.0046864715 0.014280521 -0.082664326 0.14006491 -0.0347827 0.06194436 0.14608899
0.019485392 0.09392923 0.02380285 0.0020512335 0.028802728 -0.06648486 0.027175777 -0.12842143
-0.09478452 0.114135385 -0.05965769 0.085093625 -0.115752555 0.10808762 -0.090691455 -0.06568781
0.003726826 -0.048486076 0.07378338 0.043153867 -0.047694307 0.06617682 0.12243257 -0.02951861
-0.050050948 0.014490431 0.005416794 0.07236927 -0.015363203 0.020746281 0.100698344 0.014314264

lstm.bias_hh_l1 f4 [200]
00000000: 5541 b83b e8d6 1b3e 6bf6 76bb 3c25 033e
00000010: ded9 cdbd 34e9 cc3d 5723 213e 611c 0fbe
00000020: af8d 6b3d a137 913d 464d 1bbd 8144 b7bc
00000030: f7e5 a6bb 309b 97bd b000 0abc a170 19bd
00000040: c0a1 55bd fa99 52bd 44fa 4cbd cbb4 9b3c
00000050: 8a2d 19be 4c88 ce3d 7949 da3d c907 c1bd
00000060: 6882 0abe 4502 a53d 02fa ccbd 25fe 113e
00000070: e907 bdbd 224f 4dbc 5563 183d d719 023e
00000080: 9d85 be3d 7604 503d 44a3 043e e690 143e
00000090: 48dd dabd 5b3e c0bd 0e17 3a3d 0b16 393d
000000a0: 1aec 453c 20fc f0bd 8b86 183c 3fc7 763d
000000b0: a345 0d3d a236 26bd 6d0e 613d 3835 b83c
000000c0: 2ce2 bc3d a96d 36bd 3803 bdbc 5723 223d
000000d0: 3624 7b3b 293f 62bd 0f0a 9a3d 321a cbbb
000000e0: a267 073e ab91 b4bd b2f4 eb3b 3a3f b13d
000000f0: 4acc 1cbe 011a 82bc 7fe1 79bd 9c4d 2a3d
00000100: bcc5 75bd ccf6 f7bc 6e0c 0e3d 7852 61bc
00000110: 488e efbd 80af 8c3d 9caa b0bc 1006 81bd
00000120: 7fef 013d 05da edbc cf99 04be f993 d6bc
00000130: d236 eb3d 0417 02be 9503 9c3d 4ff5 d0bd
00000140: 3fb7 6a3c e960 303d 6960 733d 6b00 4fbd
00000150: e583 f3bd b0e2 a33d 3ada 7d3d 7fa2 08be
00000160: e157 3f3c 4754 82bd 3ded a83b fbe9 543a
00000170: 7c02 47bd a4fe 233c 7005 a13d dbbd 7a3d
00000180: f9ff bc3d 3dde 0fbe b051 b3bd fdad e73a
00000190: 3628 bfbc 4982 0f3e 103d 0e3d f0a2 c5bc
000001a0: b7d1 0a3e e7f3 88bc 1d7e f13d 90f0 c73d
000001b0: ecc4 09bd 0504 c73b d445 8abc 2bcd eabd
000001c0: d724 103e 7744 90bd ca3f 1f3e b323 e4bd
000001d0: 015f 85bd 7562 ddbd b5f7 343d 7fc5 c3bc
000001e0: ca28 8abd 2653 163e 6a58 9fbc 62f1 11be
000001f0: 0c47 eb3d b9fb 23bd 2e92 843d c8e6 d43d
00000200: 26d3 c3bd 46cc 04be ae68 32bc 6cdb 52bd
00000210: 8a2b e83c ab62 ce3d f122 4c3d 801e 0c3e
00000220: 482c 5a3c 0ac1 a6bd bd77 a5ba 75e6 f73d
00000230: 4926 ca3d 9065 a0bd 2d9f 973d e3a0 73bd
00000240: 6e83 8b3c 7c42 adbd 8cae 673d cd78 f7bc
00000250: e714 a53d 34fd 463d 3321 aa3d 6b35 53bb
00000260: d43d 79bc b02d b33d d02b 3f3d 7955 ae3d
00000270: c460 73bd 3170 f83d 1293 efbd 529b 453c
00000280: d78d eebd 4372 773d 24d3 f6bd 2272 9a3d
00000290: 0287 a0bd e9b3 e6bb 8ab0 9ebd 9bef f4bd
000002a0: 18ca 14bd 8ab7 923c bc56 cd3d 2554 3ebd
000002b0: e1a2 1c3d bdb8 4f3d b77c df3d 1de7 293d
000002c0: acf2 b9bc 35f4 663d 71f7 b13d 07bd aebd
000002d0: 0fec 0fbd 5c61 c4bd 8fcb 0dbd 0719 a93d
000002e0: c2ac 99bd 4df6 173e 5fc3 56bd b39f 143e
000002f0: 96d3 9abd 9496 5ebd 2770 ec3d 4803 6d3d
00000300: fd25 98bd 1c11 253d d30f bebd 66d8 333d
00000310: faa3 b7bd fe98 0abe 6481 99bc 7e6e bc3d
0.0056230226 0.15218699 -0.0037683498 0.12807173 -0.100513205 0.100054175 0.15736137 -0.1397567
0.057508167 0.070906885 -0.03791549 -0.022371532 -0.005093332 -0.074026465 -0.0084230155 -0.037460927
-0.05215621 -0.051416375 -0.05004336 0.019007107 -0.14958778 0.1008459 0.10658545 -0.09425313
-0.13526309 0.080570735 -0.10008623 0.14257105 -0.09230024 -0.012531074 0.037204105 0.1270517
0.093028285 0.050785504 0.12952906 0.145084 -0.10686737 -0.09386893 0.045432143 0.045187037
0.012080217 -0.11766839 0.009309421 0.06024861 0.03449024 -0.040579446 0.054945398 0.022486314
0.09222826 -0.044538174 -0.023072824 0.039584484 0.0038321144 -0.055236015 0.0752145 -0.006198191
0.13223127 -0.088168465 0.007200801 0.08654638 -0.15312305 -0.01588154 -0.061006065 0.04157792
-0.060003027 -0.03026905 0.034679823 -0.013752572 -0.1169706 0.068694115 -0.021565728 -0.062999845
0.031722542 -0.029034624 -0.12949298 -0.026193606 0.114850655 -0.12704092 0.07617871 -0.10203039
0.014325916 0.04306117 0.059418116 -0.050537508 -0.11890391 0.080022216 0.061975695 -0.13343237
0.011678667 -0.06363731 0.005155234 0.0008122024 -0.048586354 0.0100094415 0.07862365 0.061216217
0.092285104 -0.14049621 -0.08755815 0.0017675754 -0.023334604 0.14014544 0.034726202 -0.024125546
0.13556562 -0.016717864 0.11791632 0.097626805 -0.033635065 0.006073477 -0.016879 -0.11464914
0.14076553 -0.07044309 0.15551677 -0.111396216 -0.06512261 -0.10809795 0.044181544 -0.023897884
-0.06746061 0.14680156 -0.019451339 -0.14252236 0.114881605 -0.040034983 0.06473194 0.103955805
-0.09561758 -0.12968549 -0.010889215 -0.05147879 0.028341074 0.10077413 0.04983801 0.1368351
0.013316222 -0.08142288 -0.0012624186 0.12104503 0.098705836 -0.078318715 0.07403407 -0.059479605
0.017030444 -0.084599465 0.056562945 -0.03020897 0.080606274 0.048581317 0.083071135 -0.0032227885
-0.015212495 0.087489486 0.046672642 0.08512396 -0.059418455 0.12130774 -0.11697973 0.012060957
-0.116481476 0.060411703 -0.12051991 0.075413 -0.07838251 -0.00704049 -0.07748516 -0.119597636
-0.036325544 0.017909784 0.10026309 -0.046466965 0.03824127 0.05071329 0.10912459 0.041480172
-0.022698723 0.056385238 0.08689774 -0.08532148 -0.035137232 -0.09588882 -0.034617957 0.08256727
-0.07503654 0.1484005 -0.052432414 0.14514045 -0.07559888 -0.05434282 0.11544829 0.057864457
-0.07429121 0.04029952 -0.09280362 0.043907546 -0.08966823 -0.13534924 -0.018738456 0.09200762

fc.weight f4 [1, 50]
00000000: 0220 183e a091 0d3e 73a1 51bd 9b04 d63d
00000010: 0ff3 e83d 218b 013e cc34 db3c 3717 adbd
00000020: 5fed 113e d30e a73d 048b f9bd 85fb 93bd
00000030: c9dc 8b3d eafd 283d 0ca7 643c b166 993d
00000040: c98d fdbd 7949 14bd c011 233e e0c9 0dbe
00000050: 0593 473b 5721 103e 2225 bebd 33c9 a4bd
00000060: a18a 9bbd 132e 173c 80b0 ee3d 483b f1bd
00000070: 5a72 03be e096 61bb 7dd4 313c 1471 19be
00000080: cdf8 b0bc 9a49 cb3d a073 1f3e 6bee 0c3e
00000090: bf27 a03d fb82 56bd cbf5 bc3d 024e 83bd
000000a0: 97bd 163e 7e73 e7bd 2552 133e 9b43 dd3d
000000b0: 9021 acbd 87b4 9a3d b393 cabd f4ff da3d
000000c0: c993 71bd 606b b13d
0.1485596 0.13825083 -0.05117936 0.10450097 0.11374485 0.1265073 0.026758574 -0.084516935
0.14250706 0.08157124 -0.12184718 -0.07225708 0.06829221 0.041257776 0.013955843 0.0749029
-0.12380559 -0.03620288 0.1592474 -0.1384654 0.003045262 0.14075218 -0.09284426 -0.08046188
-0.07594801 0.009227294 0.116547585 -0.11778885 -0.1283659 -0.0034422204 0.010853884 -0.14984542
-0.021603012 0.09926148 0.15571451 0.13762824 0.07820081 -0.052371006 0.09226569 -0.06411363
0.1472076 -0.11301325 0.14386804 0.1080391 -0.08404839 0.07553964 -0.09891453 0.106933504
-0.05897883 0.08663058
