models/lstm_model_4h.pt (torch, 127756 bytes, 9 tensors)

lstm.weight_ih_l0 f4 [200, 1]
0.20846859 0.045617867 0.05326028 0.080440804 0.11628911 -0.010310315 0.13539556 0.14390267
0.0658932 0.073816635 0.023688005 0.05604811 0.09376565 0.008250225 -0.17374742 -0.018926281
0.098218456 0.09125814 -0.05857623 -0.10261926 0.022499582 0.17563395 0.18757766 -0.090016365
0.13231094 0.025516663 -0.02107761 -0.0527123 0.065019734 0.15359585 -0.070473865 0.12804288
0.09114571 -0.06922341 0.05247095 0.059223417 0.024755483 0.21744344 0.012374807 0.1614476
-0.008978078 0.15628757 0.021043926 0.09886439 0.09586628 0.11667063 0.0578178 0.11428779
0.08727175 0.10640109 0.14080341 0.1047387 0.106297776 0.16353719 0.05497362 0.0263285
-0.05707566 -0.0986383 0.12278299 -0.12638578 -0.035766967 0.07159834 -0.009229897 -0.03450279
0.029582908 0.047757756 -0.008804071 -0.094746605 -0.04271387 -0.064244084 -0.030616848 -0.0009986147
0.04461485 0.11915723 -0.01591207 0.13786124 0.10159598 -0.052084498 -0.03702956 0.111137934
-0.07451806 0.042135127 -0.09350584 -0.14763482 -0.057111945 -0.1281512 0.16023964 0.10103741
-0.07352453 0.1400002 0.099145025 0.16814594 -0.028825669 -0.07149264 0.02613788 0.004512463
-0.084926926 0.08216726 0.038254857 0.0089184595 -0.15364869 -0.034693297 -0.08832473 0.020970216
0.0955212 0.02349922 -0.20045656 0.16699193 0.047605693 -0.09575283 0.12707874 -0.07542269
-0.09528112 -0.0666712 0.04432845 -0.003970976 0.012832297 -0.038586818 0.002598415 -0.11396865
0.15245979 0.01660367 -0.18429874 -0.0030577886 0.075868145 0.06933459 -0.09117249 -0.13874616
-0.04725811 0.06914882 -0.17245664 0.014167033 0.057678603 -0.14985658 0.08361534 0.2039806
-0.0939465 -0.1278667 -0.088456534 -0.09557443 -0.060712352 -0.15673248 -0.15379305 0.06634648
0.033396225 0.17353082 0.0713971 -0.09885016 -0.1267303 -0.15224232 0.05492057 0.047452502
0.0006220433 -0.013410567 0.05417802 0.15038015 0.1628285 0.18454802 0.101353265 -0.18382917
0.05650184 -0.09468606 0.073890224 -0.06842804 0.041193716 -0.004582137 -0.12261754 0.050418027
-0.13185629 -0.18371964 -0.036327854 0.07889885 -0.042320468 0.020303521 -0.00093852484 0.10898092
-0.016008437 0.065925315 -0.010288977 -0.060434368 -0.016130224 0.13950592 -0.08485506 0.107437
-0.112116605 -0.042566795 0.040167026 0.16479777 -0.027005702 -0.07945733 0.11358364 0.15048568
0.022833172 0.11017077 0.05767191 -0.03516935 -0.09322815 -0.018556314 0.08698784 0.08581845
00000000: ca78 553e cdd9 3a3d 7427 5a3d 26be a43d
00000010: fc28 ee3d 98ec 28bc 22a5 0a3e 395b 133e
00000020: 04f3 863d 2d2d 973d 590d c23c b492 653d
00000030: 3508 c03d f42b 073c d8ea 31be 4a0b 9bbc
00000040: c226 c93d 8ce5 ba3d a1ed 6fbd 0c2a d2bd
00000050: 0b51 b83c 63d9 333e 5c14 403e 805a b8bd
00000060: 857c 073e 5208 d13c f4aa acbc dae8 57bd
00000070: 1129 853d 3b48 1d3e 9a54 90bd ac1d 033e
00000080: 9aaa ba3d 01c5 8dbd c7eb 563d 4194 723d
00000090: 03cc ca3c 7ea9 5e3e b4bf 4a3c 8552 253e
000000a0: ca18 13bc d909 203e 5064 ac3c 6a79 ca3d
000000b0: 8a55 c43d 03f1 ee3d 5cd2 6c3d b80f ea3d
000000c0: 88bb b23d d1e8 d93d c52e 103e 3e81 d63d
000000d0: a6b2 d93d 4b76 273e 052c 613d deae d73c
000000e0: 2bc8 69bd e102 cabd a675 fb3d 466b 01be
000000f0: 6280 12bd 27a2 923d fe38 17bc cc52 0dbd
00000100: db57 f23c a39d 433d f33e 10bc 820a c2bd
00000110: bdf4 2ebd 6792 83bd 2fd0 fabc f3e3 82ba
00000120: 10be 363d b508 f43d 085a 82bc 7f2b 0d3e
00000130: 8e11 d03d 8e56 55bd 4fac 17bd 499c e33d
00000140: ed9c 98bd e295 2c3d fd7f bfbd 952d 17be
00000150: 37ee 69bd 113a 03be dc15 243e b4ec ce3d
00000160: 0794 96bd 365c 0f3e 8c0c cb3d 732e 2c3e
00000170: cf23 ecbc bc6a 92bd 1b1f d63c 49dd 933b
00000180: 2bee adbd 4f47 a83d 20b1 1c3d bb1e 123c
00000190: 1556 1dbe 8f1a 0ebd 99e3 b4bd bbc9 ab3c
000001a0: 9ea0 c33d 7081 c03c 7c44 4dbe efff 2a3e
000001b0: 30fe 423d 0f1a c4bd ee20 023e 3677 9abd
000001c0: bf22 c3bd e98a 88bd c091 353d f61e 82bb
000001d0: 8e3e 523c 360d 1ebd 2b4a 2a3b 6568 e9bd
000001e0: 6b1e 1c3e 6b04 883c cfb8 3cbe 2e65 48bb
000001f0: c260 9b3d 4bff 8d3d a4b8 babd 7913 0ebe
00000200: b891 41bd e69d 8d3d 7998 30be d81c 683c
00000210: 6640 6c3d 0174 19be 853e ab3d 4ae0 503e
00000220: 0667 c0bd 7def 02be b328 b5bd 87bc c3bd
00000230: 84ad 78bd 7b7e 20be ed7b 1dbe aae0 873d
00000240: 7bca 083d 10b2 313e a538 923d f471 cabd
00000250: 96c5 01be 69e5 1bbe 64f4 603d 8e5d 423d
00000260: 9f10 233a ffb7 5bbc c6e9 5d3d 41fd 193e
00000270: 84bc 263e 28fa 3c3e 4d92 cf3d b73d 3cbe
00000280: 796e 673d c4ea c1bd c253 973d 0024 8cbd
00000290: beba 283d c025 96bb e81e fbbd 2283 4e3d
000002a0: 5605 07be 0021 3cbe 84cc 14bd b895 a13d
000002b0: 3a58 2dbd 9253 a63c 5607 76ba 6331 df3d
000002c0: 2024 83bc da03 873d 1993 28bc 078a 77bd
000002d0: 8823 84bc a4da 0e3e 7dc8 adbd ee07 dc3d
000002e0: 649d e5bd 855a 2ebd 2e86 243d bfc0 283e
000002f0: 103b ddbc 86ba a2bd 8a9e e83d eb18 1a3e
00000300: a20c bb3c 36a1 e13d 6139 6c3d bd0d 10bd
00000310: 66ee bebd 6903 98bc ae26 b23d 95c1 af3d

lstm.weight_hh_l0 f4 [200, 50]
0.26851776 0.07473306 0.018319067 0.12263034 0.091509975 -0.25386703 -0.004342746 0.008898969
-0.07101717 0.12730919 -0.041649994 0.01942223 -0.07973356 -0.1506888 -0.21355715 -0.10163394
0.09071858 0.14297824 0.045560572 0.3988036 -0.11673359 0.22166535 -0.028824111 0.09698319
0.04046907 0.027754586 0.011502472 0.22385931 -0.032005783 -0.24880129 -0.14431512 -0.08591693
-0.28690118 0.2649673 0.24756925 -0.3011518 -0.16213907 -0.029708995 0.052236237 -0.19006991
0.23184074 0.0401487 -0.056750536 0.13460775 0.19915119 -0.016295498 0.037731305 -0.06358863
-0.09293404 -0.12398611 0.073747575 -0.110834695 0.06888756 -0.015574195 -0.042458534 -0.038481038
0.14194283 0.019203462 -0.0003583444 -0.043519564 -0.15448081 0.11410281 -0.120470695 -0.057049878
-0.15018356 -0.034550432 0.067638606 0.14614494 0.08058595 0.09447305 -0.059378386 -0.09568764
0.06371763 0.016377438 -0.0001504739 0.09862808 0.038010508 0.09572101 -0.0032835293 0.15189652
-0.0968361 -0.110806875 -0.002163395 -0.055555128 -0.10355938 -0.14759932 0.107370995 0.08596302
0.09276932 -0.006676042 -0.006992946 0.046688557 0.04185457 0.11757397 -0.037353955 -0.09938465
-0.10961617 0.09001777 -0.0892762 -0.09703351 -0.11295074 0.022844654 0.031255398 0.13693835
0.1345092 0.025394827 -0.10198226 0.10678396 0.07893351 0.088739134 -0.12002244 0.085363984
0.037442334 -0.1001449 0.02821371 -0.025294684 -0.050745342 0.16691917 0.012296257 0.061921928
0.002835294 -0.09055776 0.05990562 -0.13205187 -0.11240278 -0.008489852 -0.12919141 -0.03438572
-0.14733437 0.060998075 0.02775249 -0.051334918 -0.11537546 -0.08411318 0.15409836 -0.02466476
0.06987667 0.082306884 0.0839093 -0.073710404 0.107833326 -0.12438112 0.037001543 -0.049559165
0.14166798 0.13918178 0.12025044 0.024666432 0.07712279 -0.092186 0.02819383 0.113909565
-0.12224253 -0.01215281 -0.06381342 -0.1258948 -0.015249047 0.07777393 0.04278154 -0.00820308
-0.12604453 0.008021149 -0.029956708 0.022791337 0.060579438 -0.035885606 0.10429904 0.07878504
0.054329712 -0.10759115 0.079163305 -0.03643814 0.0037484234 0.12611476 0.11603345 -0.0047607664
0.11005504 0.09348566 -0.1525131 -0.092183515 -0.07443558 0.088689 0.031523928 0.050215736
-0.054184105 -0.08006749 -0.12647183 -0.040778425 0.035380714 -0.11198015 0.12350898 -0.056437876
-0.120550804 -0.09665807 -0.13283741 0.10437704 0.04922308 -0.06736269 -0.049811296 0.07127991
-0.009553585 0.056610864 0.06789362 0.004169231 -0.026186211 -0.10696011 -0.008229932 -0.08581412
-0.02406746 0.11012226 -0.00854055 -0.008306937 0.1315542 -0.09097024 -0.08597485 -0.06499796
-0.07433201 -0.041177556 0.11914918 0.034072127 -0.09601585 -0.13679504 -0.088246636 -0.024774374
-0.003692853 0.09686702 0.0327277 -0.076571934 0.0972839 -0.10534468 -0.12458287 0.11110153
-0.075961046 0.020739771 -0.047839556 -0.052732978 -0.065346606 -0.095539145 -0.09159816 -0.08117809
-0.14305775 0.08819012 0.056974966 -0.08067767 -0.07380274 0.022184197 0.1048391 -0.046426166
-0.06433424 0.10214752 -0.08597171 -0.042459127 -0.06451116 0.020018816 -0.05547613 0.07921352
00000000: 297b 893e a60d 993d de11 963c 9e25 fb3d
00000010: 9569 bb3d dcfa 81be 984d 8ebb fbcc 113c
00000020: 7371 91bd 575d 023e 2f99 2abd 5e1b 9f3c
00000030: 594b a3bd 2a4e 1abe baae 5abe 7525 d0bd
00000040: aaca b93d e368 123e b99d 3a3d fc2f cc3e
00000050: 0512 efbd 3efc 623e 8b20 ecbc 1f9f c63d
00000060: e5c2 253d 965d e33c dd74 3c3c 603b 653e
00000070: 7f18 03bd c4c5 7ebe 58c7 13be 37f5 afbd
00000080: b6e4 92be cba9 873e cb82 7d3e 9230 9abe
00000090: c907 26be 4760 f3bc aaf5 553d b0a1 42be
000000a0: a967 6d3e f772 243d 4073 68bd 9dd6 093e
000000b0: 4aee 4b3e 237e 85bc 248c 1a3d c13a 82bd
000000c0: 3454 bebd 6eec fdbd f808 973d 4dfd e2bd
000000d0: ec14 8d3d e92a 7fbc 00e9 2dbd 4b9e 1dbd
000000e0: 7659 113e 9450 9d3c 2ce0 bbb9 9241 32bd
000000f0: 3830 1ebe bcae e93d 57b9 f6bd 22ad 69bd
00000100: b8c9 19be c184 0dbd 1c86 8a3d 05a7 153e
00000110: 3f0a a53d 167b c13d c036 73bd e2f7 c3bd
00000120: 647e 823d fa29 863c 88c8 1db9 85fd c93d
00000130: e8b0 1b3d 6009 c43d 7b30 57bb c38a 1b3e
00000140: 0152 c6bd b7ee e2bd bfc7 0dbb c68d 63bd
00000150: f116 d4bd 4724 17be 53e5 db3d 610d b03d
00000160: d7fd bd3d b3c2 dabb 1525 e5bb 803c 3f3d
00000170: b36f 2b3d 9fca f03d 7600 19bd 2e8a cbbd
00000180: 717e e0bd 3d5b b83d 71d6 b6bd 81b9 c6bd
00000190: b852 e7bd b624 bb3c a905 003d 9139 0c3e
000001a0: c8bc 093e d008 d03c 13dc d0bd 8cb1 da3d
000001b0: e4a7 a13d ddbc b53d 53ce f5bd 50d3 ae3d
000001c0: 225d 193d c518 cdbd 7020 e73c cc36 cfbc
000001d0: 59da 4fbd dcec 2a3e 3d76 493c d9a1 7d3d
000001e0: 57d0 393b 5976 b9bd 985f 753d 9b38 07be
000001f0: 6e33 e6bd 0519 0bbc c14a 04be 0ad8 0cbd
00000200: d2de 16be 1ed9 793d 3159 e33c 9044 52bd
00000210: f849 ecbd 8843 acbd f6cb 1d3e c00d cabc
00000220: 801b 8f3d 8390 a83d a4d8 ab3d 7bf5 96bd
00000230: b8d7 dc3d 87bb febd ee8e 173d 8dfe 4abd
00000240: 6911 113e ab85 0e3e dd45 f63d 4211 ca3c
00000250: 8ef2 9d3d 03cc bcbd bff6 e63c 6b49 e93d
00000260: 4b5a fabd 941c 47bc 9cb0 82bd 91ea 00be
00000270: 24d7 79bc f047 9f3d b23b 2f3d 3666 06bc
00000280: d111 01be 236b 033c c567 f5bc e6b4 ba3c
00000290: 2522 783d c9fc 12bd bc9a d53d 0d5a a13d
000002a0: d588 5e3d c058 dcbd 5f20 a23d 2940 15bd
000002b0: 1ca8 753b 3a24 013e f2a2 ed3d 3400 9cbb
000002c0: 8964 e13d 6975 bf3d 652c 1cbe b6ca bcbd
000002d0: ae71 98bd 94a2 b53d 3c1f 013d 04af 4d3d
000002e0: 27f0 5dbd 6dfa a3bd d581 01be 4707 27bd
000002f0: 5eeb 103d d955 e5bd 47f2 fc3d 672b 67bd
00000300: 57e3 f6bd abf4 c5bd 8806 08be a1c3 d53d
00000310: 249e 493d 73f5 89bd ee06 4cbd 34fb 913d
00000320: a486 1cbc cbe0 673d cf0b 8b3d 0b9e 883b
00000330: 7784 d6bc e70d dbbd d6d6 06bc 50bf afbd
00000340: 1f29 c5bc c887 e13d aaed 0bbc d219 08bc
00000350: 25b6 063e 9b4e babd 9513 b0bd a71d 85bd
00000360: 613b 98bd cca9 28bd 7c04 f43d 378f 0b3d
00000370: f5a3 c4bd 0014 0cbe a7ba b4bd a1f3 cabc
00000380: cb03 72bb 3762 c63d 7b0d 063d bfd1 9cbd
00000390: c83c c73d f4be d7bd 4e25 ffbd 3389 e33d
000003a0: 7791 9bbd 74e6 a93c 69f3 43bd 89fe 57bd
000003b0: 71d4 85bd 07aa c3bd d197 bbbd b340 a6bd
000003c0: bb7d 12be 069d b43d 955e 693d 563a a5bd
000003d0: e425 97bd a2bb b53c e2b5 d63d 5d29 3ebd
000003e0: acc1 83bd b832 d13d f011 b0bd 9fe9 2dbd
000003f0: 6d1e 84bd 80fe a33c f03a 63bd b33a a23d

lstm.bias_ih_l0 f4 [200]
0.05329336 0.07024529 0.07934672 -0.09602681 0.05102783 0.13933451 -0.0047520427 -0.006604118
0.13052036 -0.09652628 -0.016679583 -0.11197765 -0.10399406 0.02842317 -0.13732357 -0.02870039
0.076521136 0.060779218 0.10930785 -0.028662367 0.049345393 -0.010085626 0.10278878 0.11648078
-0.05727639 0.08963405 0.04893506 0.013612701 0.046476126 0.08832509 0.023021858 0.105404176
0.11667205 0.011008348 -0.10985017 0.068341546 0.11163832 0.12805794 0.030722473 0.050727487
-0.0070750737 0.07805388 0.037125934 -0.020695722 -0.037536394 0.12980522 0.09368618 -0.13074906
0.12813592 0.06357457 0.03857527 -0.13621145 -0.014079471 0.12265462 -0.041386213 0.005521538
0.042790025 0.08156293 0.043282304 0.10801868 -0.054005127 -0.12225501 -0.047655065 -0.14397268
-0.06814168 0.11232243 0.026129993 0.10041619 -0.017914977 -0.09784713 0.052629262 -0.092796326
0.057376996 -0.08144339 0.13405734 0.14411408 0.14569311 -0.09337108 -0.15322067 0.021540944
-0.13039325 0.15117629 -0.115647 0.051408585 -0.14529975 0.14762963 -0.07801222 -0.11065061
0.04802586 0.0337027 0.11071682 0.06826056 -0.07668058 0.100750625 -0.030277995 0.01862043
0.09874414 0.0007087459 -0.058523796 0.06733656 0.009059496 -0.08272498 -0.11566503 0.14185245
0.0859233 -0.09364658 -0.051304717 -0.12072086 -0.10301677 0.005115624 0.009309296 0.021234779
-0.103149615 0.06669869 0.087137386 -0.0439616 -0.0822149 -0.053080518 0.02220614 0.013772137
0.08535214 0.08522291 0.0018305301 0.05251284 0.13545643 0.040305078 -0.13539799 0.10797717
-0.10962838 -0.14833735 -0.018040517 -0.13690855 -0.120985545 -0.049547147 0.060453147 -0.09270596
0.08607475 -0.1285149 0.0627268 -0.0831874 0.109808475 0.0027415005 -0.0062088654 0.14251843
-0.060719498 0.026502902 0.039878797 -0.023560863 -0.020094942 -0.08186563 0.29348433 0.02691371
-0.056735314 0.08458805 -0.09761561 -0.07642562 0.012559669 0.16129051 0.07404114 0.046505813
0.039926857 0.0014209517 -0.09287151 0.10177991 -0.06740264 -0.058956362 -0.07951771 -0.028118005
0.0010020684 0.10007821 0.17807855 0.032001514 0.102375746 0.056919597 -0.059304837 -0.058395196
-0.07719285 0.12835051 -0.0422677 0.11403092 0.08976428 0.1168553 0.100793496 0.038367867
0.008237335 0.2685126 -0.018021494 0.018577168 -0.072338834 0.033324752 -0.04769993 0.1524041
-0.088959776 -0.061050575 0.036862146 0.1642701 0.10695412 0.07362036 0.011020218 0.0062169796
00000000: 234a 5a3d c3dc 8f3d 8880 a23d b4a9 c4bd
00000010: 8f02 513d b5ad 0e3e 06b7 9bbb 5b67 d8bb
00000020: 21a7 053e 92af c5bd 9fa3 88bc 8a54 e5bd
00000030: d6fa d4bd b5d7 e83c 8d9e 0cbe 151d ebbc
00000040: 1db7 9c3d a1f3 783d cbdc df3d 57cd eabc
00000050: 651e 4a3d 2e3e 25bc ed82 d23d 7a8d ee3d
00000060: a69a 6abd 0f92 b73d 2170 483d ce07 5f3c
00000070: c05d 3e3d c9e3 b43d 5698 bc3c 25de d73d
00000080: c1f1 ee3d 5c5c 343c 20f9 e0bd a7f6 8b3d
00000090: a2a2 e43d 9f21 033e b2ad fb3c a0c7 4f3d
000000a0: 05d6 e7bb b6da 9f3d 5d11 183d 138a a9bc
000000b0: c3bf 19bd a9eb 043e 8ade bf3d 15e3 05be
000000c0: 1036 033e 6233 823d 1a01 1e3d 047b 0bbe
000000d0: 95ad 66bc 5832 fb3d 9784 29bd 05ee b43b
000000e0: 9844 2f3d 770a a73d c948 313d e638 dd3d
000000f0: 7b34 5dbd d660 fabd f531 43bd 936d 13be
00000100: dd8d 8bbd 4d09 e63d 910e d63c 01a7 cd3d
00000110: 6ec2 92bc 1364 c8bd c891 573d 000c bebd
00000120: 2404 6b3d cbcb a6bd 5446 093e a492 133e
00000130: 9330 153e 5639 bfbd e1e5 1cbe a276 b03c
00000140: cf85 05be f5cd 1a3e 56d8 ecbd cf91 523d
00000150: 75c9 14be 392c 173e dfc4 9fbd c99c e2bd
00000160: c4b6 443d d80b 0a3d 80bf e23d 31cc 8b3d
00000170: b50a 9dbd 5856 ce3d 8f09 f8bc df89 983c
00000180: 5e3a ca3d 22cb 393a a6b6 6fbd c0e7 893d
00000190: 486e 143c b76b a9bd cae1 ecbd c541 113e
000001a0: 8ef8 af3d c7c9 bfbd e524 52bd 803c f7bd
000001b0: 75fa d2bd f7a0 a73b 0486 183c 8ff4 ad3c
000001c0: 1b40 d3bd 5399 883d 1675 b23d 1411 34bd
000001d0: 4960 a8bd f56a 59bd a7e9 b53c 88a4 613c
000001e0: 1acd ae3d 5989 ae3d 66ee ef3a b417 573d
000001f0: 17b5 0a3e f016 253d c5a5 0abe 2223 dd3d
00000200: d884 e0bd bfe5 17be b5c9 93bc c131 0cbe
00000210: 45c7 f7bd f3f1 4abd b89d 773d 9fdc bdbd
00000220: f547 b03d 6999 03be e976 803d 285e aabd
00000230: 44e3 e03d bfaa 333b bd73 cbbb 5af0 113e
00000240: 02b5 78bd 9d1c d93c f357 233d b602 c1bc
00000250: 269e a4bc 2ba9 a7bd 9443 963e 247a dc3c
00000260: 4a63 68bd 803c ad3d b1ea c7bd 0985 9cbd
00000270: 12c7 4d3c 5729 253e e2a2 973d e17c 3e3d
00000280: 588a 233d 3a3f ba3a 6b33 bebd fc71 d03d
00000290: 650a 8abd 3a7c 71bd 2eda a2bd bb57 e6bc
000002a0: d657 833a cef5 cc3d 395a 363e 0514 033d
000002b0: 60aa d13d 8624 693d a1e9 72bd cd2f 6fbd
000002c0: 4917 9ebd 516e 033e e520 2dbd 0b89 e93d
000002d0: 56d6 b73d d551 ef3d d26c ce3d a027 1d3d
000002e0: e3f5 063c 7c7a 893e d0a1 93bc 252f 983c
000002f0: 6226 94bd 897f 083d 0061 43bd d20f 1c3e
00000300: 8b30 b6bd 2b10 7abd c3fc 163d 6c36 283e
00000310: c30a db3d 45c6 963d 258e 343c ceb7 cb3b

lstm.bias_hh_l0 f4 [200]
0.10320413 -0.105084024 0.109100655 0.12429507 0.073569685 0.14288132 0.0541135 0.10695576
0.03924501 0.03660481 -0.075121164 0.050621245 -0.10893194 0.053476192 0.07760088 0.121503726
-0.087571666 0.18459669 -0.014866176 0.07450414 -0.0687968 -0.09429761 0.13137314 -0.11897197
0.13683477 0.107970096 -0.09678627 0.14046359 0.031399466 -0.05534622 0.032946646 -0.061512608
-0.03459752 0.12204506 -0.15512088 0.17412193 -0.07185387 -0.021052793 0.0061872136 -0.05654323
0.08078826 0.16198048 -0.018407851 0.08370611 0.0008365618 -0.009839075 0.13093807 0.033098742
-0.08668506 -0.09911297 -0.030143201 -0.012407888 0.07110783 -0.0023794116 0.03499649 0.062244006
-0.026653785 0.15029195 0.097701624 0.10461448 0.026150566 0.11625295 -0.042270746 0.074290924
-0.1537821 0.06345483 0.047581807 -0.026420621 0.08500682 0.16445805 -0.085050546 0.022829518
-0.0010878812 0.023141505 0.07515112 0.13697664 0.044255983 -0.0065987203 -0.0116977645 0.108192325
0.06259244 0.012013239 -0.121249735 0.016554479 0.016484194 -0.063999526 -0.06952647 -0.06767118
0.06584641 -0.07157519 0.10081157 -0.09616525 -0.1294918 0.123434566 0.05622851 0.037164174
-0.09436317 0.017962439 0.05411353 -0.04882132 -0.005456087 0.05861807 0.10634899 0.0017335562
0.0014595446 -0.09649072 -0.13640483 0.016275287 0.15257792 0.06266731 0.09429942 0.13704666
-0.007924376 0.020694297 -0.0919297 -0.12904981 0.12039868 0.06315607 0.0971841 -0.0074852305
-0.12769946 0.1438714 0.08394789 0.0785198 0.06832185 0.08303268 0.030411001 0.03896848
-0.0899896 -0.09277434 -0.062072378 -0.06982621 -0.054486398 0.1041556 0.08133931 -0.08849969
-0.091622785 0.018174885 0.09305348 -0.025042268 0.103422135 -0.060564972 -0.093579754 -0.104041025
0.111199625 -0.080558084 -0.10362291 0.048072655 -0.04743695 -0.11163461 0.035475135 -0.045232955
-0.09245232 -0.015186457 -0.07693479 -0.067735665 -0.02449549 0.23554355 -0.009201902 0.0400168
0.11860045 -0.0733532 -0.044533476 -0.012863649 0.07424726 0.09217115 -0.009484489 0.1877794
-0.08622616 -0.034986123 0.08923297 -0.04548871 0.07003046 -0.09245043 0.02744219 -0.085754246
-0.051205926 0.037129425 -0.07475062 0.06940929 -0.10640477 -0.0021109963 -0.008260655 0.18984239
0.09316276 0.049898077 -0.08239426 0.16082011 0.05934913 -0.0703382 -0.0015979018 -0.029367143
-0.12808199 -0.024517631 0.10959181 -0.08851959 -0.11290282 0.09006001 0.13685347 -0.009162171
00000000: b05c d33d 4b36 d7bd 2a70 df3d 6a8e fe3d
00000010: b4ab 963d 7b4f 123e 1ea6 5d3d 9f0b db3d
00000020: 60bf 203d edee 153d 20d9 99bd 3958 4f3d
00000030: b517 dfbd da09 5b3d 36ed 9e3d f2d6 f83d
00000040: c658 b3bd ea06 3d3e 4391 73bc a095 983d
00000050: 56e5 8cbd 1b1f c1bd ae86 063e 94a7 f3bd
00000060: 6a1e 0c3e 6d1f dd3d e137 c6bd b0d5 0f3e
00000070: ba9c 003d b8b2 62bd 10f3 063d a5f4 7bbd
00000080: 21b6 0dbd c3f2 f93d 02d8 1ebe 054d 323e
00000090: 1f28 93bd e876 acbc 1cbe ca3b e099 67bd
000000a0: 5174 a53d 36de 253e 10cc 96bc 1c6e ab3d
000000b0: b64c 5b3a 1234 21bc a114 063e 8c92 073d
000000c0: f087 b1bd befb cabd e0ee f6bc 744a 4bbc
000000d0: fba0 913d e7ef 1bbb 7b58 0f3d 92f3 7e3d
000000e0: 0a59 dabc 22e6 193e ca17 c83d 1e40 d63d
000000f0: b639 d63c 0716 ee3d 1724 2dbd d725 983d
00000100: 0e79 1dbe 9bf4 813d 24e5 423d 0f70 d8bc
00000110: 0e18 ae3d b167 283e fb2e aebd f804 bb3c
00000120: 3c97 8eba 4193 bd3c d5e8 993d 9b43 0c3e
00000130: c345 353d 143a d8bb fba7 3fbc f093 dd3d
00000140: 7730 803d 2dd3 443c c851 f8bd 429d 873c
00000150: dc09 873c 2f12 83bd e563 8ebd 3097 8abd
00000160: 7cda 863d 0396 92bd 4c76 ce3d 49f2 c4bd
00000170: 8099 04be 43cb fc3d de4f 663d 7639 183d
00000180: 7a41 c1bd f725 933c 26a6 5d3d ddf8 47bd
00000190: fac8 b2bb 8019 703d 80cd d93d 7e38 e33a
000001a0: 314e bf3a ed9c c5bd b5ad 0bbe c053 853c
000001b0: 633d 1c3e b857 803d 0e20 c13d f655 0c3e
000001c0: 3ed5 01bc 1687 a93c a345 bcbd a225 04be
000001d0: 9593 f63d f857 813d 7508 c73d aa46 f5bb
000001e0: a6c3 02be 0653 133e dfec ab3d fdce a03d
000001f0: 53ec 8b3d 0a0d aa3d 7e20 f93c 6a9d 1f3d
00000200: 784c b8bd 7900 bebd 9b3f 7ebd 0b01 8fbd
00000210: 212d 5fbd 884f d53d 3995 a63d 533f b5bd
00000220: baa4 bbbd 7fe3 943c d392 be3d 7125 cdbc
00000230: fcce d33d fa12 78bd bea6 bfbd 7613 d5bd
00000240: a1bc e33d a3fb a4bd 4038 d4bd d5e7 443d
00000250: 3f4d 42bd b0a0 e4bd 604e 113d 3146 39bd
00000260: a457 bdbd 9ed0 78bc fd8f 9dbd ffb8 8abd
00000270: c4aa c8bc 5432 713e 93c3 16bc a8e8 233d
00000280: cbe4 f23d 343a 96bd bc68 36bd 0ec2 52bc
00000290: f30e 983d 3ac4 bc3d d564 1bbc 3e49 403e
000002a0: 5797 b0bd 9c4d 0fbd c6bf b63d 5f52 3abd
000002b0: 216c 8f3d a756 bdbd 72ce e03c ec9f afbd
000002c0: 4ebd 51bd 0615 183d da16 99bd 7526 8e3d
000002d0: beea d9bd a458 0abb b357 07bc 0b66 423e
000002e0: 1ecc be3d ed61 4c3d 52be a8bd 07ae 243e
000002f0: 1318 733d 790d 90bd b070 d1ba 5d93 f0bc
00000300: ed27 03be 33d9 c8bc ac71 e03d c249 b5bd
00000310: 9839 e7bd 6271 b83d 5123 0c3e ee1c 16bc

lstm.weight_ih_l1 f4 [200, 50]
-0.068609804 -0.026063446 -0.15597956 -0.030604439 0.020547433 -0.11779364 0.03523434 -0.017072363
-0.02135024 0.07132449 0.11534217 -0.050188813 0.07612466 0.023342445 0.052421413 0.04446767
-0.08316917 -0.10040126 0.107032955 0.018841159 0.08510147 -0.026292276 0.056472145 -0.029123021
0.13543868 0.036876224 -0.1625062 -0.003860219 -0.10802889 -0.15053423 -0.06731382 0.11820828
-0.014222152 -0.0051910332 0.050842404 0.122656256 0.006394975 -0.09665376 0.1089044 0.03814801
0.06970499 -0.13216521 -0.0973551 0.08565206 0.076140285 -0.01808693 0.070704535 -0.080488354
-0.07177957 -0.046667058 -0.04737853 0.13319235 -0.0012338343 -0.12712114 -0.09634738 0.08391379
0.068259604 -0.022075301 0.05055188 0.09968331 -0.09838353 -0.1239714 -0.12071202 -0.09659124
0.12702659 -0.038055975 0.11304122 0.1325941 -0.121259704 -0.06371533 -0.11940801 -0.027274486
-0.0012419362 0.09217261 0.12331069 0.026102263 0.13076207 0.12970854 -0.11149085 0.008066997
0.033891235 0.09844375 0.12678887 0.08542008 -0.060842495 0.08898988 -0.074236214 -0.066526696
0.064397685 0.011631119 -0.1398067 0.04740629 -0.07910297 -0.055142403 0.06008724 0.12833072
0.14378533 0.123114124 -0.05685519 0.13253686 -0.05192861 0.07540932 0.110437125 0.0860394
0.039379593 -0.10222806 -0.0710389 -0.010287754 0.033274617 -0.058891002 -0.06869945 0.1386381
-0.101890825 0.059098072 -0.052809976 0.11086535 0.11590364 -0.14998704 -0.114629954 0.020404492
-0.10544486 0.028251892 -0.029808672 -0.12618831 -0.027611865 -0.0174562 0.07454556 0.09939114
-0.07580821 -0.023631204 0.024604017 0.05849347 0.04450113 0.093186215 0.15728396 0.12273893
-0.0750511 -0.045862265 -0.11160852 0.08402353 -0.08825603 -0.13954958 0.028122295 0.08339991
0.010132521 -0.018576298 0.13803373 -0.00057787495 -0.010423959 0.09322845 0.0634945 0.06322854
0.052320153 0.045489658 0.08514242 0.11606322 -0.09682501 -0.030911323 -0.09970549 0.01806387
-0.08523977 -0.023351612 0.15602568 0.070318535 0.074697085 0.06291495 -0.06656994 -0.13169627
0.045895167 -0.11061725 -0.01735316 -0.13045752 -0.08825497 -0.10176214 -0.042425945 -0.033329394
0.08239877 -0.11878663 -0.08742712 -0.059123512 0.13843288 0.026891913 -0.08983269 -0.00044349278
0.08689381 0.12913822 -0.052375935 0.16510749 -0.08506941 -0.043505557 0.038226496 -0.07213079
-0.054263245 0.084733404 0.00069642864 -0.079657346 -0.026442342 -0.04428958 -0.093623765 0.098113365
-0.20248733 0.08933442 -0.10964688 0.019091344 -0.033737533 -0.08659107 -0.039971538 -0.00085675536
-0.05105954 -0.046917547 0.07537351 -0.043748416 -0.08195821 0.094263844 -0.1320608 0.11081276
0.10295952 -0.028207613 0.08945937 0.01955161 -0.045814596 0.12527448 -0.09141339 0.15664789
-0.09105694 0.03373232 0.090322964 0.044887498 -0.136822 -0.07325883 0.008491582 -0.037400957
-0.022734128 0.020412035 -0.06375301 0.123086266 0.027848784 0.036578048 -0.14085682 -0.11269593
-0.08222145 -0.12024049 0.09193973 0.15246944 -0.09949026 -0.018263802 -0.03868456 -0.04101892
-0.15076238 -0.034469448 -0.23831908 0.034926165 -0.08358797 0.013585665 0.10235242 -0.014704561
00000000: 4c83 8cbd 0283 d5bc 1bb9 1fbe 29b6 fabc
00000010: 1753 a83c cb3d f1bd e251 103d 57db 8bbc
00000020: b3e6 aebc 9312 923d 8438 ec3d c992 4dbd
00000030: 3fe7 9b3d a838 bf3c d6b7 563d bb23 363d
00000040: 9954 aabd 2d9f cdbd 1834 db3d c658 9a3c
00000050: ae49 ae3d e662 d7bc 564f 673d 6793 eebc
00000060: 70b0 0a3e 860b 173d 0668 26be bafb 7cbb
00000070: 403e ddbd a525 1abe d4db 89bd 2f17 f23d
00000080: 0704 69bc 8b19 aabb 2040 503d 3433 fb3d
00000090: f08c d13b 68f2 c5bd 4509 df3d 1641 1c3d
000000a0: 7dc1 8e3d 5156 07be 1c62 c7bd 596a af3d
000000b0: 70ef 9b3d 0b2b 94bc 8acd 903d 14d7 a4bd
000000c0: 2b01 93bd f525 3fbd fd0f 42bd 9363 083e
000000d0: 9cb8 a1ba 0b2c 02be c651 c5bd feda ab3d
000000e0: b1cb 8b3d 43d7 b4bc 7d0f 4f3d c326 cc3d
000000f0: 4e7d c9bd b8e4 fdbd dd37 f7bd a1d1 c5bd
00000100: 4213 023e 95e0 1bbd 2882 e73d bfc6 073e
00000110: 0257 f8bd 2f7d 82bd 308c f4bd be6e dfbc
00000120: 77c8 a2ba fec4 bc3d 518a fc3d 6ad4 d53c
00000130: 7ee6 053e 51d2 043e 5155 e4bd 702b 043c
00000140: 89d1 0a3d e09c c93d f1d4 013e b9f0 ae3d
00000150: fb35 79bd 5440 b63d 2809 98bd 263f 88bd
00000160: efe2 833d 7390 3e3c 7d29 0fbe 192d 423d
00000170: bd00 a2bd 00dd 61bd 0a1e 763d 2169 033e
00000180: 763c 133e 4223 fc3d fde0 68bd beb7 073e
00000190: 18b3 54bd 3470 9a3d dc2c e23d 6d35 b03d
000001a0: 7f4c 213d f25c d1bd d87c 91bd f88d 28bc
000001b0: f74a 083d b137 71bd 4cb2 8cbd 25f7 0d3e
000001c0: 23ac d0bd d210 723d 464f 58bd 5f0d e33d
000001d0: e35e ed3d 3496 19be 1cc3 eabd 5227 a73c
000001e0: 7af3 d7bd 8370 e73c 5131 f4bc 8237 01be
000001f0: 4732 e2bc 4e00 8fbc 58ab 983d 958d cb3d
00000200: 5641 9bbd 3a96 c1bc 5d8e c93c d996 6f3d
00000210: d146 363d 6ad8 be3d 0c0f 213e 8c5e fb3d
00000220: 64b4 99bd 12da 3bbd 0293 e4bd 8714 ac3d
00000230: 94bf b4bd 16e6 0ebe ba60 e63c 92cd aa3d
00000240: e002 263c 522d 98bc b758 0d3e 887c 17ba
00000250: 41c9 2abc 8fee be3d 6809 823d f77d 813d
00000260: a84d 563d 5d53 3a3d 265f ae3d 8eb2 ed3d
00000270: 314c c6bd be39 fdbc 6432 ccbd aefa 933c
00000280: 3092 aebd e14b bfbc 32c5 1f3e 2a03 903d
00000290: c9fa 983d 8ed9 803d d255 88bd 63db 06be
000002a0: 92fc 3b3d 4c8b e2bd 3728 8ebc a896 05be
000002b0: 06bf b4bd ab68 d0bd d4c6 2dbd 6784 08bd
000002c0: b0c0 a83d 6846 f3bd fd0c b3bd 7f2b 72bd
000002d0: 59c1 0d3e 6e4c dc3c 34fa b7bd 9884 e8b9
000002e0: 62f5 b13d cf3c 043e 2688 56bd f011 293e
000002f0: df38 aebd e232 32bd 6393 1c3d 4fb9 93bd
00000300: 2343 5ebd b588 ad3d 8990 363a 6423 a3bd
00000310: 9c9d d8bc fe68 35bd d1bd bfbd a9ef c83d
00000320: d758 4fbe f7f4 b63d 8b8e e0bd 7365 9c3c
00000330: 5e30 0abd a956 b1bd 32b9 23bd e197 60ba
00000340: cf23 51bd 9d2c 40bd 6d5d 9a3d 8a31 33bd
00000350: b5d9 a7bd 670d c13d f23a 07be cdf1 e23d
00000360: 71dc d23d a713 e7bc 7936 b73d b32a a03c
00000370: 16a8 3bbd f447 003e f236 bbbd 4e68 203e
00000380: 107c babd e72a 0a3d 3ffb b83d f4db 373d
00000390: 111b 0cbe ba08 96bd 4720 0b3c bf31 19bd
000003a0: ec3c babc 2437 a73c f090 82bd a714 fc3d
000003b0: 2223 e43c ddd2 153d c53c 10be 20cd e6bd
000003c0: b863 a8bd a540 f6bd e64a bc3d f320 1c3e
000003d0: 8dc1 cbbd f89d 95bc b473 1ebd 7403 28bd
000003e0: 7461 1abe d62f 0dbd eb09 74be bd0e 0f3d
000003f0: 2b30 abbd 6996 5e3c 259e d13d 66eb 70bc

lstm.weight_hh_l1 f4 [200, 50]
-0.081573464 -0.03895355 -0.124684654 -0.115834795 -0.02632741 0.0042266375 0.012954201 0.048007444
-0.021404114 0.03487017 -0.010896265 -0.047607906 0.018255433 0.09961079 -0.07696449 0.09946177
-0.083152585 0.01738534 0.07188275 -0.010442076 -0.03555839 -0.09198296 -0.02535253 -0.019796137
-0.037591606 0.09805743 0.06462417 0.010100755 -0.072367154 0.043601036 0.057503358 -0.003973418
-0.063146755 0.1630364 -0.12388065 -0.07744742 0.12412542 0.033990093 -0.024322048 -0.006026921
-0.108554184 0.0049538086 0.10174251 -0.029727818 0.0573984 0.071805365 0.018110225 -0.04441018
0.06133084 -0.10917421 0.06043884 -0.03346643 -0.022151113 -0.08527937 0.05166902 0.016337045
0.042517398 -0.103921175 0.10462462 0.116424866 -0.025720859 0.1396433 -0.026191862 -0.019854426
0.092980355 0.14900318 0.025363866 0.03676707 0.01250025 -0.0727317 -0.06615667 -0.08272446
0.10785061 0.030476449 0.0024929303 -0.06334441 -0.042951595 -0.12863486 -0.09581351 -0.11802644
-0.07412318 0.01011857 0.001822797 -0.0394945 -0.05456859 0.08136025 0.069638796 -0.14993127
-0.15146932 0.007356603 0.031536266 -0.0014393193 0.03289117 0.10753175 0.069012925 -0.08803511
0.10235775 -0.092953704 0.052285362 0.1053481 0.108338125 -0.048443187 -0.14467634 -0.1138629
0.012092424 -0.033393633 0.097462736 -0.1307469 -0.044032075 0.11594828 0.02715543 -0.12807524
0.008011537 0.106518105 0.020820996 -0.020525116 0.11202307 0.033443876 0.14776042 0.12443198
0.1177957 0.12612692 -0.07872159 0.018460099 0.12899575 -0.039374035 -0.06583787 0.076988
-0.018483214 0.104513146 -0.05632499 0.09228746 -0.111885145 -0.089397825 0.13900924 0.04300571
-0.056295935 -0.0060722963 -0.04142543 -0.060652237 -0.048726663 -0.055024713 -0.07373771 0.08123759
-0.06628792 -0.1369501 0.088886 -0.08376485 0.08383768 0.09125115 0.10045364 -0.026925197
-0.051755846 0.120145 0.09314575 0.07155182 -0.09257006 -0.097859815 -0.08061371 0.008357104
-0.13516054 0.14671153 0.07720654 -0.04161742 0.06293255 -0.054631885 0.000822731 -0.05343841
-0.07583761 -0.033200026 0.07241718 0.02499682 0.016128805 -0.13482016 0.0035404097 -0.038781118
0.059890453 0.057213835 0.094195046 0.03383528 0.06633713 -0.07535397 0.012494545 -0.04911859
0.06991728 -0.16371436 -0.056636643 0.041678578 -0.123985656 0.14404356 0.123489864 0.05206794
0.08181757 0.10378595 -0.017872209 -0.0008485195 0.10575931 -0.1696055 0.090576485 0.10298892
0.03576804 0.019200692 -0.124582805 0.06713999 -0.0276745 0.07536696 0.105466396 -0.0793944
-0.04986696 -0.021225952 0.090914994 0.027984027 -0.076820314 -0.15121864 -0.07492434 -0.030866984
-0.026378527 -0.02944353 -0.0013601448 0.07901558 0.053449713 -0.05750095 -0.06082962 -0.004454996
0.07983367 -0.1349052 0.038328018 0.10733494 -0.03616155 -0.106676064 0.00028692256 -0.035117496
0.13636936 0.11289147 0.14999942 -0.03739013 0.016897354 -0.093535826 0.07393471 -0.15025078
-0.07163432 -0.08948324 0.101306 -0.031415943 0.08442359 -0.12742713 0.117567606 -0.099788114
0.014943897 -0.12081652 -0.06185891 0.09284641 0.05037866 0.074544124 0.05553162 0.009629095
00000000: fd0f a7bd c28d 1fbd ab5a ffbd cb3a edbd
00000010: 95ac d7bc 9b7f 8a3b db3d 543c 74a3 443d
00000020: ae57 afbc 06d4 0e3d 3f86 32bc 8200 43bd
00000030: 6b8c 953c be00 cc3d 8f9f 9dbd 9db2 cb3d
00000040: e74b aabd b36b 8e3c 4337 933d 3e15 2bbc
00000050: ada5 11bd 9061 bcbd 1cb0 cfbc 822b a2bc
00000060: a8f9 19bd 55d2 c83d ad59 843d a37d 253c
00000070: 3b35 94bd 0097 323d a488 6b3d 7233 82bb
00000080: 1653 81bd 04f3 263e 23b5 fdbd c19c 9ebd
00000090: 7835 fe3d 3239 0b3d 083f c7bc 7a7d c5bb
000000a0: a851 debd 8f53 a23b 615e d03d c187 f3bc
000000b0: 961a 6b3d b10e 933d e55b 943c 73e7 35bd
000000c0: 0c36 7b3d ba96 dfbd b88e 773d 1814 09bd
000000d0: 4076 b5bc f3a6 aebd e5a2 533d 44d5 853c
000000e0: b926 2e3d a0d4 d4bd 6f45 d63d 2970 ee3d
000000f0: 8db4 d2bc a7fe 0e3e 5190 d6bc c0a5 a2bc
00000100: 7c6c be3d 4a94 183e e2c7 cf3c 1199 163d
00000110: d9cd 4c3c 5cf4 94bd 267d 87bd 716b a9bd
00000120: c8e0 dc3d bfa9 f93c 6e60 233b b7ba 81bd
00000130: 03ee 2fbd dbb8 03be e039 c4bd d9b7 f1bd
00000140: e5cd 97bd 5cc8 253c ebea ee3a fcc4 21bd
00000150: 5083 5fbd 34a0 a63d c99e 8e3d 9587 19be
00000160: c61a 1bbe a90f f13b 2c2c 013d 8ba7 bcba
00000170: e4b8 063d 9b39 dc3d a656 8d3d c04b b4bd
00000180: f1a0 d13d 835e bebd 2d29 563d bfc0 d73d
00000190: 61e0 dd3d 5d6c 46bd 0926 14be f430 e9bd
000001a0: 4d1f 463c c3c7 08bd 8b9a c73d 84e2 05be
000001b0: fa5a 34bd 4b76 ed3d 1075 de3c 2826 03be
000001c0: d242 033c 2a26 da3d cb90 aa3c 4a24 a8bc
000001d0: 5a6c e53d 72fc 083d 824e 173e 32d6 fe3d
000001e0: df3e f13d 6a27 013e c938 a1bd a239 973c
000001f0: 7617 043e ab46 21bd 01d6 86bd e2ab 9d3d
00000200: 1c6a 97bc fd0a d63d 08b5 66bd 3501 bd3d
00000210: 0a24 e5bd 3516 b7bd 7058 0e3e c126 303d
00000220: 9196 66bd 1dfa c6bb b6ad 29bd 7b6e 78bd
00000230: 9c95 47bd 9861 61bd cc03 97bd e55f a63d
00000240: f6c1 87bd a63c 0cbe dd09 b63d e88c abbd
00000250: 17b3 ab3d e2e1 ba3d a3ba cd3d 3b92 dcbc
00000260: f0fd 53bd 950e f63d 33c3 be3d c389 923d
00000270: 5f95 bdbd ba6a c8bd cd18 a5bd 3cec 083c
00000280: 8667 0abe 8c3b 163e 761e 9e3d 0777 2abd
00000290: c8e2 803d afc5 5fbd 8bac 573a 3ce2 5abd
000002a0: c050 9bbd c0fc 07bd 754f 943d 22c6 cc3c
000002b0: 8e20 843c 4c0e 0abe 3806 683b f3d8 1ebd
000002c0: b14f 753d 0e59 6a3d 55e9 c03d dd96 0a3d
000002d0: c3db 873d 2f53 9abd ecb5 4c3c 9330 49bd
000002e0: ca30 8f3d bda4 27be d3fb 67bd 28b7 2a3d
000002f0: 31ec fdbd 2880 133e 41e8 fc3d 3145 553d
00000300: f88f a73d ba8d d43d bd68 92bc 2e6f 5eba
00000310: 5698 d83d 10ad 2dbe 2a80 b93d dbeb d23d
00000320: 8281 123d c54a 9d3c 4525 ffbd b180 893d
00000330: a2b5 e2bc fe59 9a3d c4fe d73d 8899 a2bd
00000340: 4c41 4cbd 0ce2 adbc a431 ba3d c23e e53c
00000350: f853 9dbd 0fd9 1abe ef71 99bd c2dc fcbc
00000360: c817 d8bc 8f33 f1bc e346 b2ba ecd2 a13d
00000370: 16ee 5a3d 1e86 6bbd 7b28 79bd 37fb 91bb
00000380: d67f a33d 9724 0abe d7fd 1c3d 6cd2 db3d
00000390: 221e 14bd fb78 dabd 186e 9639 5dd7 0fbd
000003a0: 69a4 0b3e a533 e73d 7399 193e 6526 19bd
000003b0: 526c 8a3c b68f bfbd 156b 973d 57db 19be
000003c0: 04b5 92bd fd42 b7bd 8579 cf3d 01ae 00bd
000003d0: 46e6 ac3d 427c 02be 49c7 f03d b65d ccbd
000003e0: 3fd7 743c a76e f7bd c55f 7dbd 4226 be3d
000003f0: db59 4e3d 97aa 983d 2075 633d 5ac3 1d3c

lstm.bias_ih_l1 f4 [200]
0.11948889 -0.012138303 -0.005039851 -0.107834645 0.060467724 0.08205876 0.09642816 0.04340765
0.13669334 0.096234754 0.064995624 0.08994985 -0.09298392 -0.12435984 -0.12932704 0.008926505
0.057838842 0.03528675 0.047181755 0.033258345 -0.0062645944 -0.118218765 0.14002284 -0.026474517
-0.083123885 0.0019477468 0.0072336327 0.03980954 0.07391137 0.10979033 0.119963124 0.0877501
-0.00996634 0.06817089 0.0051051704 0.031254224 0.02811463 -0.03266004 -0.015699295 -0.089535765
0.12501638 0.04605197 -0.039597157 -0.09461823 -0.03952903 0.10711855 -0.01403301 -0.072626494
-0.10077001 -0.06563396 0.048358236 -0.12442083 0.11137697 -0.0011036505 0.0021744156 0.013803493
0.0019511986 0.12620854 -0.016060118 0.008485483 0.014183374 0.009005074 -0.052180327 0.11504049
-0.04378121 0.12033952 -0.015978042 -0.049806263 0.07486168 -0.066386335 -0.0951568 0.086013645
-0.00090147764 0.13412865 -0.016818866 -0.09837619 0.08842449 0.0650302 0.07819261 -0.08593943
-0.100119986 0.11861706 0.114474185 0.020117648 0.029471723 0.13936295 -0.09094106 -0.12822002
-0.11727222 -0.005416451 0.13164204 0.08157448 0.020335315 -0.101907164 -0.016334826 -0.074200116
0.10064142 0.037179306 -0.03577682 -0.024466248 -0.012357249 0.061545834 0.024284013 -0.017055264
-0.044362754 0.10360625 0.04172193 -0.03867096 -0.008974524 -0.04245486 0.08346783 -0.006550512
0.078871414 0.06877857 0.045387678 -0.03546582 0.04298614 -0.044582598 0.076955 0.0932837
-0.04293178 -0.07485801 0.095167495 -0.07316577 -0.09196637 -0.103348404 0.03181288 -0.068965346
0.0043638614 0.1198989 0.09923076 -0.052681953 0.10087908 0.09372536 0.03393108 0.15944755
0.09415889 0.07108168 0.10911905 -0.114344 -0.059409004 0.09344235 0.059909727 0.039344136
-0.07150675 -0.03943011 -0.029531537 0.112580955 -0.10105746 -0.07126384 0.049815733 -0.056731433
-0.022818983 0.0429352 0.024742763 0.09504056 0.15805085 -0.036056716 0.004191932 -0.053159874
-0.02155057 -0.07673484 -0.09389644 -0.021222433 -0.056084514 -0.0734755 0.019660622 0.092726976
0.1233792 0.08431932 -0.079683326 -0.026472732 -0.12577854 -0.00022419135 -0.07429242 -0.031099156
0.09341127 -0.10260025 0.05647861 0.08785165 -0.018426249 -0.10069015 -0.087304145 -0.12081869
-0.07604519 -0.054600466 -0.024391394 0.066158205 -0.010203971 0.09401579 0.03175935 0.034220964
-0.11080313 -0.1163294 -0.071207635 0.069745354 0.104589656 -0.0841065 -0.028014394 -0.07515809
00000000: 97b6 f43d bcdf 46bc 5625 a5bb 69d8 dcbd
00000010: 01ad 773d 6c0e a83d 217c c53d 38cc 313d
00000020: 57f9 0b3e ba16 c53d 6d1c 853d a137 b83d
00000030: 5a6e bebd 5fb0 febd 4f6e 04be 7a40 123c
00000040: 6ce8 6c3d d788 103d a841 413d e739 083d
00000050: 3a47 cdbb ae1c f2bd 2662 0f3e 16e1 d8bc
00000060: db3c aabd 8a4b ff3a 1c08 ed3b 540f 233d
00000070: d85e 973d c1d9 e03d 3aaf f53d 53b6 b33d
00000080: dc49 23bc 2e9d 8b3d 4649 a73b 6e04 003d
00000090: a750 e63c 89c6 05bd cf9b 80bc 875e b7bd
000000a0: 4b04 003e fea0 3c3d a130 22bd 34c7 c1bd
000000b0: 31e9 21bd f860 db3d b6ea 65bc 33bd 94bd
000000c0: 8260 cebd 196b 86bd 4913 463d 59d0 febd
000000d0: 9c19 e43d 5ea8 90ba a480 0e3b 0c28 623c
000000e0: 5cbf ff3a d03c 013e 8290 83bc b206 0b3c
000000f0: 6261 683c 058a 133c 0abb 55bd 599a eb3d
00000100: ed53 33bd 9174 f63d 62e4 82bc a701 4cbd
00000110: 1551 993d 8ff5 87bd 91e1 c2bd ec27 b03d
00000120: 2451 6cba 0559 093e b8c7 89bc 7579 c9bd
00000130: e617 b53d 8e2e 853d 7223 a03d 0301 b0bd
00000140: b50b cdbd 80ed f23d 7171 ea3d c4cd a43c
00000150: af6e f13c 29b5 0e3e 4e3f babd 1c4c 03be
00000160: 6b2c f0bd 7c7c b1bb 2ccd 063e 8510 a73d
00000170: 3f96 a63c b4b4 d0bd 9dd0 85bc 3bf6 97bd
00000180: 171d ce3d 5449 183d b78a 12bd 716d c8bc
00000190: 0f76 4abc 7c17 7c3d 44ef c63c 7bb7 8bbc
000001a0: b8b5 35bd 832f d43d 9de4 2a3d 7165 1ebd
000001b0: e209 13bc 26e5 2dbd 2ff1 aa3d ada5 d6bb
000001c0: 5687 a13d c7db 8c3d 6ee8 393d 9c44 11bd
000001d0: 3c12 303d 3e9c 36bd 959a 9d3d 860b bf3d
000001e0: 3cd9 2fbd 284f 99bd 2de7 c23d efd7 95bd
000001f0: dd58 bcbd 54a8 d3bd 394e 023d b43d 8dbd
00000200: b9fe 8e3b 8e8d f53d 7f39 cb3d 08c9 57bd
00000210: b199 ce3d 15f3 bf3d 51fb 0a3d 3846 233e
00000220: 60d6 c03d 4693 913d cf79 df3d 302d eabd
00000230: db56 73bd b45e bf3d e763 753d 5127 213d
00000240: 2272 92bd 7881 21bd 1fec f1bc d890 e63d
00000250: 37f7 cebd c7f2 91bd 950b 4c3d 385f 68bd
00000260: e0ee babc d2dc 2f3d 56b1 ca3c a0a4 c23d
00000270: 15d8 213e 35b0 13bd 795c 893b 2bbe 59bd
00000280: d28a b0bc 2827 9dbd c74c c0bd abda adbc
00000290: e0b8 65bd 537a 96bd 500f a13c a4e7 bd3d
000002a0: 3cae fc3d 9caf ac3d 0331 a3bd 58dd d8bc
000002b0: 17cc 00be e814 6bb9 a026 98bd a8c3 febc
000002c0: 684e bf3d 1420 d2bd 1d56 673d 91eb b33d
000002d0: a5f2 96bc a336 cebd 84cc b2bd ca6f f7bd
000002e0: 95bd 9bbd bda4 5fbd 76d0 c7bc f47d 873d
000002f0: 8e2e 27bc 5a8b c03d 1816 023d 482b 0c3d
00000300: c0ec e2bd 1c3e eebd 4fd5 91bd a7d6 8e3d
00000310: 1a33 d63d 0740 acbd 717e e5bc 7cec 99bd

lstm.bias_hh_l1 f4 [200]
0.10929944 0.0039277403 0.030954314 -0.030452667 -0.046461556 -0.06172021 -0.11954085 0.052355617
0.02286459 -0.049047876 0.011788839 0.036056753 -0.1395156 0.016970465 0.10169299 0.13031042
0.103912815 0.051548418 0.035847213 0.041334506 0.14779307 -0.056205403 0.12331291 0.1062151
-0.04665926 0.11312565 -0.051130094 0.12945445 -0.0732609 -0.005811174 -0.0985063 -0.024590684
-0.09285607 -0.07573375 0.05337433 -0.009958204 0.008401188 0.12922347 0.03970534 0.06789668
0.08052079 0.16267931 -0.0062357946 -0.07970625 -0.11562385 0.03765305 -0.12487259 -0.021528298
0.040857427 -0.072203085 0.03647976 0.10534085 0.09971942 -0.100783974 0.07412641 -0.017038383
-0.022367988 0.036707465 0.03876855 -0.0040476783 -0.03940219 0.013489013 0.104594104 0.00029242592
-0.02174834 -0.0010472359 0.011970697 0.11234631 0.0149517525 -0.0049551325 0.051375452 -0.017931253
-0.05383632 0.016627872 0.11225973 0.045053605 0.060600817 0.1378271 -0.092102975 0.02229134
-0.13287461 0.101284765 -0.022735184 0.010679216 -0.0704699 -0.026505027 0.038595524 -0.11015753
-0.12036034 0.037339993 -0.00092644664 0.038662884 0.11118573 -0.011263262 -0.026270319 -0.08351325
0.032820415 0.03349577 -0.036641333 0.00063512544 -0.14036016 0.05779258 -0.04347985 -0.0596423
-0.0663906 0.1269997 0.06382878 -0.14020206 -0.12662242 0.008871435 0.039013725 -0.11070333
0.08224504 0.0037992871 -0.06577934 -0.06858568 0.09925535 0.07351693 -0.019902911 0.12943067
0.04199296 0.016332332 -0.048776083 0.09646463 -0.11920825 -0.0022234998 -0.034151725 -0.120911434
-0.14893685 -0.021650594 -0.1333355 -0.108902596 0.098537855 0.06775824 0.15095557 0.054632448
-0.073070444 -0.064235255 -0.010328464 -0.095649645 -0.018774256 -0.13743612 0.06453062 -0.05824663
0.13164283 -0.11044766 -0.028149283 0.011127326 0.1358621 0.008128169 -0.082652174 0.09765647
0.06506247 0.06317862 0.12749805 -0.10914123 -0.025460912 0.02032001 0.16951428 0.07029181
0.10492785 -0.12161837 -0.051546972 0.11161954 0.07894222 -0.12671587 -0.041325055 -0.09539954
-0.05319123 -0.05852838 0.057528723 0.110906385 0.06804013 0.084293194 0.078109644 0.09615172
-0.0008770599 0.09794411 0.07514065 0.031474125 0.039987516 -0.0748232 0.06635452 0.009803636
0.029209003 -0.1108649 -0.14178967 -0.081606075 -0.13839014 0.16516426 -0.09513847 0.024137633
-0.11592737 0.07319215 -0.009644885 -0.04633399 -0.050596476 -0.052424848 0.13470533 0.10421396
00000000: 63d8 df3d 46b4 803b e793 fd3c df77 f9bc
00000010: 794e 3ebd 55ce 7cbd d5d1 f4bd d872 563d
00000020: 854e bb3c 6de6 48bd f925 413c 3fb0 133d
00000030: 2ddd 0ebe a505 8b3c 6a44 d03d 1870 053e
00000040: 3ed0 d43d 6f24 533d 87d4 123d 5f4e 293d
00000050: 1157 173e a337 66bd 7b8b fc3d 4d87 d93d
00000060: c81d 3fbd 6cae e73d ca6d 51bd b58f 043e
00000070: d009 96bd a96b bebb acbd c9bd 6772 c9bc
00000080: 532b bebd 4c1a 9bbd 0b9f 5a3d bc27 23bc
00000090: 23a5 093c 2853 043e 11a2 223d 6a0d 8b3d
000000a0: 15e8 a43d 6895 263e a355 ccbb 083d a3bd
000000b0: 32cc ecbd 163a 1a3d 33bd ffbd 1d5c b0bc
000000c0: 1e5a 273d 36df 93bd cd6b 153d f2bc d73d
000000d0: b239 cc3d d467 cebd 96cf 973d 1494 8bbc
000000e0: 123d b7bc 915a 163d c5cb 1e3d 63a2 84bb
000000f0: 3164 21bd 0501 5d3c 6f35 d63d be50 9939
00000100: 9329 b2bc 6843 89ba be20 443c d215 e63d
00000110: 32f8 743c aa5e a2bb 116f 523d 90e4 92bc
00000120: 7983 5cbd 2d37 883c 6ee8 e53d 218a 383d
00000130: 9038 783d 8c22 0d3e 7ca0 bcbd 549c b63c
00000140: 4810 08be 636e cf3d 233f babc e1f7 2e3c
00000150: 8652 90bd 1221 d9bc 5716 1e3d 459a e1bd
00000160: 7b7f f6bd d2f1 183d c8dc 72ba f95c 1e3d
00000170: 58b5 e33d 8b89 38bc da34 d7bc ff08 abbd
00000180: b36e 063d dc32 093d 3915 16bd 8c7e 263a
00000190: 93ba 0fbe eab7 6c3d ed17 32bd 7c4b 74bd
000001a0: cbf7 87bd 360c 023e aab8 823d 2191 0fbe
000001b0: 4fa9 01be 7f59 113c dbcc 1f3d 6db8 e2bd
000001c0: 1670 a83d 76fd 783b 52b7 86bd a676 8cbd
000001d0: 6446 cb3d 0b90 963d 6e0b a3bc 7989 043e
000001e0: cf00 2c3d 62cb 853c 6ec9 47bd 3f8f c53d
000001f0: 7423 f4bd 23b8 11bb aee2 0bbd 6aa0 f7bd
00000200: e782 18be 965c b1bc 1a89 08be 5308 dfbd
00000210: 37ce c93d d5c4 8a3d 1994 1a3e 46c6 5f3d
00000220: f5a5 95bd c68d 83bd b838 29bc f6e3 c3bd
00000230: 78cc 99bc 0ebc 0cbe a128 843d 0594 6ebd
00000240: 61cd 063e 6232 e2bd 5399 e6bc 634f 363c
00000250: 6f1f 0b3e 032c 053c 8b45 a9bd 1e00 c83d
00000260: 793f 853d cb63 813d d98e 023e 7085 dfbd
00000270: 6793 d0bc 2676 a63c 2795 2d3e 27f5 8f3d
00000280: 6ae4 d63d 0d13 f9bd eb22 53bd c998 e43d
00000290: 75ac a13d cec1 01be 7644 29bd d660 c3bd
000002a0: 0cdf 59bd 74bb 6fbd 3da3 6b3d e322 e33d
000002b0: a058 8b3d e9a1 ac3d f3f7 9f3d 31eb c43d
000002c0: 7eea 65ba ec96 c83d 57e3 993d 03eb 003d
000002d0: f3c9 233d e83c 99bd e1e4 873d 6e9f 203c
000002e0: b847 ef3c 230d e3bd 5031 11be 1621 a7bd
000002f0: 25b6 0dbe d220 293e f5d7 c2bd 49bc c53c
00000300: 546b edbd c4e5 953d 9405 1ebc b6c8 3dbd
00000310: 403e 4fbd 70bb 56bd 32f0 093e 216e d53d

fc.weight f4 [1, 50]
-0.042394605 -0.026184306 -0.039605603 0.007821305 -0.113068506 0.064517595 0.117495544 -0.12880258
-0.012892006 0.035664737 0.04956827 0.021239888 -0.131567 0.09588934 0.10995926 0.051211193
0.1115582 -0.12949745 -0.059292562 0.060348906 0.09108503 -0.14936808 0.13110335 0.080928996
0.10173591 0.096908934 0.12970515 -0.03365565 -0.05224877 0.065337084 -0.11133679 0.0037191813
0.10442297 -0.071098715 0.14096358 0.064388685 -0.03478368 -0.057718497 -0.14002442 -0.1485122
-0.1098973 -0.09272221 -0.07771867 0.0407582 0.05418209 -0.12104037 -0.11223487 0.16439486
0.12358156 0.056106765
00000000: f7a5 2dbd 7880 d6bc 7c39 22bd ee24 003c
00000010: 7690 e7bd cd21 843d 81a1 f03d d3e4 03be
00000020: fe38 53bc 3015 123d 1908 4b3d 46ff ad3c
00000030: 80b9 06be a161 c43d 5232 e13d d4c2 513d
00000040: a078 e43d fb9a 04be c2dc 72bd 6a30 773d
00000050: ca8a ba3d f2f3 18be f53f 063e 1abe a53d
00000060: eb5a d03d 3178 c63d 6dd1 043e 82da 09bd
00000070: ce02 56bd 73cf 853d 8b04 e4bd 82bd 733b
00000080: b6db d53d 349c 91bd c258 103e 37de 833d
00000090: 5579 0ebd 3b6a 6cbd 9062 0fbe 9513 18be
000000a0: d611 e1bd 24e5 bdbd f72a 9fbd 12f2 263d
000000b0: 0aee 5d3d 03e4 f7bd 65db e5bd 2057 283e
000000c0: 5418 fd3d 35d0 653d
