models/lstm_model_4h.pt (torch, 127756 bytes, 9 tensors)

lstm.weight_ih_l0 f4 [200, 1]
00000000: d336 dd3c 8534 a03d 651b 81bc 4fdc 0abc
00000010: 76be 783d 54c1 453e 32b3 e9bd d484 b23c
00000020: 6224 29be 8fe6 373e d8a8 073d e9d4 f0bb
00000030: 4629 e13d c500 02be 4f10 833d 1e3b df3d
00000040: 014c 1b3e 74ee fbbc f65c a5bd 5b71 753d
00000050: 7205 ec3b c8f0 c43d 5ff0 1f3e b0fd b73d
00000060: f494 3cbd f3df f13d b418 d9ba b15b 873d
00000070: 4960 3cbd 13be 593d 1d9b 3bbd 37a3 c53d
00000080: af25 2d3e 8017 c8bb dfa4 9d3d 2fa2 863d
00000090: 2ec2 ccbc 22ec f63d 575b 943b 004e a9bd
000000a0: 55b3 f0bc 0095 7c3d 15ac f63d 7b0e a63d
000000b0: 0f47 4c3e 1c9d a5bd 3dc2 373d de16 1d3e
000000c0: b4b7 60bd f5fb 453e bf37 a3bd 028e 9abd
000000d0: 02d6 1ebe b672 c03d 3630 a73c 1109 373e
000000e0: 467a 2bbc f41e 8c3d 7b5d 51bd c777 763d
000000f0: 1d71 913d 005f 5abd 25c4 d4bc 93c7 d8bc
00000100: f14c 013e efa2 3d3e baf4 133e 530f 3b3c
00000110: 2e50 6c3c fb73 053e 7651 373b 1e69 a43d
00000120: 9081 d8bd 71d2 073e 9cb9 c03c 89c1 943d
00000130: 4fcc cbbd 567e ccbc 18da e6bd c54d 9e3d
00000140: f89d c1bd 3f5d a93d 8874 62bb 475a 19be
00000150: 6a9a 1f3e b6f0 f23d aa67 ddbd f3af 0dbe
00000160: 9914 85bc cd14 a63d 0aa5 dc3d 9e5a 3a3d
00000170: 2ca2 d03c b4dd 38bc db37 ca3d 2d87 203e
00000180: a2c6 823d 2293 4a3d 816c f83d 8ecb 9dbc
00000190: d936 20be abde 6e3d 8c19 0a3e 045b 4bbe
000001a0: 8108 90bc c616 34be abcc 28be 29db f1bc
000001b0: 6e9b ce3d af01 35be 5d2c 3e3e 4be2 013e
000001c0: bb5b 5a3d 3665 123e 2f0b 1a3e 2fc5 37be
000001d0: 2326 ca3b 646b 4f3c 735f 82bd 6c35 51bd
000001e0: d9e0 b83d 043c 2b3e c919 23bd 4eb3 353e
000001f0: 5cba 713d eed4 1fbe f6fb cabd 676c 1d3e
00000200: b984 bb3d 34f0 203e 5269 5b3d 60d8 dbbd
00000210: b325 5a3e 8026 b3bd 6e78 3abe 61cd debd
00000220: 6053 0e3e 4dbd 0c3d 0d76 a03d 47f3 10be
00000230: 6854 62bd ec35 233e 553e e83d 02bb 0dbc
00000240: 3d48 1fbe 636e 36be 6a27 68bd 86df 3dbe
00000250: 3bf9 35be 6ca9 473e 2f0f 283d 8801 143e
00000260: e1b0 053e b6b0 543d a592 83bd 15d1 283e
00000270: 8d85 57bd 72df 1c3d 1160 43be 0ae0 923d
00000280: 21f0 9a3d babb 83bc c2e1 e4bd 41d6 e33d
00000290: f6b4 033e 85dd 6ebd f402 dbbc 5ce3 c63d
000002a0: 597c d4bc 68dd 2b3d b4b2 63bc 1064 a7bd
000002b0: 7ef7 65bb b2b6 c23c a148 eabd 6ecd 4b3e
000002c0: 65ae 7fbd f8b1 af3d 0eae e33d ada9 90bd
000002d0: 6e16 c43d 7e13 923d 3f3d 393e 4b35 d2bd
000002e0: 4fe0 8c3d ce07 413d a23a 0c3e 56a6 4fbd
000002f0: 457b a7bb 6ad4 a4bd 7df5 343e 4e08 81bc
00000300: a451 b23c 8d02 3e3e 5645 323e 72ba 82bc
00000310: eedb 59bd f770 083e d593 3f3e 4ef0 1e3e
0.027003681 0.07822517 -0.015760133 -0.008475377 0.060728513 0.1931203 -0.11411132 0.021791853
-0.16517785 0.17959045 0.033120006 -0.0073495996 0.109942004 -0.12695606 0.06399595 0.108999476
0.15165712 -0.030753352 -0.080743715 0.059922557 0.0072027976 0.09616238 0.15619038 0.08983934
-0.04604049 0.11810293 -0.0016563148 0.066092856 -0.045990262 0.053159785 -0.045802224 0.096502714
0.16908906 -0.006106317 0.07697462 0.06573903 -0.024994936 0.120567575 0.00452749 -0.082668304
-0.029382387 0.061665535 0.12044541 0.08108231 0.19948982 -0.08086607 0.044862974 0.15340754
-0.054862693 0.19334395 -0.07969617 -0.07546617 -0.15511325 0.093968794 0.020408731 0.17874552
-0.010466164 0.06841841 -0.05111454 0.060172822 0.07101653 -0.053313255 -0.025972435 -0.026462352
0.12627007 0.18519185 0.14448825 0.011417228 0.014423413 0.13032524 0.0027972138 0.08027862
-0.10571587 0.13263871 0.023526005 0.072634764 -0.09951078 -0.024962585 -0.11272067 0.07729677
-0.09453958 0.082697384 -0.0034554321 -0.14975844 0.15586248 0.11862318 -0.10810788 -0.1383665
-0.016245173 0.08109436 0.10773666 0.045496576 0.025467955 -0.011283327 0.09873935 0.15676565
0.063855425 0.049456723 0.121300705 -0.019262102 -0.15645923 0.05831782 0.13486308 -0.19858938
-0.01758218 -0.17586812 -0.16484325 -0.029523449 0.100882396 -0.17676423 0.18571611 0.1268398
0.053310137 0.14296421 0.15043329 -0.17946313 0.006169097 0.012659881 -0.06365862 -0.051076338
0.09027261 0.16722113 -0.039819513 0.1774418 0.059015617 -0.1560857 -0.09911339 0.15373383
0.09156174 0.1571663 0.05356724 -0.1073463 0.21303444 -0.08747578 -0.18210003 -0.10879017
0.13898993 0.03436022 0.078350164 -0.14155303 -0.055256277 0.15938538 0.11340014 -0.008650543
-0.155549 -0.17815547 -0.056678213 -0.18542299 -0.17770855 0.19498223 0.041030105 0.14453709
0.13055755 0.051926337 -0.064244546 0.16486008 -0.0526176 0.03829903 -0.19079615 0.07171638
0.07565332 -0.016080726 -0.111758724 0.1112485 0.12862 -0.058316726 -0.026734807 0.09711334
-0.0259382 0.041959196 -0.013897587 -0.08173382 -0.0035090144 0.023768757 -0.11439634 0.19902584
-0.062422175 0.08578867 0.11117183 -0.07063613 0.095745906 0.07132624 0.1808977 -0.10264071
0.06878721 0.047126584 0.13694242 -0.05069574 -0.0051111304 -0.08048327 0.17671771 -0.01575103
0.021767445 0.1855566 0.17409262 -0.015958045 -0.053188257 0.13324343 0.18708737 0.15521356

lstm.weight_hh_l0 f4 [200, 50]
00000000: a7a2 85bd 8162 25bd 8f8c 943d f3be 04be
00000010: bafa 1f3d 9ce2 c03d 5126 ed3d 7d65 233d
00000020: b803 58bc fcd1 b1bb 4e88 37bd 1c1c 963c
00000030: 540f a83d a22b 2b3e 88c1 acbc 8aaa 18be
00000040: 7dd7 acbc 5596 f63d c261 04be 63c3 00bd
00000050: 7545 403c 1df4 75bc f2ed c33d 1990 ad3d
00000060: 573f adbd 2e1e 06be ebea 083d 61ba fb3d
00000070: 307e 013d fe52 813d 221a 68bd c8ec 5b3d
00000080: 5dbd b83a 24bd cbbd 05fa 9bbc 9990 a63d
00000090: c9ff 2b3d 6ac4 dd3d bb73 b0bd acb1 92bc
000000a0: 289d b73d 8098 c53b 7976 0b3e 55ce 0c3e
000000b0: caee b03d bda3 9ebd a2d6 0abe 1356 9d3c
000000c0: c786 2bbd 4b92 ba3d b8d7 dd3d e89b 943d
000000d0: a9e1 21bc 2cc3 27be 316f 31bc 6a22 dabd
000000e0: 0639 ea3d 0e3a c1bb 9c47 1b3e fecf 23be
000000f0: cc2f c8bd bebd 91bd 5353 133d 4ee7 84bd
00000100: fd8c 1a3d c161 e4bd 9d6a a6bd 9189 7fbd
00000110: ee1b c2bd 5aa0 693d 4292 2a3d c16a 903c
00000120: 9cb0 c4bd 3c78 f23b a81e debd 2ee9 7ebd
00000130: 4f48 02be bd40 c63d 715d c3bd 2fb2 113e
00000140: 0f58 05be 31d2 80bb a860 ac3d e175 de3d
00000150: f8b3 f7bb b150 7f3c 4a65 67bd a66e 22bd
00000160: 28d0 4bbd da18 743d f4c6 b83d 2c63 cd3d
00000170: 0061 c3bd bf90 063e f962 3b3d 0e6e dabc
00000180: 256c efbc 5ea7 e73d a4bd 823d 2ce0 d53c
00000190: 9374 a83b ee87 863d 829e d23d 4fd8 ad3d
000001a0: 0aea 183e e878 3e3d c30e fa3d 9f59 d83c
000001b0: 0b47 7bbe 3f2f 023c 65e6 193d c99a 5bbc
000001c0: 089c a9bd 532f bebd 0192 273d 7871 bcbd
000001d0: 560a fbbd 77e1 02be 13db 013d 104c 913d
000001e0: 7fe1 08be 3a9a 25be cfaa 31be 3866 eb3d
000001f0: 09db 273d 4cc5 083e 1462 83bd 4edf bc3d
00000200: c702 2d3d 6b24 843d 4af2 20bd 8a14 8d3d
00000210: 1aae 1fbe f383 493e 935d 503d 4e41 a1bd
00000220: 3b81 9f3c 007f 6d3a 99df 87bd f1d5 a7bd
00000230: b23d 8fbd 830c 15be 77ff cdbd e2e9 67bd
00000240: d753 06be 0c99 563d ac33 5d3d 72dc bdbd
00000250: 8e50 8d3d 3022 fdbd 5186 2abe 849f c43d
00000260: 5a5d e93d 1f41 9f3d c71f 70ba 8fce 9abd
00000270: 41e2 ae3b 9f54 21bc a5de 8ebc 2449 49be
00000280: 767a bebc 42d2 24bd a90e b2bd b544 28bd
00000290: aae1 cf3c f5cf 96bd 3109 9e3d c0e7 c6bc
000002a0: 5205 21be 7dca b5bd bd78 bf3b 56a4 863d
000002b0: 29f6 15be 1a7e eb3d 90a0 9a3d 8162 2cbd
000002c0: 206d d63c 1d3e dc3b c5a4 d23d 8a37 cb3a
000002d0: 0712 06be bf5e cdbd d091 78bc 29ca 773c
000002e0: 0256 bbbd 84bc 83bc 88fe 0e3e 68f0 d9b9
000002f0: 9df9 f53d b0ec 8c3d 0e12 b03d b792 3f3e
00000300: 6a3f 0e3e 4c0c 423e 3923 a6bd 181d 33be
00000310: 4e13 b5bd 1d81 adbc 4568 f9bd a704 463e
00000320: 2613 8abd b283 043e 961b 863d f7bf 2d3d
00000330: 067d 753d 2f10 fcbd 5d6f cb3d 54f7 acbd
00000340: fcee 1dbd 906a 133e ff08 463d 737f b9bd
00000350: 526b 8a3d d8db 363d 041a 09be b629 46bc
00000360: 8f22 613d 05d6 abbd fc8b b9bd feb1 553d
00000370: 5b3e db3d b9c7 c43d 133a afba 9751 863c
00000380: 775f bc3c 73b0 78bd 878d f4bd dc88 87bd
00000390: b250 06be 3fd3 0cbe b5e2 46bc 84b2 a73d
000003a0: da93 963d 8711 acbc f02d e3bd 2152 d03d
000003b0: c27c 0d3e 135c b6bd 9204 4abc 6add 063e
000003c0: 08a7 debc 6527 103e a056 02be c53c c1bd
000003d0: 270d eabd 87aa 8d3d 9f64 113e 923f 013e
000003e0: c62d d6bd 87b8 2fbc 3dd3 97bd 2e45 9e3d
000003f0: 0260 78bd 6ca8 a53d 6b5a 883d 8246 ae3d
-0.06525164 -0.040377144 0.07253372 -0.12963466 0.03905747 0.09418222 0.11579574 0.03989171
-0.01318448 -0.0054266434 -0.044807725 0.01832395 0.082060486 0.16715863 -0.021088377 -0.14908805
-0.021098847 0.12040392 -0.12927917 -0.031436335 0.01173531 -0.015011814 0.09566869 0.0847475
-0.08459347 -0.1309745 0.03342716 0.12291408 0.031614482 0.06314658 -0.056665547 0.05369261
0.0014094521 -0.09948185 -0.019040117 0.081330486 0.041991983 0.10828479 -0.08615824 -0.017906986
0.08965522 0.0060301423 0.13619412 0.13750584 0.086392954 -0.07746074 -0.13558438 0.019206082
-0.04187658 0.091099344 0.10832161 0.07256299 -0.009880462 -0.16383046 -0.010829733 -0.10651095
0.114366576 -0.0058968132 0.15164036 -0.15997311 -0.097747415 -0.071162686 0.035968136 -0.0648943
0.037732113 -0.111514576 -0.081258036 -0.062387053 -0.094779834 0.05703769 0.04164339 0.01762903
-0.09603998 0.007399587 -0.10845691 -0.062234096 -0.12722896 0.096803166 -0.09539307 0.14228128
-0.13021873 -0.003931307 0.08416873 0.10862327 -0.0075592957 0.015583203 -0.05649308 -0.039656304
-0.04975906 0.059594013 0.09022322 0.10028681 -0.09539986 0.13141154 0.045748685 -0.026663806
-0.029226372 0.1131122 0.06383827 0.02610787 0.00514085 0.06568895 0.10284139 0.08488523
0.14933029 0.046502024 0.12209847 0.026409922 -0.2453882 0.007945835 0.037573237 -0.013403603
-0.08281714 -0.0928637 0.040910725 -0.0920133 -0.12257831 -0.1278132 0.031703066 0.07094586
-0.1336727 -0.16172114 -0.17350315 0.11494106 0.040980373 0.13356513 -0.06415191 0.092222795
0.042238977 0.06452259 -0.039293565 0.06888683 -0.15593758 0.19679241 0.05087049 -0.07873784
0.019470802 0.0009059757 -0.06634445 -0.08195103 -0.06994189 -0.14555554 -0.10058492 -0.056619532
-0.1311792 0.05239205 0.054004356 -0.09270562 0.0690013 -0.123600364 -0.166528 0.09600738
0.113947585 0.07776093 -0.00091600086 -0.07558929 0.00533703 -0.009846835 -0.01744015 -0.19656807
-0.023251753 -0.04023958 -0.086942025 -0.04108115 0.02537616 -0.073638834 0.07716597 -0.024280429
-0.15724686 -0.08876512 0.0058432505 0.06574313 -0.14644684 0.11498661 0.07550156 -0.04208613
0.026175082 0.0067212717 0.102853335 0.0015504223 -0.13092814 -0.10027837 -0.015171483 0.015123882
-0.09147264 -0.016081102 0.13964283 -0.00041568582 0.120105006 0.06881082 0.08597194 0.18708311
0.13891378 0.18950003 -0.08112187 -0.17491567 -0.08841573 -0.02117973 -0.12178091 0.19337712
-0.067419335 0.12940863 0.0654823 0.0424194 0.059933685 -0.12307774 0.0993335 -0.084456116
-0.03855799 0.14396119 0.048348423 -0.09057512 0.06758751 0.044643253 -0.1338883 -0.012094906
0.0549646 -0.0839043 -0.09059903 0.0521717 0.10705253 0.096084066 -0.0013368748 0.016396327
0.02299474 -0.06071515 -0.11941057 -0.06617901 -0.1311672 -0.13752459 -0.012139012 0.08188346
0.07352419 -0.021004451 -0.11092746 0.10171915 0.13817123 -0.089042805 -0.012330191 0.131704
-0.027179256 0.14077528 -0.12728357 -0.09435419 -0.1142829 0.06917291 0.1419854 0.12621906
-0.10457949 -0.010725147 -0.074133374 0.07728039 -0.060638435 0.080887645 0.06657871 0.08509542

lstm.bias_ih_l0 f4 [200]
00000000: 4fc7 8e3d 1c40 e6bd 152f 8dbd 0f38 393e
00000010: 727e f7bd a25c 533c 3bed 343e d02c ac3d
00000020: 80e0 b3bd c652 3dbb a620 b33d a2e7 6abd
00000030: 2b15 67bd 9a32 fabd a9e0 0bbd 3809 423d
00000040: 1e17 89bd 94dc febd d3f9 febd f1e5 21bd
00000050: c7d9 9f3c c797 8fbd b948 f33d 336e 0a3e
00000060: c0bb a1bd 4437 c33d 89c5 a2bc e34d 003d
00000070: 64d7 8a3d 189c c33d d46b cd3d 0abb 903d
00000080: 9528 1c3e f75b 053e 376c e13d 1991 3bbd
00000090: 02ce a8bd 598c 67bc 4a0f 9f3d 358c f13d
000000a0: fb78 2a3e f1ee 5b3d 40c4 e5bd f57b e4bd
000000b0: d848 e5bd f5d2 f0bd fb1e b63d a57a babd
000000c0: 4267 a6bd dd06 183e d8fd 023e fd21 4dbd
000000d0: a850 103e d78f f0bb 61e3 a6bd a5ee 0f3d
000000e0: c84a e93d 13e8 043d aee1 203e 7780 03bd
000000f0: 13ea 7dbd 931c 30bd 529a 83bc c801 65bd
00000100: cb5c eebc db31 d53d dd04 843d 177e d8bd
00000110: 67af cf3b 555f 08be 7349 83bb e982 203d
00000120: dbac 1bbd f22c a63d 89c5 15bd c0b8 0c3e
00000130: 86f5 9c3d d8ef a5bc e08c f6bd 4929 b43d
00000140: 3de8 d2bd 614a c83c a40b 0f3e b35b 9abd
00000150: ea98 a8bd 8926 27bd ff59 37bd 3846 22bc
00000160: 14cc 06be ab00 e83c 9937 c13d 2873 abbd
00000170: 4839 313d 7de3 aa3d 1a9f 3bbc 1c18 bebc
00000180: 3543 23bd b43e 8abc b4ae 203e a8c8 92bc
00000190: 0ccd a5bd 5634 063e 4485 03be e632 0d3e
000001a0: 78c7 48bd a69b d13d 2411 263e 293e b9bd
000001b0: 3b08 95bd 1578 243c f0fd f83d d645 c13d
000001c0: 2ff8 f7bd eb1e a03c c50d 0f3c b4ae fcbd
000001d0: 086c dcbd 199a 4f3d 7735 b4bd a85e d3bd
000001e0: b89d b8bd 5408 58bd 2850 b1bd 4a66 523d
000001f0: 0682 fcbd bbab 54bd 29f3 b2bd 0cfa af3d
00000200: 966b 8a3c 2d00 c7bc d678 1c3d 9438 883d
00000210: 21e7 c2bd a551 6f3d 0a15 993d c439 963c
00000220: b44f 2cbd 922b 4dbd 049a 703d 9f01 adbd
00000230: dc1d b6bd 4e4d 813d a777 ac3d 6894 e33d
00000240: 83cd 01be 1d3a d2bd 987e 343d cd53 00be
00000250: 1a3c 8ebd d32c bebd 7685 d83b 13c5 4c3d
00000260: c33c 343c 8d41 06bd ccdc 32bd 3685 273e
00000270: c997 263e f608 783c bc9c 93bc 5a41 003d
00000280: b980 20bd 0cb4 85bd 3dd2 8a3d bedc 59bd
00000290: 5469 e43d 6f9b 873d 0e13 9b3d a559 f8bd
000002a0: 0035 b83c 8ca0 e6bc 8a12 02be 802d a03d
000002b0: 0be7 693c 2d2a 60bd 8a6b c63c a300 543d
000002c0: ab3c d5bc facd 0d3e efa6 a7bd 2759 2c3e
000002d0: 54dd 183e afe7 043e 713c 873e c765 913d
000002e0: 947b 043e eec5 d9bd 62c8 cf3d 9ccd a03c
000002f0: 0629 883d 238c 933d f9ab ec3d adec a83c
00000300: f1db e4bd 6fb2 5c3c 5806 ff3d e6c9 d73d
00000310: 557e 29bd 288c d0bc bb9c c03c 119d bd3d
0.06971609 -0.11242697 -0.06893746 0.18087791 -0.120846644 0.012900503 0.17668621 0.08406985
-0.08783054 -0.0028888448 0.087464616 -0.05734981 -0.05641667 -0.12216683 -0.0341498 0.047372073
-0.066938624 -0.12444416 -0.12449994 -0.03952593 0.019513024 -0.07011371 0.11879105 0.135186
-0.078971386 0.095320255 -0.019869583 0.03132428 0.06779364 0.09551257 0.10030332 0.07066925
0.15249856 0.13023363 0.110069685 -0.045792673 -0.08242418 -0.014132583 0.07766588 0.117943205
0.16647713 0.05369467 -0.11219072 -0.111564554 -0.111955345 -0.11758987 0.08892628 -0.09105424
-0.081251636 0.14846368 0.12792146 -0.050081242 0.14093268 -0.007341366 -0.08148838 0.0351397
0.113912165 0.032447886 0.1571109 -0.032104935 -0.06199081 -0.042996 -0.016064797 -0.0559099
-0.029096982 0.104099 0.0644624 -0.10570925 0.0063380483 -0.13317616 -0.0040065586 0.039187346
-0.038006645 0.081140414 -0.036565337 0.13742352 0.076640174 -0.020255968 -0.120385885 0.08796937
-0.10298202 0.02444953 0.13969284 -0.075370215 -0.08232291 -0.040808234 -0.04476356 -0.009904437
-0.13163787 0.028320631 0.094344325 -0.08371574 0.04326752 0.08344171 -0.011451507 -0.023204856
-0.039859015 -0.016875602 0.15691644 -0.017917946 -0.0809575 0.13105902 -0.12843806 0.13788947
-0.049018353 0.10234766 0.16217476 -0.09045059 -0.072769605 0.010038395 0.1215781 0.09437148
-0.12107884 0.019545993 0.00873131 -0.123380095 -0.10762793 0.05068407 -0.0879926 -0.103207886
-0.090144575 -0.052742317 -0.08657867 0.05136708 -0.123294875 -0.051921587 -0.08737785 0.085926145
0.016897004 -0.024292076 0.038201176 0.066514164 -0.095167406 0.05842747 0.07474716 0.018338092
-0.0420682 -0.05009038 0.05874063 -0.08447575 -0.08892414 0.06313573 0.084212594 0.111122906
-0.12676053 -0.102649905 0.04406604 -0.12531967 -0.06945057 -0.09285893 0.0066077067 0.049992632
0.011000815 -0.032777358 -0.0436676 0.1635941 0.16268839 0.015138855 -0.018019073 0.031312324
-0.03918526 -0.06528482 0.06778381 -0.05318903 0.11152902 0.066214435 0.07571994 -0.12126473
0.02248621 -0.028152727 -0.12702385 0.078211784 0.014276276 -0.054727722 0.0242212 0.05175842
-0.026029905 0.13848105 -0.08186137 0.16830884 0.1492818 0.12979005 0.264133 0.070994906
0.12937766 -0.10633455 0.10145642 0.019629292 0.066484496 0.07204463 0.11556239 0.020620668
-0.11174763 0.013470276 0.12452382 0.10536556 -0.041380245 -0.025457457 0.023512235 0.09258474

lstm.bias_hh_l0 f4 [200]
00000000: c4ca 9fbd 6dc8 b33d 41d0 163d 8be1 0c3d
00000010: 6eff a13d 64a6 c63d 6d23 09bd cff7 0d3e
00000020: 7120 383d b645 13bd 3931 5cbd 2753 033e
00000030: ca34 b2bd ba47 8b3c 7f3d 2a3d 9fed 103d
00000040: 81e9 ed3d 8d81 023d 851f 04be ec47 233c
00000050: a3c6 5ebd 0754 2d3d f75f 143e 5def 993d
00000060: 6c7d a93d fc29 293d 4a99 603d ccf2 db3d
00000070: ae71 05bd 2757 213e a82a 9e3d 7a7e e3bd
00000080: f8c8 853d 2870 fabc 739e dc3d ef70 b6bd
00000090: 37d6 343e 8a78 0abe 77e3 bfbc 33d6 8bbd
000000a0: 7f2a 9bbd 199b 0d3d cea4 623d c414 8dbd
000000b0: 1343 ec3d d664 f13c f2c5 fdbd 8e12 e8bb
000000c0: dd95 c9bd c2d2 203d b12d e73d d8cb 003e
000000d0: 2870 a23d 2dc2 29bd 9d00 80bd fe0b 193e
000000e0: e4e8 9d3d e164 babd 51e4 363d 77b7 b93d
000000f0: cda3 e9bd 387c a93d 334a c63c c8b8 fcbd
00000100: 4fd6 213e 118e 543d d15f ce3d 22ee 123c
00000110: c238 4abd 56dd fbbd 09eb bf3d be70 cf3d
00000120: 6d3a a7bc d273 b8bd 6985 173d 357f 573d
00000130: cd74 793c 4dd3 45bd c0c7 d6bd f4a1 9e3c
00000140: 3f7f 483d 6097 343d 5d25 083d d0a1 97bd
00000150: dfa7 2a3e 3894 a7bd efbb be3d efbf a7bc
00000160: 70fc 34bd 04bb f23d f967 debd 9d42 ee3d
00000170: c5e9 d03b a1d1 5dbd 4119 293d 14c2 79bd
00000180: 2ba3 39bc 80ea af3c 5c21 9dbd 1706 9b3d
00000190: 10b9 b8bd 87c7 813d 11b9 cbbc aa05 0cbe
000001a0: e425 9d3d 8b06 a0bc 5286 e9bc 6a73 0dbe
000001b0: 1e60 2bbc 8894 00bd 17af 7e3d d0ca 6b3c
000001c0: 2322 cf3d 237a 29bd 8b2f 08bd cba0 ee3d
000001d0: 8081 dabd c0de 07be 0d39 05be 9218 a63d
000001e0: f6a2 e5bd 0796 ba3d ec0b a93d daf6 10bd
000001f0: da34 d03d f800 c6bd a1ce fb3d 0817 883d
00000200: a00b e8bd 16a4 98bb a549 9bbd d075 8f3d
00000210: d9e1 623c 8582 2c3d d92a b0bd 62fe acbd
00000220: 0efc 6dbb 9d1d a63d 826e 4b3d ed17 e5bd
00000230: b145 b83d 920d c8bd 7189 823c cb32 efbc
00000240: 556e 9cbc 53f5 dd3d 9217 fa3d 7801 1ebd
00000250: 39f4 5dbd 4b00 793d c46d d9bd a7a2 b23d
00000260: c58a 093d d6c4 b33d 9cc0 563c aa33 303e
00000270: 29af 3d3d 9eb3 cfbd 613e 46bc 70b8 b8bd
00000280: 1140 8cbd 7028 9936 16c7 27bd 1e49 043e
00000290: d50d 033e 15bf 2e3e f835 ffbd 08ab 0abd
000002a0: 96e0 d2bd 5870 60bd eff3 e9bd 9cb8 db3d
000002b0: b398 0d3c cac3 0a3e 06a2 053e a985 643c
000002c0: dbda 833d da6d de3d a8bf f4bb 6ba3 853c
000002d0: fa07 e53d 702b 7bbd 2419 4a3e 4309 01be
000002e0: a607 123e 6323 be3d 1782 0cbd c23b 0b3d
000002f0: 5a27 f3bd 899f febd cad1 043c 1a4b 773e
00000300: 97ba d63d 4573 ecbd e1e0 59bd 2c6c cebd
00000310: aebf 8abc f48d cdbd 0d3d 0b3e e70f 90bd
-0.07802346 0.087784626 0.0368197 0.034394782 0.079100475 0.09699705 -0.03348105 0.13864063
0.044952814 -0.035955153 -0.05375788 0.12824689 -0.08701475 0.017001975 0.041562553 0.035382863
0.11616803 0.03186183 -0.12902649 0.009965878 -0.054388653 0.042316463 0.14489733 0.07516358
0.082758754 0.041299805 0.054833688 0.10739669 -0.032579117 0.15755902 0.0772298 -0.11108108
0.06532472 -0.030571058 0.10772409 -0.08908259 0.17659841 -0.13522545 -0.023423893 -0.06827965
-0.07576465 0.03457174 0.05533295 -0.06888726 0.11536231 0.029467028 -0.12391271 -0.00708229
-0.09843037 0.039263494 0.11288012 0.1257776 0.07931548 -0.041444946 -0.06250117 0.14945981
0.07710436 -0.091012724 0.044651333 0.09068196 -0.11408196 0.08275646 0.024205303 -0.12339932
0.15804408 0.051893298 0.10076869 0.008967908 -0.049370535 -0.12298076 0.09371001 0.10128926
-0.020413602 -0.09006466 0.036992464 0.05261155 0.015225601 -0.048297215 -0.10487318 0.019364335
0.048949476 0.044089675 0.033238757 -0.0740391 0.166656 -0.08182567 0.09313189 -0.020477263
-0.044186056 0.11852077 -0.10859675 0.11633799 0.0063755237 -0.054154996 0.04128385 -0.060976103
-0.011330406 0.021474123 -0.076723784 0.07569521 -0.09019673 0.06336885 -0.02486852 -0.13674036
0.07673243 -0.01953437 -0.028506432 -0.13813558 -0.010459928 -0.03139165 0.062178697 0.014391616
0.10113933 -0.041376244 -0.033248466 0.116517626 -0.106692314 -0.13268566 -0.13010044 0.08110155
-0.11212723 0.09110647 0.08254227 -0.035391666 0.10166331 -0.096681535 0.12295271 0.06645018
-0.11330342 -0.0046582324 -0.07582406 0.07004893 0.013847792 0.04211666 -0.086019225 -0.08446957
-0.0036313566 0.08111117 0.049665935 -0.11186204 0.089976676 -0.09768213 0.015934678 -0.029199025
-0.01909558 0.108378075 0.12211527 -0.03857562 -0.054187987 0.060791295 -0.10616639 0.0872243
0.033579607 0.08777778 0.013107445 0.17207208 0.046309624 -0.10141681 -0.012099833 -0.09019554
-0.06848157 4.564463e-06 -0.040961348 0.12918517 0.12798245 0.1706508 -0.124614656 -0.033854514
-0.102967426 -0.05479464 -0.1142348 0.10728571 0.008642363 0.1355125 0.13050088 0.013947883
0.06438228 0.10860796 -0.0074691363 0.016313275 0.11183162 -0.061320722 0.19736153 -0.1260119
0.1426073 0.09284093 -0.03430375 0.033992536 -0.1187274 -0.12432773 0.008106658 0.24149743
0.10484808 -0.115454234 -0.053192977 -0.10079226 -0.016937103 -0.10036841 0.13597508 -0.07034283

lstm.weight_ih_l1 f4 [200, 50]
00000000: b986 cb3d d8eb 18bd c48a 843c 0cc7 c33d
00000010: f51e c9bd 9a05 70bd 15ef 503d dde4 083e
00000020: 918c 1bbe 4981 033e 5cbe 363d 6889 acbd
00000030: 43be ff3d c4ad e5bd 4731 793d 295e af3d
00000040: 82a8 aa3d 1fe5 dd3d b9ba b13d b95d b43d
00000050: e5e0 c0bc 5bdc 66bd d50d 4d3d 1402 d53d
00000060: 3cd3 85bd 13cf ff3d 58a8 e13d 5860 9b39
00000070: b5aa 5fbd cdde 9a3d 434c d93c 9abb e33c
00000080: d47e ecbd 01b1 f6bd 4689 133c 7ce7 7b3d
00000090: 79c3 d9bd b834 e7bd 058b 773b 971a 91bc
000000a0: 9a46 34bd 0b87 d7bd 8e36 d1bc 19e8 e13d
000000b0: dca3 0dbd 6e1b 853d 3765 c6bc 2a61 a4bd
000000c0: b461 073e ec8d f73d a673 25be 7160 823d
000000d0: c4d0 86bc 40de 75bc afff 45bd 5025 943d
000000e0: 2f48 82bd b8d1 f23d 9c0e 133e 103d 26be
000000f0: 7c3f 343d 23f2 f63c 8ac6 2e3b b567 e13d
00000100: e07e b83d 9a09 0f39 f68b 0bbe 5db7 91bd
00000110: 26c5 6d3d 39f2 1fbe 77bb 813d 3f7a f33d
00000120: 41ea 69bc bca3 33bd 996d 363c 3e5d 8cbc
00000130: 2d1a 92bd c070 da3c 2551 653d 83b8 2dbd
00000140: 85d3 ddbd a543 d9bd c699 383e 1d7b c4bd
00000150: 52a3 4fbd c8ff 723d 3cd3 4b3c 3fa9 0e3e
00000160: 35a8 ea3d 4401 82bd c5cf a5bd 5e85 0a3d
00000170: 8d92 a6bd 605e 583d 0563 b83c c615 c0bd
00000180: e1e7 f8bd 2a8e a73d 9c6f 33be 27d1 6f3d
00000190: c999 a53c 1ac7 313d d175 643b e34c 02be
000001a0: a6dd 053d 9b3a 113c 14e9 403d d698 f6bc
000001b0: ae50 a93d 80ea 2bbd f918 193d f7b6 553c
000001c0: 972d 8cbd dcc9 ea3d 7d4f f03d 9df2 28be
000001d0: 9dee 64bd b150 4dbd 30fa bc3c f054 80bd
000001e0: 02b9 da3a 61e3 98bd ed54 b73d 3a8e f53d
000001f0: 60a7 203e f235 19be 5e39 3fbb 1a16 2f3d
00000200: 53d6 3d3c 2ec0 a23d d887 90bc 2f8c 023e
00000210: bdb1 9c3d 4bd3 87bd f60a 1d3d b97a 463d
00000220: e66b c33d 7499 f53d 8392 85bd 2e27 8d3d
00000230: 14bb 23be f46b 403e 4989 c43d 4132 223e
00000240: 27c2 28be deb6 913d b281 2ebd 9e7e 433b
00000250: 5660 b5bd 3e49 7c3d 2d8a 9a3d 8855 eebd
00000260: cba5 553d a121 19bc 9b0c 063c 56aa 9a3b
00000270: 275c f13d c19b 9cbc 178c 683c 766d d53c
00000280: 48ea 8d3c 0555 3bbd 5d90 5bbd 2102 463c
00000290: acad 8bbd 2738 36be 4bc5 223d 70e5 fe3d
000002a0: 6d5b d53d bcb0 a0bd 3aeb 073e f662 283e
000002b0: b427 603c 2904 383d be95 dcbd fa1d 203d
000002c0: 1281 333c 5b02 cebd a9dd 5b3d 0033 34bc
000002d0: 1c84 563d a693 8b3d cab9 5e3d 2736 39bc
000002e0: 21bc a4bd c803 13bd 2497 52bd 71a4 ce3c
000002f0: c41b 85bd c64e c4bd 91ed 92bd 141c 3fbd
00000300: da34 36bd e24a 253c 1ab6 4c3d 18a2 bc3c
00000310: a9d8 7cbd 2aed 08be 8e35 3e3b 52f5 a53c
00000320: f4b4 eebd dcb0 8cbc d532 ee3d a1cb 1ebe
00000330: fd2c d53d 0ab5 26bc 907f 873d 3d4a efbd
00000340: dbeb 093e 2c87 84bd ddb0 d9bd b37a 93bd
00000350: 6c58 853d cdaf da3b 1361 b9bc 41db 103d
00000360: 7574 f33d d6f6 bd3c 9e48 2b3d 0744 083d
00000370: 01c6 0bbe fa94 573d 3af3 02be 767f fe3d
00000380: 8b62 a9bd 9c40 1c3d cfe6 cf3d d172 ac3d
00000390: d937 6d3d 3e66 a3bd 8375 77bd a572 d43d
000003a0: f9ff f7ba 2344 98bd cc1b d1bd 50dc 0abe
000003b0: e427 ae3c 7e00 ed3d cbb1 103e 980d 02bc
000003c0: b4e1 943d 4f1f b93d ccdf 323e 366e 0fbd
000003d0: b8e5 15bb 9dfa 1ebe bce5 0836 9ff9 1a3c
000003e0: 4c98 b5bd 5088 5b3b 299f 06bd 5cea c8bd
000003f0: 80d3 f13d d6d3 5e3d 08d7 8cbd 2ece 41bd
0.09937806 -0.037334293 0.01617945 0.095594496 -0.09820358 -0.058599092 0.051009256 0.13368554
-0.1519034 0.12842287 0.044615135 -0.08424646 0.124874614 -0.11214784 0.06083801 0.085628815
0.083329216 0.10834717 0.08678193 0.08806939 -0.023544738 -0.05636249 0.05006202 0.10400787
-0.065344304 0.12490668 0.11018437 0.00029635685 -0.05460616 0.07562027 0.026525622 0.027799416
-0.11547628 -0.120454796 0.0090048965 0.061500058 -0.106329866 -0.11289352 0.003777207 -0.017712874
-0.044012643 -0.10523804 -0.025538709 0.11030597 -0.034580097 0.064993724 -0.024218185 -0.08026345
0.13220865 0.12087616 -0.16157398 0.06366051 -0.01645697 -0.015006602 -0.048339542 0.07233679
-0.06361424 0.11856407 0.14361042 -0.16234231 0.044005856 0.030144757 0.0026668631 0.11006109
0.090085745 0.0001364112 -0.1362761 -0.07115052 0.058049344 -0.15619744 0.06334584 0.11888551
-0.014277042 -0.04385732 0.011134529 -0.017134305 -0.07133899 0.026665092 0.05598559 -0.042412292
-0.1083136 -0.10608605 0.1802741 -0.095937945 -0.050692864 0.059325963 0.012440499 0.1393175
0.11457864 -0.06347898 -0.080962695 0.033818595 -0.08133421 0.052824378 0.022508154 -0.09379153
-0.121536024 0.081814125 -0.17523044 0.058549073 0.020214932 0.04340277 0.0034860263 -0.12724642
0.032682084 0.00886407 0.04709728 -0.030102175 0.082673416 -0.041971684 0.03737733 0.0130441105
-0.06844633 0.11464283 0.11733911 -0.164988 -0.05589162 -0.05012578 0.023068517 -0.062662005
0.0016687217 -0.07465244 0.08951745 0.11990018 0.15688848 -0.14961985 -0.002917848 0.042745687
0.011586743 0.079468116 -0.0176429 0.12748788 0.076510884 -0.06632098 0.03834053 0.04845688
0.09542064 0.119921595 -0.065220855 0.068922386 -0.15989333 0.18791181 0.095964976 0.15839483
-0.16480313 0.07114957 -0.042604156 0.0029830108 -0.08856265 0.061593287 0.07545886 -0.116374075
0.052160066 -0.009346397 0.008181716 0.0047200127 0.11785155 -0.019117238 0.014193556 0.026053172
0.017323628 -0.045735378 -0.053604472 0.0120854685 -0.06820235 -0.17794858 0.039738934 0.124461055
0.10417829 -0.078462094 0.13273326 0.16444 0.013681341 0.044925842 -0.107707486 0.039091088
0.010956066 -0.10059043 0.05367819 -0.0109984875 0.052372083 0.06815271 0.0543764 -0.011304415
-0.08043695 -0.035892278 -0.05141367 0.025224896 -0.064994365 -0.09585337 -0.071742184 -0.046657637
-0.044483997 0.010088654 0.049978353 0.023026511 -0.06173006 -0.13371721 0.002902362 0.02025858
-0.11655608 -0.017174177 0.11630789 -0.15507366 0.104089715 -0.010174999 0.066161275 -0.11684082
0.13468878 -0.064710945 -0.10629437 -0.072011374 0.06511006 0.006673789 -0.022629296 0.035365347
0.11887447 0.02318899 0.0418173 0.033268 -0.13649751 0.05263231 -0.12788096 0.12426655
-0.08270749 0.038147554 0.10151445 0.08420337 0.05791459 -0.079784855 -0.060414802 0.10373429
-0.001892089 -0.07434871 -0.1021038 -0.13560605 0.021259256 0.115723595 0.14130323 -0.007937811
0.07269612 0.09039175 0.17468184 -0.035017215 -0.0022872519 -0.15525289 2.0399302e-06 0.009458928
-0.08866939 0.0033497997 -0.03286663 -0.098103255 0.118079185 0.05440124 -0.068769515 -0.04731577

lstm.weight_hh_l1 f4 [200, 50]
00000000: 3357 d9bd d996 1b3e ab1a bfbd e41b febd
00000010: 4274 1b3e 15ed 0dbe 1080 edbd bcc8 97bd
00000020: 63bb 08be 4ef1 bdbd f1bf d6bb 0a9e 153d
00000030: 468c 043e 6c23 423d 8c39 0f3e f4df 093d
00000040: 529c c3bd 27d9 d8bc 8e10 00be 8740 ccbd
00000050: 9d08 97bd 9cc6 933d dfef debd 3ced d13c
00000060: 714d 4bbd a7c0 0dbe 0864 9e3c fd4a a9bd
00000070: 5f86 db3d 1c32 b53d 38dc 91bd d14c ed3a
00000080: 1ada 903d 9fdd 723d 8a30 afbd 8dbe e23d
00000090: 6f93 c53c da0d a3bd 935a e23d e165 ef3d
000000a0: e188 efbc 7fb9 ba3d 31b1 7cbd 7e81 7b3c
000000b0: 40f1 f03d f21f 0f3d 409e c03d 0b2a 2f3e
000000c0: 6ca4 043e a259 c33d c8af 02be 7008 253d
000000d0: 0c09 ae3d a6c0 92bd f7e4 d73d 1302 9bbd
000000e0: ec48 c0bc f0de 8dbd 275a 72bd 66d7 313d
000000f0: 8a8b 873d bf4b 913d 4689 00be 7fe7 d13d
00000100: 62c2 8dbd 595a 58bd bc01 f7bd ccbf 2bbd
00000110: 2284 833c a4e4 46bd 5c39 9ebb ff94 7dbd
00000120: fa06 f9bc 12b2 c9bb 66f8 d8bd 97b7 a03d
00000130: d4e7 c4bc 0428 d03d f4f3 d9bd b3a9 bbbd
00000140: 8fe3 043d bb75 b33d e35b b0bc e4e6 87bc
00000150: de43 f4bd c1ce 9fbd 7c53 7dbc 5a2b fe3c
00000160: 1967 12be 7d0f 923a 9d1e a63d 931b 143e
00000170: 94b8 0dbc 183d d2bd 49fe 4b3d f4f8 12be
00000180: 960d de3c b409 0abd 9c24 fcbd 4126 1abd
00000190: 9fda 823d 0595 453d c967 03be d9f0 e1bd
000001a0: 3028 0dbd ead5 5abd 5664 a0bd 4b3b f43d
000001b0: 04cb b83c d367 083d de63 c7bd 08f8 0bbe
000001c0: a10f debd dcc6 8fbd 3923 10bd dfb4 f43d
000001d0: 721c 1dbd 4ee2 f03c 9ae1 e93d 6004 e1b9
000001e0: 64e8 87bd f9e3 6fbd 19a7 a23d 8bc4 b3bd
000001f0: 0e9f 8a3d 176a 0d3e c795 b3bd 4a71 1bbd
00000200: 8dc2 a13d 49d6 b73d 9313 4cbc 82b4 a43d
00000210: 32d4 893d 0033 e43d fcd6 93bd d6b1 933d
00000220: 1705 eabd 6fae b0bd 0597 cf3d 4826 de3d
00000230: 6a04 f9bd 8ef9 133e fe03 a7bb faa0 54bd
00000240: 3a06 dbbd eea5 13be f113 14bd ec8e 6bbc
00000250: 54e3 e6bd 5037 7b3d 8cc6 d23c 966d 8b3d
00000260: 9765 b9bb a850 cfbc cc42 683d 0458 113e
00000270: 8fe7 083c 1edc 89bc 611e 13bd 5f36 e83d
00000280: e792 633d 5eca e2bc 032f 383c 0029 bf3d
00000290: 659d 013e 7278 123e 62f7 e43b c9c7 ad3d
000002a0: 1e7c 003e 4d2e 66bd 1efe bf3d 9d06 e63d
000002b0: da40 bfbd 8cd7 b1bd 36b8 98bd e3b5 8dbc
000002c0: 6439 ca3d 35ed 0d3d fd70 993b 5e93 053e
000002d0: c98d b13d 56f2 9b3b 3252 a43d 1545 12be
000002e0: 0a72 a2bd c9bd 6a3c 196c 2d3d f0ac c73d
000002f0: d021 993b 75d2 ce3d 7904 d4bd d2ca 1f3d
00000300: 5273 18bd 0155 7fbd 6805 7f3d 4f1d 07be
00000310: 06c6 ae3d bfb8 8b3d e082 b83d 22a3 54bd
00000320: 6d4e e7bd fab1 283d cee6 e33d a101 f33d
00000330: 84fc 9f3d 7323 063e bc03 dd3b 9d86 bdbd
00000340: 98e5 01be 772d 8dbb 1802 973d 3562 413d
00000350: 23e6 f5bd 3e56 e1bc f905 e73d 7b20 cebd
00000360: 2f4a 40bd aac8 81bb a05a 0b3e 361d adbd
00000370: f240 963d 930d 093e 9b29 c6bd 1f2e c93d
00000380: 5759 d83b 3658 a4bd bc48 d6bd 4ce6 e03c
00000390: 628c 0dbd 2815 f73d e5ad d1bb 5e84 c1bd
000003a0: e54f 823d 971e 9d3d 4144 113e 5ccf 313d
000003b0: c134 ebbd 7a39 903d 1073 38bd a060 f1bc
000003c0: 0338 b13d c67c d7bd cd7e 84bd 7a83 13bd
000003d0: 790e 26bc f8c0 fd3b 7876 983d f919 03bd
000003e0: 805f 38bd 10af b63d a1f6 b9bc eb54 f1bd
000003f0: c494 683c 63b3 fa3c 4b56 1ebe 4075 953d
-0.10612335 0.15194263 -0.093312584 -0.124076635 0.15181068 -0.13859971 -0.115966916 -0.07411334
-0.13352732 -0.09274541 -0.006553643 0.03652767 0.12944135 0.047397062 0.13986796 0.033660844
-0.095513 -0.026470734 -0.12506315 -0.09973245 -0.0737469 0.07215616 -0.108855955 0.025625817
-0.0496344 -0.13843022 0.019334808 -0.08266256 0.107189886 0.08847448 -0.071220815 0.0018104558
0.070728496 0.059293386 -0.0855418 0.11071501 0.024118153 -0.07961626 0.11052432 0.11689354
-0.029240074 0.09117412 -0.06169242 0.015350698 0.11764765 0.034942575 0.09405184 0.17105882
0.12953347 0.095385805 -0.12762368 0.04029125 0.08497819 -0.07165651 0.105417185 -0.07568755
-0.023472272 -0.069272876 -0.059168007 0.04341831 0.06618412 0.070945255 -0.12552366 0.102492325
-0.06921841 -0.052820537 -0.12060878 -0.04193096 0.016054217 -0.048557892 -0.004828615 -0.061909672
-0.030398834 -0.006155261 -0.10594253 0.07847517 -0.024036326 0.101638824 -0.106422335 -0.09163227
0.03244358 0.0876269 -0.02152819 -0.01658959 -0.11927007 -0.07803107 -0.015461799 0.031026531
-0.14297141 0.0011143532 0.08111308 0.14463644 -0.008649964 -0.10265559 0.049803052 -0.1435278
0.027106088 -0.03370066 -0.1231167 -0.037634138 0.06389355 0.04823782 -0.1283256 -0.11032266
-0.034462154 -0.05342666 -0.078316376 0.11925372 0.022557743 0.03330214 -0.09735845 -0.13668835
-0.10842825 -0.07020351 -0.03518984 0.11948561 -0.038357206 0.029404785 0.11419983 -0.00042918604
-0.06636122 -0.05856702 0.079420276 -0.08777722 0.067686185 0.13810001 -0.08768802 -0.037949838
0.07898436 0.089764185 -0.012455839 0.08042242 0.06729926 0.1114254 -0.072187394 0.07211654
-0.11426752 -0.086270206 0.101362266 0.10847145 -0.12159045 0.14450666 -0.0050969115 -0.05191133
-0.10694547 -0.14418766 -0.03615183 -0.014377337 -0.11273828 0.061332047 0.02572944 0.06808011
-0.0056578624 -0.025307015 0.056704327 0.14193732 0.008355989 -0.016828593 -0.035917643 0.113384955
0.05556002 -0.027684387 0.011241677 0.09333992 0.12657697 0.14303759 0.006987498 0.084853716
0.12547347 -0.0561965 0.09374641 0.1123173 -0.09338541 -0.086836904 -0.074570104 -0.017298644
0.09874228 0.034650046 0.0046826587 0.13044497 0.086696215 0.0047591133 0.0802349 -0.14284165
-0.079319075 0.014327475 0.042339418 0.09749782 0.00467322 0.10098735 -0.103524156 0.039011784
-0.037219353 -0.062336925 0.062261015 -0.13194774 0.08533864 0.06822347 0.090093374 -0.051913388
-0.112942554 0.041185357 0.11128007 0.11865545 0.078118354 0.1309946 0.00674483 -0.09254191
-0.1268524 -0.0043083983 0.07373446 0.0472128 -0.12006786 -0.027506944 0.11280436 -0.10064789
-0.046945747 -0.0039606886 0.1360879 -0.08452837 0.07336606 0.13384084 -0.09675904 0.0982325
0.006602447 -0.080246374 -0.10463092 0.027453564 -0.034557708 0.12064582 -0.0063989037 -0.09449075
0.06362895 0.0767185 0.14186193 0.043410644 -0.114846714 0.07042213 -0.045031607 -0.02946502
0.086532615 -0.105218455 -0.06469498 -0.036014058 -0.0101352865 0.007743951 0.07444471 -0.03200719
-0.04501295 0.08920109 -0.02270061 -0.11783775 0.014195625 0.030603116 -0.15462606 0.07297754

lstm.bias_ih_l1 f4 [200]
00000000: bd3b 083e 7a28 a3bd e2b5 143e 163e 2dbd
00000010: 2526 80bc 42af c8bd 4c74 c33d 47d0 273b
00000020: cf61 65bd 8502 acbd 04c1 dc3d 28f1 433c
00000030: 4ef1 16be 7c34 243d fd01 9e3c 0364 063d
00000040: 3314 a6bd ebe2 f8bc 8fea d93d a146 863d
00000050: f619 0d3e 78ae a63d ee6c 4dbd 801d edbd
00000060: ba0c 0c3d 80f6 dcbd d2ef d9bd 96ff f5bd
00000070: f17e 22bc 635a 123d afe9 9a3d 51bf 213c
00000080: 0215 103d 0750 51bd 30fa 31bd f2cc 41bd
00000090: d67a 173e 1e30 833d 913f 9cbd fcd8 99bd
000000a0: 2646 abba 5390 49bd 5621 ddbd 5a1e d2bd
000000b0: 74d2 1a3e e3e5 723d 3b12 553d c780 923c
000000c0: 66ed ba3d b04a e2bc 0a73 e0bd a5f2 7c3d
000000d0: 4380 6fbb a6fd 913d b61d f53d 3d86 84bd
000000e0: 1f16 dabc 0c50 f63d ff40 05be 16ab b5bc
000000f0: ced3 f2bd 26a9 933d 0391 b23d e454 c63d
00000100: 79b6 a63c c57e 003e 91ff d1bd a661 8a3b
00000110: 79fd 033e 3f65 3fbd b727 e9bc 174b fc3d
00000120: 863d 4d3d da49 a8bd 4825 dbbd 5af5 0eb9
00000130: a782 70bd 7526 d6bb 5004 003e 29dd bebd
00000140: d6e7 983d 4d46 b9bc d5a6 c7bd a07e 21bd
00000150: 7a07 61bd bc72 cdbd 732b ccbd e873 cfbc
00000160: a004 94bc d986 5c3d 5261 e93d d313 8c3c
00000170: 07d2 1d3d 9173 96bd 40cd 02bd ce14 76bc
00000180: 8f0b 24bd cfef 9f3d fc3c 49bc 3781 96bc
00000190: 1d6b cfbc 980a ddbd f81d 333b b516 f4bd
000001a0: 9865 09be d63b 283d 0332 5e3d 2fca 093e
000001b0: 75cf f9bd bea3 d3bd bd6d 94bd cbf5 ee3d
000001c0: 8d74 04bb 1142 523d 74e2 92bd 9929 bd3d
000001d0: 1cbb a33d 5c52 5a3d 2e37 ee3c f2d5 83bd
000001e0: 2f81 e23c 6f88 c83c e639 9a3d bdbd acbd
000001f0: c16e d53d 6b7c 0c3e 4cf2 463d b088 4bbd
00000200: 4424 d8bc e728 d83d a1ca 11bd 3f2e 52bd
00000210: 6b8d 893d 8fb5 10be 9838 f53c acd6 95bd
00000220: 99a3 08bd 1c4b 963b 89b9 9f3b 1ef0 153d
00000230: 81dd 003d 8f3d 943d 5e9c c63d dc2c d6ba
00000240: ed44 043d 3924 a9bd a455 99bd 03f8 acbd
00000250: 09dc b73b 207f a13d 5bbe e13d 07d2 e7bc
00000260: 1f7b f0bd dfb2 f0bd 490d d93d 06b3 dd3b
00000270: ef38 253d 8028 e4bd 9467 6bbb eeb9 f1bd
00000280: 09af eb3d 3eaf 083d d4ec 763d c257 013e
00000290: b485 183e fcc5 c93d 3083 e93d 1a5a 103c
000002a0: b516 76bc 9f5d dabd 6fce 69bd 9b67 febc
000002b0: 8271 8d3c 5f83 b5bd c96e 3cbc 48ee 9f3c
000002c0: 2a58 e33d df01 bf3d 33a5 df3d f29c c2bd
000002d0: f417 bf3d 318f eebc dc63 d63d 4366 aa3d
000002e0: 16d3 9c3d 0328 f03d d3d6 c6bd 4b86 e73d
000002f0: ac24 143e 5912 d13d f11a eb3d 8ffa e4ba
00000300: 1e1a 7fbd 1038 6d3c af76 34bd e6c4 1e3e
00000310: 6f49 ef3d 848e c83d c746 5e3e 876a 79bc
0.13304038 -0.07966705 0.14522508 -0.042295538 -0.015643189 -0.09799053 0.09543666 0.002560632
-0.05600148 -0.08398918 0.10779002 0.011959352 -0.14740488 0.040089116 0.019288057 0.032810222
-0.081093214 -0.03038164 0.106404416 0.0655644 0.13779435 0.08138746 -0.05015271 -0.11577892
0.034191824 -0.10789204 -0.10641445 -0.1201164 -0.0099179605 0.03573073 0.07564103 0.009872274
0.035176285 -0.05110171 -0.043451488 -0.04731459 0.14792952 0.06405662 -0.07629312 -0.075120896
-0.001306717 -0.049209904 -0.10797374 -0.10259695 0.15119344 0.05930127 0.05201934 0.017883671
0.091273114 -0.027623504 -0.10959442 0.06175484 -0.0036544956 0.07128458 0.119685575 -0.064709164
-0.026621876 0.120269865 -0.13013075 -0.022176307 -0.11856805 0.07209997 0.08719065 0.0968416
0.020350682 0.12548359 -0.102538235 0.0042230664 0.12889661 -0.046727415 -0.02846132 0.1231901
0.0501075 -0.08217211 -0.1070047 -0.00013633576 -0.05871835 -0.006535346 0.12501645 -0.09319527
0.07466094 -0.02261653 -0.097486176 -0.0394274 -0.05493877 -0.100316495 -0.09969225 -0.025323823
-0.018068612 0.05383954 0.113955155 0.017099297 0.038530376 -0.07346261 -0.031934023 -0.015019609
-0.040050086 0.07809412 -0.012282606 -0.018372161 -0.02531963 -0.10793036 0.0027331095 -0.119183935
-0.13417661 0.04107269 0.054246914 0.13456033 -0.121977724 -0.10333966 -0.072474934 0.11667975
-0.0020211071 0.051332537 -0.07172099 0.0923645 0.07994673 0.0533012 0.029079046 -0.06437291
0.02764949 0.02447912 0.075305745 -0.08434627 0.10421515 0.13719337 0.048570916 -0.049690902
-0.02638448 0.105546765 -0.035593633 -0.051313635 0.067164265 -0.14131759 0.029934213 -0.07316336
-0.033359144 0.0045865905 0.0048744124 0.036605947 0.031461243 0.07238304 0.096977934 -0.0016340273
0.032292295 -0.08258862 -0.07487038 -0.08445742 0.005610947 0.07885575 0.110226355 -0.028298391
-0.117422335 -0.11752867 0.10598237 0.006765726 0.0403375 -0.11140537 -0.0035919892 -0.118030414
0.11507995 0.03337025 0.06028445 0.12631133 0.14894754 0.09852216 0.11401975 0.008810544
-0.015020062 -0.10662388 -0.057081636 -0.031055262 0.017266039 -0.08862948 -0.011501023 0.019522801
0.111008 0.09326529 0.10920181 -0.09502591 0.093307406 -0.029121013 0.104682654 0.08320286
0.07657449 0.11726382 -0.09708943 0.11304911 0.14467114 0.10208578 0.11479748 -0.0017469692
-0.062280767 0.014478698 -0.044058498 0.15504798 0.11683928 0.09792808 0.21706687 -0.015223152

lstm.bias_hh_l1 f4 [200]
00000000: 78a7 99bd 3b38 e73c eae9 eebd 275b 19bc
00000010: 2a47 5b3d 403c 443d 73ae d03b 18a5 bfbb
00000020: a500 933d a7d8 69bd c2cc f03d 7188 f23d
00000030: 8417 a03c f974 023e c966 e4bd 2d31 23bd
00000040: 5480 8cbd de06 143d 2d87 21bc ab61 3d3d
00000050: 870b bd3d 8ab4 9e3d ac9c 25be 4e8f 003e
00000060: 954c f53d 81d7 dfbc a2b6 cfbd ceda 8a3c
00000070: 4926 253e 724a d9bd 2d61 2c3d 9d3b 983d
00000080: b251 58bc 12a4 003e b1c1 e13d c41e 73bd
00000090: 2db5 1abd 05b9 cfbc d217 0c3e 027c 253d
000000a0: bccf 76bd ebfa 6dbd 163c f33d d855 95bd
000000b0: 26cf c53d f57e 173e 27c9 3cbc 4ae2 b6bd
000000c0: da7f 273d f1ab c0bd 648e b43c b69c ecbd
000000d0: 79dc 1c3d d53b 2c3d 37ec 50bd 605c c53d
000000e0: b0de 833d 248a a8bd 5ce2 06be f10a 923d
000000f0: 049e debc b720 25be 0137 f8bb d4ce d23d
00000100: fb9d 47bc 11f7 8f3d 0118 debd 44c9 7f3d
00000110: 2f1f 91bd b277 ccbd fcb4 033d e3bf cfbd
00000120: 623a 893d c4c6 953d 7021 efbd a403 64bd
00000130: 221c 54bd 0f7d 8038 74e2 6e3d 4497 1d3c
00000140: b22a af3d a6d4 47bd 023c c9bc d0e2 a6bd
00000150: 9390 dc3d 1efb 84bd fd46 13bc 4cbd 11bd
00000160: 7871 623d 7d34 adbd 9874 e4bd 111b 023e
00000170: c35d 3b3d 5de1 02be edf8 b03d acc8 823c
00000180: d85a 8a3d 1c3e 913d 06d3 9ebd ab30 99bc
00000190: 864d ecbd a260 963d 7134 5cbd 76e1 6abd
000001a0: d43c 14be 26e0 413d b6c5 183e 3b35 bcbc
000001b0: 263f 78bb aa3e c63b e04a d0bd a4f5 a73d
000001c0: c5be 8b3d 2290 0c3b fd0d 12be ba05 693c
000001d0: 18a2 e23d 9bf3 933d 26fa bb3b 60d5 e9bd
000001e0: 6f2d c6bd f169 53bd 1e36 b4bd d72d bf3d
000001f0: 04b4 693d 8743 11bb ca72 0f3e 38fa adbd
00000200: de71 8c3d 01bb 80bd c443 87bc f73b b7bd
00000210: 8e69 e3bd a644 043e a3c5 0e3e 1650 82bd
00000220: a4ff 083a fcad 8c3d 270b 553d 714f f2bd
00000230: 4d31 513d 9ca6 ea3d b9f6 393c 2f22 4fbd
00000240: 0b86 183e 5a64 a23d f518 083e 5ded da3d
00000250: d9e5 e0bd c603 91bd 4d98 abbc 8053 c6bd
00000260: 471a 9d3a 96d1 debd cebb 6cbd ceec 8dbb
00000270: 3845 973d 69b1 a4bd 521b ebbc 0405 aebd
00000280: 42fb 36bd cc94 463c 1245 80bd 93a6 d53d
00000290: b1cb a33d 2996 6e3d a756 1ebc 26dd 983d
000002a0: 0f47 82bd 30f5 14bc ce5a 113e ea9d b63d
000002b0: 0615 abbd 2fed aebd 33cc a4bd 23d3 473d
000002c0: 2a84 053d 4241 88bc 5920 bd3d 34ca 9c3d
000002d0: 54fa 853d e51f 373c 6ffc c33c 4695 103e
000002e0: 3b65 0c3e ab13 a8bd a1da cb3d 7247 8a3d
000002f0: c207 06be 5309 a7bd a10a e9bd 37d4 cc3d
00000300: 0cb5 033c f130 cd3d 5046 e0bd 945f 063e
00000310: a5da d7bd 6ab5 653d df4d 103e 293a cc3d
-0.07502645 0.028225055 -0.11665709 -0.009360111 0.053534664 0.04790902 0.006368452 -0.005848538
0.07177857 -0.05709138 0.117578045 0.118424304 0.019542463 0.12739934 -0.11152417 -0.03984182
-0.06860414 0.03613936 -0.009858889 0.04623572 0.09230714 0.07749279 -0.16173047 0.12554666
0.119774975 -0.02732444 -0.10142256 0.016950037 0.16127886 -0.106099024 0.04208486 0.07433245
-0.013203071 0.12562588 0.11023272 -0.059355512 -0.03777044 -0.025356779 0.13680962 0.040401466
-0.060256705 -0.058100622 0.11876695 -0.07291764 0.09658651 0.14794524 -0.011522568 -0.0892988
0.040893413 -0.09407795 0.022040553 -0.11553328 0.038296197 0.042049248 -0.051006522 0.0963676
0.06438959 -0.08229473 -0.13172287 0.07130993 -0.027174957 -0.16125761 -0.0075749164 0.102933556
-0.012183662 0.07029546 -0.10844422 0.0624478 -0.07086026 -0.099837676 0.032155022 -0.10144021
0.06700589 0.07313302 -0.116762996 -0.055667534 -0.051784642 6.1268096e-05 0.05832143 0.009618584
0.08553065 -0.04878678 -0.024564747 -0.0814873 0.10769763 -0.06493209 -0.008989093 -0.03558092
0.055283993 -0.08457277 -0.11155051 0.12705638 0.045743715 -0.12781282 0.08641229 0.015964828
0.06755608 0.070919245 -0.07755093 -0.018699965 -0.11538224 0.0734265 -0.05376095 -0.057343923
-0.14476329 0.047332905 0.1491917 -0.022974601 -0.0037879436 0.0060499506 -0.10170531 0.08201149
0.06823496 0.0021448215 -0.14263149 0.014222557 0.11066073 0.072241984 0.005736607 -0.11417651
-0.096766345 -0.051614705 -0.087993845 0.09334915 0.057056442 -0.0022165494 0.14008632 -0.08494991
0.06857656 -0.06285668 -0.016511805 -0.08946984 -0.11104117 0.12916812 0.1394258 -0.063629314
0.00052260817 0.068691224 0.05201259 -0.118315585 0.051072408 0.114575595 0.011350327 -0.05056971
0.14894883 0.07929297 0.1329077 0.10689805 -0.1098134 -0.07080798 -0.020946646 -0.09683895
0.0011985981 -0.10879819 -0.057796292 -0.004331208 0.07386249 -0.08041651 -0.02869955 -0.084970504
-0.044673212 0.012120437 -0.06263174 0.10432162 0.079978354 0.058248673 -0.009664214 0.07464056
-0.063612096 -0.00909166 0.14194795 0.089168385 -0.08353619 -0.08541333 -0.080467604 0.04878534
0.032596745 -0.01663268 0.092346855 0.07655755 0.06541887 0.011177038 0.02392408 0.14119443
0.13710491 -0.08206876 0.099538095 0.06751908 -0.13088897 -0.08156075 -0.113789804 0.10001414
0.00803877 0.100191005 -0.10950911 0.13122398 -0.1053975 0.056081213 0.14092205 0.09972031

fc.weight f4 [1, 50]
00000000: 4711 1b3d 81af a9bd 0c47 09be 1e87 a3bd
00000010: 6dda fcbd 6a8b a63d 3e9e db3d 2f98 863c
00000020: aac9 053e c9bb 383d ce9b 16be 695b 3bbb
00000030: 35d3 1ebc 998b acbd faab 4dbd 7378 123e
00000040: 91df 1fbe 055f c5bd 7a2e b0bd f7b0 0abe
00000050: 9c3a a0bd 2685 243d aa2e 0bbd bf0c bf3d
00000060: 6232 ef3c 0528 e83d 0bff a43d 1427 38bd
00000070: a90f c8bd 62ee bcbd 60bd 78bd a288 b6bd
00000080: 5fbc 03be 673b 0fbe 8382 b13d 82dd 523d
00000090: d971 e5bd 2614 ddbd 2224 84bd f9df 17be
000000a0: 5630 45bc 51ab ea3d c125 73bd b652 85bd
000000b0: 1af0 893d f2db 0bbe f080 863d e3de fabd
000000c0: ea77 47be 8afa 07bd
0.037858274 -0.08285428 -0.13406008 -0.07984756 -0.12346349 0.0813206 0.10723542 0.016429989
0.1306521 0.04510096 -0.14707872 -0.002858842 -0.00969391 -0.08425064 -0.050212838 0.1430376
-0.15612628 -0.09637264 -0.08602615 -0.13544069 -0.07823679 0.040166043 -0.03398005 0.09328603
0.02919883 0.11335758 0.08056458 -0.044959143 -0.09768612 -0.092251554 -0.060727477 -0.089127794
-0.12864827 -0.13987504 0.08667471 0.051480778 -0.11203355 -0.10794859 -0.06452204 -0.14831533
-0.01203545 0.11458457 -0.059362177 -0.065099165 0.06735249 -0.13658121 0.065675616 -0.122495435
-0.19479337 -0.033197917
