models/lstm_model_1h.pt (torch, 127756 bytes, 9 tensors)

lstm.weight_ih_l0 f4 [200, 1]
-0.02203132 0.02164283 -0.033290762 -0.046452235 -0.03047743 0.013499614 -0.017173119 0.019934498
0.11039659 0.09997719 0.103835635 0.1076929 0.16403775 0.008620423 -0.09117251 0.11546973
-0.006623122 0.15268478 0.00033744972 0.18283817 0.06726191 -0.07383691 -0.016228553 0.14580981
-0.1089063 0.053127646 0.19662671 -0.075828694 -0.04832725 0.12434333 -0.051465243 0.10214383
-0.1198172 -0.048208784 -0.18801352 0.00096756837 0.16356021 0.06532526 0.008103054 -0.03514797
0.011382971 0.15062203 0.132604 -0.0746993 -0.007729688 -0.010754093 -0.0936641 0.044213228
-0.10942528 0.096837185 0.09462366 0.16552646 0.16848387 -0.041151952 0.0019255816 -0.19581522
-0.04074309 0.0923179 0.050522007 0.12693141 -0.14816897 0.0399394 0.063742585 0.10078241
-0.11936388 0.13244863 0.1449241 -0.07086369 0.066027194 0.19358392 0.06054396 0.098757505
0.17845231 0.038575064 0.15253022 -0.090239175 0.14495361 0.06551294 -0.118419066 -0.12769763
0.055195943 0.19719566 -0.04252263 -0.03922677 -0.14157043 0.08627705 0.0024894471 0.07931947
0.16500777 0.0053343424 -0.12463337 0.014061382 -0.05154799 0.0037093456 -0.037418216 0.22044827
-0.08143601 0.09524119 -0.14644884 0.04924805 0.17875648 0.13405937 -0.100429 0.05190652
0.15105061 0.14278604 -0.033287648 -0.116438046 -0.0042008483 -0.21387672 0.097660355 0.12729158
-0.060561366 0.16503507 0.0030431112 0.06333281 -0.19121522 -0.20874669 -0.13732478 -0.07305514
0.10179227 -0.18231441 -0.11044282 -0.01915656 -0.040363792 0.11172767 -0.18805134 -0.104418695
-0.16140626 0.17907085 0.1629837 0.16047448 -0.043599322 0.20825234 0.096266836 -0.1503831
-0.110057436 0.032679092 0.12929045 -0.13651864 -0.051643316 0.20177856 0.15282704 -0.14173232
-0.16925791 -0.1933359 -0.027029954 -0.024239099 -0.08427573 0.00033678184 0.20708318 0.032012448
0.03507676 0.115667626 0.14965685 0.111632444 -0.08550662 -0.027173901 0.041722197 0.0799081
0.0035363757 0.14052606 -0.05178937 0.17933244 0.03687079 0.016265433 0.098235786 -0.0056984797
-0.014936545 0.06900435 0.09551683 -0.08651944 0.10045843 0.018066501 0.030855987 -0.049409173
0.05715185 -0.029768895 -0.033158947 0.036049627 -0.15431297 0.033271387 -0.05507517 0.01233051
-0.21164253 0.13273893 0.13736653 0.07230623 0.17735675 0.10271912 -0.022787057 0.06627666
0.11735416 0.04949508 0.16538072 0.04048034 0.028467912 0.027808646 -0.054928362 -0.056714613
00000000: 077b b4bc 4e4c b13c e55b 08bd b344 3ebd
00000010: ceab f9bc 7c2d 5d3c a4ae 8cbc ac4d a33c
00000020: 9b17 e23d d7c0 cc3d c7a7 d43d 188e dc3d
00000030: 83f9 273e ad3c 0d3c a7b8 babd 657b ec3d
00000040: c606 d9bb 6659 1c3e bceb b039 ee39 3b3e
00000050: 9dc0 893d ce37 97bd bef1 84bc 2b4f 153e
00000060: 440a dfbd 609c 593d 8358 493e 134c 9bbd
00000070: cbf2 45bd b7a7 fe3d 38cd 52bd c930 d13d
00000080: b862 f5bd 9376 45bd 9e86 40be 6aa4 7d3a
00000090: 547c 273e 40c9 853d acc2 043c 51f7 0fbd
000000a0: a47f 3a3c a93c 1a3e 58c9 073e f2fb 98bd
000000b0: 5349 fdbb ef31 30bc f7d2 bfbd ee18 353d
000000c0: 5c1a e0bd 9352 c63d 0dca c13d c57f 293e
000000d0: 0987 2c3e f38e 28bd cc63 fc3a c983 48be
000000e0: 3ae2 26bd 2b11 bd3d 2af0 4e3d 4ffa 013e
000000f0: 9bb9 17be 7f97 233d 798b 823d 0267 ce3d
00000100: 0d75 f4bd 9da0 073e fc66 143e fb20 91bd
00000110: 4439 873d dd3a 463e f2fc 773d 6041 ca3d
00000120: 34bc 363e e300 1e3d e230 1c3e 51cf b8bd
00000130: b86e 143e a62b 863d b285 f2bd 2bc3 02be
00000140: 2415 623d a9ed 493e 362c 2ebd 40ac 20bd
00000150: d7f7 10be 06b2 b03d fe25 233b 3f72 a23d
00000160: ccf7 283e b5cb ae3b c83f ffbd b661 663c
00000170: fc23 53bd 7e18 733b d843 19bd 31bd 613e
00000180: ecc7 a6bd d00d c33d aff6 15be 53b8 493d
00000190: f00b 373e dc46 093e b8ad cdbd ee9b 543d
000001a0: 03ad 1a3e 8136 123e a158 08bd 1277 eebd
000001b0: 45a7 89bb 8002 5bbe 2702 c83d b958 023e
000001c0: 320f 78bd f4fe 283e ef6e 473b a2b4 813d
000001d0: eccd 43be b1c1 55be de9e 0cbe ef9d 95bd
000001e0: 7778 d03d a1b0 3abe d82f e2bd 38ee 9cbc
000001f0: 8154 25bd 7ad1 e43d 8890 40be 78d9 d5bd
00000200: af47 25be 595e 373e 33e5 263e 6c53 243e
00000210: 3495 32bd 1a40 553e 8c27 c53d 07fe 19be
00000220: cb65 e1bd 83da 053d b764 043e 8bcb 0bbe
00000230: f187 53bd 0a9f 4e3e b17e 1c3e 4722 11be
00000240: f251 2dbe d9f9 45be ec6d ddbc 1391 c6bc
00000250: c198 acbd 1892 b039 9d0d 543e 7c1f 033d
00000260: a6ac 0f3d 26e3 ec3d a53f 193e 8d9f e43d
00000270: 181e afbd cd9b debc e5e4 2a3d dca6 a33d
00000280: 8ac2 673b 10e6 0f3e 1721 54bd eca2 373e
00000290: d305 173d 163f 853c d82f c93d 50ba babb
000002a0: 69b8 74bc 2752 8d3d 549e c33d 1b31 b1bd
000002b0: 26bd cd3d 3300 943c b2c5 fc3c 4661 4abd
000002c0: 0f18 6a3d e6dd f3bc add1 07bd c6a8 133d
000002d0: 3804 1ebe 9447 083d 8096 61bd e805 4a3c
000002e0: d2b8 58be b7ec 073e d0a9 0c3e 4a15 943d
000002f0: 029d 353e 675e d23d ecab babc 0fbc 873d
00000300: 6157 f03d 5abb 4a3d 9059 293e b7ce 253d
00000310: 8a35 e93c f5ce e33c 90fc 60bd 954d 68bd

lstm.weight_hh_l0 f4 [200, 50]
-0.043070104 0.05293336 -0.0082124835 0.03550542 0.0070443493 -0.08905038 -0.11956073 0.09989453
0.0208847 0.060364075 -0.10533227 0.0403529 -0.0888354 0.16784354 -0.0060147876 -0.0021213193
0.026187079 -0.03287826 0.010997342 0.0068382486 -0.10647572 0.050938636 -0.06398015 -0.16179426
-0.032523587 -0.0969418 -0.062316492 0.09484012 0.020411968 0.042851295 -0.09036456 -0.0097469585
-0.12089741 -0.08695548 -0.28893378 -0.15559229 -0.0031721522 -0.019823514 0.14184014 0.02457786
-0.16440077 0.12902442 -0.056367144 -0.016649174 -0.06620881 0.042846106 0.03376915 0.057207365
0.06994448 -0.13134404 0.07291027 -0.06020923 -0.09769118 0.027384944 -0.00605443 -0.17909043
-0.0473452 0.13011852 -0.08711596 -0.16578187 0.056766845 -0.059384875 -0.015158512 0.057602465
-0.025738498 -0.013354193 -0.043347474 -0.07149391 -0.0022239515 0.10977839 0.066717215 0.14627934
-0.015234445 0.04695343 -0.029777952 0.14494276 -0.03976515 0.10376223 0.015014033 0.035398725
0.035675753 0.08741975 0.008803689 0.023757333 -0.12715867 0.090200305 -0.050619293 0.04867387
0.1258372 0.05188837 0.07651087 -0.018016549 -0.051953938 0.012048523 -0.06826389 0.10719471
0.02498575 -0.11027271 -0.04784261 0.081105456 0.023215793 0.15478623 -0.09847168 -0.11881743
-0.020870354 0.05566336 -0.108479895 0.08207438 -0.101029195 -0.03468875 -0.003454518 -0.08042308
0.020521779 0.0156477 -0.1398985 -0.036680162 -0.15166977 -0.1341819 0.11471911 -0.014140418
0.09361254 0.11172088 -0.023878828 0.04098315 -0.052975412 -0.038239084 -0.038666986 0.003739029
-0.09509239 0.14262198 0.013481825 0.16496223 -0.030880716 0.10010245 -0.14709157 -0.014075009
-0.07536818 -0.06710774 -0.101135254 0.0072905296 -0.092811346 -0.014995719 0.16865131 0.072929606
-0.08322795 -0.050680842 -0.01505504 0.064160734 -0.12796807 0.10779667 -0.065645024 -0.006720387
0.06819565 0.024620203 0.09110453 0.22091872 0.058929507 0.039906494 -0.10106018 -0.02436537
-0.001989935 -0.081739336 -0.03720418 -0.013213508 0.07955455 -0.112589106 0.055070043 -0.21293104
0.02429616 -0.01556775 -0.05547861 -0.15618713 0.031685945 -0.059684318 -0.053174064 -0.043532133
-0.02973086 -0.10272078 -0.041757975 -0.013222498 0.011278646 -0.0985678 0.074976034 0.13891868
-0.09392687 -0.035620663 -0.025630778 0.045808528 -0.025716843 0.12165516 -0.14107497 0.056791313
0.049226016 0.11649588 0.01271375 0.08885646 0.055972733 -0.056364585 0.059225168 -0.018911745
-0.026534826 -0.0893977 -0.112616315 -0.033167787 0.031800702 0.10676841 -0.06883009 0.089038186
-0.0035556795 -0.099283054 -0.094590075 -0.10519585 -0.073259756 0.13849866 0.0035718568 0.10134533
-0.033084672 -0.010545066 0.01766557 -0.15507416 -0.113057785 -0.03877302 0.0030690723 -0.14272709
-0.06384379 -0.08269 0.040482208 0.12053416 0.06839725 0.18435378 -0.09129195 -0.101356134
-0.0048404313 -0.09478422 -3.866975e-06 -0.14981169 -0.0879047 0.093735665 0.08807338 -0.14826319
-0.026933428 0.005294013 0.15748416 -0.069730096 -0.14819035 0.040736515 0.10485393 0.122852124
-0.11920068 -0.03690044 -0.1374637 -0.06952411 -0.13246448 -0.22295186 0.016031893 -0.07320503
00000000: 476a 30bd a7d0 583d a78d 06bc 226e 113d
00000010: 49d4 e63b 0c60 b6bd 42dc f4bd 8195 cc3d
00000020: 6416 ab3c 5240 773d 72b8 d7bd 1549 253d
00000030: 56ef b5bd 2ddf 2b3e b217 c5bb d505 0bbb
00000040: 4986 d63c 5bab 06bd 322e 343c 6313 e03b
00000050: f10f dabd 08a5 503d 0608 83bd 65ad 25be
00000060: 7437 05bd 6c89 c6bd 943f 7fbd 893b c23d
00000070: 0037 a73c d784 2f3d 0e11 b9bd b5b1 1fbc
00000080: 1099 f7bd b715 b2bd 21ef 93be 9653 1fbe
00000090: e2e3 4fbb ec64 a2bc 8b3e 113e 8257 c93c
000000a0: ad58 28be fa1e 043e 3ce1 66bd d963 88bc
000000b0: 7c98 87bd 667f 2f3d 8551 0a3d 4552 6a3d
000000c0: 0d3f 8f3d 0d7f 06be fb51 953d f49d 76bd
000000d0: 5012 c8bd 6456 e03c 3d64 c6bb 7b63 37be
000000e0: 0aed 41bd ca3d 053e da69 b2bd b9c2 29be
000000f0: 5a84 683d 8e3d 73bd 685b 78bc 90f0 6b3d
00000100: 8bd9 d2bc 8ccb 5abc 1f8d 31bd 666b 92bd
00000110: b7bf 11bb 7ed3 e03d 09a3 883d 40ca 153e
00000120: e599 79bc 3d52 403d e4f0 f3bc e06b 143e
00000130: c8e0 22bd 4b81 d43d 6bfd 753c 41fe 103d
00000140: bd20 123d 2009 b33d 593d 103c bd9e c23c
00000150: e235 02be f0ba b83d 2d56 4fbd 405e 473d
00000160: 78db 003e e688 543d bbb1 9c3d 7197 93bc
00000170: a7cd 54bd 2b67 453c f0cd 8bbd e688 db3d
00000180: eaae cc3c a9d6 e1bd 9df6 43bd 9e1a a63d
00000190: 0c2f be3c 4880 1e3e 85ab c9bd 8e56 f3bd
000001a0: 4ef8 aabc 43ff 633d b52a debd 9d16 a83d
000001b0: 65e8 cebd ca15 0ebd 3265 62bb dbb4 a4bd
000001c0: 4a1d a83c 9b2f 803c 8d41 0fbe f03d 16bd
000001d0: 524f 1bbe fb66 09be daf1 ea3d 36ad 67bc
000001e0: eeb7 bf3d ebcd e43d 889d c3bc f3dd 273d
000001f0: bffc 58bd 96a0 1cbd 4661 1ebd 7f0a 753b
00000200: cdbf c2bd 7f0b 123e dfe2 5c3c dceb 283e
00000210: 8ef9 fcbc 8302 cd3d 2c9f 16be de9a 66bc
00000220: a25a 9abd c86f 89bd 0020 cfbd 65e5 ee3b
00000230: e013 bebd 9bb0 75bc eeb2 2c3e 1e5c 953d
00000240: 6a73 aabd b796 4fbd 6aa9 76bc b466 833d
00000250: 100a 03be 80c4 dc3d e670 86bd b136 dcbb
00000260: 29aa 8b3d 4fb0 c93c 0395 ba3d 8438 623e
00000270: 1160 713d fe74 233d a4f8 cebd e299 c7bc
00000280: 9269 02bb f466 a7bd 6963 18bd 787d 58bc
00000290: 7fed a23d 1e95 e6bd 2091 613d 980a 5abe
000002a0: be08 c73c e00f 7fbc 8a3d 63bd 85ef 1fbe
000002b0: 1fc9 013d 8b77 74bd 0ccd 59bd c04e 32bd
000002c0: 228e f3bc 465f d2bd 690a 2bbd 2da3 58bc
000002d0: 12ca 383c eadd c9bd 098d 993d b340 0e3e
000002e0: bb5c c0bd f9e6 11bd a3f7 d1bc b9a1 3b3d
000002f0: 21ac d2bc 5726 f93d f575 10be 029e 683d
00000300: 38a1 493d 6495 ee3d 554d 503c 60fa b53d
00000310: aa43 653d 8dde 66bd 1796 723d ceec 9abc
00000320: 905f d9bc 2416 b7bd 62a3 e6bd f2da 07bd
00000330: 7441 023d 65a9 da3d caf6 8cbd a759 b63d
00000340: 6706 69bb ea54 cbbd 71b8 c1bd ec70 d7bd
00000350: 3609 96bd 98d2 0d3e d015 6a3b 248e cf3d
00000360: cb83 07bd 36c5 2cbc 63b7 903c c3cb 1ebe
00000370: d78a e7bd 75d0 1ebd 7d22 493b 0d27 12be
00000380: 88c0 82bd 6059 a9bd acd0 253d 9dda f63d
00000390: db13 8c3d 3dc7 3c3e 46f7 babd ce93 cfbd
000003a0: 7b9c 9ebb 3b1e c2bd 10c1 81b6 3c68 19be
000003b0: 6107 b4bd 7cf8 bf3d d15f b43d 4ed2 17be
000003c0: 7ea3 dcbc 6679 ad3b 8743 213e a7ce 8ebd
000003d0: 36bf 17be 55db 263d a8bd d63d e599 fb3d
000003e0: 7c1f f4bd ea24 17bd 49c3 0cbe a862 8ebd
000003f0: c5a4 07be 7e4d 64be 5155 833c 85ec 95bd

lstm.bias_ih_l0 f4 [200]
0.17705354 -0.059121702 -0.070671 0.094688 0.01003865 0.12656945 0.075776264 0.039612915
0.09356135 -0.07411781 0.074735455 0.11275703 0.09918568 -0.08497164 0.04316754 -0.018273821
-0.11567766 0.08519916 0.033312432 0.08683304 0.14969656 0.25700763 0.12691355 0.016771756
-0.025159495 0.17484185 -0.0013558612 0.06776682 -0.057492826 0.20094982 -0.047947522 -0.08811526
-0.09304856 0.015393607 0.04130761 -0.029689182 0.009731942 0.062275194 0.12916042 -0.01812303
-0.062919445 0.13499182 -0.063665986 -0.0898093 0.13027516 0.06428913 -0.021709744 -0.11467007
-0.030072946 0.0859077 -0.01727091 0.08468173 -0.02691576 -0.05776522 0.12832895 0.12019005
0.050880548 0.05893038 0.01882674 0.07916383 -0.10075797 0.14403276 0.07127859 0.023662986
-0.1157373 0.0734 0.04542794 0.04955698 0.10386911 0.04127161 -0.0900412 -0.017013067
0.048533406 -0.09515028 0.11335597 0.046869613 -0.11205487 -0.02629638 0.042782623 0.0723829
-0.15031467 -0.022440402 -0.02210702 -0.05047657 0.057573833 0.1514659 0.04016257 0.13642047
-0.030867185 -0.1217769 -0.08630077 0.06698775 -0.081299946 -0.086080894 0.076025456 0.002281394
-0.09732968 0.020964073 0.020106021 -0.07249493 0.0322517 0.040658537 -0.00042714033 -0.13737582
0.1378145 -0.004492069 -0.049832594 -0.10745057 0.053710274 0.009494278 -0.06310144 0.048854437
0.019227447 -0.061959244 -0.0500014 -0.011780126 -0.053775724 0.17118827 0.10433457 -0.029526256
0.111287445 0.05409777 0.048097726 -0.03954927 0.11744318 -0.10392806 -0.05470482 -0.099582165
0.041034263 -0.037605133 -0.0071065584 0.13550854 -0.05467374 0.010048502 -0.12482476 -0.13064133
-0.03758812 -0.08170528 0.04638507 -0.0957635 -0.12025258 0.029373562 0.043847132 -0.091480024
0.03565838 0.019669283 -0.08580672 -0.0039899917 0.124333136 -0.12933445 0.14061463 -0.03388846
0.16740568 -0.1033613 -0.06337231 0.20767377 0.09873668 0.05596144 -0.06668811 0.093455255
-0.14553294 0.091989 0.10017763 -0.10021241 -0.14862652 -0.058085985 0.10479164 0.26289424
-0.06430675 -0.0012762331 0.079328164 0.21780741 0.107412316 0.0596943 -0.1260698 0.076301485
0.13458556 0.044454675 -0.056412682 -0.027160045 -0.041637376 0.03766811 -0.10341185 0.14572224
0.13571672 -0.052038774 -0.06236087 -0.1374759 0.14055218 0.022752587 -0.030641895 0.09121269
0.12656368 0.0035948507 -0.069294974 0.0738756 -0.023744464 -0.069640644 0.08566021 -0.02349396
00000000: 864d 353e 9929 72bd f5bb 90bd c8eb c13d
00000010: 2679 243c 6c9b 013e 9630 9b3d 2741 223d
00000020: 189d bf3d 14cb 97bd e70e 993d 28ed e63d
00000030: dd21 cb3d 9c05 aebd 72d0 303d fbb2 95bc
00000040: 69e8 ecbd e67c ae3d 9e72 083d 85d5 b13d
00000050: 0e4a 193e 8196 833e a0f5 013e ec64 893c
00000060: 491b cebc be09 333e 27b7 b1ba 55c9 8a3d
00000070: 997d 6bbd cac5 4d3e 9f64 44bd c675 b4bd
00000080: 3e90 bebd 7835 7c3c 2b32 293d ba36 f3bc
00000090: b972 1f3c 4614 7f3d a142 043e c076 94bc
000000a0: e9db 80bd 4c3b 0a3e 5063 82bd f0ed b7bd
000000b0: da66 053e 05aa 833d a2d8 b1bc 24d8 eabd
000000c0: 8a5b f6bc 60f0 af3d b97b 8dbc 9d6d ad3d
000000d0: 717e dcbc 399b 6cbd aa68 033e 3326 f63d
000000e0: 1f68 503d fb60 713d 893a 9a3c a520 a23d
000000f0: 325a cebd 537d 133e 82fa 913d e1d8 c13c
00000100: ad07 edbd bd52 963d a612 3a3d 43fc 4a3d
00000110: 54b9 d43d 6b0c 293d 8567 b8bd fd5e 8bbc
00000120: f7ca 463d 26de c2bd 2d27 e83d 5afa 3f3d
00000130: 067d e5bd 826b d7bc d53c 2f3d 7c3d 943d
00000140: 17ec 19be efd4 b7bc c819 b5bc 85c0 4ebd
00000150: 8ad2 6b3d e019 1b3e 8281 243d cfb1 0b3e
00000160: 2edd fcbc 2b66 f9bd 75be b0bd e030 893d
00000170: 9680 a6bd 2e4b b0bd 3cb3 9b3d 7183 153b
00000180: c954 c7bd d9bc ab3c 62b5 a43c 3978 94bd
00000190: 5c1a 043d 9189 263d cef1 dfb9 3fac 0cbe
000001a0: 3f1f 0d3e 3532 93bb 431d 4cbd 0b0f dcbd
000001b0: 4eff 5b3d e38d 1b3c 543b 81bd 971b 483d
000001c0: e182 9d3c fac8 7dbd 45ce 4cbd 6e01 41bc
000001d0: ef43 5cbd fa4b 2f3e 5dad d53d 0ce1 f1bc
000001e0: acea e33d a095 5d3d 1f02 453d 6afe 21bd
000001f0: 0d86 f03d 3cd8 d4bd 2912 60bd bcf1 cbbd
00000200: 8b13 283d d707 1abd 22de e8bb c0c2 0a3e
00000210: 92f1 5fbd 79a2 243c 20a4 ffbd d7c6 05be
00000220: 00f6 19bd 1955 a7bd 45fe 3d3d a71f c4bd
00000230: fc46 f6bd d3a0 f03c 0d99 333d e159 bbbd
00000240: 850e 123d 7a21 a13c 6fbb afbd 7abe 82bb
00000250: 5fa2 fe3d 4070 04be 48fd 0f3e a0ce 0abd
00000260: 656c 2b3e 17af d3bd 57c9 81bd 6fa8 543e
00000270: 7536 ca3d d337 653d c793 88bd 7865 bf3d
00000280: 9606 15be bb64 bc3d ee29 cd3d 2a3c cdbd
00000290: 8d31 18be 92eb 6dbd 009d d63d 139a 863e
000002a0: 42b3 83bd 4747 a7ba ce76 a23d e808 5f3e
000002b0: fdfa db3d 0382 743d 7118 01be f443 9c3d
000002c0: ccd0 093e 1b16 363d fc10 67bd be7e debc
000002d0: f48b 2abd e049 1a3d 98c9 d3bd 3638 153e
000002e0: 53f9 0a3e 9c26 55bd 1d6e 7fbd 7bc6 0cbe
000002f0: e9ec 0f3e a263 ba3c b604 fbbc b8cd ba3d
00000300: e999 013e 9697 6b3b 86ea 8dbd 174c 973d
00000310: c083 c2bc c19f 8ebd 9f6e af3d 6876 c0bc

lstm.bias_hh_l0 f4 [200]
0.0317366 0.07477509 -0.010819648 0.0838594 -0.01860828 0.18528196 -0.057253752 -0.04589455
-0.13755779 0.111231685 -0.069726735 -0.042882804 0.13912839 0.1241387 0.071525015 0.08293889
-0.10208718 0.06022106 -0.044997714 -0.030060468 0.014300203 0.20457284 0.1556473 0.11446767
0.0077286414 0.07532591 0.12769859 -0.07266669 -0.07032103 0.10878166 -0.09472134 -0.062397342
0.06795636 0.13299799 0.095874675 -0.074714474 0.13100989 -0.12034483 0.12995921 0.09035183
0.13223226 0.006496874 0.037346918 -0.01959914 0.124535784 -0.054756645 0.10955542 0.14127876
0.06571827 -0.0012731085 -0.09241558 -0.03081656 -0.07013512 0.124836676 -0.013647371 0.109984554
0.014076574 0.088216834 -0.05383491 0.060586434 0.07581645 0.03789587 0.1273362 0.12268163
-0.114291765 -0.09485951 0.119739674 0.05825423 0.033547305 0.09090299 -0.035067484 -0.07303739
0.069237724 -0.108382806 -0.10524272 0.0033871906 0.043291938 -0.092378974 0.10945473 0.033026017
0.06674586 -0.04476674 -0.08851368 0.0875177 -0.005667592 -0.07831454 0.009072627 0.07173214
-0.04962261 -0.11185997 -0.04026049 0.004980273 -0.04817273 0.0031578061 -0.0058916775 -0.09923716
0.079856075 0.05404094 0.019709293 0.06814835 -0.09798185 0.018532317 -0.027568173 0.030736806
0.060700197 -0.04882453 0.005091725 0.11226755 0.011977028 0.054460008 -0.09885086 0.13157567
0.0931848 0.11297089 -0.10026049 0.01647819 -0.046922468 0.015035373 0.094314225 -0.13199
0.020523887 -0.011691679 -0.032109868 -0.11604197 -0.018488264 -0.04122622 0.03496601 -0.041243665
0.0025846444 0.023456043 -0.09542678 0.061873384 0.054020654 0.035276238 0.011148633 0.055906586
-0.13038565 -0.117216565 0.0488492 -0.023522565 -0.036886986 0.08239489 0.0059602764 -0.052310668
-0.12542419 -0.07257415 -0.02519462 -0.09287071 -0.0021458326 -0.10496767 0.14362139 -0.10651134
0.013774038 0.09746561 -0.04744388 0.21375202 0.1456218 -0.063980676 -0.026316391 0.013256376
0.10510159 0.05410841 -0.048658643 0.016670626 0.11233216 0.12085491 -0.044543374 0.23748502
0.07370393 -0.055853162 -0.023368102 0.25323185 0.12751415 0.019140227 -0.002135651 -0.04033497
-0.07857917 0.09299105 0.15706812 0.07756659 0.14989713 0.13692011 0.08074616 0.09441602
0.1306168 -0.104564585 0.038774163 0.048565242 -0.044997733 -0.00907215 0.025894253 -0.08992544
0.008489942 -0.022968907 0.14178811 0.01291624 0.09972046 0.092824176 -0.08840721 0.11635059
00000000: 3dfe 013d af23 993d e544 31bc 7abe ab3d
00000010: 6470 98bc 8eba 3d3e e982 6abd ecfb 3bbd
00000020: f3db 0cbe 70cd e33d e4cc 8ebd e1a5 2fbd
00000030: ac77 0e3e 6e3c fe3d b57b 923d dddb a93d
00000040: 1513 d1bd 5caa 763d 864f 38bd 5f41 f6bc
00000050: 664b 6a3c 8b7b 513e 0162 1f3e 076e ea3d
00000060: 8b40 fd3b 7844 9a3d 6bc3 023e 46d2 94bd
00000070: 7904 90bd ebc8 de3d 43fd c1bd 5b94 7fbd
00000080: b42c 8b3d a030 083e f159 c43d e703 99bd
00000090: 7527 063e 5a77 f6bd 0714 053e 610a b93d
000000a0: e567 073e bbe3 d43b 15f9 183d 608e a0bc
000000b0: 9e0c ff3d 8148 60bd 985e e03d 61ab 103e
000000c0: 4d97 863d 6fde a6ba 6144 bdbd 0373 fcbc
000000d0: 00a3 8fbd 5faa ff3d 3999 5fbc 953f e13d
000000e0: 6ea1 663c 07ab b43d ff81 5cbd 7b29 783d
000000f0: a845 9b3d b338 1b3d 6c64 023e 8240 fb3d
00000100: cd11 eabd b445 c2bd 133a f53d fd9b 6e3d
00000110: e668 093d 592b ba3d eca2 0fbd a194 95bd
00000120: 82cc 8d3d cef7 ddbd 7f89 d7bd a1fb 5d3b
00000130: e352 313d 3031 bdbd cd29 e03d 4a46 073d
00000140: 0eb2 883d 545d 37bd a946 b5bd 7b3c b33d
00000150: 35b7 b9bb 6063 a0bd 5ba5 143c 4de8 923d
00000160: 1441 4bbd d716 e5bd 2fe8 24bd 8f31 a33b
00000170: c550 45bd 32f3 4e3b f90e c1bb da3c cbbd
00000180: 958b a33d 085a 5d3d 6275 a13c 5d91 8b3d
00000190: b5aa c8bd 16d1 973c a6d6 e1bc c1cb fb3c
000001a0: c5a0 783d 3bfc 47bd 7cd8 a63b 87ec e53d
000001b0: 4c3b 443c 7511 5f3d 5272 cabd c6bb 063e
000001c0: acd7 be3d 485d e73d 5f55 cdbd 45fd 863c
000001d0: c631 40bd ed56 763c d127 c13d 6328 07be
000001e0: b621 a83c 758e 3fbc a385 03bd 6aa7 edbd
000001f0: b374 97bc d3dc 28bd 8538 0f3d 1eef 28bd
00000200: 2363 293b e326 c03c 1e6f c3bd f26e 7d3d
00000210: c344 5d3d d17d 103d c2a8 363c 4efe 643d
00000220: d183 05be 3d0f f0bd 1916 483d 65b2 c0bc
00000230: cf16 17bd a7be a83d 6c4e c33b b643 56bd
00000240: 336f 00be c2a1 94bd f364 cebc 0033 bebd
00000250: 19a1 0cbb 4af9 d6bd 7c11 133e 9e22 dabd
00000260: 81ac 613c 0d9c c73d 8454 42bd cfe1 5a3e
00000270: e21d 153e 4d08 83bd 7995 d7bc 4531 593c
00000280: 813f d73d c8a0 5d3d 494e 47bd d690 883c
00000290: 670e e63d c782 f73d 1d73 36bd 462f 733e
000002a0: 16f2 963d 49c6 64bd 766e bfbc 9ba7 813e
000002b0: 1293 023e f7cb 9c3c 47f6 0bbb 4836 25bd
000002c0: 1eee a0bd 1772 be3d 77d6 203e 3bdb 9e3d
000002d0: a27e 193e c934 0c3e 3e5e a53d 305d c13d
000002e0: 69c0 053e f525 d6bd a8d1 1e3d 59ec 463d
000002f0: 8b4f 38bd 5ba3 14bc 2f20 d43c d42a b8bd
00000300: 6619 0b3c 4a29 bcbc e730 113e a39e 533c
00000310: 3e3a cc3d 9a1a be3d d70e b5bd 3849 ee3d

lstm.weight_ih_l1 f4 [200, 50]
0.10405489 0.16184008 -0.108483955 -0.00062499277 0.08879828 -0.009051 -0.14122428 -0.07529006
0.04584722 -0.10033933 -0.10399607 0.16758224 -0.07687077 0.0844732 -0.0578655 0.067795545
-0.06851443 0.03537627 0.07423165 -0.11497198 0.046766926 -0.09079749 -0.057297524 0.058981426
0.06809569 -0.12331068 -0.074926555 0.08808901 -0.089026645 0.07489986 -0.042395566 -0.001631875
-0.1283326 0.1438122 -0.34404603 -0.13341898 0.03949842 -0.17948647 0.16938262 -0.15200414
-0.029326098 0.13992763 0.06135423 -0.04870604 -0.10956476 0.06573593 -0.06997493 -0.1583909
-0.12313532 -0.04454732 0.101664744 -0.08035069 0.052638948 0.04729991 0.02368858 -0.11442483
0.011853165 0.14050737 -0.03261184 -0.027352624 -0.036435463 0.10980585 -0.08280314 0.005739252
0.12306089 0.09892773 -0.11453899 0.08865969 -0.018500792 0.020134358 -0.14131133 -0.07137106
0.12568338 -0.009494289 -0.13294679 0.1373912 -0.11873967 0.1318821 0.042430993 0.06232734
-0.012638151 -0.084554575 0.03175551 -0.08071238 0.042101935 0.05995289 0.015089924 0.031350147
0.026831592 0.0733252 0.050659537 -0.10262815 -0.04430897 -0.105662555 0.13942176 0.11495978
0.090188466 0.0014866677 0.07593946 -0.10166755 0.08792038 0.0070494334 -0.16247784 -0.011560998
-0.04680194 -0.05348157 -0.15173003 -0.09571895 0.0059121195 -0.077358365 -0.05308196 -0.077187814
-0.13361068 0.1585673 -0.037477132 0.0792911 -0.1324261 -0.18229567 0.1133419 -0.019722158
0.011831991 -0.14668417 -0.013070234 0.009991248 -0.13152169 -0.06863275 -0.017356943 -0.06831629
0.057372656 0.094161935 -0.07838285 -0.056819662 0.06144041 -0.034973532 -0.05998209 0.08565453
0.060687758 -0.13076538 0.0012938519 0.11064212 -0.101054914 0.015788367 0.094082855 -0.028150996
-0.15979052 -0.090890154 -0.042466387 0.06169972 0.10434459 0.011893341 -0.04858179 0.0361859
-0.023815125 0.07532375 0.16436231 0.1665137 0.074846976 -0.03400636 0.14911482 0.044988513
0.03814866 -0.008024792 -0.0016631443 -0.0054780245 0.017893476 0.15698498 -0.09977524 -0.08665517
-0.13578756 -0.054623574 -0.11350472 -0.24069087 -0.17017452 -0.044266954 -0.042197272 -0.09251604
0.09023382 0.09066422 -7.0995695e-05 0.04909124 0.044938702 0.08399976 -0.08897476 0.042499248
0.22709118 0.07163399 -0.13341677 -0.012487331 0.023197873 -0.163747 0.014935409 0.030917762
0.17370544 -0.023488598 -0.0030099782 -0.0413101 0.12549053 0.07229617 0.024246445 0.0211808
0.16569965 -0.04584672 -0.04934231 0.1309043 -0.08329954 0.14630277 0.06533026 -0.105771646
0.06984627 -0.007953435 0.088547096 0.1562076 -0.124039166 -0.058215566 -0.00027802828 0.11048669
-0.07880894 -0.26035488 0.050418857 0.11444356 -0.08810564 0.0012242285 -0.04499096 -0.098553166
-0.014826755 0.11410795 -0.15584119 -0.069436215 -0.01919437 0.17509773 0.122324966 0.048059843
0.023566155 0.040779665 0.15767646 -0.049064297 -0.074416965 -0.09838268 0.058509905 0.043007787
-0.10530193 0.019265391 -0.050837263 0.05031763 -0.10848515 0.06091683 0.10935313 0.117288336
-0.027487796 0.08648248 0.21237609 0.0022312633 0.06052241 -0.061848577 0.15930541 0.054031864
00000000: bb1a d53d 68b9 253e d62c debd 8ed6 23ba
00000010: dfdb b53d a54a 14bc 199d 10be ad31 9abd
00000020: 4bca 3b3d b57e cdbd e4fb d4bd ae9a 2b3e
00000030: 6c6e 9dbd 4900 ad3d 6004 6dbd 64d8 8a3d
00000040: 4b51 8cbd b5e6 103d c306 983d 6e76 ebbd
00000050: ad8e 3f3d 09f4 b9bd cfb0 6abd 8296 713d
00000060: c175 8b3d 4f8a fcbd 1873 99bd 0368 b43d
00000070: 9a53 b6bd 1965 993d f9a6 2dbd a4e4 d5ba
00000080: 9f69 03be 8143 133e cd26 b0be fc9e 08be
00000090: 18c9 213d 4dcb 37be a372 2d3e f9a6 1bbe
000000a0: 493d f0bc 3049 0f3e 934e 7b3d fc7f 47bd
000000b0: 7d63 e0bd 8fa0 863d 044f 8fbd 3931 22be
000000c0: 5f2e fcbd 4077 36bd 9b35 d03d e78e a4bd
000000d0: f09b 573d 8dbd 413d 8e0e c23c 9157 eabd
000000e0: c733 423c 2ae1 0f3e fe93 05bd 9c12 e0bc
000000f0: 5a3d 15bd e4e1 e03d b194 a9bd 5610 bc3b
00000100: 5907 fc3d 9f9a ca3d 6b93 eabd 3693 b53d
00000110: f98e 97bc cff0 a43c ebb3 10be fe2a 92bd
00000120: 25b3 003e ef8d 1bbc 3423 08be 47b0 0c3e
00000130: c92d f3bd 1a0c 073e 1fcc 2d3d f44a 7f3d
00000140: 3f10 4fbc f32a adbd 1112 023d 884c a5bd
00000150: 1473 2c3d 2991 753d bb3b 773c 0369 003d
00000160: edcd db3c 862b 963d 6080 4f3d b52e d2bd
00000170: 537d 35bd 9c65 d8bd 94c4 0e3e 0870 eb3d
00000180: bbb4 b83d 4adc c23a 2686 9b3d 1437 d0bd
00000190: 9a0f b43d effe e63b 9760 26be 576a 3dbc
000001a0: 64b3 3fbd 7e0f 5bbd 1e5f 1bbe 4c08 c4bd
000001b0: 74ba c13b 106e 9ebd 786c 59bd a514 9ebd
000001c0: 3dd1 08be 775f 223e 9f81 19bd 5f63 a23d
000001d0: b59a 07be b7ab 3abe cc1f e83d 5d90 a1bc
000001e0: f8da 413c 6034 16be 8924 56bc 55b2 233c
000001f0: 9fad 06be 548f 8cbd 2630 8ebc 69e9 8bbd
00000200: 97ff 6a3d f9d7 c03d 3087 a0bd bcbb 68bd
00000210: f0a8 7b3d 6840 0fbd c8af 75bd a46b af3d
00000220: ba93 783d 5ce7 05be 7796 a93a 5698 e23d
00000230: e1f5 cebd 9b56 813c 83ae c03d eb9c e6bc
00000240: 20a0 23be 9e24 babd 3cf1 2dbd d8b8 7c3d
00000250: 9eb2 d53d 4adc 423c b3fd 46bd ab37 143d
00000260: f017 c3bc 5743 9a3d 984e 283e 9182 2a3e
00000270: 5f49 993d 414a 0bbd 8eb1 183e e045 383d
00000280: c541 1c3d 6b7a 03bc ddfd d9ba 0081 b3bb
00000290: 5795 923c acc0 203e f656 ccbd 4478 b1bd
000002a0: e50b 0bbe f8bc 5fbd 2a75 e8bd ab77 76be
000002b0: 3b42 2ebe 4451 35bd 0cd7 2cbd 0d79 bdbd
000002c0: 82cc b83d 2aae b93d 86e3 94b8 e513 493d
000002d0: a511 383d 1108 ac3d 6638 b6bd b113 2e3d
000002e0: 978a 683e d7b4 923d 689e 08be aa97 4cbc
000002f0: 7709 be3c 4bad 27be a5b3 743c 3f47 fd3c
00000300: d7df 313e 296b c0bc 0e43 45bb c834 29bd
00000310: 9780 003e 0410 943d 7ba0 c63c 5b83 ad3c
00000320: 2bad 293e c5c9 3bbd 291b 4abd c70b 063e
00000330: f398 aabd 65d0 153e dfcb 853d ce9e d8bd
00000340: 900b 8f3d 204f 02bc 2e58 b53d e3f4 1f3e
00000350: 3f08 febd 7273 6ebd 53c4 91b9 d946 e23d
00000360: 9566 a1bd 3c4d 85be 0184 4e3d 6361 ea3d
00000370: bb70 b4bd 4b76 a03a 7148 38bd 3ed6 c9bd
00000380: ebeb 72bc 6eb1 e93d d594 1fbe 9334 8ebd
00000390: 833d 9dbc d24c 333e 8385 fa3d 66da 443d
000003a0: cf0d c13c 9408 273d f075 213e a5f7 48bd
000003b0: ec67 98bd dc7c c9bd 15a8 6f3d ef28 303d
000003c0: 8aa8 d7bd 74d2 9d3c bc3a 50bd dc19 4e3d
000003d0: 762d debd ed83 793d 89f4 df3d de34 f03d
000003e0: 162e e1bc ba1d b13d 1e79 593e 633a 123b
000003f0: 59e6 773d ef54 7dbd f520 233e 8450 5d3d

lstm.weight_hh_l1 f4 [200, 50]
-0.10077289 0.021912927 -0.15502599 0.1510871 0.17924689 0.15672305 0.10715391 -0.041826602
-0.15588398 -0.050831966 0.02751283 -0.02089792 0.04382821 -0.112542585 -0.07204278 -0.110000834
-0.079431 -0.126137 0.00954046 0.029155701 0.078021064 0.02580115 0.07245577 0.07678638
-0.07428217 -0.017260471 -0.13345885 0.010369365 -0.030788872 0.07567391 -0.07242822 0.045769703
-0.072440654 -0.11196441 -0.077165835 0.062218513 -0.030489942 0.119730435 -0.013741825 0.07413813
-0.0994753 -0.0016692766 0.03782015 0.09934766 0.08649949 -0.07649783 -0.17316593 0.08742949
-0.0419333 0.22387484 0.098379344 0.051817823 -0.012437232 0.07813336 0.08801475 -0.016171413
-0.066140264 -0.10185749 -0.07286917 0.019575557 0.12598516 0.06900024 -0.08072194 0.108502336
0.09100939 0.1057617 0.095902175 -0.07327397 -0.11287305 0.13341245 -0.12766983 0.0018619625
-0.10360592 0.12479084 -0.021455605 0.09457225 -0.035857126 0.043195784 0.06733991 0.03167176
0.011449941 -0.015819114 0.13030681 -0.098675795 0.10997353 0.034064535 0.058251757 -0.043572865
0.085166335 0.119863175 -0.115212575 -0.051136605 -0.017996186 -0.0033589331 0.030627169 0.036377933
0.038731936 0.070180826 -0.1236251 0.03056741 -0.07372408 -0.04190762 -0.14109252 0.1324498
-0.101496495 -0.074922815 -0.013492784 0.13412338 -0.03383442 0.08893772 -0.05412577 -0.05375379
-0.062134434 -0.0009747905 0.075702496 0.039940685 -0.07287271 0.026869431 -0.004571532 -0.059284862
-0.019693794 -0.112249546 -0.100534596 -0.076816015 -0.1271156 0.12732686 0.039271694 0.13917482
0.12706247 -0.057258517 0.050265335 -0.0030081568 0.06923107 -0.09248973 -0.10675452 0.074510984
-0.077718504 -0.12665878 0.04759302 -0.115456946 0.09419577 0.02079331 0.08966403 0.016107973
0.11301798 -0.1331211 0.019146081 0.085555166 0.121237196 -0.16125196 0.09309789 0.14604546
-0.026362702 0.03116129 0.01225647 0.00459002 0.073894285 0.1221498 0.123252735 -0.11674781
-0.1000866 -0.07932255 -0.14280863 0.04500375 -0.10019205 -0.054428484 -0.029265108 -0.039733075
-0.14571495 0.017729577 -0.09981806 0.0019239893 -0.030646179 -0.08123297 -0.06813364 0.16035664
0.15898779 -0.05453529 -0.11154694 0.11882942 -0.07614626 0.11026053 -0.14107078 0.1222146
-0.11069713 -0.0338452 0.0030810637 -0.1360804 -0.12282557 -0.07235237 0.03978446 -0.10010779
0.050496396 -0.005906303 0.10380306 -0.061983366 0.10065494 0.01529808 0.13408828 -0.14869878
-0.06279395 0.09595002 -0.07947762 -0.011413328 0.03865062 -0.112466395 0.07288779 0.051563032
0.14016698 -0.022474777 -0.10437849 -0.06261025 -0.11552025 -0.13149036 0.10086911 -0.099823356
-0.121698506 0.03781687 -0.124592625 0.10048686 0.07877834 -0.083415076 0.08202845 0.018757582
0.102583356 0.04044997 0.06549818 -0.037519027 0.08644772 -0.009583507 -0.08492083 -0.10017419
0.044360474 0.11295569 -0.05987088 0.11499113 0.05633509 -0.026721098 -0.12533095 0.07073236
-0.016959576 0.090365745 0.13453458 0.12193985 0.06661686 0.007810173 -0.12885435 0.054013107
0.09603551 -0.08318349 -0.13063566 0.06929674 -0.039853174 -0.12067751 -0.06671992 0.029932551
00000000: 0462 cebd bd82 b33c 22bf 1ebe 94b6 1a3e
00000010: 7f8c 373e 027c 203e 8273 db3d 5f52 2bbd
00000020: 0da0 1fbe 2e35 50bd 9662 e13c 1d32 abbc
00000030: 3685 333d ba7c e6bd 2a8b 93bd 1e48 e1bd
00000040: b8ac a2bd 0f2a 01be 974f 1c3c f0d7 ee3c
00000050: 82c9 9f3d ef5c d33c b163 943d 2d42 9d3d
00000060: 4021 98bd d565 8dbc 70a9 08be 45e4 293c
00000070: f238 fcbc ecfa 9a3d 3f55 94bd 0379 3b3d
00000080: c45b 94bd 994d e5bd 1f09 9ebd d7d8 7e3d
00000090: 0bc6 f9bc 3b35 f53d 6425 61bc bbd5 973d
000000a0: b5b9 cbbd a1cb daba 4de9 1a3d c976 cb3d
000000b0: a526 b13d e5aa 9cbd 6952 31be 3c0e b33d
000000c0: 41c2 2bbd 723f 653e 1c7b c93d ed3e 543d
000000d0: 88c5 4bbc 6204 a03d 1441 b43d e979 84bc
000000e0: 8c74 87bd a99a d0bd 6e3c 95bd eb5c a03c
000000f0: 4102 013e ff4f 8d3d 8b51 a5bd 7936 de3d
00000100: 2263 ba3d 9799 d83d 5c68 c43d aa10 96bd
00000110: fc29 e7bd 469d 083e e1bb 02be 180d f43a
00000120: 572f d4bd 5792 ff3d aac3 afbc 19af c13d
00000130: ecde 12bd 10ee 303d 82e9 893d 3fba 013d
00000140: 8998 3b3c 1697 81bc 266f 053e 8916 cabd
00000150: cd39 e13d 4187 0b3d 6599 6e3d 7679 32bd
00000160: b06b ae3d d37a f53d 92f4 ebbd 9e74 51bd
00000170: bd6c 93bc 8c21 5cbb d4e5 fa3c 0701 153d
00000180: 61a5 1e3d f7ba 8f3d 282f fdbd 8168 fa3c
00000190: a7fc 96bd 53a7 2bbd 8f7a 10be eca0 073e
000001a0: 65dd cfbd 2271 99bd d710 5dbc a457 093e
000001b0: f695 0abd fb24 b63d fcb2 5dbd ef2c 5cbd
000001c0: ad80 7ebd 1589 7fba e909 9b3d d898 233d
000001d0: 4a3e 95bd 481d dc3c cacc 95bb afd4 72bd
000001e0: e154 a1bc 17e3 e5bd 15e5 cdbd b751 9dbd
000001f0: 982a 02be f961 023e 5bdb 203d d883 0e3e
00000200: aa1c 023e e887 6abd 06e3 4d3d 7f24 45bb
00000210: 05c9 8d3d 416b bdbd 1da2 dabd 3799 983d
00000220: e12a 9fbd d7b2 01be e6f0 423d b174 ecbd
00000230: b6e9 c03d bb56 aa3c c6a1 b73d def4 833c
00000240: f875 e73d e650 08be 3ed8 9c3c 8c37 af3d
00000250: 354b f83d 3c1f 25be 1baa be3d f18c 153e
00000260: 98f6 d7bc f645 ff3c 5ccf 483c e167 963b
00000270: e355 973d ad29 fa3d ee6b fc3d 7a19 efbd
00000280: 34fa ccbd dc73 a2bd 6d3c 12be da55 383d
00000290: 7d31 cdbd 67f0 5ebd 61bd efbc 26bf 22bd
000002a0: 4d36 15be 9e3d 913c 696d ccbd 5e2e fc3a
000002b0: b20d fbbc 795d a6bd a689 8bbd 8834 243e
000002c0: b2cd 223e 6560 5fbd b972 e4bd d75c f33d
000002d0: 92f2 9bbd 46d0 e13d dc74 10be a64b fa3d
000002e0: 2db5 e2bd 44a1 0abd aceb 493b a958 0bbe
000002f0: f98b fbbd 7b2d 94bd 08f5 223d 5005 cdbd
00000300: 4fd5 4e3d a989 c1bb b396 d43d 45e2 7dbd
00000310: 2d24 ce3d cca4 7a3c 704e 093e 7e44 18be
00000320: 1d9a 80bd 7281 c43d 2ac5 a2bd f8fe 3abc
00000330: 1d50 1e3d c854 e6bd 3246 953d c233 533d
00000340: ef87 0f3e 061d b8bc 64c4 d5bd ce39 80bd
00000350: e195 ecbd 69a5 06be 7794 ce3d 3070 ccbd
00000360: 113d f9bd dde5 1a3d 6b2a ffbd 0ecc cd3d
00000370: 8a56 a13d 86d5 aabd 88fe a73d 80a9 993c
00000380: 3917 d23d deae 253d e923 863d 8dad 19bd
00000390: 810b b13d 2404 1dbc f9ea adbd 2028 cdbd
000003a0: 54b3 353d 5055 e73d 2b3b 75bd 7880 eb3d
000003b0: a0bf 663d 34e6 dabc c256 00be 21dc 903d
000003c0: cfee 8abc ad11 b93d 6fc3 093e 9abb f93d
000003d0: 6c6e 883d 7bec ff3b 65f2 03be d93c 5d3d
000003e0: 44ae c43d 1b5c aabd 5bc5 05be 73eb 8d3d
000003f0: 153d 23bd c525 f7bd 74a4 88bd 1c35 f53c

lstm.bias_ih_l1 f4 [200]
0.0012410633 0.12573789 0.12468451 0.0075460114 0.07345266 -0.010164272 -0.050724324 0.13026734
0.0044283466 0.12884739 0.027123604 -0.017320942 0.06996033 0.1508595 0.0785887 0.076650724
0.031902783 0.09836187 0.07932347 0.034576528 0.056939512 0.077110104 -0.023840062 -0.06248166
0.046282686 0.013295773 0.12441344 -0.010205418 0.12842163 0.018504417 -0.064771555 0.18966764
-0.082400545 0.1103153 0.100365385 0.048844963 0.154068 0.0063532395 -0.049847778 -0.041318234
-0.018449377 0.030222742 -0.03379041 -0.13258871 -0.128915 0.026524795 0.05181428 0.12311598
0.07169777 -0.0018608093 -0.10637147 0.11481697 -0.057571027 0.04905391 0.13333201 -0.08267313
0.14843567 -0.042201325 -0.017849619 0.062896304 0.06943157 0.016241789 -0.014138159 0.11187852
-0.10570816 0.10353981 0.018227492 -0.069855034 0.026190959 -0.114639305 -0.06750311 0.11657293
0.11910436 0.072221816 -0.10225651 -0.11495197 0.12058692 0.021176767 -0.011713162 -0.0098249605
0.047108285 0.13382696 0.015320461 -0.047711954 -0.040226888 -0.09691108 -0.047023915 0.029837262
0.06802389 -0.1137453 -0.07427677 0.10221341 0.055119835 -0.13358237 -0.12817773 0.044975888
0.08278399 -0.09137588 0.03628504 -0.09809487 -0.09917267 0.078773394 -0.12040584 0.03760642
-0.041348334 0.03550174 0.10056978 0.116321675 -0.04673057 -0.021248406 -0.11521944 -0.11268418
-0.057687618 -0.07854102 0.107805766 -0.00578538 -0.09579484 0.03338259 -0.013339642 -0.07583553
0.08676818 -0.07536271 0.062977634 -0.07841794 -0.05775195 0.040278148 -0.052620385 0.058509897
0.09668821 -0.06512076 -0.008840642 -0.032011222 -0.12049224 -0.06292626 -0.11847116 -0.12645432
0.038358774 -0.017264636 0.1068812 0.07903761 0.003977372 -0.055423494 -0.02257172 0.12817317
-0.01465509 -0.044409983 -0.08434973 0.012127704 0.014665207 -0.056154933 0.012875124 0.09502335
0.13948485 0.10483584 0.14158149 0.15038623 -0.0382085 0.090825595 0.07296798 0.09756215
-0.090571105 -0.0041326997 0.09447472 -0.048140384 0.08532998 -0.07851806 0.12302815 0.1415696
0.07075759 0.092033364 0.04398115 0.101953484 0.11472948 -0.08763488 0.06939338 0.05469126
0.09804634 -0.044557508 -0.071862966 -0.10208673 -0.07274212 0.10709312 0.039275695 -0.07630152
-0.032124773 0.16573955 -0.050108925 0.10422683 -0.043379236 -0.047232453 0.044170856 0.1099839
-0.09223978 -0.027575534 0.008822159 0.14988375 0.012424857 0.033099797 0.097472206 0.022070145
00000000: 2dab a23a 6fc1 003e 985a ff3d 8844 f73b
00000010: 596e 963d 0c88 26bc 4fc4 4fbd cd64 053e
00000020: aa1b 913b 92f0 033e 5232 de3c a6e4 8dbc
00000030: 5d47 8f3d ea7a 1a3e 1df3 a03d 0efb 9c3d
00000040: 7eac 023d f371 c93d 5874 a23d 1ea0 0d3d
00000050: 6839 693d e7eb 9d3d 3c4c c3bc c5ec 7fbd
00000060: ea92 3d3d 84d6 593c 79cc fe3d a034 27bc
00000070: f680 033e 9396 973c f3a6 84bd 3c38 423e
00000080: 9ec1 a8bd fdec e13d 5e8c cd3d a811 483d
00000090: 00c4 1d3e d62e d03b 2f2d 4cbd 4f3d 29bd
000000a0: 2623 97bc af95 f73c d067 0abd 56c5 07be
000000b0: 4b02 04be 874a d93c 363b 543d 3b24 fc3d
000000c0: 48d6 923d 66e6 f3ba 49d9 d9bd 2925 eb3d
000000d0: 99cf 6bbd c1ec 483d 3088 083e 8850 a9bd
000000e0: 85ff 173e 4cdb 2cbd 5d39 92bc c7cf 803d
000000f0: 2432 8e3d 800d 853c bda3 67bc 9120 e53d
00000100: 857d d8bd ae0c d43d d251 953c 2810 8fbd
00000110: 6c8e d63c 03c8 eabd 123f 8abd cabd ee3d
00000120: fdec f33d 08e9 933d dc6b d1bd f06b ebbd
00000130: 46f6 f63d e67a ad3c 90e8 3fbc dff8 20bc
00000140: 9ef4 403d ef09 093e ac02 7b3c 9c6d 43bd
00000150: f3c4 24bd 5179 c6bd 269c 40bd 466d f43c
00000160: 1c50 8b3d 4cf3 e8bd 6b1e 98bd 4455 d13d
00000170: 56c5 613d d1c9 08be 0641 03be a338 383d
00000180: a78a a93d 4723 bbbd 9f9f 143d f7e5 c8bd
00000190: 0a1b cbbd f253 a13d 5697 f6bd 3109 1a3d
000001a0: df5c 29bd 466a 113d 87f7 cd3d 0f3a ee3d
000001b0: 8e68 3fbd 2311 aebc 2bf8 ebbd f7c6 e6bd
000001c0: da49 6cbd 1dda a0bd 45c9 dc3d 4993 bdbb
000001d0: 1630 c4bd 2fbc 083d 848e 5abc a94f 9bbd
000001e0: 84b3 b13d c457 9abd 6bfa 803d 9699 a0bd
000001f0: 4f8d 6cbd b3fa 243d 7988 57bd 13a8 6f3d
00000200: 7804 c63d 085e 85bd 57d8 10bc 331e 03bd
00000210: a3c4 f6bd 7cdf 80bd 02a1 f2bd 3e7d 01be
00000220: 171e 1d3d 916e 8dbc 88e4 da3d 78de a13d
00000230: 9d54 823b bf03 63bd 54e8 b8bc d43f 033e
00000240: e71b 70bc 3ee7 35bd 8dbf acbd 47b3 463c
00000250: 5646 703c b702 66bd 2ff2 523c 9a9b c23d
00000260: 1ed5 0e3e 2cb4 d63d bdfa 103e d9fe 193e
00000270: 8480 1cbd c502 ba3d 3c70 953d aace c73d
00000280: 587d b9bd 996b 87bb f67b c13d da2e 45bd
00000290: 7cc1 ae3d 14ce a0bd 2ff6 fb3d 9ff7 103e
000002a0: 5be9 903d fd7b bc3d 9425 343d fdcc d03d
000002b0: 4af7 ea3d ea79 b3bd 1e1e 8e3d f103 603d
000002c0: 85cc c83d ef81 36bd e42c 93bd d912 d1bd
000002d0: d2f9 94bd a353 db3d 8ddf 203d f943 9cbd
000002e0: 4495 03bd a1b7 293e 043f 4dbd e074 d53d
000002f0: 6dae 31bd d176 41bd 80ec 343d 3d3f e13d
00000300: 36e8 bcbd 16e6 e1bc d18a 103c 207b 193e
00000310: a191 4b3c a793 073d 829f c73d 73cc b43c

lstm.bias_hh_l1 f4 [200]
0.13712694 0.01614268 0.08301574 0.020443296 0.029525425 0.12912673 0.048737075 0.1209749
0.113782376 0.08787307 0.075106636 -0.11861061 0.09939082 0.022224963 -0.06522799 0.1466905
-0.09681841 0.10063922 0.06212587 -0.11669263 -0.08862685 -0.08011757 0.0045152097 -0.068313815
0.14423808 -0.0041006953 -0.13061757 0.03528584 0.15112287 -0.03914735 -0.03350062 -0.056745436
0.12937555 0.10031562 0.10788198 0.11744749 0.11919795 -0.071221106 -0.036613125 -0.09728364
0.06691868 -0.06729948 0.13251024 0.08219873 0.05786435 0.16839878 -0.097748995 -0.121989034
-0.10263337 -0.13020551 0.026228638 0.11233266 -0.10475449 -0.11554481 0.04947081 -0.00095909653
0.0010838641 0.03836578 0.04366817 -0.0106938565 -0.016640019 -0.12980899 0.09392746 -0.0021001305
-0.10759723 0.1270998 -0.10210371 -0.13355377 -0.071686864 0.09803466 -0.08734977 -0.098674595
-0.06011203 0.085142 0.0051635634 -0.026976325 -0.063800946 0.13612415 0.011916086 0.06271954
-0.02452597 -0.05659485 -0.067662105 -0.07034229 0.05089729 0.046901286 -0.059980325 -0.07436693
-0.09247151 -0.051699918 0.11182861 0.009827352 0.13433544 -0.15357317 -0.13584474 0.026667641
-0.08991126 -0.13506539 0.006727423 0.10710878 0.03872942 0.1169743 -0.077407375 0.08438611
0.11999841 0.08048048 -0.047027577 0.037692215 0.014356287 -0.0753689 -0.00674128 0.04081845
0.0067450018 0.013019403 0.0149276005 -0.08407592 0.105842575 0.03773112 -0.11956852 0.03421506
0.10451023 0.12565048 0.05017048 -0.14193496 0.023851909 0.055353183 0.117862396 -0.06931505
0.062796764 0.068120316 0.036424328 -0.006571457 0.08096898 -0.014775865 0.035559487 0.12018068
-0.109320335 0.0044657905 0.107967585 -0.06975104 0.06804429 0.011770445 0.014190089 -0.0073263966
0.10397868 0.054462492 -0.122775674 -0.05875662 0.044232786 -0.07200399 -0.06754812 -0.15355739
0.08022736 -0.024643732 0.0526999 0.1534863 0.10640739 0.030745693 0.11842626 -0.06788798
-0.11201016 -0.0036921082 0.1635586 0.022571953 -0.11344354 -0.08064546 -0.08019746 -0.10078073
-0.087195024 0.0676884 -0.10556442 -0.10939995 0.00048123382 -0.07580707 -0.11640105 -0.12524992
0.0323978 0.10216669 0.08745776 -0.028267125 0.092525944 -0.01248941 0.073828995 -0.031675015
-0.030865703 -0.066232845 -0.056651585 -0.06568433 0.085880816 0.072386585 0.10248237 0.06194303
0.0024412533 -0.00469812 0.13471982 0.10334659 0.09929159 -0.0090888785 0.07618272 -0.13930446
00000000: 016b 0c3e a73d 843c 2804 aa3d b378 a73c
00000010: 4edf f13c cc39 043e 87a0 473d b0c1 f73d
00000020: bc06 e93d ccf6 b33d 82d1 993d 1fea f2bd
00000030: 6a8d cb3d 2011 b63c 4196 85bd 0936 163e
00000040: bb48 c6bd ef1b ce3d b277 7e3d 8cfc eebd
00000050: fe81 b5bd ae14 a4bd 53f4 933b 1de8 8bbd
00000060: 26b3 133e 205f 86bb 9dc0 05be e387 103d
00000070: f4bf 1a3e f958 20bd f237 09bd e76d 68bd
00000080: 067b 043e 4772 cd3d 3af1 dc3d 4f88 f03d
00000090: 0e1e f43d 5fdc 91bd a5f7 15bd a53c c7bd
000000a0: a90c 893d 4fd4 89bd c4b0 073e cf57 a83d
000000b0: 2b03 6d3d bb70 2c3e a030 c8bd 63d5 f9bd
000000c0: 7231 d2bd 9854 05be 71dd d63c aa0e e63d
000000d0: 8689 d6bd c2a2 ecbd e7a1 4a3d e16b 7bba
000000e0: 7210 8e3a 7025 1d3d 65dd 323d 4935 2fbc
000000f0: a650 88bc a6ec 04be 0a5d c03d 58a2 09bb
00000100: f05b dcbd 7326 023e c01b d1bd 52c2 08be
00000110: 90d0 92bd 65c6 c83d 70e4 b2bd e815 cabd
00000120: 0838 76bd ee5e ae3d 1c33 a93b 74fd dcbc
00000130: 12aa 82bd 2164 0b3e b03b 433c 1a73 803d
00000140: b0ea c8bc 00d0 67bd 6e92 8abd 9e0f 90bd
00000150: ad79 503d 901b 403d eead 75bd b04d 98bd
00000160: b461 bdbd 4bc3 53bd 6606 e53d e702 213c
00000170: 3b8f 093e 4942 1dbe e21a 0bbe 1976 da3c
00000180: 6523 b8bd 954e 0abe b771 dc3b d95b db3d
00000190: bea2 1e3d 3990 ef3d c287 9ebd a0d2 ac3d
000001a0: bac1 f53d f3d2 a43d fd9f 40bd 2763 1a3d
000001b0: a236 6b3c 035b 9abd f5e5 dcbb 3f31 273d
000001c0: 2d05 dd3b 564f 553c e592 743c ff2f acbd
000001d0: fec3 d83d f28b 1a3d 57e0 f4bd 1725 0c3d
000001e0: 7609 d63d 85aa 003e 907f 4d3d 6657 11be
000001f0: 1465 c33c 05ba 623d d761 f13d 0df5 8dbd
00000200: 979b 803d aa82 8b3d ad31 153d 6055 d7bb
00000210: 11d3 a53d 7816 72bc d3a6 113d 4a21 f63d
00000220: 57e3 dfbd c455 923b 1c1e dd3d a2d9 8ebd
00000230: ce5a 8b3d d3d8 403c 8c7d 683c 4512 f0bb
00000240: c6f2 d43d 1014 5f3d d071 fbbd c8aa 70bd
00000250: 702d 353d d476 93bd ab56 8abd 263e 1dbe
00000260: 3e4e a43d a7e1 c9bc dadb 573d 832b 1d3e
00000270: 1eec d93d 64de fb3c 7889 f23d da08 8bbd
00000280: 9565 e5bd 4cf7 71bb e87b 273e d1e8 b83c
00000290: 1655 e8bd 7229 a5bd 913e a4bd 2166 cebd
000002a0: 4e93 b2bd 37a0 8a3d 2932 d8bd 150d e0bd
000002b0: 1c4e fc39 bd40 9bbd ac63 eebd 8441 00be
000002c0: 8eb3 043d c53c d13d 0e1d b33d 7590 e7bc
000002d0: 3e7e bd3d 62a0 4cbc a833 973d a9bd 01bd
000002e0: 12da fcbc 16a5 87bd 7e0b 68bd 8285 86bd
000002f0: 48e2 af3d 6b3f 943d 47e2 d13d fab7 7d3d
00000300: 6ffd 1f3b b0f2 99bb fef3 093e 61a7 d33d
00000310: 6459 cb3d 85e9 14bc b005 9c3d d4a5 0ebe

fc.weight f4 [1, 50]
-0.0665843 -0.085324354 0.0086873295 0.10362219 0.057039578 0.076131 0.14463738 -0.04150521
-0.018895058 -0.08758753 0.073224574 -0.10239896 -0.11025315 -0.096379876 -0.023582049 -0.01864581
-0.0821168 -0.13885507 -0.1427196 -0.14896365 -0.04719247 -0.11556742 -0.12875025 -0.045411814
-0.097547665 -0.056617882 -0.0068792063 0.05139823 0.043086022 -0.16073057 -0.041023094 0.09254733
-0.12853995 -0.15870488 -0.03903261 0.07429118 -0.17714693 0.15119515 0.14826787 0.05740793
-0.0557465 -0.13700725 0.14206256 0.013157258 -0.008847071 -0.07039203 -0.10044908 0.024115616
-0.08541161 0.008828023
00000000: 595d 88bd 89be aebd 4d55 0e3c df37 d43d
00000010: 55a2 693d 92ea 9b3d d21b 143e 5e01 2abd
00000020: cfc9 9abc 1761 b3bd c4f6 953d 8cb6 d1bd
00000030: 67cc e1bd d062 c5bd 242f c1bc 19bf 98bc
00000040: da2c a8bd 0630 0ebe 1625 12be ed89 18be
00000050: e44c 41bd 9dae ecbd 1bd7 03be bd01 3abd
00000060: 12c7 c7bd 27e8 67bd f76a e1bb f386 523d
00000070: f87a 303d 8e96 24be d507 28bd 7489 bd3d
00000080: fa9f 03be 8883 22be a8e0 1fbd f925 983d
00000090: 0166 35be e7d2 1a3e 88d3 173e 9424 6b3d
000000a0: 7156 64bd a14b 0cbe d978 113e 8a91 573c
000000b0: 4ef3 10bc b229 90bd 3fb8 cdbd 1d8e c53c
000000c0: 48ec aebd 6aa3 103c
