models/lstm_model_15m.pt (torch, 127770 bytes, 9 tensors)

lstm.weight_ih_l0 f4 [200, 1]
0	0xbd3308db	-0.043709617
1	0x3e15231b	0.14564173
2	0x3e1cae11	0.15300776
3	0x3dc9567f	0.09830951
4	0x3cc00f62	0.023444835
5	0x3e2c7443	0.16841225
6	0x3e0ab1ee	0.13544437
7	0x3b540f84	0.003235788
8	0xbd695f12	-0.05697543
9	0x3d3fdfea	0.0468444
10	0x3dcd17aa	0.10014279
11	0x3dfcd15e	0.12344621
12	0xbe3eb785	-0.18624695
13	0xbcea093d	-0.028568858
14	0x3dabb858	0.0838477
15	0xbcf4971c	-0.02985721
16	0x3dba814d	0.091066934
17	0xbcd7028b	-0.02624633
18	0xbd3de8a2	-0.046364434
19	0xbe124daa	-0.14287439
20	0x3da26005	0.079284705
21	0xbc26c981	-0.010179878
22	0x3d612b5c	0.05497299
23	0xbe1f6dc1	-0.15569212
24	0x3e1a03a3	0.1504045
25	0xbc9cd116	-0.019142669
26	0x3d445aa1	0.047937993
27	0x3d0f90d7	0.03505024
28	0xbba4f33b	-0.005033878
29	0x3dff7b80	0.12474728
30	0xbd239fd1	-0.039947335
31	0x3ca8f643	0.02062524
32	0x3b0b5e6d	0.0021266
33	0x3b1f72b3	0.002432984
34	0x3df4d077	0.11953824
35	0xbdb02d1c	-0.08602354
36	0x3d17b542	0.037038095
37	0x3d99d476	0.07511227
38	0xbd4615c8	-0.048360616
39	0x3cec59d6	0.02885143
40	0xbc5fd265	-0.013661002
41	0x3e17129f	0.14753197
42	0x3d8cb2a6	0.06870012
43	0x3e347aae	0.17624924
44	0xbd78ad59	-0.060712192
45	0x3e084426	0.13307247
46	0x3d93b7d6	0.07212798
47	0x3e348266	0.17627868
48	0x3e2918d0	0.16513371
49	0x3e0b632d	0.13612051
50	0x3e334e0e	0.17510244
51	0x3daac730	0.08338773
52	0x3dd9e9f3	0.106403254
53	0x3e28da75	0.16489585
54	0x3d9537c5	0.07286028
55	0xbdb80405	-0.08985142
56	0x3d806353	0.062689446
57	0x3e31b1fa	0.17353049
58	0x3e35b5e6	0.1774517
59	0x3d77ae8a	0.060469188
60	0x3c8698fc	0.01643037
61	0x3e0da4d6	0.13832411
62	0xbd938d7a	-0.07204719
63	0x3dd139b6	0.102160856
64	0x3d2a98fa	0.041649796
65	0x3d7abcb4	0.061215118
66	0x3d925867	0.07145768
67	0xbd891530	-0.06693494
68	0x3e06dda9	0.13170494
69	0xbe1d174d	-0.1534092
70	0x3cf2f497	0.029657645
71	0xbcb6d889	-0.022320049
72	0xbd25ffea	-0.04052726
73	0xbe000416	-0.12501559
74	0x3dfb71cc	0.122775644
75	0x3e32abfe	0.17448422
76	0xbd77d9ca	-0.060510434
77	0xbdc15556	-0.09440105
78	0x3e397b82	0.1811352
79	0xbbe63d37	-0.0070263403
80	0x3ba3ce2e	0.004998944
81	0xbdf2db9e	-0.11858295
82	0x3dab49ab	0.083636604
83	0x3d053ece	0.0325306
84	0x3e02064b	0.12697713
85	0x3d0e12ad	0.03468578
86	0x3dafe4b5	0.08588544
87	0xbd17b46f	-0.03703731
88	0x3dfdc84c	0.12391719
89	0x3d36de50	0.044645607
90	0x3deccfc0	0.11563063
91	0x3d902bb1	0.070395835
92	0x3da85591	0.082194455
93	0x3e20b7ac	0.15695065
94	0x3dfaf6ed	0.122541286
95	0x3e045de4	0.12926441
96	0xbc0fe24b	-0.00878198
97	0x3e32fee4	0.17480046
98	0x3d18aee5	0.037276167
99	0xbcfe53a3	-0.03104574
100	0xbd89fd29	-0.067377396
101	0x3e5119bf	0.20419978
102	0x3cfb8f46	0.030707967
103	0xbd058327	-0.03259578
104	0x3c912e3d	0.017722243
105	0xbd76e238	-0.060274333
106	0x3e1c2459	0.1524824
107	0xbe1d62d7	-0.15369736
108	0x3cbfa9c5	0.023396382
109	0x3e85e3b4	0.26150286
110	0xbe09aab9	-0.13444032
111	0x3e3a5055	0.18194707
112	0x3e2c9ab6	0.16855893
113	0x3e3cb105	0.18426903
114	0x3e299618	0.16561162
115	0x3d4f4206	0.050600074
116	0xbe301ac5	-0.17197712
117	0xbe4e88c5	-0.20169361
118	0x3c090aec	0.00836442
119	0xbd062286	-0.032747768
120	0x3d9a3fd2	0.07531704
121	0xbdec47ab	-0.11537107
122	0x3da5ccad	0.080956794
123	0xbe2227df	-0.15835522
124	0xbca5b9e6	-0.020230245
125	0xbd6deec4	-0.058089033
126	0x3e5dd105	0.21661766
127	0xbe3e8919	-0.18606986
128	0x3e3e75e8	0.18599665
129	0xbe02e901	-0.12784196
130	0xbb522815	-0.0032067348
131	0xbd889e7d	-0.06670854
132	0xbe02743c	-0.12739652
133	0xbe4de4cf	-0.20106815
134	0x3da12aeb	0.07869514
135	0xbe245833	-0.1604927
136	0xbdb227a2	-0.086989656
137	0xbe04e714	-0.12978774
138	0x3e113deb	0.14183776
139	0xbe5ef69e	-0.21773764
140	0x3d4cb1bf	0.0499742
141	0xbe6ca4c5	-0.2310973
142	0xbce601b2	-0.02807698
143	0x3e3e2678	0.18569362
144	0xbc28f758	-0.010312878
145	0x3e455eff	0.1927452
146	0xbc8c45dc	-0.017123155
147	0xbd5160d3	-0.05111773
148	0x3dfd6806	0.123733565
149	0xbe553cd6	-0.20823988
150	0x3b5f1397	0.0034038776
151	0xbd52b0c7	-0.05143812
152	0x3daed263	0.08536222
153	0x3dd6b9f9	0.1048469
154	0x3e1b9612	0.15193966
155	0xbd978a69	-0.073994465
156	0x3e0fca6f	0.14042066
157	0xbd24d4f0	-0.040242136
158	0x3e4c597c	0.1995601
159	0x3e77b675	0.24190696
160	0x3d8f9c8a	0.07012279
161	0x3d9f518c	0.07779226
162	0xbd5af1bc	-0.053453192
163	0x3d9a8914	0.07545677
164	0xbd620a87	-0.05518582
165	0xbd5458ef	-0.051842626
166	0x3e18d885	0.14926346
167	0x3cf23573	0.029566502
168	0x3d9933ac	0.07480559
169	0xbe031213	-0.12799864
170	0x3b396cec	0.0028293682
171	0x3d5c9926	0.05385699
172	0x3dbe1808	0.09281927
173	0x3d914a02	0.07094194
174	0x3dae2f65	0.085051335
175	0xbd52b65e	-0.05144345
176	0xbd76909e	-0.06019651
177	0x3d724ef3	0.059157323
178	0x3e007b8d	0.12547131
179	0x3daacf40	0.08340311
180	0x3e3cdb9e	0.18443152
181	0xbd5ab5bc	-0.05339597
182	0x37d9227a	2.588447e-05
183	0xbaea8302	-0.0017891827
184	0x3da867b9	0.082229085
185	0xbdc8e247	-0.09808784
186	0xbd260469	-0.04053155
187	0x3ca424c8	0.02003707
188	0x3e567d7b	0.20946305
189	0x3dbd8885	0.09254555
190	0x3e0b5dec	0.13610047
191	0x3dcddf5e	0.100523695
192	0xbd54b209	-0.0519276
193	0x3deb879e	0.11500476
194	0x3d25e593	0.040502142
195	0x3e20fc4a	0.1572124
196	0xbbdd47d4	-0.0067529473
197	0xbd827c50	-0.06371367
198	0xbb6b5bc4	-0.003591285
199	0x3dc789c2	0.09743072

lstm.weight_hh_l0 f4 [200, 50]
0	0x3d035b25	0.032069344
1	0x3db9bbe8	0.090690434
2	0x3d987713	0.074445866
3	0xbc9b9f86	-0.018996965
4	0xbd54a66d	-0.05191653
5	0xbdec2bc1	-0.11531783
6	0x3dcfe927	0.10151892
7	0xbddd4e48	-0.108059466
8	0xbd347553	-0.0440572
9	0xbdf70b11	-0.120626576
10	0x3c05bc8f	0.008162632
11	0x3cc7714e	0.02434602
12	0xbd281669	-0.041036997
13	0x3db8a87f	0.09016513
14	0x3dcafb95	0.09911267
15	0x3e16d46e	0.14729473
16	0xbb367c39	-0.0027845039
17	0xbe287755	-0.16451772
18	0xbdc32113	-0.09527793
19	0x3c726aaf	0.014795943
20	0x3d8c57ab	0.06852659
21	0xbaa44fb6	-0.0012535963
22	0xbc71824b	-0.014740537
23	0x3c55a377	0.013039461
24	0xbdbaa337	-0.09113162
25	0xbdb7bd28	-0.089716256
26	0x3cfe9b9e	0.031080063
27	0xbd96e171	-0.07367218
28	0x3dabaa4d	0.08382092
29	0x3d509ed4	0.05093272
30	0x3c6138a7	0.013746417
31	0xbdc41d77	-0.095759325
32	0xbdfd549d	-0.12369654
33	0x3d90f062	0.070770994
34	0x3dcc7583	0.09983351
35	0xbd14061e	-0.036138646
36	0xbc403a8d	-0.01173271
37	0xbd74d7f5	-0.059776265
38	0xbd2a7899	-0.041618917
39	0xbdf11956	-0.117724106
40	0x3da0e810	0.078567624
41	0xbda592ba	-0.080846265
42	0xbd9e6279	-0.07733626
43	0xbd4f3178	-0.050584286
44	0xbc4c62a1	-0.012474687
45	0x3e0d9bf0	0.13829017
46	0xbe0497b8	-0.12948501
47	0xbd4ed841	-0.050499205
48	0x3d88b4a4	0.066750795
49	0xb998538f	-0.00029053955
50	0x3dad16bf	0.08451604
51	0xbdf787a6	-0.1208642
52	0xbcd8f943	-0.026486045
53	0xbdf5dd6c	-0.120051235
54	0x3d2c11df	0.04200923
55	0xbda37871	-0.07981957
56	0xbc06861b	-0.008210684
57	0xbdcb7362	-0.09934117
58	0x3d9129e8	0.07088071
59	0xbdef4935	-0.11683885
60	0x3d9d62a9	0.076848336
61	0xbdea70eb	-0.11447319
62	0x3d233473	0.03984494
63	0x3e10d447	0.14143477
64	0xbcf1a169	-0.029495912
65	0xbda14f23	-0.07876422
66	0xbde8d739	-0.113691755
67	0x3ca46bce	0.020070937
68	0x3db8883b	0.09010359
69	0x3e0d16ca	0.13778225
70	0x3dccf398	0.10007399
71	0x3e11bcf2	0.14232233
72	0xbd3efc0d	-0.046627093
73	0xbddc8720	-0.107679605
74	0xbdd4685f	-0.1037147
75	0xbd516f09	-0.051131282
76	0x3e09f344	0.13471705
77	0xbd45bec6	-0.04827764
78	0xbdd128f8	-0.10212892
79	0x3d25c3b1	0.04046983
80	0x3c9d2d82	0.019186739
81	0x3d14b735	0.036307532
82	0x3d45a293	0.048250746
83	0x3d6ba343	0.057528745
84	0xbdce84b0	-0.10083902
85	0xbdaccddb	-0.08437701
86	0x3d882c49	0.06649072
87	0x3d53a9e1	0.05167568
88	0xbd71ce69	-0.05903474
89	0x3d7fe1e1	0.062471274
90	0x3dbf39bc	0.09337184
91	0xbd1022aa	-0.03518931
92	0xbd7a2b69	-0.061076555
93	0xbd94cd57	-0.07265728
94	0x3e0afedf	0.13573788
95	0xbdb150f6	-0.0865802
96	0xbdd6c83c	-0.104874104
97	0xbd9dbd01	-0.07702065
98	0x3e1e3294	0.15448982
99	0x3d8150ec	0.06314263
100	0xbd880c3e	-0.0664296
101	0xbc77ca1f	-0.015123873
102	0x3e04b7ee	0.12960789
103	0x3dc05849	0.09391839
104	0x3d512075	0.051056344
105	0xbd442355	-0.047885258
106	0x3e104cc3	0.14091782
107	0x3df5a906	0.11995129
108	0xbd63f38c	-0.055652186
109	0x3db91ef1	0.09039105
110	0xbdf062d8	-0.11737603
111	0xbc9cc5cd	-0.019137288
112	0x3e0c20ab	0.13684337
113	0xbc6b8f2c	-0.014377397
114	0xbccd809e	-0.025085744
115	0xbd9a5ce7	-0.07537251
116	0xbb9fdb6f	-0.0048784534
117	0x3dc2233c	0.09479377
118	0xbda914b2	-0.082559004
119	0x3c827212	0.015923534
120	0xbddc95b2	-0.107707396
121	0xbde1ad74	-0.11019412
122	0x3d271046	0.040787004
123	0x3d1122d8	0.03543362
124	0x3dd9eed4	0.10641256
125	0x3d8bf08e	0.068329915
126	0xbb7196bb	-0.0036863524
127	0xbdec9175	-0.11551181
128	0xbd90d936	-0.0707268
129	0x3d3eb08c	0.046555087
130	0xbda08005	-0.07836918
131	0xbc99d79c	-0.018779568
132	0xbe1b6c2a	-0.1517798
133	0x3e083d3d	0.1330461
134	0x3e1a7f66	0.15087661
135	0x3e018fdf	0.12652539
136	0xbd9c9b51	-0.07646812
137	0x3dfaa9ae	0.12239395
138	0xbd996cbb	-0.07491442
139	0xbc534995	-0.012895961
140	0x3d44aee9	0.04801837
141	0xbdcdf5d5	-0.10056654
142	0x3c55ef1e	0.013057498
143	0xbdd51515	-0.10404412
144	0x3dab0d85	0.08352188
145	0xbcdfe3c9	-0.027330296
146	0x3c798572	0.01522957
147	0x3e112d25	0.14177378
148	0x3d8fa3bb	0.07013651
149	0xbd6902c1	-0.056887392
150	0x3d54fb8a	0.0519977
151	0x3c6dfa9d	0.014525083
152	0x3dda3297	0.106541805
153	0x3cfd698e	0.030934121
154	0x3d8ddd05	0.06926922
155	0x3cfa6ef0	0.030570477
156	0x3e5fb076	0.21844658
157	0xbd50ebbd	-0.051006068
158	0x3e073eb5	0.13207515
159	0x3d7edc28	0.062221676
160	0x3c3f821b	0.011688734
161	0x3e1b0fa1	0.1514268
162	0x3e228384	0.15870482
163	0x3b0107ea	0.0019688555
164	0x3db5746a	0.08860095
165	0xbd7833a0	-0.06059611
166	0xbd3d62df	-0.04623687
167	0xbe696b97	-0.22794949
168	0xbdd49a4a	-0.10380991
169	0xbe2447f6	-0.16043076
170	0x3ddad9cc	0.10686073
171	0xbbd3317d	-0.0064451084
172	0xbd15baaa	-0.03655497
173	0xbe031be9	-0.12803616
174	0x3e0dab44	0.13834864
175	0x3d2036d7	0.0391148
176	0x3e2f2066	0.17102203
177	0xbd9ba158	-0.07599133
178	0x3e35bc45	0.177476
179	0xbc1dc90b	-0.009630452
180	0x3daa7bb3	0.08324375
181	0x3cbe0425	0.023195336
182	0xbe3b9be8	-0.18321192
183	0x3ccbac90	0.024862558
184	0xbe0de2dc	-0.13856071
185	0x3df1053c	0.117685765
186	0xbca42880	-0.020038843
187	0xbe28cfcf	-0.16485523
188	0x3dbe731c	0.09299299
189	0xbddaa371	-0.10675705
190	0x3e1cfa4f	0.1532986
191	0xbe03202d	-0.12805243
192	0x3dcb0c13	0.09914412
193	0x3df8d6c7	0.121503405
194	0xbdbed417	-0.09317797
195	0x3d7d9935	0.061913688
196	0xbc431c46	-0.011908596
197	0xbe0765d4	-0.13222438
198	0x3a93f8cb	0.0011289356
199	0xbe770bda	-0.24125615
200	0xbd142746	-0.036170267
201	0x3dcbb431	0.09946478
202	0x3cf1c703	0.029513841
203	0x3d7b7471	0.061390344
204	0xbddfbec5	-0.10925058
205	0xbe00e13e	-0.12585923
206	0x3d84c5bf	0.064830296
207	0x3b18d6ba	0.0023321346
208	0xbce915c0	-0.028452754
209	0x3d3f39e9	0.046686087
210	0xbc65f4b5	-0.0140353935
211	0x3e29898e	0.16556379
212	0xbd947fdf	-0.07250952
213	0x3c130656	0.008973679
214	0x3cbf7583	0.023371464
215	0xbd9b631c	-0.07587263
216	0xbde2d59c	-0.11075899
217	0xbe19a8ca	-0.15005794
218	0xbdb6755e	-0.08909105
219	0x3c2769d0	0.010218099
220	0xbdac9734	-0.08427277
221	0xbd702f3a	-0.05863879
222	0x3d491833	0.049095344
223	0x3c4321a4	0.011909876
224	0x3d0e2b14	0.03470905
225	0x3d930414	0.07178512
226	0x3e104937	0.14090429
227	0x3d75544d	0.05989485
228	0x3e20a6fa	0.15688697
229	0xbd26ca92	-0.04072053
230	0xbca5b4c1	-0.020227792
231	0x3dde6346	0.10858779
232	0xbdcd1fbd	-0.10015819
233	0x3de2c2fe	0.11072348
234	0x3e15e246	0.14637098
235	0x3dd8f59d	0.10593722
236	0xbe3ca585	-0.18422516
237	0xbd998286	-0.074955985
238	0xbd998876	-0.07496731
239	0xbceca810	-0.028888732
240	0x3e0b595c	0.13608307
241	0x3d56b456	0.052418076
242	0xbdeb6f29	-0.114958115
243	0x3d4434fb	0.04790209
244	0xbd93cb61	-0.07216526
245	0x3d384342	0.044986017
246	0xbcc70497	-0.02429418
247	0x3d3dab8f	0.04630619
248	0x3de8464d	0.11341534
249	0xbcea828e	-0.028626706
250	0x3e147f21	0.14501621
251	0xbdb093f3	-0.08621969
252	0xbd811458	-0.063027084
253	0x3de50d89	0.11184222
254	0xbd1560a9	-0.036469135
255	0xbded4918	-0.11586207

lstm.bias_ih_l0 f4 [200]
0	0xbd58024d	-0.05273657
1	0xbc7fbc87	-0.015608913
2	0x3e08a96e	0.13345882
3	0xbd00774c	-0.03136377
4	0xbdf9f87b	-0.12205597
5	0xbd157667	-0.03648987
6	0x3decb49d	0.11557887
7	0xbc8cb3cb	-0.017175576
8	0x3d575d17	0.05257901
9	0x3da1e23c	0.07904479
10	0xbca4527b	-0.020058861
11	0xbd673317	-0.056445207
12	0xb8b2b383	-8.521138e-05
13	0xbd10b9b0	-0.035333335
14	0x3d0b2c38	0.033977717
15	0x3c881b0b	0.016614458
16	0x3e1d5e0b	0.15367906
17	0x3e0c337f	0.13691519
18	0xbdb45393	-0.08805003
19	0xbe08b630	-0.13350749
20	0xbdcd9ab8	-0.10039276
21	0x3cd20cdb	0.025640896
22	0xbbf7658f	-0.0075499485
23	0x3dc2a34e	0.09503804
24	0xbdcf3e1d	-0.10119269
25	0x3db6e4a0	0.089303255
26	0x3d28e9f7	0.04123875
27	0xbd902f6f	-0.07040297
28	0x3e0fec93	0.1405509
29	0x3dd6d4c0	0.104897976
30	0x3d39df2d	0.045378853
31	0xbd153ece	-0.03643685
32	0xbd60a3d7	-0.05484375
33	0xbdb5cd1e	-0.088770136
34	0xbdf43e95	-0.11925999
35	0x3dd44f59	0.10366697
36	0xbe02d81c	-0.12777752
37	0xbdd8147f	-0.10550784
38	0x3e40403c	0.18774503
39	0x3d7655dc	0.060140476
40	0xbdc9d9c8	-0.098559916
41	0x3d945e77	0.0724458
42	0xbc749cf8	-0.014930002
43	0x3e2cddbd	0.16881461
44	0xbca76684	-0.020434625
45	0x3ddebe7e	0.10876177
46	0xbcb00885	-0.021488437
47	0xbd8dd927	-0.06926184
48	0x3d824cf9	0.063623376
49	0x3de9b999	0.11412353
50	0xbde5154b	-0.11185702
51	0x3dbd9785	0.09257416
52	0x3d43ea1b	0.047830682
53	0xbda3aa8a	-0.07991512
54	0x3de12619	0.10993595
55	0xbdb69a66	-0.08916168
56	0xbd91079b	-0.07081529
57	0x3b9ca241	0.0047800844
58	0xbd0a0214	-0.033693388
59	0x3cd3f43a	0.025873292
60	0x3dd916c1	0.10600043
61	0xbc8ba229	-0.017045097
62	0xbdc56159	-0.09637708
63	0x3e08e85f	0.13369893
64	0x3e10c62e	0.141381
65	0xbcceced8	-0.025245115
66	0xbc1d83ee	-0.009613974
67	0xbcbd1f21	-0.023086132
68	0xbda953ee	-0.082679614
69	0xbd8223b1	-0.06354464
70	0x3e0c8db4	0.1372593
71	0x3dda8654	0.10670152
72	0x3d66ac9d	0.05631696
73	0xbe0fd4c6	-0.1404601
74	0xbe0e8132	-0.13916472
75	0xbd6d8689	-0.05798963
76	0x3e0a96aa	0.13534036
77	0x3d5ae416	0.053440176
78	0x3deeb13f	0.11654901
79	0xbd3e57b2	-0.04647035
80	0x3da68a72	0.08131875
81	0xbbed7eee	-0.007247797
82	0xbd48c198	-0.04901275
83	0xbd1d9380	-0.038470745
84	0x3de9d91c	0.114183635
85	0x3dfc026e	0.12305151
86	0xbd852b24	-0.06502369
87	0x3d13ea98	0.036112398
88	0xbddeaa19	-0.10872287
89	0x3c311563	0.010808322
90	0xbc35face	-0.01110716
91	0xbda63066	-0.081147
92	0xbc2a282e	-0.010385556
93	0x3cffb28b	0.031213066
94	0xbdbc22dc	-0.091863364
95	0xbd210666	-0.039312743
96	0x3da055f9	0.07828898
97	0x3bd69918	0.006549012
98	0x3d18a5ba	0.037267424
99	0xbdb59f05	-0.08868221
100	0x3e0124d6	0.12611708
101	0xbd37d5ba	-0.04488156
102	0xbdcbf043	-0.09957936
103	0xbc3ff021	-0.011714966
104	0x3bfd8b08	0.007737521
105	0x3b991ccc	0.0046726223
106	0x3caf38e6	0.021389436
107	0xbd8e5291	-0.06949342
108	0x3dc24a55	0.09486834
109	0x3de0bbc9	0.10973317
110	0xbded0177	-0.11572545
111	0x3d0f3bd5	0.03496917
112	0xbd75bed5	-0.059996445
113	0xbe0d88f3	-0.13821773
114	0xbd58b759	-0.05290923
115	0xbc113284	-0.0088621415
116	0x3da8e495	0.082467236
117	0xbda9a6cb	-0.08283766
118	0x3dd912a2	0.10599257
119	0xbd68d72b	-0.056845825
120	0xbd9b6a0f	-0.075885884
121	0x3dab6826	0.08369474
122	0x3de219f2	0.11040105
123	0x3d336355	0.043795902
124	0x3de65d82	0.11248304
125	0x3d81b93c	0.06334159
126	0xbe10ba18	-0.14133489
127	0x3e0422fb	0.12903969
128	0x3dece446	0.11566977
129	0xbdbecedf	-0.09316801
130	0x3d63df6a	0.055632986
131	0xbbe4ff29	-0.0069884253
132	0x3d130e98	0.03590259
133	0xbd9c2893	-0.076249264
134	0xbdf4ae6a	-0.11947329
135	0x3de4e69a	0.11176796
136	0xbc782cdc	-0.015147414
137	0xbd50e9a2	-0.05100406
138	0x3da48d73	0.08034792
139	0x3daea532	0.08527602
140	0xbc0f953a	-0.008763606
141	0x3da9aaab	0.082845055
142	0xbdfc4e1a	-0.12319584
143	0xbd882a45	-0.06648687
144	0xbd2c37a4	-0.04204525
145	0xbcc82204	-0.024430282
146	0xbd2f321f	-0.04277241
147	0xbdb1f619	-0.086895175
148	0x3d8faeb7	0.07015746
149	0xbcf19c9c	-0.029493622
150	0x3dd5fb9f	0.104483835
151	0xbdd328bf	-0.10310506
152	0x3dc02f8d	0.093840696
153	0xbdefe826	-0.11714201
154	0xbddbdd7e	-0.10735606
155	0x3de41fa1	0.11138845
156	0x3e0650c6	0.1311675
157	0x3e146657	0.14492165
158	0xbd80e323	-0.06293323
159	0xbc596c1e	-0.013270406
160	0xbcdd2515	-0.026995221
161	0x3d31aff0	0.043380678
162	0x3cb9f3a6	0.022699188
163	0xbd5578f0	-0.052117288
164	0x3d3808e0	0.04493034
165	0xbd437ad4	-0.04772456
166	0x3d74ed34	0.059796527
167	0x3ce29f04	0.027663715
168	0xbce6e03c	-0.028183095
169	0xbdb23b5a	-0.08702727
170	0xbcc73f4f	-0.02432218
171	0xbc8df99a	-0.017330933
172	0x3df11e81	0.11773396
173	0xbd6ed2a4	-0.05830635
174	0x3ddc2a1a	0.10750218
175	0x3bc75250	0.0060828105
176	0x3c95fdc9	0.01830949
177	0xbdbdc907	-0.092668585
178	0x3dbf32e5	0.09335879
179	0xbdde7d45	-0.10863737
180	0x3c2524e7	0.010079599
181	0xbdcff6dc	-0.101545066
182	0x3db62d3b	0.08895346
183	0xbbaeb186	-0.005331221
184	0x3d65fd07	0.05614951
185	0xbdefbd2d	-0.11706004
186	0xbdb1a781	-0.08674527
187	0x3d475d6e	0.048673086
188	0x3cf85920	0.030315936
189	0x3c646d0f	0.013942017
190	0x3db7eed9	0.089811035
191	0xbd121de2	-0.03567303
192	0x3c457136	0.012050917
193	0x3dc6742e	0.09690128
194	0xbd22619c	-0.03964387
195	0x3d9e4652	0.07728256
196	0x3b4af1ac	0.0030966802
197	0xbdd81510	-0.10550892
198	0xbd3a7daa	-0.04553
199	0x3dabf31a	0.08395977

lstm.bias_hh_l0 f4 [200]
0	0x3c488fe1	0.012241335
1	0x3dca14e0	0.09867263
2	0xbcf057a0	-0.029338658
3	0xbd9555d8	-0.07291764
4	0x3d6f92c3	0.058489572
5	0x3c8386ee	0.01605555
6	0x3dff5ff6	0.12469475
7	0x3e3c75c6	0.18404302
8	0x3def3e6c	0.11681828
9	0x3e350f48	0.1768161
10	0x3da8a66d	0.08234868
11	0x3dd54e6e	0.1041535
12	0x3dcee111	0.10101522
13	0x3d76ca60	0.060251594
14	0x3d8b9760	0.06815982
15	0xbd658101	-0.05603123
16	0x3df1b4bb	0.1180205
17	0x3dcc5cf3	0.09978666
18	0x3c210a5f	0.009829133
19	0xbd8e15e0	-0.06937766
20	0x3de53c96	0.111931965
21	0x3e0b6a71	0.13614823
22	0x3bcbb659	0.006216806
23	0x3d600818	0.05469522
24	0xbde3fae9	-0.11131842
25	0x3dab518e	0.08365165
26	0x3d8cac39	0.06868786
27	0x3e1bb827	0.15206967
28	0x3d7d242b	0.06180207
29	0xbde1620e	-0.110050306
30	0x3e08b480	0.13350105
31	0xbe12e7f4	-0.14346296
32	0xbd6663dc	-0.056247577
33	0xbd89628a	-0.06708248
34	0x3e05ce6e	0.13067028
35	0x3e023607	0.12715922
36	0x3dc59bae	0.09648834
37	0x3d258ee5	0.040419478
38	0x3e10880d	0.14114399
39	0x3d72de8e	0.059294276
40	0xbcfbe54d	-0.030748988
41	0x3d52bdb5	0.05145045
42	0xbde26d72	-0.11056031
43	0x3ddf609c	0.10907099
44	0x3dbb767e	0.0915346
45	0x3e421a08	0.18955243
46	0xbd55c310	-0.05218798
47	0x3de926df	0.11384367
48	0x3d5130b9	0.051071856
49	0xbb6fd94e	-0.003659803
50	0x3d621a55	0.055200893
51	0xbc589d04	-0.013221029
52	0x3df94d40	0.121729374
53	0xbdbcb1d4	-0.092136055
54	0xbd452976	-0.048135243
55	0x3c897463	0.01677913
56	0x3d01dbc3	0.03170372
57	0x3e35e4ac	0.17763013
58	0x3d7fe1ed	0.06247132
59	0x3dcb5a97	0.09929388
60	0x3e09356f	0.1339929
61	0x3d60ed0a	0.054913558
62	0x3da2f301	0.079565056
63	0x3d81af3a	0.0633225
64	0x3912cfdc	0.00014001079
65	0x3cb2937c	0.021798842
66	0x3da04d13	0.07827201
67	0xbd809661	-0.062786825
68	0xbddbc571	-0.10731018
69	0xbdb390b3	-0.087678336
70	0x3e0b50e0	0.1360507
71	0x3db51802	0.0884247
72	0x3e05f3c8	0.13081276
73	0xbd750ee3	-0.05982865
74	0xbe0579c1	-0.13034727
75	0x3db33f45	0.08752302
76	0xbd46ff60	-0.04858339
77	0xbd7bcba6	-0.06147351
78	0x3e1af419	0.15132178
79	0x3d9aba59	0.07555074
80	0x3dccc5de	0.09998678
81	0x3d677bd6	0.056514584
82	0xbdaac566	-0.08338432
83	0x3d44aac8	0.048014432
84	0xbd99d10e	-0.07510577
85	0xbdf37a39	-0.118885465
86	0x3af5a224	0.0018740338
87	0x3ddc8117	0.107668094
88	0x3e0d6f16	0.13811907
89	0x3c4fe9bb	0.012690003
90	0x3dd4751e	0.10373901
91	0x3e3ff579	0.18745984
92	0xbd97a47d	-0.074044205
93	0x3c96da2d	0.018414581
94	0xbd2bfd22	-0.041989453
95	0x3e16ec8e	0.14738676
96	0x3cf89f0f	0.030349283
97	0x3d91f0d3	0.07126012
98	0x3d533cba	0.051571585
99	0x3e01713c	0.12640852
100	0xbdc12666	-0.09431152
101	0x3d7ec4fd	0.06219958
102	0xbd764433	-0.060123634
103	0xbe024525	-0.12721689
104	0xbe0e3c44	-0.13890177
105	0xbdcb0a0d	-0.099140264
106	0xbdd1289b	-0.10212823
107	0x3bd1e352	0.0064052725
108	0xbd27ba03	-0.04094888
109	0xbda93746	-0.08262496
110	0x3c8be02b	0.017074665
111	0x3d552c79	0.052044366
112	0x3d07255d	0.032994617
113	0x3e0dca6a	0.13846746
114	0xbd438ff3	-0.047744703
115	0x3c202e0c	0.009776603
116	0xbda6e4ff	-0.08149146
117	0x3dab18e7	0.08354359
118	0x3d152da4	0.03642048
119	0x3deaae07	0.11458974
120	0xbe03d9af	-0.12876008
121	0xbc753362	-0.014965864
122	0x3cd02e50	0.025412709
123	0x3dc97f9a	0.09838791
124	0xbcdd962b	-0.027049145
125	0x3dd520ec	0.1040667
126	0x3de69a89	0.11259944
127	0xbdedd685	-0.11613182
128	0x3d5830a6	0.05278077
129	0xbd4a9eb2	-0.04946775
130	0xbde4dab6	-0.11174528
131	0xbdb8378e	-0.08994971
132	0x3c2b9aae	0.01047389
133	0x3977a701	0.0002361797
134	0x3937836a	0.00017501196
135	0x3d48589d	0.048912633
136	0xbd511b5f	-0.051051494
137	0xbda37aa8	-0.07982379
138	0xbca3baed	-0.019986594
139	0x3c1b1cb0	0.009467289
140	0xbc92469e	-0.017855939
141	0xbdc5c585	-0.096568145
142	0xbd959468	-0.07303697
143	0x3deef93f	0.11668634
144	0x3e08e10c	0.13367099
145	0x3d41a59a	0.04727707
146	0xbd6b5d5e	-0.05746209
147	0xbd7cf86b	-0.061760347
148	0x3a0ac0bd	0.00052930025
149	0x3dd090eb	0.10183891
150	0x3d94742d	0.07248721
151	0x3d03cdad	0.03217857
152	0xbd24d68f	-0.04024368
153	0xbd564331	-0.052310172
154	0xbde7fb08	-0.11327177
155	0xbe18a026	-0.14904842
156	0x3d6f220c	0.05838208
157	0xbcce3d9a	-0.025175858
158	0xbdf84e5b	-0.1212432
159	0x3d78c56b	0.060735147
160	0xbdaa246f	-0.083077304
161	0xbd01c152	-0.031678505
162	0x3cef45ab	0.029208025
163	0x3dc1dd02	0.09465982
164	0x3d87cfd6	0.066314384
165	0x3d0cc7d4	0.03437026
166	0x3e0264ac	0.12733716
167	0x3e1db72c	0.15401906
168	0xbde7cb79	-0.11318106
169	0x3d24ac0d	0.040203143
170	0xbd9f503a	-0.07778974
171	0x3e1759f3	0.14780407
172	0x3e0e8dfa	0.13921347
173	0xbd50ebe0	-0.051006198
174	0x3d5c8618	0.05383882
175	0x3d2f842d	0.042850662
176	0x3e0640d9	0.13110675
177	0x3d85d2b6	0.065343305
178	0x3cbfe9c4	0.023426898
179	0x3bd90c74	0.006623799
180	0x3deecc08	0.116600096
181	0x3d3bf58f	0.04588848
182	0xbd8d657a	-0.06904121
183	0xbdaf07ce	-0.085464105
184	0x3c44c288	0.0120092705
185	0xbd83da2b	-0.064380966
186	0xbdb25c9a	-0.087090686
187	0x3c8c0d92	0.017096315
188	0xbdbe9287	-0.093052916
189	0x3e64363f	0.22286318
190	0xbdbd4551	-0.09241737
191	0x3de3fcb5	0.111321844
192	0xbde6e29c	-0.11273691
193	0x3e494961	0.19656898
194	0x3cf7e67d	0.030261273
195	0x3ddab7e3	0.10679605
196	0x3e0df24b	0.13861959
197	0xbd31a36c	-0.043368742
198	0x3d27304c	0.040817544
199	0xba573082	-0.00082088273

lstm.weight_ih_l1 f4 [200, 50]
0	0xbd8c2cc8	-0.06844479
1	0x3cdaae3a	0.026694406
2	0xbd66dfab	-0.05636565
3	0xbd51a210	-0.051179945
4	0xbd859451	-0.0652243
5	0x3bd16e22	0.0063913027
6	0x3d4d09e2	0.050058253
7	0xbb90f354	-0.004423538
8	0x3d806c57	0.06270664
9	0x3dd18ae6	0.10231571
10	0xbd9e8580	-0.07740307
11	0x3dbabaab	0.09117635
12	0xbe908bbe	-0.28231615
13	0xbe160924	-0.14651924
14	0xbea1ae60	-0.3157835
15	0xbc8e0b18	-0.017339274
16	0x3db56045	0.088562526
17	0xbd876ca4	-0.066125184
18	0xbde86693	-0.113476895
19	0x3c3a3313	0.011364716
20	0x3cdbaea0	0.026816666
21	0x3e586e8f	0.21135925
22	0x3e1b2caf	0.15153764
23	0x3dfd83fc	0.1237869
24	0xbd2c8c31	-0.042125884
25	0xbc64e3f3	-0.013970363
26	0xbc6b99a7	-0.014379895
27	0xbd6e27d1	-0.05814344
28	0x3d908fd8	0.07058686
29	0x3db7c2c6	0.08972697
30	0x3cfcf123	0.030876702
31	0x3dd2cb61	0.10292698
32	0xbd2c66b8	-0.042090148
33	0x3d952f55	0.072844185
34	0xbe1cc2ee	-0.15308735
35	0x3dc8bec3	0.0980201
36	0xbc0025a4	-0.007821474
37	0x3d527cc3	0.051388513
38	0x3d102073	0.035187196
39	0x3e0ab870	0.1354692
40	0x3deb1b72	0.11479844
41	0xbd99010d	-0.074709035
42	0xbc6edde5	-0.014579271
43	0x3e0e3cda	0.138904
44	0x3d9cc2a7	0.076543145
45	0xbdf50a72	-0.11964883
46	0xbd8de0a0	-0.069276094
47	0x3a9fb5a9	0.0012184876
48	0x3e000f4d	0.12505837
49	0x3d466ac1	0.048441652
50	0x3cd1ce6e	0.025611129
51	0x3d48f523	0.049061906
52	0xbc93fcfd	-0.01806497
53	0xbd9a2004	-0.07525638
54	0x3baf8894	0.0053568576
55	0x3df30e06	0.11867909
56	0xbd8c5815	-0.06852738
57	0xbb7c680f	-0.0038514172
58	0x3e086692	0.13320377
59	0x3d5e4c12	0.054271765
60	0xbe1d69f5	-0.1537245
61	0x3ddd357c	0.10801217
62	0x3ded6cd9	0.11593027
63	0x3e478665	0.19484861
64	0xbd523684	-0.05132152
65	0xbdd434fd	-0.10361669
66	0xbbe125c1	-0.0068709557
67	0xbd5a2e18	-0.053266615
68	0x3d943267	0.07236176
69	0xbdf3fd9a	-0.11913605
70	0xbe03f230	-0.12885356
71	0xbe01cc1f	-0.12675522
72	0x3d40203a	0.046905734
73	0x3d6f7ed2	0.058470555
74	0xbcfa477e	-0.030551668
75	0xbde6e6fb	-0.11274525
76	0x3e0e3321	0.13886692
77	0x3c3d1f37	0.011543087
78	0x3da6500f	0.08120739
79	0x3d3035ce	0.043020062
80	0xbddaa777	-0.10676473
81	0x3aab7498	0.0013081012
82	0x3c43db74	0.011954177
83	0x3d70e07c	0.058807835
84	0x3c46e040	0.012138426
85	0x3df8ca9e	0.12148021
86	0xbe0c2591	-0.13686205
87	0xbe29f5be	-0.1659765
88	0x3dd3c4ff	0.103403084
89	0x3d532253	0.051546406
90	0x3dd7f5fb	0.10544964
91	0x3becd828	0.0072279163
92	0x3ce3e464	0.027818866
93	0x3d90e6c3	0.07075264
94	0x3c229706	0.009923702
95	0x3e2f1b1e	0.17100188
96	0x3d83dd1a	0.06438656
97	0xbd943404	-0.07236484
98	0x3c737abd	0.014860806
99	0xbe443b88	-0.19163334
100	0x3ded3d0f	0.11583912
101	0xbc2312ad	-0.009953183
102	0x3d39c112	0.04535014
103	0x3dc02275	0.09381572
104	0xbd9a6dd7	-0.075404815
105	0x3d7830bc	0.06059335
106	0x3ded81a5	0.11596993
107	0x3cd054dc	0.02543109
108	0xbd67a780	-0.056556225
109	0x3d891c88	0.06694895
110	0xbda7d4c5	-0.081948794
111	0x3d86d3e0	0.06583381
112	0xbce6749f	-0.028131781
113	0xbe11f532	-0.14253691
114	0x3cc2ff0b	0.023803255
115	0xbdeb3677	-0.11484998
116	0x3db27248	0.08713204
117	0xbd323402	-0.04350663
118	0xbdeb6880	-0.11494541
119	0xbd81bebb	-0.06335207
120	0x3e0b29db	0.13590185
121	0xbdd7de83	-0.105404876
122	0x3c000a9f	0.007815032
123	0xbe1c1fa5	-0.15246446
124	0x3d43eba0	0.04783213
125	0xbd51b37a	-0.051196553
126	0xbdb20313	-0.086919926
127	0xbd1ba725	-0.0380012
128	0x3d96f160	0.073702574
129	0x3bf0840d	0.0073399604
130	0xbd826cbf	-0.06368398
131	0x3e065022	0.13116506
132	0x3c621845	0.013799732
133	0x3c932e64	0.017966457
134	0xbcdef4d0	-0.027216345
135	0x3dd23f29	0.10265953
136	0x3d1da1e3	0.038484465
137	0xbca6a80d	-0.020343805
138	0xbd9eb783	-0.07749846
139	0xbde4f83d	-0.1118016
140	0xbdd92245	-0.106022395
141	0x3d70b546	0.058766626
142	0x3debfdf9	0.11523051
143	0xbcdd9aac	-0.027051292
144	0x3db57ac4	0.08861306
145	0xbdc09c7f	-0.09404849
146	0x3dd5ca5a	0.10438986
147	0x3def492b	0.116838776
148	0xbbcb7fd0	-0.006210305
149	0x3dade989	0.08491809
150	0x3e16b27c	0.14716524
151	0xbe1235ae	-0.1427829
152	0xbd68e5dc	-0.056859836
153	0x3cc55d73	0.024092412
154	0xbd5d529b	-0.054033857
155	0x3dcb20ec	0.09918389
156	0xbe755aa6	-0.23960361
157	0x3de3073c	0.11085364
158	0xbdf923ee	-0.12165056
159	0xbc9cf08c	-0.01915767
160	0x3c40f3f3	0.011776912
161	0x3def2083	0.11676123
162	0xbde67c4e	-0.11254178
163	0xbdb636ae	-0.08897148
164	0xbd6043c6	-0.054752134
165	0xbda86801	-0.08222962
166	0x3d135de7	0.035978224
167	0x3df1dc5f	0.118096106
168	0xbdf23e6d	-0.11828313
169	0x3e0f65f1	0.14003731
170	0x3d06240e	0.03274923
171	0xbd0c62a1	-0.034273747
172	0xbda4478d	-0.0802146
173	0xbd8519a8	-0.06499034
174	0x3e01c6d6	0.12673506
175	0x3dd0588c	0.10173139
176	0x3d849d51	0.06475318
177	0xbcc9b23c	-0.024621122
178	0x3dcda323	0.100408815
179	0x3df23f4c	0.11828479
180	0xbc18cdde	-0.009326426
181	0xbd0ccf16	-0.03437718
182	0xbca56ab0	-0.020192474
183	0xbdb897b7	-0.09013312
184	0xbe63a009	-0.22229017
185	0xbdc553ee	-0.09635149
186	0x3d61c405	0.05511858
187	0x3cc0df4b	0.023543974
188	0xbe09a7cd	-0.13442917
189	0x3e521aa9	0.20517983
190	0xbcc0cd40	-0.02353537
191	0xbd87d5ee	-0.06632601
192	0xbd24d24c	-0.040239617
193	0xbe114305	-0.14185722
194	0x3d2d8e33	0.04237194
195	0xbe667fc5	-0.22509678
196	0xbbae3f82	-0.0053176293
197	0x3c919570	0.017771453
198	0xbd9c4c50	-0.07631743
199	0xbd0e6c7e	-0.034771435
200	0xbd81ca06	-0.06337361
201	0xbe1885ac	-0.14894742
202	0xbd8eb236	-0.06967585
203	0x3d6a7afa	0.057246186
204	0x3d84cd19	0.06484432
205	0xbde5cbef	-0.11220538
206	0x3c985936	0.018597227
207	0x3d9c92d7	0.07645195
208	0xbcfdcef0	-0.030982465
209	0xbe16b5e5	-0.14717825
210	0x3deb2d51	0.11483253
211	0xbcbcea44	-0.023060925
212	0xbdfc81a0	-0.123294115
213	0x3d31b4a7	0.043385174
214	0xbcefc8ef	-0.029270617
215	0xbce21ffc	-0.027603142
216	0x3e066e5d	0.13128038
217	0xbd877907	-0.06614881
218	0x3d3c8dca	0.046033658
219	0x3e191262	0.14948419
220	0x3dd9eeb4	0.10641232
221	0x3e04e176	0.12976632
222	0xbe0483ce	-0.12940904
223	0xbad5399d	-0.001626778
224	0xbdf4f27e	-0.11960314
225	0x3df2c1b5	0.11853353
226	0x3b92125b	0.0044577545
227	0x3d85e2c2	0.06537391
228	0xbd590f15	-0.0529929
229	0x3dc37e9c	0.09545633
230	0xbccb4a65	-0.024815748
231	0xbd86fd06	-0.06591229
232	0x3db0cffc	0.0863342
233	0x3d55f4a0	0.052235246
234	0xbe01dde8	-0.12682307
235	0xbda1e247	-0.07904487
236	0x3cf4d4ce	0.02988663
237	0xbcb51fbf	-0.022109864
238	0xbe1f71b1	-0.15570714
239	0x3e5ecefb	0.21758644
240	0xbcc60c9a	-0.02417593
241	0x3dfc5cd9	0.12322397
242	0xbde44e0f	-0.11147701
243	0xbd7f27f8	-0.062293977
244	0xbdba1082	-0.0908518
245	0x3ca83fdc	0.020538263
246	0xbd60d0ba	-0.054886557
247	0x3d34a0ca	0.044098653
248	0x3dbf1d9d	0.0933182
249	0x3c13c127	0.009018219
250	0xbdd478a9	-0.103745766
251	0xbd54442f	-0.051822837
252	0x3db267a5	0.08711175
253	0x3cfec7bc	0.0311011
254	0xbd2e45e0	-0.042547107
255	0xbdaa0e41	-0.083035

lstm.weight_hh_l1 f4 [200, 50]
0	0x3dbc2534	0.091867834
1	0x3d78f787	0.060782935
2	0xbc961379	-0.018319832
3	0x3dd918dd	0.106004454
4	0xbdb15a04	-0.08659747
5	0xbe253288	-0.16132557
6	0x3d20acc0	0.039227247
7	0xbdf5c04b	-0.119995676
8	0x3c370e42	0.011172833
9	0xbdf46f79	-0.11935324
10	0x3d343b64	0.04400195
11	0x3e3f3cac	0.18675488
12	0xbd9029c5	-0.07039217
13	0xbddc33e9	-0.107520886
14	0xbcc72af9	-0.024312483
15	0xbbc53330	-0.006018065
16	0xbdf29902	-0.1184559
17	0x3de27ae8	0.11058599
18	0x3d8a4b26	0.06752615
19	0x3d8ce2e3	0.06879213
20	0xbd103dc4	-0.035215154
21	0xbd047955	-0.032342274
22	0x3d169fa9	0.036773358
23	0xbda8484d	-0.08216915
24	0xbd2666cb	-0.040625375
25	0xbd76f005	-0.060287494
26	0x3e3398ad	0.1753871
27	0xbd90e141	-0.07074214
28	0xbe179443	-0.14802651
29	0x3cc950d7	0.02457468
30	0x3e08e6e0	0.13369322
31	0x3d9a2add	0.07527707
32	0xbd4db7c5	-0.050224084
33	0x3db9578b	0.090499006
34	0xbdb8b9e9	-0.090198345
35	0xbd89ab54	-0.06722131
36	0x3da7a58b	0.08185872
37	0x3b48191c	0.0030532544
38	0x3c91b10b	0.017784616
39	0x3dd88d9d	0.105738856
40	0xbd60db9d	-0.05489694
41	0xbd52fddf	-0.05151164
42	0xbcdb1a8d	-0.026746059
43	0x3c58c14a	0.013229677
44	0xbdd43c75	-0.10363094
45	0xbc319c95	-0.010840555
46	0xbd25242e	-0.040317707
47	0x3d4cccfd	0.05000018
48	0xbd786770	-0.06064552
49	0x3d86c47b	0.065804444
50	0xbd8a9f55	-0.067686714
51	0xbe127f5b	-0.14306395
52	0x3d807ef3	0.06274214
53	0xbd92611f	-0.07147431
54	0x3ddf8e63	0.1091583
55	0x3b4f3a16	0.0031620315
56	0x3e0bdb76	0.13657936
57	0x3ded4652	0.11585678
58	0xbe14e470	-0.14540267
59	0xbded8466	-0.115975186
60	0x3d219af6	0.039454423
61	0xbd63abe7	-0.05558386
62	0x3b64fbf4	0.0034940215
63	0x3db4d190	0.088290334
64	0x3d8db2a4	0.069188386
65	0xbe063093	-0.13104467
66	0xbbc3e0d2	-0.0059777284
67	0xbd0729dd	-0.03299891
68	0x3df09b8d	0.11748419
69	0xbd4fb8db	-0.0507134
70	0x3c9f776c	0.019466124
71	0xbdb421eb	-0.08795532
72	0x3da412ab	0.08011373
73	0x3d53889d	0.051643956
74	0x3db16eef	0.08663737
75	0x3de763da	0.11298342
76	0xbdc12bf6	-0.09432213
77	0xbce63828	-0.02810295
78	0xbe0d9777	-0.1382731
79	0xbde36d75	-0.11104862
80	0x3db77652	0.08958115
81	0x3df29e7f	0.11846637
82	0xbdd9579c	-0.10612413
83	0xbd433cf2	-0.047665544
84	0xbd6e0c6d	-0.05811732
85	0x3d7a2a80	0.061075687
86	0xbe01f0f1	-0.12689568
87	0xbda2c4fa	-0.079477265
88	0xbd09b6e0	-0.03362167
89	0x3d77cbc2	0.060497053
90	0xbdc6030a	-0.096685484
91	0xbe1b063c	-0.15139097
92	0x3baf4dcb	0.00534985
93	0xbd388873	-0.045052003
94	0x3dad8cf0	0.08474147
95	0x3d4feb89	0.050761733
96	0xbdb4bb1b	-0.0882475
97	0x3e0f45b5	0.13991435
98	0x3c8caae0	0.017171323
99	0x3cf4b57e	0.029871698
100	0xbda96a47	-0.08272224
101	0x3d9df4ab	0.07712682
102	0xbcd7728f	-0.026299743
103	0xbd4ca331	-0.04996032
104	0x3ddb7554	0.10715738
105	0xbd8d6c26	-0.06905393
106	0x3c82fdb9	0.015990125
107	0x3db0a3f8	0.086250246
108	0x3d80f2d5	0.062963165
109	0x3c990d49	0.018683093
110	0x3cb8f308	0.022576824
111	0xbc753af3	-0.014967668
112	0xbdbe2d48	-0.092859805
113	0xbd4a3502	-0.04936696
114	0x3db78ad3	0.089620255
115	0x3e1c707d	0.15277286
116	0x3bc1f10b	0.005918627
117	0x3d861cd1	0.06548465
118	0xbd84a6bd	-0.06477115
119	0xbdf65d23	-0.12029483
120	0xbdd6a162	-0.1048
121	0x3d8885e6	0.06666164
122	0x3cb3c015	0.021942178
123	0xbd43c735	-0.0477974
124	0x3daf6f3d	0.08566139
125	0x3c8947e5	0.016757915
126	0xbdfbc5d7	-0.12293594
127	0xbdedbacc	-0.11607894
128	0x3dc2d32f	0.09512936
129	0x3d8de729	0.06928856
130	0x3c75716a	0.014980653
131	0x3d0d99cc	0.0345705
132	0xbd9df63c	-0.07712981
133	0xbcdd894a	-0.027043004
134	0x3deec30e	0.116582975
135	0x3de6f853	0.11277833
136	0xbd26f7f0	-0.040763795
137	0x3d7ec5bf	0.062200304
138	0x3d945850	0.07243407
139	0x3d974d5f	0.07387804
140	0x3d37abe5	0.044841666
141	0x390af709	0.00013252733
142	0x3caeeed4	0.021354116
143	0x3d071118	0.032975286
144	0x3c7d0107	0.0154421395
145	0xbdda57dc	-0.10661289
146	0xbd63344d	-0.0554698
147	0x3d9143e9	0.07093031
148	0xbdbf07f8	-0.09327692
149	0xbd7bfa53	-0.061518025
150	0x3a350a49	0.00069061347
151	0xbdf8d2cc	-0.12149581
152	0xbdb44f34	-0.08804169
153	0xbd72d1b8	-0.059282035
154	0xbdbdaeba	-0.09261842
155	0xbe17eceb	-0.14836471
156	0x3d27caed	0.04096501
157	0xbd058955	-0.032601673
158	0x3d0a97f1	0.03383631
159	0xbd80d6c0	-0.0629096
160	0xbc2d6f4a	-0.010585615
161	0x3dec3c4b	0.115349375
162	0xbe0660db	-0.13122885
163	0x3d81b1e0	0.06332755
164	0xbdb72fa3	-0.08944633
165	0x3de19c66	0.11016159
166	0xbe26899e	-0.16263434
167	0xbd470d87	-0.048596885
168	0xbdfe18a1	-0.12407041
169	0xbd9bfbb1	-0.07616366
170	0xbd5f0da1	-0.054456357
171	0x3e24e37f	0.16102408
172	0xbdaf16db	-0.08549281
173	0x3da93a1d	0.08263037
174	0xbc16bfb3	-0.009200978
175	0x3bcaef83	0.006193103
176	0x3e08b1dc	0.13349098
177	0xbd57aa0c	-0.052652404
178	0xbdcec4f6	-0.10096161
179	0xbd08112c	-0.0332195
180	0x3da8b9ee	0.08238588
181	0xbdab7543	-0.08371975
182	0x3d314ca8	0.043285996
183	0xbca85e5c	-0.020552807
184	0x3da4eace	0.08052598
185	0x3dc4e2d6	0.09613578
186	0x3dd692be	0.104772076
187	0x3e0748c2	0.13211349
188	0x3d413ac2	0.047175176
189	0xbb05fce5	-0.0020444926
190	0xbdb47375	-0.08811084
191	0x3d08d2a6	0.033404015
192	0xbddc9fe5	-0.10772685
193	0xbdba3a68	-0.09093171
194	0xbe07d29b	-0.13263933
195	0x3b693b77	0.0035588422
196	0xbcbadafb	-0.022809496
197	0x3cdb607f	0.026779411
198	0x3e043da4	0.12914139
199	0xbd99bcfa	-0.075067475
200	0x3c209ded	0.009803277
201	0xbe07d106	-0.1326333
202	0x3d973695	0.073834576
203	0x3dcf358d	0.10117636
204	0x3db05c26	0.08611326
205	0xbd82ae63	-0.06380918
206	0xbcdbd158	-0.026833221
207	0xbd027fb9	-0.031860087
208	0x3dde050f	0.108408086
209	0x3d8a7256	0.06760089
210	0x3b0f6d80	0.0021885335
211	0x3d0d716f	0.034532007
212	0xbd4ebb2b	-0.050471466
213	0xbdf812a9	-0.12112934
214	0xbd857338	-0.06516117
215	0x3db7c5b0	0.08973253
216	0x3d16bcee	0.03680127
217	0x3d992cea	0.0747927
218	0x3dbeeedc	0.093229026
219	0x3d5365f4	0.051610902
220	0x3e0c9e4c	0.1373226
221	0xbdba432e	-0.09094845
222	0x3ce45065	0.027870366
223	0x3d5748b1	0.05255956
224	0x3d04cfbb	0.03242467
225	0x3daa1ac2	0.08305885
226	0x3dcfccbb	0.10146471
227	0x3d9586c1	0.07301093
228	0xbcbd12e7	-0.023080302
229	0x3dc7c7e5	0.09754924
230	0xbdccc3ab	-0.09998258
231	0x3d21acbd	0.039471377
232	0xbd804c7b	-0.062645875
233	0x3dad153b	0.08451315
234	0xbd92875a	-0.071547225
235	0xbdd97d3e	-0.10619591
236	0xbdb71cbb	-0.08941027
237	0xbd0cff58	-0.034423202
238	0x3d046186	0.032319568
239	0xbc1002bd	-0.008789715
240	0xbd3a5904	-0.04549505
241	0xbd79de9d	-0.061003316
242	0xbcd20b4f	-0.025640158
243	0x3daab8f3	0.083360575
244	0xbdb6573d	-0.08903358
245	0x3d524164	0.051331893
246	0xbdf2f3bb	-0.11862894
247	0xbda4134c	-0.08011493
248	0x3b7395da	0.0037168176
249	0xbe01de9b	-0.12682573
250	0x3df02857	0.11726444
251	0x3dd24246	0.10266547
252	0x3be22d26	0.006902355
253	0xbd137c30	-0.036007106
254	0x3e17ac72	0.14811876
255	0xbdf29c7a	-0.11846252

lstm.bias_ih_l1 f4 [200]
0	0x3e1babb3	0.15202217
1	0x3d86b4bf	0.06577443
2	0xbe101d18	-0.14073598
3	0xbc4b27c9	-0.012399622
4	0x3df949c7	0.12172275
5	0xbd6fb331	-0.0585205
6	0xbda9e087	-0.08294778
7	0x3da7d38e	0.08194648
8	0x3d449946	0.047997735
9	0xbd92c305	-0.07166103
10	0x3de98477	0.11402219
11	0xbde366f8	-0.11103624
12	0xbdbcce24	-0.09219006
13	0x3da5ac05	0.08089451
14	0xbdc1fab1	-0.09471644
15	0xbd81850e	-0.06324206
16	0xbda95cf3	-0.08269682
17	0xbd39b62c	-0.04533975
18	0x3b0193e8	0.0019771997
19	0xbd6978ff	-0.057000156
20	0x3defe736	0.11714022
21	0xbdf39be9	-0.11894972
22	0x3e04895d	0.12943025
23	0xbd88a3d1	-0.066718705
24	0x3d114ea2	0.03547538
25	0xbcba7710	-0.022761852
26	0x3d9ffe05	0.07812122
27	0x3dc8ec2d	0.09810672
28	0x3e10a3be	0.14124963
29	0x3e14270b	0.14468019
30	0xbc074885	-0.008257036
31	0x3db885a2	0.090098634
32	0xbcd3610c	-0.025803111
33	0x3e0169a7	0.1263796
34	0xbcb8c9b8	-0.022557124
35	0x3dfd9cd9	0.12383432
36	0x3ddc61d9	0.107608505
37	0xbdc75717	-0.09733408
38	0xbde357f3	-0.11100759
39	0xbdc70c82	-0.097191826
40	0xbd8e05a7	-0.06934672
41	0x3d3fa847	0.04679134
42	0xbdabaf37	-0.08383029
43	0xbdba0caf	-0.090844505
44	0x3dc14d75	0.09438602
45	0x3dedd6fc	0.11613271
46	0x3e24bf73	0.16088657
47	0x3df82865	0.1211708
48	0x3dd3654f	0.103220575
49	0xbe0fdd49	-0.14049257
50	0xbd14193b	-0.036156874
51	0x3d9f903c	0.077911824
52	0xbe1b2417	-0.15150486
53	0x3de35a77	0.11101239
54	0xbd32611c	-0.043549642
55	0x3d761dc7	0.06008699
56	0x3ced5f65	0.028976152
57	0xbd9afc11	-0.07567609
58	0xbda9c170	-0.082888484
59	0xbca1fa05	-0.019772539
60	0x3d5c3148	0.053757936
61	0x3dbebaed	0.09312997
62	0x3db0cf08	0.08633238
63	0xbd9e5252	-0.07730545
64	0xbde0fa17	-0.10985201
65	0xbd145eb9	-0.036223147
66	0x3db96ba4	0.09053734
67	0x3d8b20ee	0.0679339
68	0xbd7488b4	-0.059700683
69	0xbd54074d	-0.051764775
70	0xbda00382	-0.07813169
71	0xbdc83693	-0.09776034
72	0x3e08011b	0.13281672
73	0xbdb572d0	-0.08859789
74	0xbd9341d5	-0.07190291
75	0xbdf869f9	-0.12129588
76	0xbd97bffb	-0.07409664
77	0x3da8ed74	0.082484156
78	0x3dc7aa85	0.09749321
79	0x3e05589e	0.13022086
80	0x3ba46b5e	0.005017682
81	0xbdeb6345	-0.114935435
82	0xbe00b85e	-0.1257033
83	0x3de957ee	0.113937244
84	0x3d657fc6	0.056030057
85	0x3d911c55	0.07085482
86	0x3dbf87fc	0.09352109
87	0xbddf9f65	-0.10919074
88	0xbd825887	-0.063645415
89	0xbddfdc3e	-0.1093068
90	0x3e10c360	0.1413703
91	0x3dac74b6	0.08420698
92	0x3dcf52f7	0.10123246
93	0x3d443d38	0.047909945
94	0x3d5be28f	0.05368286
95	0x3db5ac84	0.08870795
96	0x3db6dfcc	0.089294046
97	0xbc5e033d	-0.013550577
98	0x3d75f08e	0.060043864
99	0xbdc1f0d8	-0.094697654
100	0xbd98392c	-0.0743278
101	0xbd90ad74	-0.070643336
102	0x3cc317e1	0.023815097
103	0xbd842078	-0.064515054
104	0xbdf7343f	-0.12070512
105	0xbdbc3c21	-0.09191156
106	0x3cfdf675	0.031001309
107	0x3d2d8d31	0.04237098
108	0xbd88fd7f	-0.066889755
109	0xbe02c8ed	-0.1277196
110	0xbcd02b00	-0.025411129
111	0x3d974c72	0.07387628
112	0x3d8e318b	0.06943043
113	0x3df94ded	0.12173066
114	0xbde50146	-0.111818835
115	0xba579e6f	-0.00082252076
116	0xbd9e3111	-0.077242024
117	0x3c8a815b	0.016907385
118	0x3ccbf0fb	0.024895182
119	0xbdc7c5f6	-0.09754555
120	0xbd87bdde	-0.06628011
121	0x3dce9fb7	0.10089057
122	0x3c8e9501	0.017405035
123	0xbd119880	-0.035545826
124	0x3dab82d9	0.083745666
125	0x3d4e04fa	0.050297715
126	0xbdd2e64d	-0.10297833
127	0xbe0cfe34	-0.13768846
128	0xbdb441a3	-0.08801582
129	0xbd0aaee3	-0.03385819
130	0xbe09123d	-0.13385864
131	0x3deb57d3	0.114913605
132	0xbd13828c	-0.03601317
133	0x3d6a82b6	0.057253562
134	0xbde03773	-0.10948076
135	0xbe089e01	-0.13341524
136	0x3d238767	0.03992405
137	0x3db01bfc	0.085990876
138	0x3e03df3e	0.12878129
139	0x3deb35d6	0.11484878
140	0xbe11a999	-0.14224853
141	0xbd7e88a2	-0.062142022
142	0x3dcccf46	0.10000472
143	0xbd50447c	-0.05084656
144	0xbe0af0f8	-0.13568485
145	0x3dc97dcd	0.09838448
146	0xbd21df9d	-0.039519895
147	0x3d6d7610	0.05797392
148	0x3d764fa1	0.060134534
149	0xbce1b3ff	-0.02755165
150	0xbded8753	-0.11598077
151	0xbd932470	-0.07184684
152	0x3cc1dbfc	0.023664467
153	0x3df5b606	0.11997609
154	0x3e131ffc	0.1436767
155	0x3d96e988	0.07368761
156	0xbd70cfe2	-0.058792002
157	0x3c628f47	0.013828105
158	0xbb6deddb	-0.0036305103
159	0x3d32818b	0.043580573
160	0x3d4ccc8f	0.04999977
161	0x3dd4fd78	0.10399908
162	0x3df59f32	0.11993255
163	0x3d8a9f04	0.06768611
164	0x3dd8c215	0.10583893
165	0xbc9b1d47	-0.018934859
166	0xbc51ff9f	-0.0128172925
167	0x3d5659f3	0.052331876
168	0x3c6ff749	0.01464636
169	0xbcdfe64b	-0.027331492
170	0xbdca5459	-0.09879369
171	0x3e0e2080	0.13879585
172	0xbd2861f1	-0.04110903
173	0xbcc1a538	-0.023638353
174	0xbd47fb39	-0.04882357
175	0xbbbd00a2	-0.0057678977
176	0xbe0196c6	-0.12655172
177	0xbdb5cecb	-0.08877333
178	0xbdf76754	-0.12080255
179	0xbdaeb3df	-0.085304014
180	0x3dcff98d	0.1015502
181	0x3da63ab8	0.081166685
182	0xbd484b9c	-0.04890023
183	0xbdd45cd5	-0.10369269
184	0x3c90bf0c	0.017669223
185	0x3dd639ef	0.10460269
186	0xbc4079af	-0.011747762
187	0x3e0a2633	0.13491134
188	0x3d640ad0	0.055674374
189	0x3c390cce	0.011294557
190	0x3df79163	0.12088277
191	0xbc1c1fcb	-0.009529064
192	0xbd5286b4	-0.051397994
193	0x3e0f855e	0.1401572
194	0x3d091e2a	0.033476032
195	0xbdf61d79	-0.1201734
196	0x3d3099a6	0.04311528
197	0x3d4c0328	0.049807698
198	0xbce13dde	-0.02749532
199	0x3d6d5631	0.057943527

lstm.bias_hh_l1 f4 [200]
0	0xbdd112cb	-0.102086626
1	0x3c3cf629	0.0115332985
2	0xbe05e7de	-0.13076732
3	0xbcf090fb	-0.029366007
4	0x3df197e3	0.11796548
5	0xbc8906bf	-0.01672685
6	0xbc8bea55	-0.017079512
7	0x3e19ab68	0.15006793
8	0x3e01e12d	0.12683554
9	0xbd8599cc	-0.06523475
10	0xbd850313	-0.06494727
11	0x3dafa6fb	0.08576771
12	0xbc42075b	-0.011842574
13	0xbd6888a2	-0.05677093
14	0x3d9d3deb	0.076778255
15	0xbdbffe52	-0.093746796
16	0x3da6ae94	0.08138767
17	0x3cbaf8f8	0.022823796
18	0x3c85ef0e	0.016349342
19	0x3e2261fe	0.15857694
20	0x3d7445b3	0.059636783
21	0x3cded7b8	0.027202472
22	0x3cd36b1e	0.025807913
23	0x3da125e4	0.07868555
24	0xbcab5cd4	-0.020918287
25	0x3de70903	0.11281016
26	0xbd0f9df0	-0.03506273
27	0x3d94113b	0.07229849
28	0x3d55d87a	0.0522084
29	0x3df72c91	0.12069047
30	0x3d850a65	0.06496123
31	0x3e0f8ca0	0.14018488
32	0xbd9230ee	-0.07138239
33	0xbd17da2e	-0.037073307
34	0x3d6b6c3c	0.057476267
35	0x3ceb02b4	0.028687812
36	0xbd6b1f56	-0.05740293
37	0xbdde5317	-0.10855692
38	0xbd971147	-0.07376342
39	0x3d906064	0.07049635
40	0xbc406df2	-0.011744963
41	0x3d702f77	0.058639016
42	0x3dd24f71	0.102690585
43	0x3dcb351f	0.099222414
44	0x3ca06a69	0.01958199
45	0xbc2e0e93	-0.010623592
46	0x3e538f10	0.20660043
47	0x3daad209	0.08340842
48	0xbc55c379	-0.013047093
49	0x3d3b3a68	0.045709997
50	0xbe00d234	-0.12580186
51	0xbe06d617	-0.13167606
52	0xbd87e672	-0.06635751
53	0x3d3671a9	0.04454199
54	0xbd84d2dc	-0.06485531
55	0xbd646563	-0.055760752
56	0x3def1e2b	0.11675676
57	0x3d37609b	0.044769865
58	0x3d8f8d82	0.07009412
59	0x3da10401	0.07862092
60	0xbdd10f0d	-0.10207949
61	0x3dda87db	0.106704436
62	0xbdf35683	-0.11881735
63	0xbdef0b38	-0.11672062
64	0x3d11826e	0.035524778
65	0x3af34b4f	0.0018561872
66	0x3d1ad146	0.037797235
67	0x3c6e43fa	0.014542574
68	0x3d1dd38c	0.038531825
69	0x3d97e580	0.074168205
70	0xbdc35204	-0.095371276
71	0x3e02d5e6	0.12776908
72	0xbd02562a	-0.031820454
73	0xb9832672	-0.0002501491
74	0xbd1211ea	-0.035661615
75	0x3d58093d	0.052743185
76	0x3d86fc59	0.065911
77	0xbd6c27ed	-0.057655264
78	0x3e040e93	0.12896185
79	0x3d0d3b04	0.03448011
80	0x3c327ae7	0.01089356
81	0x3dfa9761	0.122359045
82	0xbb7fe83d	-0.0039048337
83	0x3dae2d1f	0.085047
84	0x3d97ff64	0.07421759
85	0x3da4a8b6	0.080399916
86	0xbdc9c6d0	-0.098523736
87	0x3caa3f87	0.020782245
88	0x3bbe2214	0.0058024023
89	0x3ddd4006	0.10803227
90	0x3ded582f	0.11589085
91	0xbd59b33f	-0.053149458
92	0x3d4e71ab	0.05040137
93	0xbdb50fdd	-0.08840916
94	0xbdfb8d3f	-0.122828
95	0xbdbc88ba	-0.09205766
96	0x3d7a514b	0.061112683
97	0xbd9764da	-0.07392283
98	0xbdf30486	-0.11866097
99	0xbc302f07	-0.0107534
100	0xbda2c084	-0.07946876
101	0xbd00e041	-0.031463865
102	0xbc98abe6	-0.018636655
103	0xbdc0f2ba	-0.094212964
104	0x3d44eda8	0.04807821
105	0x3ddd0c4d	0.10793362
106	0xbd17994d	-0.037011433
107	0xbe11b66f	-0.14229749
108	0x3d890eef	0.066923015
109	0x3e037de3	0.1284099
110	0xbd81ffd1	-0.06347621
111	0xbdc21f88	-0.0947867
112	0xbd1da3f7	-0.038486447
113	0x3d6239ea	0.055231012
114	0x3d81706e	0.063202724
115	0xbc83379f	-0.016017733
116	0xbdf101a4	-0.11767891
117	0xbd89a6aa	-0.06721242
118	0xbda1b74e	-0.07896291
119	0x3d9a0f34	0.07522431
120	0x3c81b21e	0.015832003
121	0x3dfe0e5e	0.12405084
122	0x3e09410f	0.13403724
123	0x3d631b32	0.055445857
124	0x3e10dce4	0.14146763
125	0xbd747ec7	-0.059691217
126	0x3e06f165	0.13178022
127	0x3e0535c9	0.13008799
128	0x3db2d194	0.0873138
129	0x3cbbc223	0.02291972
130	0x3dd56cfd	0.104211785
131	0x3d3cec1c	0.04612361
132	0xbdced16c	-0.10098538
133	0xbdef12d7	-0.11673515
134	0xbd477032	-0.048690982
135	0x3df39ef9	0.11895556
136	0xbd09ce65	-0.0336441
137	0x3e080ad2	0.13285378
138	0x3e071eb0	0.131953
139	0x3bb4dfe4	0.005519854
140	0x3dd42db9	0.103602834
141	0xbce8a9aa	-0.028401215
142	0xbd552daa	-0.0520455
143	0xbd9cedfb	-0.07662579
144	0x3deaeec6	0.11471324
145	0x3c97eadf	0.018544612
146	0xbd83a6cd	-0.06428299
147	0x3da122ba	0.07867952
148	0xbd305d20	-0.04305756
149	0x3d32f4db	0.043690544
150	0xbd91250e	-0.07087146
151	0xbbbde373	-0.0057949363
152	0xbd5be542	-0.053685434
153	0x3dda960e	0.10673152
154	0xbdcd73f3	-0.10031881
155	0x3d8f20bc	0.069886655
156	0xbdc7eb70	-0.09761703
157	0xbda140a8	-0.0787366
158	0xbdc917d6	-0.098189995
159	0x3e1f225f	0.15540455
160	0x3d8b4145	0.067995586
161	0x3d85e154	0.065371186
162	0x3d3f0ae5	0.04664125
163	0x3dcfdd39	0.10149617
164	0x3c4c1fc7	0.012458748
165	0xbdc47b7a	-0.09593864
166	0xbda3b656	-0.07993762
167	0x3df2690d	0.11836443
168	0x3ce2660c	0.02763655
169	0x3e10072d	0.14065237
170	0xbe13eef4	-0.14446622
171	0xbc517801	-0.012784959
172	0x3dc7e4a4	0.097604066
173	0xbda0f80c	-0.07859811
174	0xbdd14ec6	-0.10220103
175	0xbd9b78e2	-0.07591416
176	0xbd389732	-0.045066066
177	0x3d4aae0e	0.049482398
178	0xbdb739ee	-0.08946596
179	0xbdd8d286	-0.10587029
180	0x3e03bdb1	0.1286533
181	0x3e176b60	0.14787054
182	0xbdfb8bad	-0.122825004
183	0x3daa10e0	0.08304
184	0xbdff9e23	-0.12481334
185	0x3ce77082	0.02825189
186	0xbd60d60e	-0.05489164
187	0xbdd170a8	-0.102265656
188	0x3d5ba16e	0.05362075
189	0x3e0414e4	0.12898594
190	0x3d3c3c05	0.045955677
191	0x3d5bc0c7	0.053650644
192	0xbcbdea3f	-0.023182986
193	0xbdca167e	-0.09867571
194	0x3e03acfa	0.12858954
195	0xbce6b562	-0.028162662
196	0xbd77e76b	-0.06052343
197	0x3c52cd13	0.012866276
198	0x3e25983c	0.16171354
199	0xbdd4adaa	-0.10384686

fc.weight f4 [1, 50]
0	0x3e24553c	0.1604814
1	0xbe0666a5	-0.13125093
2	0xbcd1856e	-0.02557632
3	0x3df6c673	0.1204957
4	0x3d2f96e7	0.04286852
5	0xbd22f8b2	-0.039787956
6	0xbe002409	-0.12513746
7	0xbde12ae3	-0.10994508
8	0xbd82ccca	-0.06386717
9	0xbdc09da1	-0.09405065
10	0x3e29df4b	0.16589086
11	0x3e254295	0.1613868
12	0xbd3f9323	-0.04677118
13	0xbe0c0c66	-0.13676605
14	0xbe1298e5	-0.14316137
15	0xbe06ec16	-0.13175997
16	0xbd7cf9fc	-0.06176184
17	0xbc2a4c40	-0.010394156
18	0xbc88c0b0	-0.016693443
19	0x3de68a9b	0.11256906
20	0x3d2ff98f	0.042962607
21	0x3d94f093	0.072724484
22	0x3da95d0f	0.08269703
23	0xbddcda77	-0.10783856
24	0x3defe96a	0.11714442
25	0x3c0c60b2	0.008567976
26	0x3e0db467	0.1383835
27	0x3dae7018	0.08517474
28	0xbddce52b	-0.10785898
29	0xbda54bf2	-0.08071126
30	0x3e1ec5ed	0.1550519
31	0xbddb24b0	-0.10700357
32	0x3e05a14f	0.13049816
33	0xbd8605f8	-0.06544107
34	0xbe1f4d8b	-0.15556924
35	0x3e10c730	0.14138484
36	0xbe27dfad	-0.1639392
37	0x3db6bc56	0.08922641
38	0x3a773d23	0.00094314123
39	0x3d93afc3	0.07211258
40	0x3cefac64	0.029257007
41	0x3dcad9f4	0.099048525
42	0xbd8e816d	-0.0695828
43	0xbcd83660	-0.026393116
44	0x3e3253b5	0.17414744
45	0xbdbda671	-0.09260262
46	0x3e03bdca	0.12865368
47	0xbe113ead	-0.14184065
48	0x3dee8821	0.11647058
49	0x3b21c05c	0.0024681306
