models/lstm_model_5m.pt (torch, 127756 bytes, 9 tensors)

lstm.weight_ih_l0 f4 [200, 1]
0	0xbd74cfc4	-0.059768453
1	0x3d42e7b0	0.047584236
2	0x3dbe9c5d	0.09307168
3	0x3d1f57f0	0.038902223
4	0xbdcc2cf6	-0.09969513
5	0x3d0220f0	0.031769693
6	0xbc8b6bce	-0.017019179
7	0x3d315fbf	0.0433042
8	0xbd25be58	-0.04046473
9	0x3d872b4f	0.06600057
10	0xbd3c153d	-0.045918692
11	0x3d970641	0.0737424
12	0x3e0ccd00	0.13750076
13	0x3e214b55	0.15751393
14	0xbd003791	-0.031302992
15	0xbe23c754	-0.15994006
16	0x3dc07f17	0.093992405
17	0x3ba8c5f2	0.00515055
18	0xbc07e7f9	-0.008295053
19	0xbd388c65	-0.045055766
20	0x3d92fb48	0.07176834
21	0xbdb69405	-0.08914951
22	0x3d84b0cf	0.06479036
23	0xbc241bdd	-0.010016409
24	0x3de4170a	0.11137207
25	0xbdafcef0	-0.08584392
26	0xbabffa7c	-0.0014646794
27	0xbcf7fd79	-0.030272232
28	0x3cee9d73	0.029127812
29	0x3d219f72	0.0394587
30	0xbddcd86e	-0.10783468
31	0xbd6f4d19	-0.058423135
32	0x3d383ee8	0.044981867
33	0x3e557a9a	0.2084755
34	0x3e1eb679	0.15499295
35	0xbcb73808	-0.022365585
36	0x3d6f6046	0.058441423
37	0xbd73cda1	-0.059522275
38	0xbd644f33	-0.055739593
39	0x3e422b9d	0.1896195
40	0xbd5a91f0	-0.053361833
41	0x3e1cc9a3	0.15311293
42	0xbd60d42d	-0.054889847
43	0x3cca550e	0.02469876
44	0xbd2ce9db	-0.04221521
45	0x3d86f23a	0.0658917
46	0x3e2b81ab	0.16748683
47	0xbc231eb5	-0.009956052
48	0x3d7687f9	0.060188267
49	0x3db76d0c	0.08956346
50	0x3e4546bc	0.19265264
51	0x3dd27186	0.10275559
52	0x3c6fc542	0.014634432
53	0x3df62bea	0.12020095
54	0x3dc200b4	0.0947279
55	0x3e4f3085	0.20233352
56	0x3d696e3b	0.05698989
57	0x3e25da0a	0.16196457
58	0x3e314119	0.17309989
59	0xbd9007c1	-0.07032729
60	0x3e0bc5dc	0.13649696
61	0x3e45df50	0.19323468
62	0xbd093758	-0.033500046
63	0x3e1af186	0.15131196
64	0x3d0e5736	0.03475114
65	0xbd7a4a87	-0.06110623
66	0x3dce7f85	0.10082916
67	0x3d0993c1	0.033588175
68	0xbde4ca5a	-0.11171408
69	0xbd9b8e26	-0.07595472
70	0x3e34e24b	0.17664449
71	0xbd0482c6	-0.032351278
72	0x3d6c0883	0.057625305
73	0xbc4fef5a	-0.012691343
74	0x3d1ee1cf	0.038789567
75	0xbda0c0b3	-0.078492545
76	0xbd1d21b2	-0.038362212
77	0xbdac07da	-0.08399935
78	0xbd12be6d	-0.035826135
79	0xbdd642ce	-0.10461961
80	0xbd21f176	-0.039536916
81	0x3e095dfa	0.13414755
82	0x3dd757aa	0.105147675
83	0xbd5f7b9d	-0.054561246
84	0xbd0ed37e	-0.034869663
85	0xbd4783ac	-0.048709556
86	0x3c95d376	0.018289309
87	0x3e191090	0.14947724
88	0xbdcc3387	-0.099707656
89	0xbd4cfa12	-0.050043173
90	0xbd80b5c9	-0.06284673
91	0xbd1ab4be	-0.037770025
92	0xbd9a74a5	-0.075417794
93	0x3c00e475	0.007866968
94	0xbd87a450	-0.06623137
95	0x3cf9450f	0.030428438
96	0x3d99a094	0.07501331
97	0x3e0dc447	0.13844405
98	0xbc992d1c	-0.018698268
99	0xbd1ecea4	-0.038771287
100	0xbe503de5	-0.20336111
101	0x3e3c6d80	0.18401146
102	0x3d463fb9	0.048400614
103	0xbdb3d42a	-0.087807015
104	0x3d9590c7	0.07303005
105	0xbddcb76f	-0.10777175
106	0xbaf2f404	-0.0018535857
107	0x3e45ad87	0.19304477
108	0x3dee17b5	0.116256155
109	0xbd62745d	-0.055286754
110	0x3e1dd1d3	0.15412073
111	0x3da9f462	0.082985654
112	0x3e3f444c	0.18678397
113	0xbd6a7fd0	-0.057250798
114	0xbdfe9bc2	-0.12432052
115	0xbdcec2d1	-0.10095752
116	0xbe0ed057	-0.13946663
117	0xbdbc1793	-0.09184184
118	0x3e40cb38	0.18827522
119	0x3ddb7b55	0.10716883
120	0xbe41201f	-0.1885991
121	0x3c9cfcb9	0.019163476
122	0x3db9813b	0.09057852
123	0x3c62c97a	0.013841981
124	0x3e1205cc	0.14260024
125	0x3e2fcc0e	0.17167684
126	0xbe36f8db	-0.17868368
127	0x3d03425e	0.032045715
128	0x3d988caf	0.07448708
129	0xbe537a42	-0.20652106
130	0x3dc40411	0.09571088
131	0xbe535f06	-0.20641717
132	0x3d5ae528	0.053441197
133	0xbe4d9d9b	-0.20079653
134	0xbdda0e14	-0.106472164
135	0x3c001144	0.007816616
136	0x3e1c7f21	0.15282871
137	0x3d89c0ee	0.067262515
138	0x3db59495	0.088662304
139	0xbdbb76ea	-0.091535404
140	0x3e3b5fc9	0.18298258
141	0xbd980061	-0.07421947
142	0x3e295b9a	0.1653885
143	0x3d0aa82b	0.033851784
144	0x3c80b922	0.015713278
145	0xbc08669c	-0.008325245
146	0xbe33283e	-0.1749582
147	0xbd9cf4c6	-0.07663874
148	0xbde94c4c	-0.113915056
149	0xbe31c235	-0.1735924
150	0xbc4f8707	-0.01266647
151	0xb8698fc8	-5.5685436e-05
152	0xbdbc677f	-0.09199428
153	0xbcf9144d	-0.030405188
154	0x3db8054d	0.08985386
155	0xbc852dae	-0.016257133
156	0xbc82aea5	-0.015952418
157	0x3e1b02bf	0.15137766
158	0x3d11b47e	0.03557252
159	0xbd1e24ff	-0.0386095
160	0xbcdbece5	-0.026846359
161	0x3ddf08a6	0.108903214
162	0x3d89676b	0.067091785
163	0x3d9bda3f	0.076099865
164	0x3d653a82	0.055964
165	0xbd0be26e	-0.034151487
166	0x3e2192a2	0.15778592
167	0xbd92117a	-0.0713224
168	0xbd363130	-0.044480503
169	0xbe104f6e	-0.140928
170	0xbbb7e153	-0.0056115775
171	0xbc679221	-0.014133961
172	0x3e49cf69	0.19708027
173	0x3d39f590	0.045400202
174	0x3cbfabf3	0.023397421
175	0xbd2e343e	-0.04253029
176	0x3e389e72	0.18029192
177	0x3e1fa463	0.15590052
178	0xbdcc0cdd	-0.09963391
179	0x3e39833d	0.1811647
180	0x3d35c3ec	0.0443763
181	0xbb92da97	-0.0044816243
182	0xbb20c3a7	-0.002453068
183	0x3e2a0cd8	0.16606462
184	0x3c6b428e	0.01435913
185	0x3cfe6744	0.0310551
186	0xbdffc302	-0.12488367
187	0x3e09a99d	0.13443609
188	0xbbc60971	-0.006043606
189	0x3d136c84	0.03599216
190	0xbc4954b2	-0.012288259
191	0xbd456a40	-0.04819703
192	0xbd37c03c	-0.044861063
193	0x3c7e7644	0.015531126
194	0x3deb4743	0.114882015
195	0x3d859ec0	0.0652442
196	0x3d61b060	0.055099845
197	0x3dd81239	0.10550351
198	0xbd579e9e	-0.052641504
199	0x3dfd1dbe	0.123591885

lstm.weight_hh_l0 f4 [200, 50]
0	0xbe1dfbc3	-0.1542807
1	0x3e2c7593	0.16841726
2	0x3d8bdb70	0.06828964
3	0xbad320e6	-0.0016107827
4	0xbc91d780	-0.017802954
5	0xbd95937e	-0.073035225
6	0xbd3bdec2	-0.045866735
7	0xbd89d68e	-0.06730376
8	0x3defeaf4	0.117147356
9	0xbdec8c52	-0.115502015
10	0xbc21f6bf	-0.009885489
11	0xbd9e1971	-0.07719696
12	0x3e104052	0.14087036
13	0x3d48a0f7	0.048981633
14	0xbe4f4bcc	-0.20243758
15	0xbe077724	-0.13229042
16	0xbbdda59b	-0.0067641265
17	0xbd0f1b87	-0.03493836
18	0x3d04d520	0.032429814
19	0xbdbbbebb	-0.09167238
20	0xbc1ff3aa	-0.009762684
21	0x3de5486e	0.111954555
22	0xbd89f760	-0.06736636
23	0x3c08569f	0.008321433
24	0x3d147f57	0.036254253
25	0x3e0fe8af	0.14053605
26	0xbd6c86e6	-0.057745837
27	0xbdf22f0b	-0.11825379
28	0x3d52a37d	0.051425446
29	0xbe0b3fa2	-0.13598493
30	0x3dfe7a7f	0.12425708
31	0xbd233ba8	-0.039851815
32	0x3d8f59f3	0.06999578
33	0xbd93e1e2	-0.07220818
34	0xbe09db11	-0.13462473
35	0xbce7e382	-0.028306726
36	0xbd6f8762	-0.05847872
37	0x3e28ed7e	0.16496846
38	0xbdb299b8	-0.08720726
39	0xbd6808c0	-0.05664897
40	0xbd6d9608	-0.05800441
41	0x3e19fc69	0.15037693
42	0x3e05c496	0.13063273
43	0x3df1be2d	0.11803851
44	0x3de00894	0.10939136
45	0x3d1c1d2b	0.038113754
46	0xbdaccdb2	-0.08437671
47	0x3dbbc536	0.091684744
48	0xbd856a75	-0.06514446
49	0xbe022f60	-0.12713385
50	0xbdaa5123	-0.08316257
51	0xbcc94684	-0.024569757
52	0xbd133834	-0.03594227
53	0xbcbbb8d0	-0.022915274
54	0xbcc912c9	-0.02454509
55	0x3d1a10f0	0.03761381
56	0xbd855dda	-0.065120414
57	0x3e00bbed	0.12571688
58	0x3e1edde0	0.15514326
59	0x3aad17ce	0.0013205947
60	0xbdaa626f	-0.08319556
61	0xbb4b9153	-0.0031061962
62	0x3d7fcc35	0.062450606
63	0xbb359ce3	-0.002771192
64	0xbe42363c	-0.18966001
65	0xbdc26b85	-0.09493164
66	0xbd8fde26	-0.07024793
67	0xbd192ed1	-0.037398163
68	0x3dc6ce17	0.09707277
69	0x3d106c8c	0.03525977
70	0xbcf15261	-0.029458227
71	0xbdda8ad2	-0.10671009
72	0x3de56f72	0.11202897
73	0xbd9abbf1	-0.07555378
74	0x3d22a72e	0.039710216
75	0xbd15e01c	-0.03659068
76	0x3c22f70a	0.009946594
77	0xbca1155d	-0.019663507
78	0xbdbad852	-0.09123291
79	0xbd2ad22e	-0.04170435
80	0xbd831ec8	-0.064023554
81	0x3dce8957	0.10084789
82	0x3d3c3959	0.04595313
83	0xbd0e8172	-0.034791417
84	0xbdc83615	-0.0977594
85	0x3ca556d7	0.02018301
86	0x3de7a3f3	0.11310568
87	0x3e16ecd8	0.14738786
88	0xbe008059	-0.12548961
89	0x3d2242f5	0.039614636
90	0x3d5b8ee1	0.053603057
91	0xbd8b865b	-0.06812736
92	0x3e22dcec	0.15904588
93	0xbde4b2ee	-0.11166941
94	0x3d22177c	0.039573178
95	0xbd8dd18d	-0.06924734
96	0x3d32b458	0.04362902
97	0x3dd45e52	0.10369553
98	0x3da7d62f	0.08195149
99	0xbd15788c	-0.036491916
100	0xbcbd4328	-0.023103312
101	0xbd53b4ae	-0.05168598
102	0xbba55690	-0.0050457194
103	0xbda4903a	-0.080353215
104	0xbd855c32	-0.065117255
105	0xbde86822	-0.11347987
106	0x3d64e0e7	0.055878546
107	0x3dd93a6f	0.106068484
108	0xbdad08f2	-0.08448972
109	0xbdade21d	-0.08490393
110	0xbde73ebd	-0.11291263
111	0xbdb58c53	-0.08864655
112	0x3db9d0a4	0.09072998
113	0xbdbda432	-0.092598334
114	0xbdba563b	-0.090984784
115	0xbd05325b	-0.032518726
116	0xbe2205dc	-0.15822548
117	0xbcafae15	-0.021445313
118	0x3e0110cc	0.12604064
119	0x3c8f756c	0.017512046
120	0xbd5804bf	-0.0527389
121	0xbc3f7f1f	-0.011688023
122	0x3ccbd279	0.024880635
123	0x3cb3d77e	0.02195334
124	0xbd269cae	-0.040676765
125	0x3d163cac	0.036678955
126	0x3dc17a08	0.09447104
127	0xbd3fdffd	-0.04684447
128	0x3e0b91b2	0.13629797
129	0xb9bb0175	-0.00035668505
130	0x3e2646ed	0.16237994
131	0xbdfcad48	-0.12337738
132	0xbd4b3a43	-0.04961611
133	0xbdc2d5ba	-0.09513421
134	0x3cace6f8	0.021106228
135	0x3d2cb17d	0.042161454
136	0x3d624af2	0.055247255
137	0xbb90030b	-0.004394894
138	0xbde8a418	-0.113594234
139	0xbafccdbe	-0.001928739
140	0xbd7cc860	-0.06171453
141	0x3dcffc04	0.1015549
142	0xbc5c1546	-0.013432806
143	0x3c99d11c	0.018776469
144	0xbcf796cc	-0.030223273
145	0xbc542bd1	-0.0129499
146	0x3d7a0977	0.061044183
147	0xbdb4f314	-0.08835426
148	0xbdc2dd73	-0.09514894
149	0xbdd86e62	-0.10567929
150	0xbd3e80bd	-0.046509493
151	0x3e16b0d2	0.14715889
152	0x3ba1f8fa	0.0049430104
153	0x3da2c712	0.07948126
154	0x3e22ac92	0.15886143
155	0x3d122fd4	0.035690144
156	0xbbc6ec90	-0.006070681
157	0xbda33693	-0.079693936
158	0xbde26d14	-0.11055961
159	0x3b441ac7	0.0029923187
160	0xbc3fa44f	-0.011696889
161	0xbd791654	-0.06081231
162	0x3c98eb4a	0.018666882
163	0xbd0bcd91	-0.03413159
164	0xbcd49c38	-0.025953397
165	0xbdbfe801	-0.09370423
166	0xbe073442	-0.13203529
167	0x3dfaf908	0.1225453
168	0x3da9be96	0.082883045
169	0xbd2436ce	-0.04009133
170	0xbd8ab304	-0.06772426
171	0xbddac8d7	-0.106828384
172	0x3dd63f3f	0.10461282
173	0xbd07e995	-0.033181746
174	0xbc117562	-0.008878084
175	0x3e37e949	0.17960085
176	0x3d939755	0.07206599
177	0x3dc92783	0.098219894
178	0x3db2b520	0.08725953
179	0xbc395c27	-0.011313475
180	0x3d4acc60	0.049511313
181	0xbdee1bfc	-0.11626431
182	0x3e008f10	0.12554574
183	0x3d512a00	0.051065445
184	0x3db61eff	0.08892631
185	0x3dd08f42	0.10183574
186	0xbde69de8	-0.11260587
187	0x3bf6026e	0.007507614
188	0x3e1d7ddb	0.15380041
189	0xbcee4bfa	-0.029088963
190	0x3dc6c74f	0.09705984
191	0xbdc7da70	-0.097584605
192	0xbd1daac4	-0.038492933
193	0x3b10da68	0.0022102837
194	0xbda6e887	-0.0814982
195	0xbe093546	-0.13399228
196	0x3dc141f0	0.09436405
197	0xbcb9eba5	-0.022695372
198	0x3df4c615	0.11951844
199	0x3d9deaf8	0.07710832
200	0x3df421cf	0.11920511
201	0x3d7bff8f	0.061523017
202	0x3d5cc58e	0.05389934
203	0xbc811788	-0.01575829
204	0x3dd12d1f	0.10213684
205	0xbbcac994	-0.0061885808
206	0x3d87e135	0.06634752
207	0xbdc24e6b	-0.09487613
208	0x3d6f04f6	0.05835434
209	0x3e08b336	0.13349614
210	0x3d24daed	0.040247846
211	0x3d28c938	0.041207522
212	0x3d4efec9	0.05053595
213	0x3d4ab9b9	0.049493525
214	0x3db98b0e	0.09059726
215	0x3ce24635	0.027621368
216	0x3cc881e9	0.024476008
217	0x3bac67b4	0.005261386
218	0x3e069aac	0.1314494
219	0xbe04a41b	-0.12953226
220	0xbde5abca	-0.11214407
221	0xbd61e134	-0.05514641
222	0x3cf09ad8	0.02937071
223	0xbd9bb1ed	-0.07602296
224	0xbc63b4f1	-0.01389812
225	0x3cd0076d	0.025394166
226	0x3d055977	0.032556023
227	0x3dba479c	0.0909569
228	0x3d3908ff	0.045174595
229	0xbd491425	-0.049091477
230	0xbe33c3dd	-0.17555185
231	0xbe077044	-0.1322642
232	0xbc966537	-0.01835881
233	0xbe0a8854	-0.13528568
234	0xbdfcca8d	-0.12343321
235	0x3d2e40f2	0.042542405
236	0xbd241d7a	-0.040067174
237	0x3d8d6e55	0.0690581
238	0xbdbe8aec	-0.09303841
239	0x3db6e37e	0.089301094
240	0xbd3fb5fa	-0.046804406
241	0x3d87e700	0.06635857
242	0x3d9e1181	0.07718182
243	0x3d0da934	0.034585193
244	0xbdbce045	-0.092224635
245	0x3e0073ad	0.12544127
246	0xbd38fcc3	-0.045162927
247	0xbdf6880b	-0.12037667
248	0x3da9da98	0.082936466
249	0xbca27603	-0.019831663
250	0xbe32c838	-0.1745919
251	0xbbae1c4b	-0.0053134314
252	0xbe012d91	-0.12615038
253	0x3d112fc9	0.035445962
254	0xbdc1c224	-0.094608575
255	0xbe02a719	-0.12759055

lstm.bias_ih_l0 f4 [200]
0	0xbcc93fd6	-0.024566572
1	0x3cbb1f47	0.022842063
2	0x3e0cd384	0.13752562
3	0x3d0e04cb	0.03467254
4	0xbdc9438a	-0.09827335
5	0x3e1e7456	0.15474066
6	0xbdf97b06	-0.12181668
7	0x3c91a3b3	0.017778253
8	0xbda8a129	-0.08233864
9	0x3c4054f1	0.011739002
10	0x3d55a3d9	0.05215821
11	0xbc5751ee	-0.013142092
12	0x3d6a8ddc	0.057264194
13	0xbca2aadb	-0.01985686
14	0xbccb240a	-0.024797458
15	0x3dc01545	0.09379057
16	0x3e1b3556	0.15157065
17	0xbd83e2e3	-0.064397596
18	0x3d12e3a8	0.03586164
19	0x3dd4207f	0.10357761
20	0x3e2044d1	0.15651251
21	0x3d5fa8a4	0.054604188
22	0xbc2a00bc	-0.010376152
23	0xbd1dda4c	-0.038538262
24	0xbdb20c70	-0.086937785
25	0x3d6dd3d8	0.058063358
26	0xbd425b6a	-0.04745046
27	0xb7490c9e	-1.1983471e-05
28	0x3c5f73dc	0.013638463
29	0x3e1943e1	0.149673
30	0x3df731ca	0.120700434
31	0x3dbf5614	0.0934259
32	0x3df8e90b	0.121538244
33	0x3d74b875	0.059746224
34	0xbdff5b2d	-0.12468562
35	0x3c02a7ca	0.007974574
36	0xbd6752f1	-0.056475583
37	0xbd467bb3	-0.048457813
38	0xbd2fe68d	-0.04294448
39	0x3e05fa2d	0.13083716
40	0x3d6c8974	0.057748273
41	0xbd7b0c2c	-0.061290905
42	0xbc7e1ba8	-0.015509523
43	0xbd9ff2f3	-0.07810011
44	0x3e06d77a	0.13168135
45	0xbd3134d3	-0.043263268
46	0xbd9b2c82	-0.075768486
47	0xbdae276c	-0.08503613
48	0x3dd1656c	0.10224423
49	0x3e0f9dc1	0.14025022
50	0x3d7bbe83	0.061460983
51	0x3dcd6d07	0.10030561
52	0xbdfcc7d3	-0.12342801
53	0xbd4dce52	-0.05024559
54	0xbdd7efdf	-0.10543799
55	0xbdd970a5	-0.10617188
56	0xbd3e4c8d	-0.046459723
57	0x3dc16746	0.09443526
58	0xbdd0caa4	-0.10194901
59	0x3b3e3407	0.002902271
60	0xbd466a38	-0.04844114
61	0x3d9bd84a	0.07609613
62	0x3deb8eb2	0.11501826
63	0x3d9bed7a	0.076136544
64	0x3df4cc73	0.11953058
65	0x3df151b2	0.1178316
66	0x3c1338bb	0.008985694
67	0xbddcb64c	-0.10776958
68	0xbd170600	-0.036870956
69	0xbcdf2e7c	-0.027243845
70	0xb9a5d068	-0.00031626527
71	0x3d45d29b	0.048296552
72	0x3e19a6bb	0.15005009
73	0x3d89dcf8	0.067315996
74	0xbddbc90d	-0.10731707
75	0x3e465ad0	0.1937058
76	0x3e21cee4	0.15801579
77	0x3d59ccdb	0.05317388
78	0xbe2628da	-0.16226521
79	0xbb341dbe	-0.0027483548
80	0x3c2be82d	0.010492367
81	0xbd0f0cde	-0.03492438
82	0xbdf24414	-0.11829391
83	0xbdb3acb0	-0.08773172
84	0x3cdad2bb	0.026711812
85	0x3e05fe7d	0.13085361
86	0xbe0cb995	-0.13742669
87	0xbdfca083	-0.12335303
88	0x3d2dad84	0.042401806
89	0x3e1822af	0.1485698
90	0x3e2d1fd3	0.16906671
91	0x3e0f4afe	0.13993451
92	0x3d20cc69	0.03925744
93	0x3db37997	0.08763426
94	0xbbd393be	-0.006456821
95	0xbdbf29d0	-0.09334147
96	0xbde619f2	-0.112354174
97	0x3dd5a4c9	0.10431821
98	0x3d91cc88	0.07119089
99	0xbcf6bc89	-0.030119197
100	0xbdfebe55	-0.12438647
101	0x3e0213b5	0.1270283
102	0xbdfe8f3a	-0.12429662
103	0x3e194fed	0.14971896
104	0xbda75789	-0.08170993
105	0x3dd62dcb	0.10457953
106	0x3d9ab9c2	0.07554962
107	0xbdc5e90f	-0.09663593
108	0x3d0891db	0.033342224
109	0x3d283d04	0.041073814
110	0xbd306522	-0.043065198
111	0x3e04a2ba	0.129527
112	0x3d53d9ea	0.05172149
113	0xbc2ddc10	-0.010611549
114	0x3a342858	0.0006872467
115	0xbba9054d	-0.0051581026
116	0x3b74d782	0.0037359898
117	0xbd8319fe	-0.06401442
118	0xbda434af	-0.08017861
119	0xbd63bb30	-0.055598438
120	0xbd07875f	-0.033088084
121	0x3ce14251	0.027497442
122	0x3d96ea30	0.073688865
123	0xbd01cac9	-0.03168753
124	0xbd0839ee	-0.03325837
125	0x3c5319df	0.012884586
126	0xbdb6a9a6	-0.089190766
127	0x3dcae80a	0.09907539
128	0x3d0ddd84	0.034635082
129	0x3bb426c9	0.0054977876
130	0x3d213e35	0.039365966
131	0xbc9c8da6	-0.019110512
132	0x3e17d765	0.1482826
133	0x3dc9bbea	0.09850295
134	0xbcb6866d	-0.022280896
135	0xbdd49916	-0.10380761
136	0xbde1095d	-0.10988114
137	0x3de6d5a3	0.11271217
138	0x3d3df61c	0.046377286
139	0xbdf5e564	-0.120066434
140	0x3d081319	0.033221338
141	0x3e0d45e8	0.13796198
142	0xbdff9836	-0.12480204
143	0x3b28108a	0.0025644624
144	0xbc6f4f9e	-0.014606385
145	0x3ddc7bd5	0.107658066
146	0xbe0388c5	-0.12845142
147	0x3dd636d6	0.10459678
148	0x3d846adb	0.064656936
149	0x3a185cb8	0.0005812156
150	0x3da35e17	0.079769306
151	0x3e014d5c	0.12627167
152	0xbdc4c143	-0.09607174
153	0xbdcc00f8	-0.09961122
154	0x3d6b3896	0.05742701
155	0x3db83664	0.08994749
156	0xbdfca96f	-0.123370044
157	0x3c572d95	0.013133426
158	0xbc122f5f	-0.008922427
159	0x3dd9c64e	0.10633527
160	0x3c1f8038	0.00973516
161	0xbdec2e6f	-0.11532294
162	0x3e056848	0.13028061
163	0xbd49aaf5	-0.049235303
164	0x3d91ae91	0.07113374
165	0xbdb8c2db	-0.09021541
166	0x3ca3f061	0.020012083
167	0x3d8579bd	0.0651736
168	0x3d5483c3	0.05188347
169	0xbd5e69a6	-0.054299973
170	0x3d932fe2	0.07186867
171	0x3b43eb5f	0.002989493
172	0xbce3c544	-0.027804025
173	0xbd3233fc	-0.043506607
174	0xbcf744f0	-0.03018424
175	0x3bdb7447	0.006697211
176	0xbdadd6bb	-0.08488222
177	0x3c5cc3f7	0.013474456
178	0x3ded6530	0.115915656
179	0xbb85ebff	-0.004086971
180	0xbcde5217	-0.027138753
181	0x3dd3a8ed	0.103349544
182	0xbc8a1a79	-0.016858326
183	0xbd149440	-0.036274195
184	0x3ca68835	0.02032862
185	0xbd0fe34d	-0.03512888
186	0xbd8e19ac	-0.0693849
187	0xbd0e2aaf	-0.034708675
188	0xbc99471b	-0.018710664
189	0xbd4959d1	-0.04915792
190	0xba548df9	-0.0008108314
191	0x3e101bfd	0.14073177
192	0x3d7180b6	0.05896064
193	0x3be3df9e	0.0069541475
194	0x3d75e998	0.060037225
195	0x3e14d257	0.14533363
196	0x3db48c96	0.08815877
197	0xbda04f47	-0.07827621
198	0x3d1e37a2	0.038627274
199	0x3e159c9d	0.14610524

lstm.bias_hh_l0 f4 [200]
0	0xbc39a18b	-0.011330019
1	0xbd9698bc	-0.073533505
2	0xbe06b8ae	-0.13156387
3	0xbce4e2ea	-0.027940232
4	0x3e2b734b	0.167432
5	0xbda22983	-0.07918074
6	0x3dd841c0	0.10559416
7	0xbd7b4a8b	-0.061350387
8	0xbd7af4d8	-0.061268657
9	0xbdde4ccf	-0.10854494
10	0xbc97b6a4	-0.018519707
11	0xbc86a363	-0.01643533
12	0xbd4821e0	-0.04886043
13	0x3e036b95	0.12834008
14	0x3d293dcc	0.0413187
15	0xbe0562a8	-0.13025916
16	0xbb7ad2bf	-0.0038272587
17	0xbe0caf29	-0.13738693
18	0x3dd61428	0.10453063
19	0x3d77f6ee	0.060538225
20	0xbb68544a	-0.003545063
21	0xbda5f077	-0.08102506
22	0x3e156513	0.14589338
23	0x3d28c067	0.041199114
24	0x3e1c7228	0.15277922
25	0x3e0a97cc	0.13534468
26	0x3db154ea	0.08658774
27	0x3e1c9158	0.15289819
28	0x3d9ce407	0.0766068
29	0x3e23230d	0.1593134
30	0x3bde515d	0.0067846016
31	0x3e2b57d3	0.16732721
32	0x3d864158	0.06555432
33	0x3c564040	0.013076842
34	0x3b304dc8	0.002690183
35	0x3c9c96e8	0.019114926
36	0xbcb794d1	-0.022409828
37	0xbda4a0e9	-0.08038504
38	0xbd6e2e25	-0.058149476
39	0x3c6e099d	0.014528659
40	0xbd2196a6	-0.03945031
41	0xbd8ea073	-0.06964197
42	0x3e165ff2	0.14685038
43	0x3df520ad	0.11969123
44	0x3e0970f8	0.13422
45	0x3b08b1cf	0.0020857935
46	0x3d8b35f6	0.067974016
47	0x3e0ff4ba	0.140582
48	0x3dfd28bc	0.12361285
49	0x3d4c9d1a	0.04995451
50	0x3da5027f	0.08057117
51	0xbd9ba4f1	-0.075998195
52	0x3d99486d	0.07484517
53	0xbe0ac802	-0.1355286
54	0x3dd424f3	0.1035861
55	0x3c7776b2	0.015103983
56	0x3d6c78bb	0.057732325
57	0xbd6369d6	-0.055520855
58	0x3c87afd8	0.016563341
59	0xbd80f01c	-0.06295797
60	0x3aa0a6a5	0.0012256695
61	0xbd2c0e54	-0.042005852
62	0xbb31c3e5	-0.002712482
63	0xbe0b64b3	-0.13612632
64	0x3e4c0a4b	0.19925801
65	0x3dd778a3	0.105210565
66	0xbdcef483	-0.10105231
67	0xbe01b59c	-0.12666935
68	0xbdca278f	-0.098708265
69	0x3e0fe97d	0.14053912
70	0x3de156f8	0.11002916
71	0x3d28572f	0.04109877
72	0x3dafa905	0.0857716
73	0xbda2628e	-0.07928954
74	0x3d69fac3	0.05712391
75	0xbcb9521d	-0.022622162
76	0x3af97a00	0.0019033551
77	0xbdc33ec7	-0.09533458
78	0xbbbc9ac4	-0.005755754
79	0xbd98fff8	-0.07470697
80	0x3dcc9695	0.09989659
81	0x3df0418a	0.117312506
82	0x3de7c2ea	0.11316474
83	0xbdb6340a	-0.088966444
84	0xbd2ccbd0	-0.04218656
85	0x3de7c323	0.11316516
86	0x3d9cd142	0.076571
87	0xbd085c74	-0.033291295
88	0xbe161d83	-0.14659695
89	0x3e0bea91	0.13663699
90	0x39c8d0b4	0.0003830247
91	0xbc4a7fea	-0.012359599
92	0x3c9a078b	0.018802425
93	0xbe1df60d	-0.15425892
94	0x3bc9a71a	0.0061539533
95	0xbdcdc44c	-0.10047206
96	0xbdd19474	-0.10233393
97	0xbc35a07b	-0.011085625
98	0xbc85e273	-0.016343331
99	0x3e283c24	0.16429192
100	0xbd0f2d41	-0.034955267
101	0xbdc5c320	-0.09656358
102	0xbdf1cd32	-0.11806716
103	0x3c003cbb	0.007826979
104	0x3d8d8b27	0.06911307
105	0xbd8b46a5	-0.06800584
106	0xbceb4a84	-0.028722055
107	0x3e1a45f5	0.15065749
108	0xbccff008	-0.02538301
109	0xbdcb631c	-0.09931013
110	0x3ddf2498	0.108956516
111	0x3db0d28c	0.08633909
112	0xbe198bd3	-0.14994745
113	0xbddf2b27	-0.108969025
114	0xbd551339	-0.052020285
115	0x3de75cd6	0.11297004
116	0xbc1967d7	-0.009363136
117	0x3d9cb584	0.07651809
118	0xbcd26dd5	-0.025687138
119	0x3d738508	0.05945304
120	0xbbae7f53	-0.005325237
121	0xbde586f9	-0.112073846
122	0xbd56f8f3	-0.05248351
123	0xbcccc3db	-0.024995735
124	0x3c7994df	0.015233248
125	0xbd6a98db	-0.05727468
126	0x3d215e0e	0.03939634
127	0xbc29d2b5	-0.010365178
128	0xbdc7fe90	-0.09765351
129	0x3e0339bf	0.12814997
130	0xbddd773e	-0.10813759
131	0x3da50449	0.08057458
132	0xbdcdff09	-0.1005841
133	0xbdba49c6	-0.090961024
134	0x3b39ec3d	0.0028369569
135	0x3bb707c0	0.0055856407
136	0xbd3bb314	-0.04582508
137	0xbd92c789	-0.071669646
138	0xbdeb963c	-0.11503264
139	0x3de3c87a	0.11122222
140	0xbd2fe84c	-0.042946145
141	0x3df28709	0.11842162
142	0x3d646366	0.055758856
143	0xbd9a35d2	-0.07529797
144	0xbe0c7030	-0.13714671
145	0x3dfcc37c	0.12341973
146	0xbd6c14db	-0.057637077
147	0x3d640e70	0.05567783
148	0xbe12d7ab	-0.14340083
149	0x3a09a4b8	0.000525068
150	0xbd885ba0	-0.06658101
151	0x3c97cc75	0.01853011
152	0xbba76896	-0.005108903
153	0xbd336e2d	-0.043806244
154	0xbdddbaec	-0.10826668
155	0xbd0e9269	-0.034807596
156	0x3d81f8f9	0.06346316
157	0xbce4d821	-0.02793509
158	0x3d21081d	0.039314378
159	0xbce6fce0	-0.028196752
160	0xbc6b5e31	-0.014365719
161	0xbde7fbd5	-0.1132733
162	0x3d789317	0.06068715
163	0x3ca65047	0.020301951
164	0x3e128940	0.14310169
165	0x3dc52bd1	0.09627498
166	0x3dc40662	0.0957153
167	0x3ddedbd4	0.10881773
168	0xbc8ad881	-0.01694894
169	0xbd79dbc4	-0.0610006
170	0xbd4b7cab	-0.04967944
171	0x3d2f26ad	0.042761493
172	0x3d8b9016	0.068145916
173	0xbd0d0702	-0.03443051
174	0x3cdaf68a	0.026728887
175	0x3d3db02a	0.04631058
176	0xbdc94113	-0.09826865
177	0xbd39a6b1	-0.045324985
178	0xbd97c24e	-0.074101076
179	0xbc4c4a6f	-0.012468918
180	0x3d5d156d	0.05397551
181	0xbdb3bce1	-0.0877626
182	0xbd425d69	-0.047452364
183	0xbda5e252	-0.08099808
184	0xbd56f2a2	-0.052477486
185	0x3e0946b1	0.13405873
186	0xbdc1524e	-0.094395265
187	0x3e040cbc	0.12895483
188	0xbdda7b0b	-0.10668
189	0xbd9f5310	-0.07779515
190	0xbcdb3e39	-0.026763069
191	0x3d67e444	0.056614175
192	0x3d424ccc	0.04743652
193	0xbd1519b8	-0.03640148
194	0x3ded6d59	0.11593122
195	0x3e0f1565	0.13973005
196	0x3dfe4cfc	0.12417027
197	0x3dbd706b	0.09249958
198	0xbddd3c9f	-0.10802578
199	0x3dfcc895	0.123429455

lstm.weight_ih_l1 f4 [200, 50]
0	0xbe0256b4	-0.12728387
1	0x3d7c47b0	0.061591804
2	0x3d95b933	0.073107146
3	0x3d8560d2	0.06512608
4	0x3d9236b6	0.071393415
5	0xbd87f6b0	-0.06638849
6	0x3dbf4299	0.09338874
7	0xbd87f48f	-0.06638443
8	0x3d306299	0.04306278
9	0x3d87804a	0.06616266
10	0x3b93a400	0.0045056343
11	0xbc9ea495	-0.019365588
12	0x3e391f66	0.18078384
13	0x3ae30ae8	0.0017321976
14	0xbcb7f427	-0.022455288
15	0x3d9b03a1	0.075690515
16	0x3b8258fe	0.003977894
17	0xbdcd27e8	-0.10017377
18	0x3d255bc8	0.040370733
19	0xbe009d67	-0.12560044
20	0xbe2be182	-0.16785243
21	0xbcd85feb	-0.026412925
22	0x3cbca332	0.023027036
23	0xbdaa4c39	-0.083153196
24	0xbcd541ab	-0.02603229
25	0x3de6e930	0.11274946
26	0x3d859dbd	0.06524227
27	0x3da639b3	0.08116474
28	0x3debada8	0.11507732
29	0xbd809f03	-0.06280329
30	0x3e305b47	0.1722232
31	0x3abd6a58	0.0014451249
32	0xbd740184	-0.059571758
33	0xbe22584a	-0.15853992
34	0x3d696195	0.056977827
35	0x3b5a38ab	0.0033297937
36	0x3e0c2276	0.13685021
37	0xbc1b0230	-0.009460971
38	0xbc8bf88c	-0.01708629
39	0xbdb9b86c	-0.09068379
40	0x3d9315db	0.07181903
41	0xbdc533ed	-0.09629045
42	0xbd7c8718	-0.061652273
43	0x3ddbe93c	0.10737845
44	0xbde7a6ed	-0.113111354
45	0x3dda804d	0.10669003
46	0xbe223854	-0.158418
47	0x3e07ed11	0.13274027
48	0x3ba155d4	0.0049235616
49	0x3a6fbc8c	0.0009145222
50	0x3d10e9ae	0.035379104
51	0x3de1e0d5	0.110292114
52	0x3af53ca7	0.0018710092
53	0x3dcc00d2	0.09961094
54	0x3e373e86	0.17894945
55	0x3d4eb4c3	0.050465357
56	0x3a919784	0.0011107777
57	0xb7a5e492	-1.977597e-05
58	0x3cd49555	0.025950113
59	0xbbc6e5c3	-0.00606987
60	0xbd8dd688	-0.06925684
61	0x3d749bbb	0.05971883
62	0x3e2e96d6	0.17049727
63	0xbd91be70	-0.07116401
64	0xbdef3bef	-0.11681353
65	0x3c0a5338	0.008442692
66	0xba1ffc98	-0.0006103008
67	0x3d38b1c4	0.045091406
68	0x3e144961	0.14481117
69	0xbd3588c0	-0.044319868
70	0x3ccc6ced	0.024954284
71	0xbc2cb582	-0.010541322
72	0xbcea9b29	-0.02863844
73	0x3db4df70	0.0883168
74	0xbd178786	-0.03699448
75	0x3c39992b	0.011328022
76	0xbd3b7476	-0.045765363
77	0x3e232f8e	0.1593611
78	0xbcb154fb	-0.021646967
79	0x3d1e4606	0.038641
80	0x3e1565ec	0.14589661
81	0xbd8f023e	-0.069828495
82	0x3c5cc841	0.013475479
83	0xbe0893ae	-0.13337585
84	0xbe0c2d28	-0.136891
85	0xbd10f0bb	-0.03538583
86	0x3d9b09a0	0.07570195
87	0xbd7cdfe4	-0.061736956
88	0x3db44030	0.08801305
89	0xbbdd8fee	-0.0067615425
90	0xbd91f1a5	-0.07126168
91	0x3db9f13a	0.090792134
92	0x3d0f524d	0.034990598
93	0x3dd56bb9	0.10420937
94	0xbd48152f	-0.048848327
95	0x3df574c6	0.119851634
96	0x3d8dff8c	0.06933507
97	0xbd83a58e	-0.064280614
98	0xbdf601db	-0.12012073
99	0xbda31b84	-0.079642326
100	0x3dfcdcc3	0.123467945
101	0xbdcf8f8a	-0.101348
102	0x3daab008	0.083343565
103	0xbdf0f372	-0.117651835
104	0xbc91b121	-0.017784657
105	0xbdca4eb9	-0.098782964
106	0xbb48349f	-0.0030548943
107	0x3d50fb2b	0.051020782
108	0xbcb02193	-0.021500384
109	0xbdaf1d6a	-0.08550532
110	0x3c9e69db	0.019337585
111	0xbdc15160	-0.09439349
112	0x3dee172d	0.11625514
113	0xbd88eb51	-0.06685508
114	0xbe180b8d	-0.14848156
115	0xbd52726a	-0.051378645
116	0xbddbf3a6	-0.107398316
117	0x3d1395eb	0.036031645
118	0xbd31b5ca	-0.04338626
119	0x3e3bc9c1	0.18338682
120	0xbc9e7682	-0.019343618
121	0xbd030b6e	-0.031993322
122	0xbd9159ef	-0.070972316
123	0xbc241e32	-0.010016965
124	0xbc6364e6	-0.0138790365
125	0x3e3a3eb6	0.18187985
126	0x3cda35b4	0.026636936
127	0xbdec579d	-0.115401484
128	0xbd159ba4	-0.036525384
129	0xbd96213b	-0.07330557
130	0xbcac51e4	-0.021035142
131	0x3de35dec	0.111018986
132	0xbd7d871d	-0.061896432
133	0x3cd3b2f1	0.025842162
134	0xbe0f9c47	-0.14024459
135	0xbd9c868b	-0.076428495
136	0x3d2cab5f	0.04215562
137	0xbd556a8d	-0.052103568
138	0x3df65f6d	0.1202992
139	0x3d983d4a	0.07433565
140	0xbcab53ee	-0.020914044
141	0x3d3a577a	0.04549358
142	0x3de13a9f	0.10997509
143	0x3d83b0b9	0.064301915
144	0x3dfd78f5	0.12376586
145	0x3dea1244	0.11429265
146	0xbbda14fc	-0.0066553336
147	0xbdd28686	-0.102795646
148	0x3ddef2bb	0.10886141
149	0xbe181f38	-0.14855659
150	0x3d46ac13	0.048503947
151	0x3e28ecb7	0.1649655
152	0xbde0749f	-0.10959744
153	0xbd82ce27	-0.06386977
154	0x3dfa81d2	0.122317925
155	0x3da59a11	0.080860265
156	0x3e09edbb	0.13469593
157	0x3df1b3a4	0.11801842
158	0x3e2d3b2a	0.169171
159	0x3dbc6ee1	0.09200836
160	0x3cea4f04	0.02860213
161	0xbc471e92	-0.012153285
162	0x3dc56f1a	0.096403316
163	0xb90be420	-0.00013341056
164	0xbd55b8a2	-0.052178033
165	0xbd244d54	-0.04011281
166	0x3c53b9ad	0.0129226865
167	0xbdf3aedf	-0.118985884
168	0xbcc94a38	-0.024571523
169	0x3de5af85	0.11215118
170	0x3d665078	0.056229085
171	0xbd9d2573	-0.076731585
172	0x3e0bee10	0.13665032
173	0x3d841500	0.06449318
174	0x3de86e21	0.113491304
175	0x3e83fb83	0.25777826
176	0xbe321f92	-0.17394856
177	0xbc9d3f8f	-0.019195346
178	0xbdecca48	-0.115620196
179	0xbe4aa50e	-0.19789526
180	0x3d716749	0.05893639
181	0xbe2c6591	-0.1683562
182	0xbd75b479	-0.059986565
183	0x3ae9b036	0.0017829004
184	0xbd412449	-0.047153745
185	0xbdd28e14	-0.102810055
186	0xbcff1134	-0.031136133
187	0x3d938fe2	0.07205178
188	0x3dad899a	0.08473511
189	0xbc4aba5d	-0.012373534
190	0x3e10296c	0.14078301
191	0xbd167cca	-0.036740102
192	0x3b5fe42d	0.0034163103
193	0xbe137f13	-0.14403944
194	0xbb49578d	-0.003072235
195	0xbde210d0	-0.11038363
196	0xbe119190	-0.14215684
197	0xbddb74ac	-0.10715613
198	0xbd1c38fe	-0.03814029
199	0xbe3ee37e	-0.18641469
200	0x3d5349d8	0.051584095
201	0x3e136718	0.14394796
202	0xbd8780df	-0.06616377
203	0x3da6a906	0.081377074
204	0x3c84587e	0.016155478
205	0x3dc0235f	0.093817465
206	0x3e0f2371	0.13978364
207	0x3e1db844	0.15402323
208	0x3d14d5d1	0.036336724
209	0x3d33dbc3	0.043910753
210	0x3e0f66f0	0.14004111
211	0x3ceb0c83	0.02869249
212	0x3d379b30	0.044825733
213	0x3ba462a7	0.005016643
214	0xbe261335	-0.16218264
215	0xbe033b2e	-0.12815544
216	0xbdecd2e4	-0.11563662
217	0x3cfb2669	0.030657964
218	0x3e1bd0d1	0.15216376
219	0x3d3b143e	0.0456736
220	0x3c5d6f81	0.013515354
221	0x3d3a0430	0.04541415
222	0x3e164fd0	0.14678884
223	0xb9be5b2b	-0.0003630755
224	0x3d921b7f	0.07134151
225	0x3e43c652	0.19118622
226	0xbd900acf	-0.070333116
227	0x3dafb819	0.08580036
228	0xbd80d166	-0.062899396
229	0xbdd58151	-0.10425056
230	0x3d10c90b	0.03534798
231	0xbe027979	-0.1274165
232	0xbc3a0fa9	-0.011356273
233	0xbe00355e	-0.12520358
234	0xbdf1205b	-0.117737494
235	0x3d420173	0.047364663
236	0x3d94c8c6	0.07264857
237	0x3dd4b557	0.1038615
238	0xbcefe21b	-0.02928262
239	0xbd927274	-0.071507365
240	0x3d82711a	0.06369229
241	0xbdfe244e	-0.12409268
242	0x3dab239f	0.083564036
243	0xbe00b822	-0.12570241
244	0xbda35134	-0.07974473
245	0xbdb4bfe2	-0.08825661
246	0xbdb73645	-0.08945898
247	0x3b7ecad7	0.0038878226
248	0x3d5ab074	0.053390935
249	0x3b000130	0.0019531958
250	0xbd3a5e86	-0.0455003
251	0x3db4076a	0.087904766
252	0x39f3bcdd	0.00046489286
253	0xbdebc3f6	-0.11511986
254	0x3d47f333	0.048815917
255	0x3d29fed8	0.041502804

lstm.weight_hh_l1 f4 [200, 50]
0	0xbc8cc4e4	-0.017183729
1	0x3cf48632	0.029849146
2	0x3cd1e362	0.02562112
3	0xbd2b45f2	-0.041814752
4	0x3e12c4f8	0.1433295
5	0x3da2350a	0.07920273
6	0x3de47fab	0.11157163
7	0xbd8cc449	-0.06873376
8	0x3d3733d5	0.044727165
9	0xbe245b75	-0.16050513
10	0x3e4a9702	0.19784167
11	0x3de7d6a0	0.11320233
12	0xbe236b24	-0.1595884
13	0xbda26da7	-0.07931071
14	0xbe0d8119	-0.13818778
15	0xbd87f698	-0.06638831
16	0x3dc77762	0.09739567
17	0x3d3fba34	0.046808437
18	0x3d8c477d	0.06849573
19	0xbd86b747	-0.06577926
20	0xbd55390f	-0.05205637
21	0x3c4edcd1	0.012625889
22	0x3d9e9179	0.077425905
23	0xbc202e04	-0.009776596
24	0x3de88cef	0.11355006
25	0xbdaf53cb	-0.08560904
26	0x3cae0a43	0.021245128
27	0x3d9b77e6	0.07591228
28	0x3c76cbf0	0.015063271
29	0xbdec5f83	-0.11541655
30	0x3c448121	0.011993677
31	0x3dac5b1e	0.08415817
32	0x3c41d695	0.0118309455
33	0xbd64562f	-0.055746254
34	0x3d161708	0.036643058
35	0x3dff2dec	0.12459931
36	0x3d9d78a7	0.07689028
37	0xbde3ec8c	-0.11129102
38	0xbe17f8c0	-0.14840984
39	0x3da3dcda	0.080011085
40	0x3da5b576	0.080912516
41	0xbe476b80	-0.19474602
42	0xbcc37a46	-0.023862015
43	0x3d0db5de	0.03459727
44	0x3d85c7fc	0.065322846
45	0x3c04c1c9	0.008102843
46	0xbd780340	-0.060549974
47	0xbe242311	-0.16029002
48	0x3dbbc89d	0.09169123
49	0xbd8ba9ff	-0.068195336
50	0xbd66f4dd	-0.056385864
51	0xbdf886fa	-0.1213512
52	0xbd048dcd	-0.032361794
53	0x3b9b5ede	0.0047415337
54	0xbd9664dd	-0.07343457
55	0x3bc43f9e	0.005989029
56	0xbb320992	-0.002716635
57	0xbe1275a2	-0.14302686
58	0x3ca108f7	0.019657595
59	0x3de224d8	0.11042184
60	0x3b2a1bdc	0.0025956547
61	0x3dda01d5	0.10644881
62	0xbc271fc6	-0.0102004465
63	0xbdfc942a	-0.123329476
64	0xbd00b1ce	-0.031419568
65	0xbe058a6a	-0.13041082
66	0xbd90f1e8	-0.0707739
67	0xba2b1f11	-0.00065277616
68	0x3db774ff	0.08957862
69	0xbd2b5396	-0.04182776
70	0x3d0facd9	0.03507695
71	0xbd39117a	-0.045182683
72	0xbdd1eab6	-0.10249846
73	0xbcd059c5	-0.02543343
74	0x3d55193d	0.052026022
75	0xbc0ce02c	-0.008598369
76	0x3e02e0ba	0.12781039
77	0x3d49c0fc	0.04925631
78	0xbcad3774	-0.021144606
79	0x3dd43645	0.103619136
80	0x3e0f80c9	0.14013971
81	0xbcf1d57f	-0.029520748
82	0xbd1fd80c	-0.039024398
83	0xbc8c4052	-0.017120514
84	0xbdc64661	-0.096813925
85	0xbbeb89b1	-0.007188045
86	0xbda70c09	-0.081565924
87	0x3d7c47ea	0.06159202
88	0x3dae7cfb	0.08519932
89	0x3ca66a4e	0.020314362
90	0xbd337560	-0.04381311
91	0x3c926d8a	0.017874498
92	0xbdbf837f	-0.09351253
93	0x3d8e5577	0.06949895
94	0x3dcf60f8	0.10125917
95	0x3deff194	0.11715999
96	0x3d1c6b4d	0.038188267
97	0xbacc7a1d	-0.0015600357
98	0x3e0b5e3b	0.13610165
99	0xbd851e6d	-0.06499944
100	0x3e167ea6	0.1469675
101	0xbd27cc40	-0.040966272
102	0xbd8f64c2	-0.0700164
103	0x3d52d829	0.051475678
104	0x3cb2075f	0.02173203
105	0xbd83ed99	-0.064418025
106	0x3d4a9818	0.049461454
107	0xbda1631c	-0.07880232
108	0x3d1d8973	0.03846116
109	0x3de8965e	0.11356805
110	0xbd9d756e	-0.076884136
111	0xbd63fc21	-0.05566037
112	0xbd9378ca	-0.07200773
113	0x3d7b04d0	0.061283886
114	0xbd791a3b	-0.06081603
115	0x3d87df3d	0.06634376
116	0xbbb95704	-0.005656125
117	0x3b67e5f2	0.003538486
118	0x3cef737d	0.029229874
119	0x3dc1ebfc	0.094688386
120	0x3e01fbc0	0.12693691
121	0xbdde8fe5	-0.108672895
122	0x3d75360c	0.059865996
123	0xbe015f00	-0.12633896
124	0xbcf5dde7	-0.030013038
125	0x3c6ab87d	0.014326212
126	0x3e01542f	0.1262977
127	0xbc8f8108	-0.017517582
128	0x3d911bac	0.07085356
129	0xbdf2b04a	-0.11850031
130	0xbde41b6f	-0.11138045
131	0x3d68c897	0.056831922
132	0xbcb56da6	-0.022147011
133	0x3dd36779	0.1032247
134	0x3df7e20d	0.12103663
135	0xbe01e528	-0.12685072
136	0xbc9d25b3	-0.019183015
137	0xbc6e1910	-0.014532343
138	0xbd7bc272	-0.061464734
139	0x3d8e18ca	0.06938322
140	0xbd4067e1	-0.046974067
141	0xbcad1520	-0.021128237
142	0xbdc0f027	-0.094208054
143	0x3bff0305	0.0077823424
144	0xbe045c82	-0.12925914
145	0xbd23f7cd	-0.040031243
146	0x3d6d0302	0.057864197
147	0xbd5c8805	-0.053840656
148	0xbdf54084	-0.11975196
149	0xbd8bbcc8	-0.068231165
150	0x3d4c572d	0.049887825
151	0x3dde3d54	0.10851541
152	0xbdecef3c	-0.11569068
153	0x3dcc8862	0.099869505
154	0x3dcc4b25	0.0997527
155	0xbc3c5532	-0.0114949215
156	0x3da0356e	0.07822691
157	0x3defd661	0.117108114
158	0xbd980a26	-0.07423811
159	0xbdac3f46	-0.08410506
160	0xbcbab6fb	-0.02279233
161	0xbd4b547c	-0.049641117
162	0x3dd11073	0.102082156
163	0xbda2a410	-0.07941449
164	0x3ded816d	0.11596952
165	0xbdc5050f	-0.096201055
166	0xbc4b2a24	-0.012400184
167	0xbd0be4cb	-0.03415374
168	0x3d80b644	0.062847644
169	0xbdcbefca	-0.099578455
170	0xbd9bf38d	-0.07614813
171	0xbda23af9	-0.079214044
172	0xbdf88e01	-0.1213646
173	0xbdc112c1	-0.09427405
174	0xbe1608e0	-0.14651823
175	0xbd60fa3d	-0.054926146
176	0x3d8ad6b4	0.067792326
177	0x3d1ed34d	0.03877573
178	0xbda00a0d	-0.07814417
179	0x3d8e6fb5	0.069549
180	0xbc9878d4	-0.018612303
181	0xbcb294c0	-0.021799445
182	0xbd11192f	-0.035424408
183	0xba3a4054	-0.00071049226
184	0xbd1a7e56	-0.03771814
185	0x3df3d91d	0.119066454
186	0x3db3220f	0.087467305
187	0x3cc3aaa5	0.02388508
188	0x3ceb219e	0.028702553
189	0xbd3716d7	-0.044699516
190	0x3dcece7e	0.10097979
191	0x3d4efe34	0.050535396
192	0xbe0db927	-0.13840161
193	0xba60f80e	-0.0008581885
194	0x3c6ed948	0.014578171
195	0xbd431147	-0.0476239
196	0x3d0a8f71	0.033828203
197	0x3d631fd5	0.05545028
198	0xbdd0974b	-0.10185107
199	0xbbb62ca2	-0.00555952
200	0x3d2953d4	0.04133971
201	0x3c40488c	0.0117360465
202	0xbdb90a5a	-0.090351775
203	0xbd873425	-0.06601743
204	0x3d12f479	0.03587768
205	0xbdeee179	-0.11664099
206	0x3d8dad14	0.06917778
207	0x3c6b323b	0.014355238
208	0xbda3098d	-0.07960806
209	0x3d9447a8	0.0724023
210	0x3dba9eed	0.09112344
211	0xbdbe412f	-0.092897765
212	0xbc1ebff1	-0.009689317
213	0x3d8071c0	0.06271696
214	0x3d7397ec	0.059471056
215	0x3c8f314d	0.017479563
216	0xbdf4e2fa	-0.11957355
217	0xbdd73846	-0.1050878
218	0xbdbae0f1	-0.091249354
219	0x3d3b3f9c	0.04571496
220	0xbd607952	-0.0548032
221	0x3e1769f8	0.14786518
222	0x3d37198e	0.044702105
223	0xbcac8bce	-0.021062758
224	0x3db21bc1	0.086967
225	0x3e089c93	0.13340978
226	0x3da2cbc8	0.079490244
227	0x3ce34553	0.027743017
228	0xbdec9c2c	-0.11553225
229	0xbd37e05d	-0.044891704
230	0x3dd1bbdd	0.1024091
231	0xbdca0226	-0.09863691
232	0xbdc10b64	-0.09426001
233	0x3db13b9a	0.08653946
234	0x3de98288	0.1140185
235	0x3c4b640b	0.012413989
236	0xbce8d29c	-0.028420739
237	0x3dc59d76	0.09649174
238	0xbd2ed9f3	-0.04268832
239	0x3dd0f728	0.10203391
240	0xbd908195	-0.07055966
241	0x3e066499	0.13124312
242	0x3d6b7232	0.057481952
243	0x3abc6857	0.0014374357
244	0xbe054ae9	-0.13016857
245	0xbcb6ad07	-0.022299303
246	0xbe00ee33	-0.12590866
247	0x3df06acd	0.11739121
248	0x3d705ca0	0.058682084
249	0xbd642400	-0.055698395
250	0x3cfa1a24	0.030530043
251	0xbdcb2008	-0.09918219
252	0xbdbb3684	-0.091412574
253	0x3e0c6bdf	0.13713025
254	0x3d86a264	0.06573942
255	0xbd89ee75	-0.06734935

lstm.bias_ih_l1 f4 [200]
0	0x3df88da9	0.121363945
1	0x3e1dd6d6	0.15413985
2	0x3ddfc18f	0.1092559
3	0xbbb204db	-0.0054327077
4	0xbd313589	-0.043263946
5	0x3cd7836c	0.026307784
6	0x3df6c9f9	0.12050242
7	0x3e000974	0.12503606
8	0x3e168f75	0.14703162
9	0x3e275fcb	0.16345136
10	0xbd906a70	-0.07051551
11	0xbda3012b	-0.07959207
12	0x3e0f6498	0.14003217
13	0x3dc5066a	0.09620364
14	0xbdaece2b	-0.08535417
15	0xbc062f3b	-0.008189972
16	0x3daff8f9	0.0859241
17	0xbdc82fe4	-0.097747594
18	0x3dfa2b4c	0.122152895
19	0x3df3ecd9	0.119104095
20	0x3e020cd0	0.127002
21	0x3dcfdfec	0.101501316
22	0x3dd822c6	0.105535075
23	0xbdb315c5	-0.087443866
24	0xbcdc4a97	-0.026891036
25	0x3dc3c249	0.09558541
26	0x3c55c919	0.013048434
27	0x3cc544f6	0.024080735
28	0x3a03ee40	0.00050327554
29	0xbda25820	-0.07926965
30	0xbd93fac3	-0.072255634
31	0xbe05a48a	-0.13051048
32	0xba50ec48	-0.0007969779
33	0xbd18b886	-0.03728535
34	0xbc852204	-0.016251571
35	0xbd47c838	-0.048774928
36	0x3e1c6bba	0.1527547
37	0x3cb11d0b	0.021620294
38	0x3c848e07	0.016181005
39	0xbe00a36e	-0.12562343
40	0xbd836d02	-0.06417276
41	0x3dacf7c4	0.08445695
42	0x3db14e10	0.08657467
43	0xbdd4b0c3	-0.10385277
44	0xbdef9c70	-0.1169976
45	0x3c5468f6	0.012964478
46	0x3d964d08	0.07338911
47	0xbc939d0e	-0.018019225
48	0xbd9fa7ca	-0.07795675
49	0x3e0a3c5d	0.1349959
50	0xbd882f7d	-0.06649683
51	0xbdb47cd1	-0.08812869
52	0xbdac7a28	-0.08421737
53	0x3e1fb37d	0.15595813
54	0xbcc54bb8	-0.024083957
55	0x3dd80d89	0.105494566
56	0x3d76367d	0.060110558
57	0xbdefb9bd	-0.11705349
58	0xbce714a1	-0.028208079
59	0xbd851ba3	-0.06499412
60	0x3c3f473c	0.011674698
61	0x3d50092c	0.050789997
62	0x3db8fb7a	0.0903234
63	0x3da9b095	0.082856335
64	0xbddbddb9	-0.107356496
65	0xbd9f01c3	-0.07764008
66	0x3de55c3b	0.11199232
67	0xbdefe6b0	-0.11713922
68	0x3e0269b7	0.1273564
69	0x3e04b4b4	0.12959558
70	0x3d9041fd	0.07043836
71	0xbdbb555a	-0.09147139
72	0xbb98443e	-0.004646807
73	0x3e02bda5	0.12767656
74	0xbd4d8a7d	-0.0501809
75	0xbd985e99	-0.07439918
76	0x3cf098a7	0.029369665
77	0x3d4b4484	0.04962589
78	0xbca5b1f3	-0.020226454
79	0xbd9a0670	-0.07520759
80	0xbcbbb7d1	-0.022914799
81	0x3dbf4b07	0.09340482
82	0x3df0ee1e	0.11764167
83	0xbdf0b228	-0.117527306
84	0x3dabacfb	0.08382603
85	0x3d9db622	0.07700755
86	0xbd9961f3	-0.074893855
87	0xbdac9b1f	-0.084280245
88	0x3dec1171	0.11526764
89	0xbd063e5f	-0.032774325
90	0x3d6f3d68	0.05840817
91	0x3d91ebad	0.0712503
92	0x3c943c02	0.01809502
93	0xbd5fde32	-0.05465526
94	0x3df64371	0.12024582
95	0x3c015571	0.007893906
96	0x3d313c5d	0.043270458
97	0xbdba60ff	-0.09100532
98	0xbcd10857	-0.025516672
99	0xbd4c0c8e	-0.04981666
100	0x3dd12cd0	0.102136254
101	0xbda6abdf	-0.081382506
102	0xbdc67e30	-0.09692037
103	0xbcf1ff86	-0.029540788
104	0x3dc10d98	0.09426421
105	0x3cbfebb1	0.023427816
106	0xbd57547c	-0.052570805
107	0xbe10f4c1	-0.14155866
108	0x3d561f14	0.052275732
109	0xbd736b4e	-0.059428506
110	0xbdc4d717	-0.09611338
111	0x3d445724	0.047934666
112	0xbccb7e44	-0.024840482
113	0x3cb5a626	0.022173952
114	0xbdd7a582	-0.10529615
115	0x3dbd1651	0.09232772
116	0x3e11202b	0.14172427
117	0xbd1bed53	-0.038068127
118	0xbd2367f1	-0.039894048
119	0x3d442cdc	0.047894344
120	0x3deddb08	0.116140425
121	0x3b0b29e1	0.0021234679
122	0x3be71ef3	0.00705325
123	0xbdc13a48	-0.094349444
124	0xbc7eed89	-0.0155595625
125	0xbbe19fe6	-0.0068855165
126	0x3e15376d	0.14571925
127	0x3b861e9d	0.004093005
128	0xbd2463eb	-0.04013435
129	0xbc094f9a	-0.008380795
130	0x3e1b366c	0.15157479
131	0x3d227ec8	0.03967169
132	0xbd15eaf3	-0.03660102
133	0xbced50a9	-0.028969126
134	0xbd9fabbb	-0.07796427
135	0xbdf83b23	-0.121206544
136	0x3c515e96	0.012778899
137	0x3d5487c7	0.0518873
138	0x3c17e8a2	0.009271773
139	0xbd83252d	-0.06403575
140	0x3c1f7368	0.009732105
141	0x3de1e8ec	0.110307544
142	0xbd8763c6	-0.06610827
143	0xbd2508fd	-0.040291775
144	0xbd772cc4	-0.060345426
145	0xbc288b32	-0.010287093
146	0xba573a2a	-0.0008210266
147	0x3c5321fc	0.0128865205
148	0x3d355b37	0.044276442
149	0x3d9cbeaa	0.07653554
150	0xbdc8222f	-0.09772145
151	0x3d9de1a4	0.07709053
152	0xbe09f10b	-0.13470857
153	0x3d9388e4	0.07203844
154	0x3d9b331e	0.07578109
155	0xbde0a891	-0.109696515
156	0xbc6db024	-0.014507327
157	0x3d8614c0	0.065469265
158	0xbdb9308a	-0.09042461
159	0x3d059464	0.03261222
160	0xbdead13b	-0.11465689
161	0x3d211a4e	0.039331727
162	0xbd22931d	-0.03969108
163	0xbd9e7985	-0.07738022
164	0x3d689a7d	0.056787957
165	0xbddd4bc0	-0.10805464
166	0x3d99b382	0.075049415
167	0x3d9eba11	0.07750333
168	0xbd9605b2	-0.07325305
169	0x3b910342	0.004425437
170	0x3cb98411	0.022645982
171	0x3d659fe6	0.056060694
172	0xbcac4b11	-0.021031888
173	0xbdef5f9b	-0.11688157
174	0x3c916199	0.017746734
175	0xbdeb4ff3	-0.114898585
176	0xbcd9b52d	-0.02657565
177	0xbcbb0e58	-0.022833988
178	0xbda0e63c	-0.07856414
179	0xbe045fa6	-0.12927112
180	0xbd67f0d7	-0.056626167
181	0xbdc0f361	-0.09421421
182	0x3e0b47b9	0.13601579
183	0xbd1615ee	-0.036642008
184	0x3d596036	0.05307027
185	0x3d693402	0.056934364
186	0x3d851cf6	0.064996645
187	0xbcfc7d16	-0.030821364
188	0x3dbf5a9b	0.093434535
189	0xbd9ff193	-0.078097485
190	0x3da3f30c	0.08005342
191	0x3d018276	0.031618558
192	0x3ca768d9	0.020435737
193	0x3e28022b	0.16407077
194	0xbd102b47	-0.035197522
195	0xbc45470e	-0.012040867
196	0x3bedb1cd	0.0072538615
197	0xbd7ce4d6	-0.061741672
198	0x3d02a79f	0.031898137
199	0xbd90621c	-0.07049963

lstm.bias_hh_l1 f4 [200]
0	0x3e07ab80	0.13249016
1	0x3d2b052a	0.04175297
2	0x3daf72c7	0.08566814
3	0x3e01f8c6	0.12692556
4	0xbdef5859	-0.11686773
5	0x3df4ed7d	0.1195936
6	0xbd974b6b	-0.07387432
7	0x3dc7d3aa	0.097571686
8	0x3c47c0b2	0.012191938
9	0xbba37ad5	-0.004989008
10	0xbd239204	-0.039934173
11	0xbdd00a6a	-0.10158236
12	0x3ceb0cd5	0.028692642
13	0xbe02d786	-0.12777528
14	0x3d7c3c2b	0.06158082
15	0x3dd991b4	0.10623494
16	0xbdbe6c32	-0.0929798
17	0xbdd13a2c	-0.102161735
18	0xbcea7030	-0.028617948
19	0xbdd17a0d	-0.102283575
20	0x3d5980b0	0.05310124
21	0xbd24ed87	-0.040265586
22	0xbdb93d18	-0.09044856
23	0x3da8b461	0.082375295
24	0xbda23f7e	-0.079222664
25	0xbdc477a9	-0.09593136
26	0x3e0e19f5	0.1387709
27	0x3c9706c8	0.01843585
28	0xbdfb9342	-0.122839466
29	0x3de82bab	0.11336454
30	0x3db77ded	0.08959565
31	0x3c769cee	0.015052063
32	0x3e2d3487	0.16914569
33	0xbdb81ea2	-0.08990218
34	0x3d3c7941	0.046014074
35	0xbd0a8272	-0.03381581
36	0x3d5e0efe	0.054213516
37	0x3d83f862	0.0644386
38	0x3dbc4c78	0.09194273
39	0x3c49d43e	0.012318669
40	0x3dd51117	0.1040365
41	0x3cfcc5d0	0.030856043
42	0x3d8d78ca	0.06907804
43	0xbdcc9bbd	-0.09990642
44	0x3e0f5a53	0.139993
45	0xbe0c6fa9	-0.1371447
46	0x3a91cde0	0.0011123978
47	0xbd26a51f	-0.040684815
48	0x3cfecfa6	0.031104874
49	0x3d843aeb	0.0645655
50	0x3d72f419	0.05931482
51	0xbda714ef	-0.0815829
52	0x3ca25fb7	0.019821031
53	0x3e1a7c8f	0.15086578
54	0xbb9922a2	-0.004673318
55	0xbe0eb847	-0.13937484
56	0xbce2bb3c	-0.027677171
57	0xbcb89c5d	-0.022535497
58	0x3e115faf	0.14196657
59	0x3d44d9d5	0.048059303
60	0x3e0012ae	0.12507126
61	0x3d91acdf	0.07113051
62	0xbc54b116	-0.012981674
63	0x3dae4e7d	0.08511064
64	0xbcf374fd	-0.02971887
65	0xbda34171	-0.07971466
66	0xbd8d3cdb	-0.06896373
67	0x3c99edc4	0.018790133
68	0x3d83310b	0.064058386
69	0xbe06e8cc	-0.13174742
70	0xbd921b44	-0.07134107
71	0x3d14512e	0.03621023
72	0xbb7f9bfc	-0.0039002886
73	0xbd90d688	-0.070721686
74	0xbdf773c5	-0.12082628
75	0x3df8c885	0.12147621
76	0xbd79714d	-0.060899068
77	0x3e0c18b5	0.136813
78	0x3d140404	0.036136642
79	0xbdb78690	-0.08961213
80	0xbdba3079	-0.09091277
81	0xbb7e5a2f	-0.0038811078
82	0x3dab4390	0.08362496
83	0xbdebba99	-0.115102
84	0x3d947b0b	0.07250031
85	0x3de319de	0.11088918
86	0xbd934d91	-0.07192529
87	0x3b2b5419	0.0026142655
88	0xbdd72b63	-0.10506322
89	0x3d7ddd74	0.061978772
90	0xbe040580	-0.12892723
91	0xbddc91af	-0.107699744
92	0xbdda1c0b	-0.1064988
93	0xbdaab06b	-0.0833443
94	0x3cb264b4	0.021776535
95	0x3daa6f6e	0.08322035
96	0xbdae9749	-0.08524949
97	0x3d816c99	0.063195415
98	0x3dcf1c2f	0.101127975
99	0xbdef9f4c	-0.11700305
100	0xbc88d4bb	-0.016703
101	0xbdb0f4d7	-0.086404495
102	0x3e0dc489	0.13844503
103	0x3dcf6318	0.101263225
104	0x3e13dc5f	0.14439534
105	0xbd758858	-0.05994448
106	0x3da14bdb	0.078757964
107	0x3d8188b0	0.06324899
108	0xbd34e970	-0.044167936
109	0x3d09852f	0.03357428
110	0xbd5d406c	-0.054016516
111	0x3d847513	0.06467643
112	0xbdf6501b	-0.12026998
113	0x3c0b278a	0.008493314
114	0xbe051089	-0.12994589
115	0xbcfbf160	-0.030754745
116	0x3e024867	0.12722932
117	0xbd918fd9	-0.07107515
118	0xbbdd0b86	-0.0067457585
119	0xbdbd8612	-0.092540875
120	0x3c81fafb	0.015866747
121	0x3dee3ec8	0.11633068
122	0xbd645601	-0.055746082
123	0xbd3e5041	-0.046463255
124	0xbe194361	-0.1496711
125	0x3be7ddc4	0.007075997
126	0x3d36cb80	0.044627666
127	0x3d535c21	0.051601533
128	0x3dca0d94	0.09865871
129	0xbdb149cf	-0.08656656
130	0xbd362c88	-0.044476062
131	0xbcd1a4c5	-0.025591264
132	0x3d820612	0.06348814
133	0xbd251e73	-0.04031224
134	0xbca4b71c	-0.020106845
135	0xb9987173	-0.00029076225
136	0x3dc6fbb6	0.09715979
137	0xbdc3b957	-0.09556835
138	0xbbb6f9a7	-0.00558396
139	0xbd08b623	-0.033376824
140	0x3c338234	0.010956336
141	0xbd4aa0b1	-0.049469654
142	0xbe1b180a	-0.15145889
143	0xbc47e828	-0.012201346
144	0x3dabb68a	0.08384426
145	0xbddb142a	-0.10697205
146	0x3e0ac1fe	0.13550565
147	0x3ccf4608	0.025301948
148	0x3ccfacce	0.025350954
149	0x3d87e2dc	0.06635067
150	0xbd8b5f37	-0.0680527
151	0xbd9aadea	-0.07552703
152	0xbb8bcc2c	-0.0042662825
153	0xbde56a67	-0.11201935
154	0x3b8c7ee8	0.0042875893
155	0x3ceee6e1	0.029162826
156	0x3e10f147	0.1415454
157	0xbc3f5368	-0.0116776
158	0xbda0236a	-0.07819255
159	0xbdabd7b3	-0.08390751
160	0x3d9d1188	0.076693594
161	0x3c9a9506	0.018869888
162	0x3d5684c9	0.052372728
163	0xbe086481	-0.13319589
164	0x3d9767f9	0.07392878
165	0x3da1a84a	0.07893427
166	0x3dd8ab04	0.10579494
167	0x3da04e49	0.07827432
168	0x3c6c9c73	0.014441597
169	0x3d630148	0.055421144
170	0xbdbdcb98	-0.09267348
171	0x3d90dfe4	0.07073954
172	0xbd300b41	-0.042979483
173	0x3c8d6958	0.017262146
174	0xbd9b263e	-0.075756535
175	0xbdfa5a9f	-0.12224316
176	0xbd7a6896	-0.061134897
177	0x3e1b25fb	0.15151207
178	0xbdd5c044	-0.104370624
179	0xbe0e74c4	-0.1391173
180	0x3b72d667	0.0037054063
181	0xbdb506a6	-0.08839159
182	0x3e23cb09	0.1599542
183	0x3e234cb6	0.15947232
184	0x3d1020da	0.03518758
185	0xbd41d352	-0.04732067
186	0xbc46acaa	-0.012126127
187	0x3e21bf82	0.1579571
188	0x3db25204	0.087070495
189	0x3db545fd	0.0885124
190	0x3df43d04	0.119257
191	0xbd0e7e4e	-0.034788422
192	0xbd31ccd0	-0.043408215
193	0x3dff54d2	0.1246735
194	0xbdce5d42	-0.10076381
195	0xbcf4d044	-0.029884465
196	0x3d630c9a	0.05543194
197	0x3df60a34	0.12013665
198	0x3d605e08	0.054777175
199	0x3d9053ec	0.07047257

fc.weight f4 [1, 50]
0	0xbde81c73	-0.11333551
1	0xbe04bc78	-0.1296252
2	0xbc135f0a	-0.008994827
3	0x3e185a89	0.14878286
4	0xbb7abf58	-0.0038261022
5	0x3d6bef86	0.057601474
6	0x3d935973	0.071947955
7	0xbc7485a8	-0.014924444
8	0x3dd8df53	0.10589471
9	0xbe28c057	-0.16479622
10	0x3dbe058a	0.092784
11	0xbc186374	-0.009301055
12	0xbe1c7b51	-0.15281416
13	0xbdf4e357	-0.11957424
14	0xbd392bed	-0.045207907
15	0x3cbe7019	0.023246812
16	0x3e04ad41	0.12956716
17	0xbd440d7d	-0.047864426
18	0x3e224679	0.15847196
19	0x3e0ac44e	0.13551447
20	0x3c25486d	0.010088068
21	0x3dcd6982	0.1002989
22	0x3c163442	0.009167733
23	0xbe219df5	-0.15782912
24	0xbddafc24	-0.10692623
25	0xbdbf57c7	-0.09342914
26	0x3b6a9269	0.0035792834
27	0x3d718937	0.05896875
28	0x3e13bfd7	0.1442865
29	0xbd7c63cf	-0.061618622
30	0x3da5a26c	0.0808762
31	0xbd76cb1b	-0.06025229
32	0x3e2d2845	0.16909893
33	0xbe1b479e	-0.15164039
34	0xbdc2ce24	-0.095119745
35	0x3df5fc53	0.12011018
36	0xbdf196e0	-0.11796355
37	0xbd82b842	-0.06382801
38	0xbd419709	-0.04726318
39	0x3d785480	0.06062746
40	0xbd5b9f6d	-0.053618837
41	0xbdc1929c	-0.09451792
42	0xbd8d6047	-0.06903129
43	0xbe006688	-0.12539113
44	0x3d2c8553	0.042119335
45	0x3d3255d5	0.043538887
46	0x3e0a084d	0.13479729
47	0xbdb60802	-0.08888246
48	0x3da073f3	0.078346156
49	0xbd9e7510	-0.07737172
