models/lstm_model_5m.pt (torch, 127756 bytes, 9 tensors)

lstm.weight_ih_l0 f4 [200, 1]
000000 c0 b6 d2 3d 48 37 a6 3d f3 3b f4 3d 84 91 2f 3e
       0.10288763 0.08116013 0.11925497 0.17145354
000010 7f 0c 5b bd 54 35 20 3e a2 06 f1 3d 42 80 be 3d
       -0.053478714 0.15645343 0.11768843 0.09301807
000020 4c f6 66 3d d4 ed 49 3e e1 e0 1f bd c7 0f 1a 3d
       0.05638723 0.1971963 -0.03903282 0.037612703
000030 3c a6 d8 3d 00 9d 72 3c 01 69 0f be 3a 99 0d 3e
       0.10578582 0.0148079395 -0.140049 0.13827983
000040 8b 41 3a 3e 72 43 f9 3d fd 70 e3 3d ff 8e fc bc
       0.18189065 0.12171067 0.11105535 -0.030829905
000050 2f 77 95 3d 1b a8 3c 3e 51 a8 8e 3d 65 12 1f 3d
       0.07298123 0.18423502 0.069656976 0.0388359
000060 17 87 8d 3c c6 c5 4d 3e 16 45 43 3e fc 6c 73 bd
       0.01727633 0.20094976 0.19069323 -0.059430107
000070 94 00 7e bd 0f 37 ee bd 25 62 8a bd 4c 25 56 bd
       -0.06201227 -0.11631595 -0.06757001 -0.052281663
000080 d5 2d 37 3e 64 32 5e 3d 69 fe 3d be 28 7e 10 bc
       0.17888577 0.054247275 -0.18554081 -0.0088191405
000090 e4 a7 0d 3e d1 74 a2 3d 01 e9 13 3e a5 e4 9d 3d
       0.13833576 0.07932437 0.14444353 0.07709626
0000a0 b5 03 0d 3d 6e 96 88 bd 19 4a 10 3d 16 1a 9b 3d
       0.034427363 -0.06669317 0.035226915 0.07573335
0000b0 a6 c6 87 bd 3e e6 98 bd ea 21 f8 3d 78 14 0a 3d
       -0.06629686 -0.0746579 0.121158436 0.033710927
0000c0 3c 80 65 bd 0d 1d 8a 3d 87 06 80 3d b5 1c 89 3d
       -0.056030497 0.06743822 0.06251245 0.066949286
0000d0 73 e4 10 3e 18 a7 9b bd ce 09 9d bd 9b c1 b7 bc
       0.14149646 -0.0760023 -0.07667886 -0.022431185
0000e0 01 c7 2d 3e 90 5c 60 3c 46 bf f1 3d 7b b0 a6 3d
       0.16970445 0.013693944 0.11804061 0.0813913
0000f0 17 3a 67 be 7e 95 87 3d 47 c9 21 3e af d0 e8 bc
       -0.22580753 0.0662031 0.15799437 -0.02841982
000100 89 88 e9 bd 09 a1 92 3d 00 1a 46 3e c0 7c fd 3d
       -0.11402995 0.07159621 0.19345856 0.1237731
000110 3f e8 95 bd 2c a6 90 bc 5b fd d6 3d 31 63 13 3e
       -0.07319688 -0.017657362 0.104975425 0.14393307
000120 47 2f 5b bd 2b d0 8f bd f0 b9 9f 3d d0 2d 62 3d
       -0.053511884 -0.07022127 0.07799137 0.05521947
000130 81 fe 5e bd a9 a0 a2 3d d0 89 87 3d 06 68 3e bb
       -0.054441933 0.079408 0.066180825 -0.0029053702
000140 f9 59 00 be e6 b5 b3 bd 4b 48 2c 3e 50 94 49 3d
       -0.12534322 -0.08774929 0.16824453 0.049213707
000150 86 cb a4 bd e4 5e b4 bd 7d c9 1e 3d f9 69 a8 bc
       -0.080466315 -0.088071615 0.038766373 -0.020558344
000160 3f 13 f0 3d b1 94 7a bd d4 12 62 bd a3 1b 37 3c
       0.11722421 -0.06117696 -0.055193737 0.011176023
000170 91 ea 4f bd c5 60 a0 bd 24 35 1c 3d 3b 94 82 bc
       -0.05076081 -0.07830957 0.038136616 -0.015939822
000180 1e fe 23 3e e4 40 2e 3e 57 69 35 3c 90 a3 3e bd
       0.16014907 0.17016941 0.011072478 -0.046542704
000190 cd d6 83 ba 2b d3 1b 3e c3 bf 02 be 0e 1d fe bd
       -0.0010058522 0.15217273 -0.12768464 -0.124078855
0001a0 ad b7 38 be e7 55 71 bd 43 af 0f be e9 94 4d 3e
       -0.18038817 -0.058919813 -0.14031701 0.20076336
0001b0 59 b8 1d bd 3e 08 34 be 74 21 22 be d4 5c 12 be
       -0.038505886 -0.17581269 -0.15833074 -0.14293224
0001c0 f6 37 2a be 7c 15 03 3d a3 97 1c 3e 0f 4d 7e 3d
       -0.1662291 0.03200291 0.1529222 0.062085208
0001d0 c4 1b 68 3d d3 89 01 be 31 35 38 3e eb 17 55 3e
       0.056667104 -0.12650232 0.17989041 0.20809905
0001e0 80 75 a5 bd c3 50 20 be 79 55 32 3e 5a ad bd bd
       -0.08079052 -0.15655808 0.17415418 -0.0926158
0001f0 f3 73 87 3d c7 8a ef 3d 72 1f c1 3d 5a ee 19 be
       0.066139124 0.116963916 0.09429826 -0.1503233
000200 fc 6b 2d be fa 5f 6b 3d 1d ac 21 be f9 f6 fc 3d
       -0.16935724 0.057464577 -0.15788312 0.12351794
000210 60 22 d2 3c 9a a4 31 3e 00 b6 39 be 74 75 06 3d
       0.025651157 0.17347947 -0.18135834 0.032826856
000220 0b 02 2a 3d bf 59 04 be 16 2d 20 3e d0 01 4e bd
       0.041505855 -0.1292486 0.15642199 -0.050294697
000230 2b 90 32 3d 3a b6 21 3e 96 a2 0e 3e 81 af d0 bd
       0.04359452 0.1579217 0.13929209 -0.10189725
000240 51 51 1c be 02 9c 27 3e 32 1d 27 3e 4a 6a 4c be
       -0.15265395 0.16368106 0.16319731 -0.19962421
000250 6c 52 f8 3d 17 8f 24 3e a3 3f b4 3c e3 91 1b 3d
       0.12125096 0.1607021 0.022003 0.037980925
000260 45 37 32 3d b2 c6 a7 3d ed d4 00 3e 44 44 82 bd
       0.04350974 0.08192195 0.12581225 -0.06360677
000270 80 7e 35 3e ee d5 bd 3b 6f 47 50 3d 6e bd e8 3d
       0.17724037 0.0057933247 0.050849374 0.11364256
000280 af 8c 4e be 02 b0 83 3d 69 15 1c 3e 69 fe 0d 3e
       -0.20170854 0.06430055 0.15242542 0.13866581
000290 7e be 29 3d 84 47 db 3d c5 79 8a 3d cb b5 b3 3d
       0.041441433 0.10707 0.06761507 0.08774909
0002a0 52 09 52 3d c2 1a 5c bb 86 f0 af 3d e2 ea 17 bd
       0.05127842 -0.0033585285 0.08590798 -0.037089236
0002b0 c5 84 19 3c 49 22 1c 3e 3f 89 d2 3d 34 98 55 3e
       0.009370034 0.15247454 0.10280084 0.20858842
0002c0 53 61 50 bd e2 35 14 3d d8 d4 8a bd 3d e4 2b 3d
       -0.050874066 0.0361842 -0.06778878 0.04196571
0002d0 7f 6f 02 3d 13 ce 1f bd b3 64 47 3e 1c 9e 4d bc
       0.031844612 -0.039014887 0.19472007 -0.012549903
0002e0 51 7c 35 be 8e c6 f8 3c 6c da de 3d b6 b6 c3 3d
       -0.17723204 0.030368116 0.108815044 0.09556334
0002f0 91 7a 0e 3e 84 bb 21 bd 6c c8 41 3d 17 f1 7e bc
       0.13913943 -0.03948547 0.047310278 -0.01556041
000300 ce 32 e8 bc f4 91 29 bc 7e a4 a9 3c 4a 60 3a 3e
       -0.028344538 -0.010349739 0.020708319 0.18200794
000310 f4 4f 3c 3d d0 99 30 3e 6f 60 55 bd 04 78 d4 bc
       0.045974687 0.17246175 -0.05209392 -0.025936134

lstm.weight_hh_l0 f4 [200, 50]
000000 ea 73 5d bb d9 7f 34 bd f1 49 f0 3d c7 9d 22 bc
       -0.0033791014 -0.044067238 0.11732853 -0.009925312
000010 b8 3b dd 3d 6f 25 90 3d e0 4d 93 bd 4c bb 9e bd
       0.10802406 0.0703839 -0.07192588 -0.07750568
000020 0e a4 b7 3d 07 34 cc 3d b1 ec 55 3d f4 86 08 3d
       0.08966838 0.09970861 0.05222768 0.033331826
000030 94 61 ec 3d 41 85 06 3e 6a 80 ff 3d 54 af 4f 3d
       0.11542049 0.1313677 0.12475665 0.050704315
000040 7a db 83 3d 9e 6a 8d 3d 55 ea e8 bc b8 da e7 bd
       0.06438346 0.06905101 -0.02843205 -0.11321014
000050 29 03 f9 3d 3e 67 49 bc 11 8c 9c 3d 03 73 1f 3d
       0.12158806 -0.012292681 0.07643903 0.038928043
000060 95 bf e0 3d ff 40 04 3e f7 fb 28 3d 95 07 07 3e
       0.109740414 0.12915419 0.041255917 0.13186486
000070 0b 4b 94 bd 01 eb c0 3d fe 88 04 be 76 fd 66 bd
       -0.07240876 0.094198234 -0.12942883 -0.056394063
000080 df 71 de bd 82 90 0a 3e 3e cf ca bd 67 4f cb 3d
       -0.10861563 0.13531688 -0.099028096 0.09927254
000090 9a 0c ad 3c 90 66 a3 3d f6 2b b7 3d da 97 48 3c
       0.021124173 0.079785466 0.08943932 0.0122432355
0000a0 45 16 db 3d 30 2e c2 bd e5 35 34 3d d3 f2 ed bd
       0.10697607 -0.09481466 0.04399671 -0.11618581
0000b0 f5 46 9a 3d f7 54 71 3d e5 22 62 bd c6 6f 71 bd
       0.07533065 0.05891892 -0.05520906 -0.058944486
0000c0 b9 19 c7 bd 3a 45 99 bd 40 5d 95 3d f1 ca 94 3c
       -0.09721703 -0.07483907 0.07293177 0.018163176
0000d0 39 23 89 bb ec 11 be bb 93 ef 37 3d 5e 62 c5 bd
       -0.004185107 -0.0058004763 0.04490621 -0.09637903
0000e0 08 8e bf bd c7 fe af bd 87 c2 e8 bd d3 da 40 bd
       -0.09353262 -0.08593517 -0.11365228 -0.047083687
0000f0 54 f1 a7 3d 9b d1 f6 bd 7a b6 e4 bd a9 64 19 be
       0.082003266 -0.12051698 -0.11167617 -0.14979805
000100 d9 9d f6 3c c8 fd 16 3c 4b 91 59 bd f5 f7 09 be
       0.030104565 0.00921578 -0.053117078 -0.13473494
000110 f7 2a db 3d 20 d1 55 3d 21 9e 75 3c 70 6b c9 3d
       0.10701554 0.05220139 0.014991314 0.09834945
000120 ce e6 65 bd b5 69 d1 bd ae 16 f4 bd c1 2f a0 3d
       -0.056128316 -0.1022524 -0.11918388 0.07821608
000130 ae d8 59 bd fd a5 f8 bd f4 4c ab 3d 2c 21 29 bc
       -0.053185157 -0.12141035 0.08364287 -0.01032285
000140 0c cb 8b 3b 09 8b ce 3d 02 2e 60 3d 21 d4 a6 bd
       0.0042661484 0.100851126 0.054731376 -0.08145929
000150 ba 87 4d 3c 36 a0 9d 3c fa c8 13 3d 07 fb f5 3d
       0.012544567 0.019241434 0.036080338 0.1201077
000160 9e cd 48 bd 0e 96 94 3d f0 ef 38 bd 85 0a d0 3c
       -0.049024217 0.07255183 -0.045150697 0.025395641
000170 02 df 37 bc db 16 bd bc c2 8c cc bd 3e f5 04 3d
       -0.011222603 -0.023082187 -0.09987785 0.032460444
000180 ae d0 ec 3d c6 19 06 be 7f 92 b3 3d 35 4b 01 3e
       0.1156324 -0.1309577 0.08768176 0.12626345
000190 ae d5 83 bc 74 e4 2f 3e 2a d5 04 be 4b e2 c2 3d
       -0.016093101 0.17176992 -0.1297194 0.09515818
0001a0 52 65 08 be 6e 71 8d 3d bc 8d 29 3d 74 c0 c4 3c
       -0.133199 0.069064006 0.041394934 0.02401755
0001b0 99 f0 66 bd 01 d9 91 3d f9 5a 51 bc a6 80 88 3d
       -0.056381796 0.07121468 -0.012778037 0.06665163
0001c0 3c 40 08 3d 22 c0 55 3d ad e4 f5 3d 8f af ca 3d
       0.033264384 0.052185185 0.12006507 0.098967664
0001d0 64 f6 0f be c1 04 22 be e2 23 a1 3d a7 99 45 3d
       -0.14058834 -0.15822126 0.07868172 0.048242237
0001e0 8b 5d d7 bd 22 f1 d5 bd cb e4 d3 bd 1d 80 fd bd
       -0.10515889 -0.10446383 -0.10346373 -0.12377951
0001f0 7b 71 dd 3d 7c 55 c1 3d 9e 64 98 3d 54 ec 15 be
       0.1081266 0.09440133 0.07441066 -0.14640933
000200 af cf 49 3d 55 23 44 bd 0c 9f aa bd 85 b7 07 be
       0.049270328 -0.047885258 -0.08331117 -0.13253601
000210 23 01 b2 3d c6 56 c1 3d 72 be d5 bd 95 7e 37 bc
       0.08691623 0.09440379 -0.10436715 -0.011199613
000220 b4 83 97 3c ab 98 98 bd 9f a0 16 3e 77 70 06 3d
       0.018495418 -0.07450994 0.1470971 0.0328221
000230 c9 14 a4 bd d3 ff 52 3d 16 0a 35 3d 8c d3 4e bd
       -0.08011777 0.051513504 0.04419907 -0.050494716
000240 6e b2 81 3d c0 74 89 3d 80 b7 06 3e 9b 21 c8 3d
       0.06332861 0.067117214 0.13155937 0.09772035
000250 af f5 9b bc af 9e bb bd 1b 6b c9 bd 7d 00 a9 3d
       -0.01903805 -0.09161126 -0.09834882 0.08252046
000260 f8 66 17 be dc b9 59 bd de 83 f2 bd 63 b6 c7 bd
       -0.14785373 -0.053155765 -0.11841558 -0.097515844
000270 06 3a 15 be c0 78 ef bc 41 ad da 3c 2f f8 9d 3d
       -0.14572915 -0.029232383 0.026693942 0.07713353
000280 fd 63 36 3d 3c ff ca 3c ab 2a 3e bd 3f d4 1a bd
       0.04452895 0.024779908 -0.04642741 -0.03780007
000290 40 54 21 bd 04 09 f6 3c 11 8c bc bd c9 ea 55 3d
       -0.039386988 0.030033596 -0.09206403 0.05222586
0002a0 e4 31 02 3e bc ea c9 3d 9b b6 b4 bd c6 c0 b5 bd
       0.12714344 0.09859225 -0.08823892 -0.08874659
0002b0 11 5f ed bd e3 d7 35 be 88 71 aa 3d 1d ff 73 3b
       -0.11590398 -0.17758135 0.083224356 0.0037230917
0002c0 c4 b8 d3 bd 83 24 c2 bd 53 b4 05 3c 63 a8 40 bd
       -0.103379756 -0.0947962 0.008160668 -0.047035586
0002d0 4f a8 51 3d 2e 94 86 bd a9 0d ae 3d 21 68 5f bd
       0.051185902 -0.06571232 0.08498699 -0.054542664
0002e0 d3 3b 47 bd 4f 13 b7 bd 07 6c 90 bd 7e 68 4e 3d
       -0.048641037 -0.0893923 -0.070518546 0.05039262
0002f0 13 a4 11 3e 88 41 aa bd 2f c4 17 be ce cc 0e 3e
       0.14222746 -0.0831328 -0.14820932 0.13945314
000300 4a ba be 3d 81 b7 81 bd 24 fc 54 bd 6f 42 00 3e
       0.093128756 -0.06333829 -0.051998273 0.12525342
000310 9e f8 d3 bc 55 8f 14 be b7 91 22 3d f2 81 04 be
       -0.025875386 -0.14507802 0.039689746 -0.12940195
000320 4c 46 09 be 8e 9c 4d 3d 0c ad d7 3c 66 53 78 3d
       -0.13405722 0.05019813 0.026327632 0.06062641
000330 45 b3 16 bd 60 7d 21 3d 15 27 85 bd 63 1e 8b bd
       -0.03679206 0.039426208 -0.06501595 -0.06792905
000340 b0 7c 5e bb 74 d4 14 be 24 ee ce 3d 00 8a da 3d
       -0.0033948831 -0.1453417 0.101040155 0.10670853
000350 3c 89 22 be b9 6e d6 bc 0e f5 d7 bd c6 c8 bc bd
       -0.15872663 -0.026175844 -0.10544787 -0.09217982
000360 c4 2f 41 be d5 f2 a3 3d 2b 33 b7 bd 98 3f 0c 3e
       -0.18865877 0.08005301 -0.089453064 0.13696134
000370 e6 06 17 be aa 5d b7 bd 18 72 9e 3d b5 b3 36 3d
       -0.14748725 -0.08953412 0.077366054 0.044604976
000380 6b ae f2 bd 4e 5c 1b bd c5 90 11 3e 9e 98 c7 bd
       -0.11849674 -0.037929825 0.14215381 -0.09745906
000390 32 79 ba bd 02 b7 3e be 9d 6b b3 bc 06 f2 45 be
       -0.091051474 -0.186245 -0.0219019 -0.19330606
0003a0 b0 6c 8a bd 10 33 d0 3d 20 26 12 3e fe cf 39 3e
       -0.06759012 0.101659894 0.14272356 0.18145749
0003b0 4b 69 ff 3c 0e a6 24 be 7c b1 28 3c fc f9 cd 3d
       0.031178137 -0.1607897 0.010296222 0.10057446
0003c0 11 76 a6 bd a4 a6 cd bc fb 6b b5 3d ea 5d 3a 3e
       -0.08127988 -0.025103875 0.08858486 0.18199888
0003d0 7e 5f 88 3c 69 49 04 bd 35 d5 fb 3d 4d ce c0 3c
       0.016647097 -0.032296572 0.122965254 0.023535872
0003e0 ef e8 66 3d 11 10 65 3c 15 d3 fe 3b bb 2f c9 bc
       0.056374487 0.013980881 0.007776628 -0.024558892
0003f0 82 5e 54 bd 1f ac 8b bd 55 47 49 bd f3 93 f7 3d
       -0.051847942 -0.06819939 -0.049140293 0.12088766

lstm.bias_ih_l0 f4 [200]
000000 cc e4 21 bb 56 8d 3b bd 08 06 d7 3d fb 54 df 3c
       -0.0024703024 -0.045789085 0.10499197 0.027262202
000010 4d 0e a1 3c 5b b5 07 be 09 b1 d8 3c 4e 42 6b bd
       0.01966014 -0.13252775 0.026451604 -0.05743628
000020 1d a8 d3 3d 6a 7d 67 bd 16 a5 f0 3d 34 3d ee bd
       0.103347994 -0.05651609 0.11750238 -0.11632767
000030 d3 5b bd bd fb 24 9c 3c 94 0d 44 bc c1 5f d5 3d
       -0.0924603 0.019060602 -0.011966128 0.10418654
000040 b0 03 b0 bb 24 c0 cf bc aa 70 42 bd c1 24 b0 3d
       -0.0053715333 -0.025360174 -0.047470726 0.0860076
000050 f1 65 0c 3c 9b fa ba 3c 37 21 ad bd d0 0d b6 bc
       0.008569227 0.022824576 -0.08453601 -0.022223383
000060 e4 71 77 3d 2d 72 b1 bd be fd 38 bc c6 c9 f2 bd
       0.06041135 -0.086643554 -0.011290966 -0.118548915
000070 ff e6 bc 3d de 3c 8e 3d be c6 04 bd c0 9e 17 3d
       0.092237465 0.06945203 -0.032416098 0.03701663
000080 d6 9a 34 3d e2 ea 64 3d 4d 37 ad 3d 81 29 95 bb
       0.044092976 0.055888064 0.084578134 -0.004552067
000090 5e 1b 0b be 22 6e d9 3d 5a 12 81 bd 7d 05 af 3d
       -0.13584659 0.10616709 -0.063023284 0.08545969
0000a0 0c fb f1 bd 38 45 b5 bd 18 8a ae bd a3 e6 b0 bd
       -0.118154615 -0.08851093 -0.08522433 -0.086377405
0000b0 a4 0c 9d 3c 14 0d 06 3e f2 b7 87 3d 22 9c 71 bd
       0.019171067 0.13090926 0.06626882 -0.05898679
0000c0 83 4b b3 bc c9 6f ea bd a0 07 0d be 32 21 d3 bb
       -0.021886593 -0.114471026 -0.1377244 -0.006443166
0000d0 4b 68 be bd 46 1f 19 3e 05 d1 19 3e 18 fb fb bc
       -0.09297236 0.14953336 0.15021141 -0.03075938
0000e0 44 fa 5d bd 33 9d d5 3d 28 f8 b4 bd dc 87 bc 3d
       -0.05419375 0.10430374 -0.088363945 0.092056006
0000f0 6d 5a 8c 3d ab 16 73 3d 3a f7 90 bd a7 5b d1 3d
       0.06853185 0.05934779 -0.07078405 0.102225594
000100 83 54 01 3d 4a ff ce 3d 48 2b 64 bc ea ec 7d bc
       0.031574737 0.10107286 -0.013926335 -0.015498379
000110 a0 de bc bc 0a f9 e5 bd d7 05 3f 3c f9 ba 73 3d
       -0.023055375 -0.11229141 0.011659107 0.059504483
000120 e1 71 99 bd 13 3f ac bd 61 5e 92 bd 0f 6d b3 bd
       -0.07492424 -0.08410468 -0.071469076 -0.08761036
000130 70 7a c2 bc 9b 60 b5 3d 34 22 10 bd b0 2a c5 bd
       -0.023740023 0.08856317 -0.03518887 -0.096272826
000140 5a 75 99 bd f0 e5 b5 bd 27 83 00 3e b6 bd cd 3d
       -0.07493086 -0.08881748 0.1255003 0.1004595
000150 88 98 79 3a 86 bc 09 bd 35 79 db bd 77 f8 de 3d
       0.0009521325 -0.033627056 -0.10716478 0.10887235
000160 f5 99 22 3e 8a a2 ac 3d 4b 73 0e be cc eb 17 3e
       0.15879042 0.08429439 -0.13911168 0.14836043
000170 00 b3 1f bd d8 78 14 3d ce 61 ce bc dd d9 89 bd
       -0.038989067 0.036248058 -0.025193121 -0.06731007
000180 c0 23 2f bd 7b 3d 91 3d 29 05 cb bd cb 46 e6 bd
       -0.042758703 0.070918046 -0.099130936 -0.112439714
000190 df e4 ab bd c2 b8 50 bd 28 50 20 3c a5 47 4d bd
       -0.08393263 -0.05095745 0.009784736 -0.050117154
0001a0 83 bf 30 bc fa 6e 86 bd dc de 40 3d 31 33 92 3c
       -0.010787847 -0.06564136 0.047087535 0.017846676
0001b0 05 59 3a 3d 5c 7b f1 bc 37 fa 05 3e 6a 7c 78 3b
       0.045495052 -0.029477768 0.1308373 0.0037915953
0001c0 db d9 73 3c 29 74 0b be f4 b6 cd bd 1d 81 88 3c
       0.014883484 -0.1361853 -0.10044661 0.016663129
0001d0 3a e4 15 bc 40 cc 3b bd b5 08 07 3e 67 88 27 bd
       -0.009148652 -0.045849085 0.13186915 -0.040901568
0001e0 65 b8 bd bb 21 61 a4 bb 66 dc ed 3c 24 28 f5 bd
       -0.005789804 -0.0050164615 0.029035758 -0.11970547
0001f0 b0 31 d1 bd 26 a1 af bd 7f ac 55 3d fe 28 9d 3c
       -0.10214555 -0.085756585 0.05216646 0.019184586
000200 f4 d1 2f bb 21 c3 4b 3d e3 d1 9a bd cc 11 00 3d
       -0.0026828023 0.049746636 -0.07559564 0.031266972
000210 5a cd be bc cd 87 01 3e 52 f5 04 3e 3b 20 23 3d
       -0.023291279 0.1264946 0.12984207 0.03982566
000220 df 58 78 bd 24 92 ed 3d d5 5f cc 3d 43 bb ee 3d
       -0.06063163 0.1160014 0.09979216 0.11656811
000230 da 93 8d bd c4 31 04 3e 73 cc 0b 3c fa 75 bd 3d
       -0.06912966 0.12909609 0.008532631 0.09251018
000240 0e b9 0e bc d7 28 0c 3d f7 72 02 3e 25 d2 8d bb
       -0.008711113 0.034218635 0.12739168 -0.0043280297
000250 8a 1a 66 bd d7 20 f6 bd 29 2a d0 bd 33 36 b4 bd
       -0.056177653 -0.120179825 -0.101642914 -0.087994
000260 6b 1f 9e bd 0d 11 92 3c c9 88 5b 3d dd a4 d6 3d
       -0.07720836 0.017830396 0.053597245 0.10480664
000270 26 c4 27 3e 9b 5c 28 3e df 61 d4 3d b4 24 f6 3d
       0.16383418 0.16441576 0.1037023 0.12018719
000280 de bf 88 bc b2 49 4b 3c 8f 89 14 3e 0b 74 f5 bd
       -0.016693052 0.012407707 0.145056 -0.11985024
000290 28 cf f1 bd 55 3f e3 3d 64 34 ce bd 53 6a 0d 3e
       -0.1180709 0.11096064 -0.100685865 0.1381009
0002a0 81 7e 12 bd 0d 62 49 bd 24 73 3c 3d cb 05 03 3e
       -0.035765175 -0.049165774 0.046008244 0.12795179
0002b0 91 45 df 3d 70 5f ec 3d f3 62 d5 bd ff 6f dd 3d
       0.109019406 0.11541641 -0.10419264 0.10812377
0002c0 bc a6 9b 3d 9f ba c4 3d f6 8d 23 3e 0f 80 97 bd
       0.076001614 0.09605908 0.15972123 -0.07397472
0002d0 9e f7 18 3d c8 d1 d9 3d 82 45 ee 3d c9 f8 25 3d
       0.03734552 0.10635716 0.11634351 0.040520463
0002e0 88 2b 00 3e d6 d5 ef bb c0 47 fa bb 66 ff 2f bd
       0.12516606 -0.0073191924 -0.007637948 -0.042968176
0002f0 64 e7 2d bc 7e c2 80 bd fe 44 9a 3d 13 7c 2c 3c
       -0.01061425 -0.062870964 0.075326905 0.0105276285
000300 01 18 14 bd 27 3d 7b 3c d6 28 de 3d 56 c1 a4 3d
       -0.036155704 0.015334404 0.108476326 0.080446884
000310 71 06 7a bd cb 67 2f 3d 58 de 7a bd 30 a2 e0 bd
       -0.0610413 0.042823594 -0.0612472 -0.10968435

lstm.bias_hh_l0 f4 [200]
000000 a1 34 2a bd 52 f0 9e bd e9 9f 47 bd d0 8a bf bd
       -0.041554097 -0.07760681 -0.048736487 -0.09352648
000010 89 8b 26 3e c4 23 9b 3d 56 57 3e 3e a8 4d 33 bd
       0.16264166 0.07575181 0.18588004 -0.04377523
000020 d8 98 0a be 42 03 d6 3d 20 38 95 bd 92 e0 c4 3d
       -0.13534868 0.1044984 -0.072860956 0.09613146
000030 6a 66 90 bd b1 bb 56 3d a9 95 05 3e c3 20 df bd
       -0.07050784 0.05242509 0.13045372 -0.10894921
000040 3d 4b c7 3d 30 e1 ed 3d f2 3d 68 3d 5a 4f c8 3c
       0.097311474 0.11615217 0.0566997 0.0244519
000050 60 f8 50 b9 55 6f 1f bd 35 80 a1 3d f2 13 cf bc
       -0.00019928953 -0.038924534 0.07885782 -0.025278065
000060 c9 ad 0d 3e 4b 99 ca bc 22 cc 7b 3d a2 e0 5f 3b
       0.13835825 -0.024731299 0.061473973 0.0034160991
000070 55 56 29 3e b2 57 f1 3d 1c a3 7e bd c8 5c 48 bd
       0.1653684 0.11784305 -0.062167272 -0.048916608
000080 7a 65 23 3c 3f e6 ba bd c2 0c e7 3d b8 f3 6b 3c
       0.009972924 -0.09125947 0.1128173 0.014401369
000090 e7 89 9a 3c 86 05 ae bd 0b 46 bd 3d 41 b3 33 3d
       0.018864585 -0.08497147 0.09241875 0.04387212
0000a0 a1 2a f7 3d a5 32 8b 3d 6d 96 04 3e 67 37 7f bc
       0.12068678 0.06796769 0.12948008 -0.015577174
0000b0 d5 27 d5 bd 21 46 32 3e 54 1c 2a 3e d6 e5 a7 bc
       -0.10407988 0.17409565 0.16612369 -0.020495337
0000c0 27 b1 9d bc e2 94 86 bd f4 57 9a bd d0 74 a0 bd
       -0.019249512 -0.06571366 -0.07536307 -0.0783478
0000d0 ec 83 21 3d 2e e0 07 bc b1 3c 5d 3d 0a 8c 3d bc
       0.03943245 -0.008293195 0.054012958 -0.011569032
0000e0 fe 57 91 bd f9 e8 8b 3c 67 e5 e1 bd 4f eb eb bc
       -0.07096861 0.017078863 -0.11030083 -0.028798727
0000f0 24 63 aa 3d 45 1a c6 3d 04 51 8a 3c f4 d6 c0 3b
       0.08319691 0.09672979 0.016884334 0.0058849994
000100 27 e4 e1 bd 73 d7 b5 bc a2 73 76 3d d5 76 8a 3c
       -0.11029845 -0.02219746 0.06016887 0.016902367
000110 a1 af e6 3d 60 06 a3 3d 1f 37 a4 3d 14 92 9d 3d
       0.11263967 0.079602 0.08018326 0.07693878
000120 f9 82 95 3d 89 e0 60 3d 14 5f 12 3d 1f 3d 16 3e
       0.07300372 0.054901633 0.035735205 0.14671753
000130 a4 04 b5 bc f8 f7 28 3d aa ca 2d 3e fa 59 b0 bd
       -0.02209694 0.041252106 0.16971841 -0.08610912
000140 7c 99 c3 bd 59 f7 95 bd e4 65 6b 3a 33 c9 08 be
       -0.09550759 -0.073225684 0.00089797215 -0.13358001
000150 b1 56 2b 3e 09 31 da bd 31 b2 fd bd e7 c4 c2 bd
       0.16732289 -0.10653884 -0.12387503 -0.095102124
000160 86 38 b1 3d db 9a 2b bc b7 22 60 3d 04 92 07 3e
       0.08653359 -0.010473932 0.054720607 0.13239294
000170 50 73 e9 3d 50 35 92 bd c8 10 8f bd 38 fc db 3d
       0.11398947 -0.07139075 -0.06985623 0.10741466
000180 e3 e9 44 bc 22 d7 3c 3d 1f fa fa bd e3 a8 14 bd
       -0.012018654 0.046103604 -0.12254738 -0.036293875
000190 c5 9e ce bd f9 62 0e 3d 20 71 3c bc 1b a0 34 3d
       -0.10088877 0.034762356 -0.0115015805 0.044098
0001a0 3f 04 31 3d a6 4b a4 bd e4 80 b2 bd 8c 97 a4 3d
       0.04321694 -0.08022241 -0.0871599 0.08036718
0001b0 77 1f f4 3d ab 8d 79 3d bd 56 24 bd 18 aa 1a bd
       0.11920064 0.06092612 -0.040121783 -0.03775987
0001c0 5e 0e ad 3d 7d 9c 6d bd dc 3a 87 bd 89 b2 85 3d
       0.08450006 -0.058010567 -0.066030234 0.065281935
0001d0 43 f2 d2 bd 7a 97 1e bd 6c 7a 42 3c 0e 96 43 3d
       -0.10300114 -0.038718678 0.011870008 0.047750525
0001e0 cd ab 06 be 24 55 eb bd 54 8b a8 bb c5 38 24 3d
       -0.13151474 -0.11490849 -0.0051435623 0.040093202
0001f0 2d 87 aa bd f6 d8 dc 3d 7b 00 54 3d bd c0 01 be
       -0.08326564 0.107835695 0.05175827 -0.1267118
000200 6d f7 ad 3d bd fe 2d bd 90 2d 6c bc cd 1b 0b be
       0.08494458 -0.042479265 -0.01441516 -0.13584824
000210 d0 94 32 bd 9a 73 86 3d 60 e3 9d bd f1 aa 1a 3e
       -0.04359895 0.06565018 -0.07709384 0.15104271
000220 59 97 f3 3d 99 70 18 3c 60 35 0a bc 5f ac 93 3d
       0.11894102 0.009304189 -0.008435577 0.072106116
000230 03 a1 9b bd 0a d7 32 bb 48 a0 08 3e 8e 20 e9 3d
       -0.0759907 -0.0027288818 0.13342392 0.113831624
000240 42 ec 98 3b 82 e4 b1 bc 58 ac 98 bd c2 a2 35 bd
       0.004666836 -0.021715406 -0.07454747 -0.04434467
000250 d2 fd e3 bd c4 ef 5e bd 9f dc 26 bd 1f f2 fd 3d
       -0.11132397 -0.054427877 -0.040737744 0.123996966
000260 4f 2a e6 3d 5f 3c 16 3e c7 a3 a2 3c ad 98 e5 3c
       0.112385385 0.14671467 0.019853486 0.028026903
000270 b3 7d 14 bd a1 32 60 bd 0e ca 40 3d 79 0e 06 bd
       -0.03625269 -0.054735783 0.047067694 -0.032728646
000280 8f 7c 17 3e fa 8d 36 3d 55 07 87 3d 25 1a b1 3d
       0.14793609 0.044568993 0.06593195 0.08647565
000290 a5 94 e4 3d f6 0d 9b 3d 9c b5 e0 3d 23 a2 09 3d
       0.11161164 0.07571022 0.10972139 0.03360189
0002a0 83 1e 54 3d 72 b6 ae bd e6 02 d2 bd 72 10 10 bc
       0.05178691 -0.085308924 -0.10254459 -0.008792983
0002b0 cf a9 09 3e a2 3f 75 3d be 58 ed bc 8f 68 c5 bd
       0.13443683 0.059875138 -0.02897298 -0.096390836
0002c0 9e 24 1f 3e c5 33 ba 3d 36 42 9d 3d f1 2d 74 bd
       0.15541312 0.090919055 0.07678644 -0.059614126
0002d0 12 55 ff 3d bf 68 71 3d 58 e9 2f bc a0 60 b1 bc
       0.12467398 0.058937784 -0.010736786 -0.02165252
0002e0 84 7d 33 3d d0 d4 3b bd 2f f3 14 be df 70 a4 bd
       0.043820873 -0.04585725 -0.14545892 -0.08029341
0002f0 c9 47 37 3c 41 67 92 bd 01 86 02 3e f1 ba e9 bc
       0.0111865485 -0.071486 0.12746431 -0.028531523
000300 b9 79 03 3c c0 c6 e2 3d 77 30 e8 bd da 7e 7c bd
       0.008024626 0.11073065 -0.11337369 -0.061644413
000310 48 d8 b4 3d 33 3d 29 3e 43 4e f7 3d c2 27 bf 3d
       0.08830315 0.16527252 0.12075474 0.09333755

lstm.weight_ih_l1 f4 [200, 50]
000000 ca 9f 50 bd f8 32 e0 3d fc a2 bb bd 4b 18 e7 bd
       -0.050933637 0.109472215 -0.09161946 -0.112839304
000010 03 62 cb bd 11 84 22 be 99 be 00 be bc f2 12 3e
       -0.099308036 -0.15870692 -0.12572707 0.14350408
000020 78 e7 2f bc 62 5b 38 be f8 36 3b 3d ae 02 4e 3d
       -0.010736339 -0.1800361 0.04570672 0.050295524
000030 15 7f 8c bc 7e eb 86 bd 64 2e ac 3d 59 57 21 3d
       -0.017150441 -0.06587885 0.08407286 0.03938994
000040 d4 2b 85 bd 4e 31 0b bd 96 12 5b 3c 75 13 70 3d
       -0.065025 -0.033982567 0.01337113 0.058612306
000050 c9 d4 c8 bb 66 e3 f5 bd a2 a7 3d bb 3a 46 dd bc
       -0.0061288816 -0.120062634 -0.0028939028 -0.027011026
000060 78 f8 a9 bb ac 6f e7 3d 29 18 4c 3d f6 7b aa bc
       -0.0051870905 0.113005966 0.04982773 -0.020811062
000070 2b 51 4c bd b9 a1 a3 bd 44 85 28 be 7c 5b fd 3d
       -0.049882095 -0.079898305 -0.16457087 0.12370965
000080 65 81 9d 3c b8 12 c2 3d ac bd 74 3d 0c d5 f6 3d
       0.01922674 0.094762266 0.059751198 0.12052354
000090 5d 9b 15 bd 5a 9d 9f 3c c3 49 2b 3e 13 65 bc bb
       -0.03652512 0.01948421 0.16727357 -0.0057493537
0000a0 7e 23 af bc b2 d0 ea 3c b6 10 26 3e 92 21 36 3d
       -0.021379229 0.028663967 0.16217312 0.04446561
0000b0 17 ee 07 3d 2a c7 1f 3e 85 8f db 3d 4a c5 2b be
       0.033186045 0.15603319 0.107207336 -0.16774479
0000c0 33 12 37 3e 0f 86 d9 bc c8 f4 1d be 3b 6d 89 3c
       0.17878036 -0.026553182 -0.15425408 0.016775718
0000d0 49 24 bc bd c5 8a 14 3d e2 53 a7 3d 04 53 cd bc
       -0.09186608 0.036265153 0.08170296 -0.025063999
0000e0 e8 48 08 be 42 81 b6 bd 56 50 c3 3d 07 9a 17 bd
       -0.13309062 -0.08911373 0.09536807 -0.037012126
0000f0 9a 58 8a bd 45 00 a7 bd ac 2e 45 3b 4f db 81 bd
       -0.06755181 -0.08154348 0.0030087633 -0.06340658
000100 6e 62 cd bd fb e8 ee 3c f9 46 69 bd cf 74 50 bd
       -0.100285396 0.029163828 -0.05695245 -0.050892647
000110 e7 55 1b 3d 0c 7a 5a 3d 02 8c b1 3d 0b 3c 3a be
       0.03792372 0.05333905 0.086692825 -0.18186967
000120 f9 eb 4a bd 57 09 3d bd f8 e7 94 bb 79 c0 37 3d
       -0.049541447 -0.046151485 -0.0045442544 0.04486129
000130 fc e0 63 3c f4 d8 a7 3b 3d 0e 0e bd 82 b9 e5 3d
       0.013908621 0.0051222984 -0.034681547 0.112170234
000140 13 3b b2 bc 6e de de 3d 53 8f 61 3d e8 b7 81 bd
       -0.021756684 0.10882269 0.055068325 -0.063339055
000150 04 24 45 be e4 4d 03 bd 73 03 98 bc 5f f8 89 3d
       -0.1925202 -0.032056704 -0.018556332 0.06736826
000160 b1 8f ba bd 79 4e ed bd 2f a8 00 3b 34 5b bc 3d
       -0.09109438 -0.11587233 0.0019631495 0.09197083
000170 f2 93 91 3d e8 18 80 3d 24 8f eb bc 98 20 29 3d
       0.071082965 0.062547505 -0.028754778 0.04129085
000180 b1 77 f9 3d b8 76 72 bd 31 d3 83 bd db a9 11 3d
       0.121810324 -0.05919525 -0.06436766 0.035562377
000190 9c df e0 3c 78 73 0b 3d 5e fd f8 3b 6f a4 85 3d
       0.027450375 0.034045666 0.007598563 0.06525504
0001a0 71 49 2b 3d a4 9e 31 3d 3f c3 0c be 0e 8a 0c 3d
       0.041818086 0.043364182 -0.13746355 0.034311347
0001b0 2b c5 fb bd 51 18 62 bc b5 1b aa bd 59 ce 46 bd
       -0.12293466 -0.013799743 -0.08306066 -0.048536632
0001c0 73 84 4f bd 11 cd 05 be dd 64 80 39 56 c1 11 3e
       -0.050663423 -0.13066508 0.00024489212 0.14233908
0001d0 84 2b e1 bd 26 69 cf bd 80 93 bb 3b c7 80 14 3e
       -0.10994628 -0.10127477 0.0057243705 0.1450225
0001e0 28 3a be 3d dc 24 c1 bb 82 36 75 bd f7 89 b9 3b
       0.09288436 -0.0058942866 -0.059866436 0.0056621986
0001f0 10 5f 8f 3d ac 42 e2 bd b4 29 34 bc 8f 39 a5 3d
       0.070005536 -0.11047873 -0.010996271 0.08067619
000200 d0 13 b9 bd e8 bf 9c bc 51 4e 08 be e7 a7 2b bd
       -0.09036982 -0.019134477 -0.13311125 -0.04190817
000210 72 2a 02 3e 48 07 88 bd 2a ba dc bd 57 93 a0 bd
       0.12711504 -0.06642014 -0.107776955 -0.07840603
000220 36 35 88 bd 7c 6c 8d 3d d2 8c 9c bc 98 14 ad bd
       -0.06650774 0.069054574 -0.019110117 -0.084511936
000230 e7 9d b9 3b 19 6c a8 bd eb 5d e5 bd b4 b0 83 3d
       0.0056645754 -0.08223743 -0.11199554 0.06430188
000240 7f 50 d7 bd 28 dc 20 bd b9 23 ba bd 35 aa b6 bd
       -0.105134 -0.039272457 -0.09088845 -0.08919183
000250 3c 08 c0 bc ce a2 02 3e a2 de e6 bd 65 78 98 bd
       -0.023441426 0.12757418 -0.112729326 -0.074448384
000260 c6 96 f1 3d c5 59 14 3d 40 48 a3 bd f3 8f f4 bd
       0.11796336 0.036218423 -0.07972765 -0.11941519
000270 9c d4 74 bd a2 38 be 3c 35 c4 f7 3d 1f 80 72 3b
       -0.059773073 0.023220364 0.120979704 0.0037002636
000280 cc 36 ad 3c 0f 98 15 be 64 37 22 be 5c ec 30 bd
       0.021144293 -0.14608787 -0.15841442 -0.04319416
000290 8f 9f 0e 3d 9c dc 9b bd 5d d2 0a be 4d ec f0 3c
       0.034820136 -0.07610437 -0.1355681 0.029409552
0002a0 f4 d1 20 3d d7 67 48 bd 61 a2 38 bc 2c 12 9c bc
       0.039262727 -0.048927154 -0.011269183 -0.019051634
0002b0 13 4b ec 3d 37 3f e6 3d 54 af 03 3d 3d ec cb 3b
       0.11537757 0.11242526 0.032149628 0.00622323
0002c0 b8 30 52 bc 5f 55 f3 3d ca 26 8e bd 12 6b bc bd
       -0.012828998 0.118815176 -0.06940992 -0.092001095
0002d0 8d af 65 bc 03 18 75 bd 48 f6 10 3e 93 93 d6 bd
       -0.014018905 -0.059837352 0.14156449 -0.10477366
0002e0 d9 f0 eb bc f1 ad ef 3c 1e 5f b5 3d 3e 9d 25 be
       -0.028801369 0.029257746 0.08856033 -0.16173264
0002f0 de 5c ef bc c2 c6 51 3c 17 49 97 3d 2a 19 81 bd
       -0.029219087 0.012803735 0.07386988 -0.06303628
000300 dc c1 01 be 8a 73 fe bd 05 09 8c bd 1b be 7c bd
       -0.12671608 -0.12424381 -0.06837658 -0.061704736
000310 e5 c4 79 3d ef a8 c7 bd 6e e7 f1 3c 1e 38 db 3d
       0.06097879 -0.097490184 0.0295293 0.10704063
000320 c6 4d 96 3d 1a db 00 3d 47 42 66 3d 9b 92 50 3d
       0.07339053 0.03145895 0.05621555 0.050921064
000330 b9 15 02 bd b1 1f 16 3d d2 a4 b7 bd 41 79 0c 3d
       -0.031758998 0.036651317 -0.08966984 0.034295324
000340 39 71 a9 bd 60 22 e9 3d 5d a9 ad 3c 58 bb 1d 3d
       -0.08273549 0.1138351 0.021198923 0.038508743
000350 1a 99 e2 bc 60 1a 26 bd 67 60 c6 bb 02 4f d0 3d
       -0.027660895 -0.040552497 -0.0060539725 0.101713195
000360 9d 28 06 bd a7 70 9f 3c 17 a0 eb bd 99 4c ed bd
       -0.032753576 0.019462897 -0.11505144 -0.115868755
000370 6b 31 fd bd 42 52 d3 3d d8 77 88 bc 0f 71 cd bd
       -0.12362941 0.10318424 -0.016658708 -0.1003133
000380 86 44 d5 bd 6e e3 c8 bd 09 ec 3e bd d0 02 d7 3d
       -0.104134604 -0.09809004 -0.04661182 0.10498583
000390 89 c0 e9 3c 74 89 c9 3d 72 c5 91 bd 49 96 78 bc
       0.02853419 0.0984067 -0.07117738 -0.0151725495
0003a0 6a 2a 38 3c f7 67 db bd ee 3d 26 3d ea 1f 24 3d
       0.011240581 -0.10713189 0.040586405 0.040069498
0003b0 6a 2e 4a 3c ee 70 d2 3b fd 46 83 bd 36 c5 ab 3c
       0.012340168 0.0064221537 -0.06410024 0.020968061
0003c0 f5 90 2a bd 20 68 d7 3d 7d 6e 0d 3e 44 8e 96 bd
       -0.041642148 0.10517907 0.13811679 -0.07351354
0003d0 2c 78 9b 3d b8 f8 6b 3d 16 1a 6e bd 3b 4b 0f 3d
       0.0759128 0.057610244 -0.058130346 0.034983855
0003e0 fd 74 1f be 36 0d d6 3d 97 53 d0 3d 1c d7 1b be
       -0.15571971 0.104517385 0.101721935 -0.15218776
0003f0 85 ca 30 3e bb 34 4a 3d eb 12 b0 3d 17 f9 7f bd
       0.17264755 0.049366694 0.08597358 -0.06249341

lstm.weight_hh_l1 f4 [200, 50]
000000 a4 c5 9b bd d5 19 f3 bd 87 5a 32 bc 32 88 14 be
       -0.07606056 -0.118701614 -0.010885841 -0.1450508
000010 70 f0 dc 3d 02 e0 fc bd 83 c2 b3 bd 9c 4c e6 bd
       0.10788047 -0.123474136 -0.087773345 -0.11245081
000020 1c 44 0f 3e 86 42 ef bd 0d cc 8b bd 9b e5 e8 bb
       0.13990825 -0.1168261 -0.06826029 -0.007107449
000030 45 bb 19 3d 61 06 97 bd 5f 91 32 bd 46 49 1a be
       0.03753211 -0.073742636 -0.043595668 -0.15067014
000040 dd d0 8c bd 6b 76 a2 bb 1f 10 09 bd 26 18 40 3d
       -0.06875775 -0.004957964 -0.03346264 0.04689803
000050 28 bd c0 3d 42 fd 83 3d c7 6b 6c bd b1 a2 11 3e
       0.09411079 0.064447895 -0.057719972 0.14222218
000060 fe 17 3f 3d 7e 4e c2 bd e2 98 2f 3d 4c 28 5e 3d
       0.04665374 -0.094876274 0.04287041 0.05423765
000070 8c 4e 66 bd 81 df de 3d 77 e7 06 3e 54 3a 9e bd
       -0.056227252 0.10882474 0.13174234 -0.07725969
000080 2e be 9e bd e9 98 67 3d 38 94 1a 3e d8 65 1a 3d
       -0.07751118 0.05654231 0.15095603 0.037694782
000090 2e e7 ae 3d 58 6a 5c 3b 19 f2 4b 3d 77 d0 c4 bd
       0.08540188 0.0033632722 0.04979143 -0.09610074
0000a0 81 a7 85 bd 1f be 29 3c 2d 5c 84 3d d7 a3 03 bd
       -0.065260895 0.01036027 0.06462894 -0.03213867
0000b0 bc 31 0c be 45 75 82 bc f6 5a 09 be 47 27 e4 3d
       -0.13690847 -0.01592506 -0.13413605 0.11140304
0000c0 37 60 f2 3d 58 58 8d bd 8f 38 d9 3d 9c 10 a7 3d
       0.11834758 -0.06901616 0.10606491 0.08157465
0000d0 58 4a 47 3d 6d f0 43 3d 61 f9 bc 3d d6 90 ab bc
       0.048654884 0.04783671 0.09227253 -0.020943087
0000e0 c2 bb 81 3b bb f1 13 3d fb df 49 bd 62 c7 da 3d
       0.00395915 0.036119204 -0.04928587 0.106825605
0000f0 3d f4 d3 3d a8 d2 8d bc 4c c2 cb 3c 26 4f 3b 3c
       0.10349319 -0.017312363 0.024872921 0.011432445
000100 11 a6 c9 3d e6 63 80 bd 13 27 3b bd b9 5b 0f bd
       0.09846128 -0.06269054 -0.04569156 -0.034999583
000110 e1 6e 95 bd d8 19 d6 3c 4f 79 3b bb f0 f2 0e be
       -0.07296539 0.02613537 -0.002860624 -0.13959861
000120 71 81 53 bd 44 53 ab 3b 4f 24 03 3e ef 16 f5 3d
       -0.051637117 0.005228432 0.1280682 0.11967265
000130 58 94 26 bd 2e 75 af 3c 1e eb 97 3d 3b 21 81 3d
       -0.040668815 0.02141818 0.07417892 0.06305166
000140 47 83 83 3b 80 4f e7 3c e4 69 ac 3d ba 3c e5 3d
       0.004013452 0.02823615 0.084186345 0.11193223
000150 1b e2 d5 3d b2 d5 ac bd 45 9c e2 bd 70 76 98 bc
       0.10443517 -0.08439197 -0.11064962 -0.018611163
000160 48 9b ba 3d 69 f5 a2 39 3d e0 4a bc 64 c7 00 bc
       0.09111649 0.00031081893 -0.012382564 -0.007860038
000170 d4 ec f6 bd b2 ac 59 3c 77 7f 91 3c 2d 2b 93 3d
       -0.1205689 0.013285803 0.017760975 0.071859695
000180 56 bc 01 be 04 04 91 bc 40 c3 7b 3d ce fd bc 3c
       -0.126695 -0.01770211 0.0614655 0.023070242
000190 b5 69 bb bd 94 e8 54 bd b6 60 ec bd ea d9 a3 3c
       -0.091510214 -0.051979616 -0.11541884 0.02000137
0001a0 16 c5 fb bd c9 e4 82 bd ad 24 38 3d 0e 93 9a bd
       -0.122934505 -0.063912936 0.04495685 -0.0754758
0001b0 6a 40 4b bd d8 c5 fb bd a8 56 0a be 0b 50 00 be
       -0.049621977 -0.12293595 -0.13509619 -0.12530534
0001c0 87 a2 8d 3d f3 33 75 3d cd 1c b6 3d 14 c3 c2 3c
       0.06915765 0.059863996 0.08892212 0.023774661
0001d0 38 01 d2 3d ff c4 12 be 17 cf fb 3a 09 d6 6f bd
       0.10254139 -0.1433296 0.0019211498 -0.05855373
0001e0 45 ac ef 3c 1b 28 a3 bc 06 57 70 bd 37 83 d2 3b
       0.02925695 -0.019916585 -0.058676742 0.0064243334
0001f0 30 c7 67 3b 1f b9 81 3c cd c8 23 3e 24 65 e7 bc
       0.0035366528 0.015835343 0.15994568 -0.02824647
000200 78 4e 0d be 1c 75 e3 3c 35 f7 36 bd 81 39 5e bc
       -0.13799465 0.027765803 -0.04466935 -0.013563515
000210 01 c0 00 3e 59 14 4e 3d a2 e2 fe 3c f1 60 52 bb
       0.12573244 0.050312374 0.031113926 -0.0032101239
000220 79 5c 83 bd df 98 01 be 8e 34 cd 3d 8c ef 7f bc
       -0.06414122 -0.12655972 0.1001979 -0.015621077
000230 60 dd fb bd 07 fc ec 3d 3a b8 58 3d 56 80 c2 3d
       -0.12298083 0.11571508 0.052910067 0.094971344
000240 6b 18 db bd 8f 88 22 3c 4a 33 d4 bd 25 e7 ca bd
       -0.10698017 0.009920253 -0.10361345 -0.099073686
000250 c0 25 e7 bd 12 24 d4 3d fe f1 8f bd d7 cd 74 bb
       -0.11286497 0.10358442 -0.07028578 -0.0037354135
000260 d3 2a 0c 3e 15 4c b4 3d ab ca 0e 3c b5 39 cc bc
       0.13688211 0.08803574 0.008715312 -0.02492986
000270 fd 2f aa 3d 51 87 94 3d f8 d4 05 3d 3c 34 07 be
       0.08309934 0.07252372 0.032673806 -0.1320352
000280 c5 7d e2 bd 9f b2 69 3c 66 d6 e3 3d 6b b0 0d be
       -0.11059145 0.014263778 0.11124878 -0.1383683
000290 2d 5d a0 3d fa 0a 06 3c 7d 41 02 be 0b d8 18 3d
       0.07830272 0.008181328 -0.12720294 0.03731541
0002a0 25 3a 06 be 24 93 ca bc 8f 20 8f 3c 28 82 02 3e
       -0.13108118 -0.024728365 0.01747158 0.12744963
0002b0 b7 14 a7 3d f5 00 d4 bc ad 4e bb bd 39 fe af bd
       0.08158248 -0.025879363 -0.091458656 -0.08593411
0002c0 47 30 b0 3d 16 a4 98 bd 82 51 d9 3d 23 db dd 3d
       0.08602958 -0.07453172 0.106112495 0.10832813
0002d0 a1 eb 0c 3e 2d b2 f3 bd 31 fc 64 bd 00 56 da 3d
       0.1376176 -0.11899219 -0.05590457 0.106609344
0002e0 0c e3 20 bd e0 b7 d6 3d 86 a4 08 be 23 87 61 bd
       -0.03927903 0.1048429 -0.1334401 -0.055060517
0002f0 3e 63 5f 3d 72 4b b8 bd 56 de 2e bd 9b 85 f8 3d
       0.054538004 -0.08998765 -0.042692505 0.12134858
000300 72 f9 a5 3d fb d1 0b be 92 82 be bb 5b de 2c bc
       0.081042185 -0.1365432 -0.005813905 -0.010551061
000310 3a 6c 07 be fe 98 00 3e 38 1d c9 3d 04 16 d4 bd
       -0.13224879 0.12558362 0.09820026 -0.10355762
000320 09 bc c0 bc 9f fe 7f bd 1b 96 26 3d 6d 29 ef 3c
       -0.023527162 -0.062498685 0.040670495 0.029194558
000330 c9 7b be 3b 95 4a dc bd 70 01 cf 3b b9 a8 37 3d
       0.005813096 -0.10756413 0.00631731 0.04483864
000340 7c 01 48 bd d6 a6 e5 bd 1d 18 d9 3d aa 34 28 bd
       -0.04882954 -0.11213462 0.10600302 -0.04106585
000350 f2 4d d9 3d af c4 0c 3d 4f e6 29 3d 13 f1 d5 3d
       0.1061057 0.03436726 0.041479405 0.10446372
000360 de 9f 22 3c 11 5a c2 bd 49 84 0f bd 20 87 e4 3d
       0.009925811 -0.09489835 -0.035038266 0.111585855
000370 de 4b 36 3d 43 4c 0e be 3b 53 08 be 4b 53 5f 3d
       0.044505946 -0.13896279 -0.13313 0.054522794
000380 1f 23 8b bd 35 73 d6 3c de d2 ea 3b f7 a3 c6 3d
       -0.06793808 0.026177982 0.0071662506 0.096992426
000390 ab 3b 8d bc 66 61 89 bd f6 81 e6 3d d0 6b a7 3d
       -0.017240366 -0.067080304 0.11255257 0.081748605
0003a0 ad 5b 87 3d 94 4b 1f 3d 5c 63 55 3d c1 2e 06 3d
       0.06609283 0.038890436 0.05209671 0.03275943
0003b0 f9 9d e4 3d 53 06 94 3d 10 dd bd bd 12 a2 be 3d
       0.111629434 0.07227769 -0.0927068 0.09308256
0003c0 38 c3 d9 bd cd 6b 8c 3d 68 32 55 3c 9f 68 f3 3b
       -0.10632938 0.06856499 0.013012506 0.0074282433
0003d0 50 ff 64 bd 3f 75 e6 3d 19 a6 88 bc d9 2d d2 bd
       -0.055907547 0.11252832 -0.016680764 -0.10262651
0003e0 c6 40 f1 3d fc 18 64 3b 45 48 19 be 86 6c 8d bd
       0.11779933 0.003480493 -0.14968975 -0.06905465
0003f0 88 8d 23 3c 95 c8 09 bd f9 fe 5f 3c a3 99 9a bb
       0.009982474 -0.033638556 0.01367163 -0.004718022

lstm.bias_ih_l1 f4 [200]
000000 94 2d db bd ce aa 4d 3d b7 d9 0c 3e 94 97 a3 bd
       -0.10702053 0.05021172 0.13754927 -0.079878956
000010 80 94 b6 bd 99 a1 f8 3d 4c 59 0a 3d 4b dd d4 3d
       -0.08915043 0.12140197 0.033776566 0.10393771
000020 28 04 4b bc cf 3b a1 bd 99 d1 2e 3d c6 cc 42 bd
       -0.012391128 -0.07872736 0.042680357 -0.04755857
000030 0a 91 48 3d 8b a5 75 bd 2b 2f eb 3d be 05 da 3d
       0.048966445 -0.059972327 0.11483606 0.106456265
000040 1f 9b 91 bd 45 70 bd 3c ee a9 e3 3c d5 7c de 3d
       -0.07109665 0.023124823 0.02779099 0.108636536
000050 2c d4 0a 3d e2 51 b3 3d 18 1c 56 bd 13 d4 b7 3d
       0.03389375 0.08755852 -0.052272886 0.08975997
000060 0e 73 c9 3b 25 35 e6 bd c3 60 80 3b c3 0b 31 3d
       0.006147749 -0.11240605 0.003917785 0.043224107
000070 17 0b c7 bd 74 ed 0b be 22 62 03 3e 2f b1 63 bd
       -0.09718912 -0.136648 0.12830403 -0.055588897
000080 3e ed 10 3e ad 46 94 3d a8 7e 43 3b 45 4c d7 bd
       0.14153 0.07240043 0.0029830132 -0.10512594
000090 49 0b 88 3c a9 29 11 3e 0d 5c 82 bd f9 a3 18 3e
       0.016606944 0.14176048 -0.063652135 0.149063
0000a0 8d c4 26 bd dc f0 88 3d 5b 95 af bd dc 10 f8 bd
       -0.04071479 0.06686565 -0.08573409 -0.12112591
0000b0 1f 4e a8 bd c0 04 ec bc 95 13 8d 3c 78 f2 ba 3d
       -0.082180254 -0.028810859 0.017221252 0.091282785
0000c0 ea 3c 15 3e 14 e7 80 3d e2 3f 1d 3e ec 15 53 bc
       0.14574018 0.06294075 0.153564 -0.012883645
0000d0 31 6d fa bb b7 68 10 3d ed 9f 92 bd 0f f3 e9 bd
       -0.007642411 0.035256114 -0.0715941 -0.11423313
0000e0 9d ee b2 bd e1 22 bb 3d 61 d1 ff 3d 36 3b d4 bd
       -0.08736918 0.09137512 0.12491108 -0.10362856
0000f0 04 15 1b bd 46 30 b3 3c a3 5d e2 3d a7 5c d2 bd
       -0.03786184 0.021873605 0.11053016 -0.10271578
000100 52 62 4d bd df 99 b6 3d e2 cd c5 3d 29 d2 f7 bd
       -0.050142594 0.08916067 0.0965841 -0.12100632
000110 79 5f d5 bd 9d f1 99 bd 2e ad 69 bc b8 3d ab bd
       -0.104186006 -0.07516787 -0.014262481 -0.08361381
000120 dd e2 a5 bd 29 9d ce bc dc 2e 83 bb fb 2c d9 bd
       -0.08099911 -0.025221424 -0.004003389 -0.106042825
000130 ae 8e 61 3d 06 07 ac 3d fb 96 b0 bd f7 6a 02 3e
       0.05506771 0.08399777 -0.08622547 0.12736116
000140 d5 40 98 3d 06 f7 b8 3c fb 8f cb bd 88 fb 5f 3d
       0.07434241 0.022578727 -0.099395715 0.05468324
000150 2b 0e b8 3d 03 a7 8f 3d b4 c7 f1 3d 47 ed ab bd
       0.08987077 0.07014277 0.118056685 -0.083948664
000160 8b 01 ec 3d dc 11 11 3e b7 b4 86 3d e7 78 bb bd
       0.11523732 0.14166969 0.06577437 -0.0915392
000170 91 01 ae bd b6 42 1d 3d a4 87 e6 bd 80 a4 ef bd
       -0.084963925 0.0383937 -0.1125634 -0.11701298
000180 21 37 ca bd 20 d2 ac 3c 98 ea 09 3e 3f ed 37 bd
       -0.09873796 0.02109629 0.13468397 -0.04490399
000190 67 d3 c7 3d 71 ed 5d 3d 8d 73 18 bc c8 47 de bc
       0.09757119 0.05418152 -0.009304893 -0.027133837
0001a0 34 db ef bc fb 2e c3 bd c2 8e 61 bd 4f ab c3 bc
       -0.029279329 -0.09530445 -0.055067785 -0.023885397
0001b0 83 e6 e7 3c a2 d5 bf bd 85 21 5e bd bc c2 b0 3d
       0.028308159 -0.09366919 -0.054231185 0.08630893
0001c0 2d 57 25 3d 2e 97 98 bd be 0a 40 bd 43 0d b0 bd
       0.04036634 -0.0745071 -0.046885245 -0.085962795
0001d0 94 f6 d7 bd cd 6f 9b bd 6f f9 04 3e b7 42 c6 3d
       -0.10545078 -0.07589684 0.12985776 0.096806936
0001e0 ed 9a 1c 3d 26 6d d2 bc 6e d5 28 bd 96 46 bc 3d
       0.038233686 -0.025686812 -0.041219167 0.09193151
0001f0 2b 43 9f 3b fd 4f ac 3d d7 a4 78 3d f8 b7 40 bc
       0.004860302 0.08413694 0.06070408 -0.011762612
000200 9b 7c ee bd dd 8e bc bd 7f c3 da 3c 50 f4 e4 3d
       -0.1164486 -0.092069365 0.026704548 0.111794114
000210 fd 00 d3 3d 2c d9 8e 3d 2e ad df bd ba ab 5d bc
       0.10302923 0.06975016 -0.10921703 -0.013529712
000220 5e 28 ff 3d d3 21 be bd b8 f0 70 bd 12 68 1b be
       0.12458871 -0.09283795 -0.058823317 -0.15176418
000230 09 75 41 bd 9a bd 8c 3d b9 0f 5a 3d e2 12 80 3d
       -0.047230754 0.06872101 0.05323765 0.062536016
000240 5f b1 a4 3d 5c df b5 bd 9b 23 68 bd 18 e9 7e 3d
       0.08041643 -0.08880493 -0.05667458 0.062234014
000250 9d 78 d0 bc 66 ea 0d bd ed b6 e3 3d ad 5d bf bd
       -0.025448138 -0.034647368 0.11118875 -0.09344039
000260 d1 1e 8e 3d 32 40 df bd 81 89 fa 3d 69 87 d9 bd
       0.069394715 -0.10900916 0.12233258 -0.106215306
000270 b7 57 8c 3d 3f d0 02 3e 96 1e f4 3d db 89 00 be
       0.06852668 0.12774752 0.11919896 -0.12552588
000280 45 48 86 bd 69 4e c6 3b 52 94 a3 bd fd 95 95 bd
       -0.06556753 0.0060518277 -0.07987274 -0.073039986
000290 a7 05 bb 3d dd b9 e4 3a 36 84 be 3d 62 51 8d bd
       0.091319375 0.0017450411 0.09302561 -0.06900288
0002a0 b1 66 17 3e 67 d3 01 be b5 dd 19 3e 1c 80 ed 3c
       0.14785267 -0.126783 0.15025981 0.028991751
0002b0 1c 63 0e 3e 49 41 90 3c 5d 17 fc 3d fd 07 44 3d
       0.13904995 0.017609255 0.12309144 0.04785918
0002c0 12 b7 6c 3c aa b2 93 3c b9 da 7b 3d 7a 43 0d 3e
       0.014447944 0.01802953 0.061487887 0.13795272
0002d0 34 5b 96 3d a9 6d c7 3d ca 59 e1 bd 47 90 0b be
       0.07341614 0.09737713 -0.11003454 -0.13629256
0002e0 0b 0e c5 bd 90 ee 56 bd d3 25 d6 bd 51 9b 81 3d
       -0.09621819 -0.052473605 -0.10456433 0.063284524
0002f0 18 bb 43 bd 09 4d 21 bd 56 03 14 3e 0b b3 e7 bd
       -0.04778585 -0.039380107 0.14454398 -0.113134466
000300 1e a5 1b bd ae 1c 07 3d 56 70 e7 3c 8f f7 04 3e
       -0.037999265 0.032986335 0.028251808 0.12985061
000310 75 c7 f3 bd ff d8 72 3d 62 a9 35 3d 80 64 db bd
       -0.11903278 0.059288975 0.04435099 -0.10712528

lstm.bias_hh_l1 f4 [200]
000000 19 f6 07 3e d8 49 9a 3d da 11 a4 3d 78 5e ba bd
       0.13277473 0.07533616 0.080112174 -0.0910005
000010 03 36 70 bd 33 60 8c 3d 52 2a 38 3d 34 de 3f bd
       -0.05864526 0.06854286 0.044962235 -0.04684277
000020 06 92 c6 3b 13 5b f5 bd 73 92 50 bd e7 df 83 bd
       0.006059888 -0.11980262 -0.050920915 -0.0643919
000030 0e f5 6e bd 0d 46 5d bd eb 89 ed 3d 43 78 00 3e
       -0.05833917 -0.054021884 0.115985714 0.12545876
000040 6f ac f7 bd 50 73 11 3e fa 0d 03 bd c1 83 d6 3d
       -0.12093436 0.14204144 -0.03199575 0.10474349
000050 c8 ac 77 bb e7 42 02 be d0 bd 0e bd 67 e8 e8 bd
       -0.0037792195 -0.12720834 -0.034848988 -0.11372452
000060 d2 46 a8 bd d0 7a dc 3d 5a dc fa 3d f6 08 c3 3d
       -0.08216633 0.10765612 0.1224906 0.095231935
000070 75 ec d5 bd ba 31 fd 3d 5f 8d c0 bd 98 09 e2 3c
       -0.10445491 0.12363 -0.094019644 0.027592465
000080 df 4b 24 bd 7d cf d6 bd f0 b9 b9 3c 80 59 0e bd
       -0.04011142 -0.10488794 0.02267167 -0.034753323
000090 74 83 ed bc fb 15 42 3d 9b f3 d2 3b 22 49 86 3d
       -0.028993346 0.047384243 0.0064377314 0.06556918
0000a0 db 7e 2c 3e 34 92 79 3d 17 3a df 3d 53 fe 8c bd
       0.16845267 0.060930446 0.10899752 -0.06884446
0000b0 f0 5e 2e bd 6c 08 11 3e 55 2a 92 bd cb 15 af bc
       -0.04257101 0.14163369 -0.071369804 -0.021372696
0000c0 0e f9 82 bd f2 9a 57 3d 7a 8e dc 3d 8b 92 a0 bd
       -0.0639516 0.052638 0.10769363 -0.07840451
0000d0 7a a8 c0 bd ac df d0 3d 8d 80 ff 3d 17 5e e6 3d
       -0.09407134 0.10198912 0.12475691 0.11248415
0000e0 4a 9d 21 bd 51 ff f8 3d 0d de 01 be ba 08 e1 3d
       -0.039456643 0.12158073 -0.12682362 0.109879926
0000f0 9b 53 f5 bc ce 0f 81 3c d7 fc 08 be 61 58 0b bd
       -0.029947093 0.015754607 -0.13377701 -0.03401983
000100 88 9b a9 bd d5 7c a8 3d 32 70 d2 3d c7 f2 0d be
       -0.08281618 0.08226935 0.10275306 -0.13862143
000110 0a 87 0f 3e a3 dd 8c 3d 9c cf f8 3d e1 35 09 3e
       0.14016357 0.06878211 0.12148973 0.1339946
000120 b5 c7 00 bd 84 4b af 3b 53 95 ae bd 89 83 91 bc
       -0.031440455 0.0053495783 -0.08524575 -0.017762916
000130 30 2b 16 3e d0 9f 39 bd d8 cb 45 3d 56 73 3f 3d
       0.14664912 -0.045318425 0.048290104 0.046740852
000140 52 0c cc bb 7a 3a 9f bd ac c4 f9 3d da 39 e4 3d
       -0.0062270546 -0.077748254 0.12195715 0.11143847
000150 bd 11 06 bb c1 68 15 3e f1 ee 0e 3e 5c 4b 09 bd
       -0.002045735 0.14590742 0.13958336 -0.033519134
000160 5b 19 be 3d a8 a3 a4 bd 6e 7b e9 bd 7a 5f d0 bc
       0.0928218 -0.080390275 -0.114004955 -0.025436152
000170 21 fd b8 3d 00 1c ec bd 9a 2e ce 3d 52 66 7b 3d
       0.090326555 -0.11528778 0.10067482 0.061376877
000180 a9 06 cb 3d 13 6a 8c bd ee 15 8d 3d d6 a6 39 bc
       0.0991338 -0.068561696 0.068889484 -0.011331281
000190 7a 23 56 bd fc 6e b8 bd 3b a0 9e 3d 58 92 03 be
       -0.052279927 -0.090055436 0.07745405 -0.12848794
0001a0 31 3c 4b bd a7 7c a7 bd 74 82 81 bd 65 a0 de 3d
       -0.04961795 -0.081780724 -0.0632371 0.108704366
0001b0 ca 72 b3 bd 78 ab d5 3c 39 6f 3c bd 81 fe fd 3d
       -0.08762129 0.02608274 -0.046004508 0.124020584
0001c0 cb 24 19 3c 93 dc e6 3c e2 31 98 3d ee 73 d9 3c
       0.009347151 0.02818135 0.074313894 0.026544537
0001d0 f7 ae 6a bd e1 01 a4 3c d4 72 70 bd 95 85 2c 3d
       -0.057295766 0.020020427 -0.05870326 0.04211958
0001e0 c6 bd 10 3e 30 23 d6 bd 8e 6a 67 bd 36 02 b6 3d
       0.14134893 -0.1045593 -0.056498103 0.088871405
0001f0 2a 74 b2 3d d9 67 48 3d 3a 10 b1 bd 8a 32 4c 3c
       0.08713563 0.04892716 -0.08645673 0.012463221
000200 4f 08 8e 3c e4 d3 ee 3d 6a 89 8c bd 73 53 0a bd
       0.017337946 0.11661509 -0.06862147 -0.03377099
000210 8d 8d 0e 3e 12 88 d5 bd 28 ba 90 3d 71 0a e3 3b
       0.13921185 -0.10426344 0.070667565 0.006928735
000220 d2 35 cb 3d 09 4b 3d bd 29 29 11 3d 0f 51 d5 3d
       0.09922375 -0.046214137 0.035439644 0.10415851
000230 79 0b db bb 0d 2e 91 bc 18 ec be bd 8c 98 92 3d
       -0.0066847173 -0.017722154 -0.09322375 0.07158002
000240 2e 88 0a bd 7b 62 51 3d bc f1 a6 bd 41 0f b0 bd
       -0.033821277 0.05111931 -0.08151576 -0.085966595
000250 d7 98 cb 3d a9 ba b2 bd 31 4c c4 bd 2b 41 43 bd
       0.09941261 -0.08727009 -0.09584845 -0.04766957
000260 7a 1a 93 3c db 5c c6 3d 41 28 46 bd d0 a2 b2 bc
       0.017956961 0.096856795 -0.048378233 -0.02180615
000270 25 ab e4 3d 7a 2c f7 bd 5e 1d ec bd 03 a1 78 3b
       0.11165456 -0.1206903 -0.11529039 0.0037937767
000280 b9 5e 92 bd 0f 38 8b bd 10 ab 25 bd 75 4b 9c bd
       -0.07146973 -0.06797802 -0.04044634 -0.0763158
000290 65 26 ea 3d 7d aa d5 bd 70 cd b0 3d bb cb 31 3d
       0.114331044 -0.10432909 0.08632934 0.043407183
0002a0 50 75 9a bc ed f9 81 3a 01 66 b4 3d 23 fc e0 3d
       -0.018854767 0.0009916403 0.08808518 0.10985591
0002b0 74 67 04 3e e5 c1 b9 3d 82 ba 14 3e 75 a8 07 be
       0.12930089 0.090701856 0.14524272 -0.13247855
0002c0 f6 73 b7 bd bc 44 8e bd aa 05 e0 3c 98 42 df 3d
       -0.08957665 -0.06946704 0.02734645 0.109013736
0002d0 5f 7b e8 3b 31 44 f4 bc 01 49 81 bd fb 6b 15 3d
       0.007094785 -0.029817672 -0.063127525 0.03647993
0002e0 c6 7a 7e bd 79 1d 02 3d b4 7c 60 3d 9e 50 95 3d
       -0.062128805 0.03176639 0.054806426 0.07290767
0002f0 d4 f7 09 3e e3 3f 98 3d 50 f0 f1 3a 96 8a 4d 3c
       0.13473445 0.074340604 0.001845846 0.0125452485
000300 74 73 b9 bd f1 45 a6 bd 55 af d1 3d ab 0a b9 bd
       -0.09055224 -0.08118809 0.1023852 -0.09035238
000310 73 81 8c 3c 93 8a c8 bd d7 07 83 bd 3a 8d 1c bd
       0.01715157 -0.09792056 -0.0639798 -0.03822062

fc.weight f4 [1, 50]
000000 98 3a 00 3e e8 84 22 be cf d3 dc 3d cb 4b c1 bb
       0.12522352 -0.15871012 0.10782587 -0.005898928
000010 1d 31 75 3c b0 55 a7 3d 8d 56 af bd 26 a2 00 be
       0.014965323 0.081706405 -0.0856143 -0.12561855
000020 f7 b2 86 3d 22 14 22 3d ea 47 b6 bd aa 10 14 3d
       0.065771036 0.03956998 -0.08900435 0.036148705
000030 50 59 6f 3d d9 82 ef bd b0 74 17 bd b4 1a f3 bb
       0.058434784 -0.11694879 -0.036976516 -0.0074189547
000040 5b af d5 bd 21 6c a0 3d 21 97 c4 3d d1 48 9c 3d
       -0.10433837 0.07833124 0.09599138 0.07631076
000050 c4 3f ff 3d a3 05 02 3e 3e 93 0b 3e 07 a7 ec 3c
       0.12463334 0.12697463 0.13630387 0.028888239
000060 29 de a6 3c 8c 18 f0 bd 18 10 38 3d 5f 0b a3 bd
       0.020369606 -0.11723432 0.044937223 -0.07961153
000070 46 64 b5 bc 43 9b f8 bd f0 32 11 3e 71 dc f5 3d
       -0.02214254 -0.12138989 0.14179587 0.120049365
000080 ae 72 88 3d 5f c8 9e 3c 86 35 ec 3d c5 cb c6 3d
       0.066624984 0.019382654 0.11533646 0.09706835
000090 3a dd 88 3d d7 2e d2 bc 4d d6 a1 bd be 2b 26 be
       0.066828206 -0.0256571 -0.07902203 -0.16227624
0000a0 58 70 82 3d 8c 50 50 3d f4 39 27 be 7a 5c be 3c
       0.06369084 0.050858065 -0.16330701 0.023237456
0000b0 3e 09 54 bd 4f 10 aa 3d 4c 82 1e bd 24 1e e5 3d
       -0.051766627 0.08303892 -0.03869848 0.111873895
0000c0 6d e8 25 3e 4d 89 f1 bb
       0.16201945 -0.007371104
