models/lstm_model_15m.pt (torch, 127770 bytes, 9 tensors)

lstm.weight_ih_l0 f4 [200, 1]
-0.05651189 -0.028897429 0.09193045 0.08252944 0.043329842 -0.036439896 0.00016607964 0.09725357
-0.20072556 0.21302152 -0.03186838 -0.12194736 0.056284886 0.066368826 0.19770414 0.14511329
-0.015000068 0.18321562 -0.08445028 0.048065268 -0.06703774 0.042831138 0.1707332 -0.07195784
-0.01611564 -0.035499617 0.13450108 -0.15822674 0.028254274 0.03215162 0.0072243153 -0.012234941
0.033261195 0.089426406 0.18365014 0.0064883074 0.22365382 0.126349 -0.06911825 0.03107857
-0.10200472 0.14496182 0.060521226 -0.1570363 0.17284858 0.08138396 -0.05779623 -0.047743652
-0.05113436 0.12003476 -0.0927922 0.10230358 -0.023787634 0.022354249 -0.019151341 -0.04239828
-0.058092643 -0.041005533 -0.18588293 0.022471942 0.11427602 0.041722205 -0.009350708 0.15567487
0.16490124 0.076872855 -0.06576445 0.027761145 -0.06637299 0.14027421 0.05432924 0.05389668
0.0993175 0.0201164 0.028714487 0.08216437 -0.0087033985 -0.008847721 -0.10615243 0.11790353
-0.03924714 -0.101549104 0.14943951 0.15345207 0.014817897 -0.24882862 0.09323992 -0.014059605
0.17923518 0.19660734 0.12786877 -0.030736797 0.024761833 -0.111603945 0.18366374 0.07471992
0.03011221 0.05594865 0.16775492 0.17277496 0.13713855 0.025685677 -0.2095742 0.14512725
0.21337502 -0.13246046 0.17551254 -0.037029326 -0.11803082 0.15065598 0.06675073 -0.1277658
0.04788946 0.15801923 0.13026498 0.2126201 -0.060019407 -0.19831951 -0.023089023 0.07984578
-0.10765381 -0.040843613 0.19793893 -0.015818244 0.1938947 0.18741539 0.061118215 0.0363632
-0.17230563 -0.050055057 0.07458062 0.15489703 0.19349773 -0.029800035 -0.1772474 0.21609043
-0.20244764 0.097138755 -0.01634775 0.21008937 -0.19030203 -0.09035322 -0.10688545 -0.19592012
0.19916835 -0.046313383 -0.156005 0.090827756 -0.055296298 -0.22511306 -0.1632728 0.08340801
0.08923767 -0.08782297 0.019710904 0.11075127 -0.21907791 0.12905283 -0.23093325 -5.659779e-05
-0.033697493 -0.0076492243 0.022362893 0.1821124 0.13971251 0.06610786 -0.031398445 0.21861197
-0.07460198 0.003623984 0.10273671 -0.041154787 0.023687473 0.16488685 0.12947813 -0.008732136
-0.062042553 -0.16978565 -0.017874585 -0.11874539 -0.18301944 0.017641691 0.16816336 0.048207343
0.17344612 0.0819099 0.017815994 0.055818677 -0.0036754743 0.14758797 0.11862229 -0.04808122
0.06162288 -0.15975985 -0.038473506 -0.082355864 -0.14975575 0.11966398 0.13631661 0.22212054
00000000: 0379 67bd 4dba ecbc 0846 bc3d 3205 a93d
00000010: a27a 313d 0042 15bd aa25 2e39 e12c c73d
00000020: 008b 4dbe 5022 5a3e 6b88 02bd 8abf f9bd
00000030: fb8a 663d 61ec 873d f472 4a3e 9498 143e
00000040: d8c2 75bc e09c 3b3e 45f4 acbd 16e0 443d
00000050: 154b 89bd b46f 2f3d afd4 2e3e a25e 93bd
00000060: f204 84bc 0c68 11bd a7ba 093e 3106 22be
00000070: 8275 e73c 6bb1 033d f3b9 ec3b 1075 48bc
00000080: e43c 083d 3125 b73d c80e 3c3e de9b d43b
00000090: 8205 653e a261 013e de8d 8dbd 7c98 fe3c
000000a0: dae7 d0bd df70 143e 1be5 773d 20ce 20be
000000b0: 38ff 303e a2ac a63d bdbb 6cbd d98e 43bd
000000c0: 4372 51bd c9d4 f53d d609 bebd 8a84 d13d
000000d0: 49de c2bc 4220 b73c 46e3 9cbc d2a9 2dbd
000000e0: 8df2 6dbd 6bf5 27bd 1858 3ebe 1417 b83c
000000f0: 8c09 ea3d e7e4 2a3d b633 19bc 3c69 1f3e
00000100: dfdb 283e 846f 9d3d 83af 86bd 576b e33c
00000110: 90ee 87bd 0ba4 0f3e 5688 5e3d c4c2 5c3d
00000120: f966 cb3d 26cb a43c a53a eb3c cb45 a83d
00000130: b398 0ebc 08f6 10bc 7266 d9bd 6877 f13d
00000140: 9cc1 20bd faf8 cfbd ac06 193e 8a22 1d3e
00000150: c4c6 723c eecc 7ebe 92f4 be3d 425a 66bc
00000160: 6d89 373e 6f53 493e 08f0 023e bccb fbbc
00000170: 54d9 ca3c 9c90 e4bd 5912 3c3e c206 993d
00000180: e2ad f63c 692a 653d f2c7 2b3e ebeb 303e
00000190: 0c6e 0c3e c56a d23c 9e9a 56be 3d9c 143e
000001a0: fb7e 5a3e b7a3 07be 8fb9 333e 10ac 17bd
000001b0: 24ba f1bd 9045 1a3e 9bb4 883d 0ad5 02be
000001c0: bd27 443d cbcf 213e 2f64 053e 15b9 593e
000001d0: e9d6 75bd 4514 4bbe 3125 bdbc 2f86 a33d
000001e0: 9a79 dcbd a24b 27bd 81b0 4a3e 4395 81bc
000001f0: 558c 463e d2e9 3f3e 1857 7a3d 94f1 143d
00000200: e370 30be 8806 4dbd b9bd 983d 549d 1e3e
00000210: 4524 463e 341f f4bc 5880 35be cf46 5d3e
00000220: 6f4e 4fbe aff0 c63d b7eb 85bc ab21 573e
00000230: 89de 42be 1c0b b9bd c2e6 dabd 499f 48be
00000240: caf2 4b3e 1ab3 3dbd c6bf 1fbe e703 ba3d
00000250: 5f7e 62bd 0a84 66be fc30 27be d2d1 aa3d
00000260: 3dc2 b63d 87dc b3bd c378 a13c 90d1 e23d
00000270: f655 60be 6d26 043e c479 6cbe 6a63 6db8
00000280: 6206 0abd 58a6 fabb 6332 b73c ac7b 3a3e
00000290: cc10 0f3e 8f63 873d a89b 00bd d1db 5f3e
000002a0: ecc8 98bd 5d80 6d3b a067 d23d ec91 28bd
000002b0: 3b0c c23c 19d8 283e ea95 043e 3c11 0fbc
000002c0: 5520 7ebd 4adc 2dbe b96d 92bc c830 f3bd
000002d0: 7369 3bbe 4f85 903c 0433 2c3e 1075 453d
000002e0: dc9b 313e 61c0 a73d d9f2 913c 20a2 643d
000002f0: 3ae0 70bb 4d21 173e 3ef0 f23d d0f0 44bd
00000300: 4668 7c3d 1698 23be 6596 1dbd 31aa a8bd
00000310: 9259 19be 6412 f53d 9596 0b3e 9173 633e

lstm.weight_hh_l0 f4 [200, 50]
0.0838022 0.16515903 0.04797189 -0.058299616 0.11401103 -0.026118867 -0.12828247 0.12390326
-0.05314262 -0.02567726 -0.106860235 -0.0129503235 -0.1532503 -0.0045412537 0.13162333 -0.07214773
0.15285225 0.09697348 -0.033124465 -0.09688293 -0.021419633 -0.03299736 -0.06724115 -0.06913502
-0.061061405 -0.09707904 0.07827061 -0.16187264 0.093568556 -0.16102482 -0.16131097 -0.13142131
0.106215134 -0.11453482 -0.14585967 -0.0072372966 -0.10859163 -0.08900768 -0.12318675 -0.025481438
0.12879826 -0.15390317 0.018541593 -0.043687176 0.037979264 0.09238038 -0.0064360853 -0.013046673
0.019386971 -0.027579783 -0.031567547 -0.030858696 0.09564395 0.09160273 0.071292795 0.080374874
0.03753752 0.12999809 -0.00513592 -0.14351456 0.025229013 0.05292772 0.07915976 0.05216045
0.054945316 0.02816249 0.08419027 -0.019904096 0.06209127 0.14278816 -0.025674617 0.08507265
0.12580654 0.058800686 0.05249604 0.032394838 0.15662666 0.10431961 0.0029444504 -0.064514816
-0.016560381 -0.021521829 0.11986441 0.027810859 0.08177596 0.055245224 -0.056883097 0.124392316
-0.03195455 -0.06631992 0.057291277 -0.11441033 -0.047276672 -0.117595494 -0.109390326 -0.0062099323
-0.08249039 -0.078659944 0.04913527 0.10874022 0.16703573 0.058035973 0.04283024 -0.13463835
0.1744009 0.036647998 0.035385698 0.087309174 -0.15396945 -0.08554593 0.05170662 -0.1621325
-0.04318372 0.08302136 -0.07444648 0.044095907 0.04810681 -0.013112334 -0.14450546 0.08384531
-0.110140756 0.0076457295 0.147994 -0.11389145 -0.008934639 0.1246394 0.11343379 0.058710303
0.071212284 -0.14716266 0.005506427 0.11799457 0.17207986 -0.040349085 -0.16550559 0.053732973
0.035140693 -0.027837783 -0.018138275 0.15959118 -0.014339959 0.091223575 -0.12335753 -0.14464608
0.16748886 0.14010988 0.09401315 0.012395468 0.02463685 -0.02556577 -0.09493302 0.006811511
0.07539685 -0.12107052 0.010260234 -0.07615908 0.062758714 -0.09859015 0.10966507 -0.09474766
-0.084472075 -0.1156592 0.124313615 -0.10279268 -0.03271716 0.006804705 -0.13748918 -0.094973825
0.02917099 -0.02439227 -0.0040638433 0.050578874 -0.098298855 -0.10294203 -0.053486496 -0.04293352
0.10692635 -0.077459745 -0.04908 0.16506803 -0.024609353 -0.14319046 -0.032241248 -0.042018343
-0.118501164 0.08375788 -0.09132404 -0.09682055 0.069863446 0.0051745283 0.17706081 -0.058037113
-0.0534296 0.081768945 -0.054320272 0.044808034 -0.10820677 -0.051500957 0.10695043 -0.011089424
-0.17110923 -0.044829026 -0.18551503 -0.09703086 0.17704849 -0.14826952 -0.1286673 -0.062186398
0.21907681 0.0045194984 0.114061505 -0.022839721 -0.22028609 0.043875255 0.2209235 0.10231437
0.061169818 -0.13617817 0.046229683 0.06558824 -0.044594772 -0.15392342 -0.03015912 0.033026617
0.09159487 0.04081281 0.020210082 -0.16966048 0.038872536 -0.22533433 -0.16859591 0.11691254
0.06499104 -0.20640029 -0.043855198 -0.20856912 0.005914914 0.06926755 -0.07254961 0.04433314
0.07201298 -0.11618142 0.1786127 0.2725123 0.0900905 0.03896694 0.09997601 0.04526931
-0.059690602 0.033580568 0.13509467 0.011755964 -0.024478912 -0.05783134 -0.00020723596 0.048527326
00000000: 7da0 ab3d 731f 293e 2c7e 443d 94cb 6ebd
00000010: 9d7e e93d 3cf7 d5bc 7b5c 03be fec0 fd3d
00000020: 13ac 59bd 1e59 d2bc 8ad9 dabd 982d 54bc
00000030: a6ed 1cbe ccce 94bb 44c8 063e 30c2 93bd
00000040: 4d85 1c3e 089a c63d 85ad 07bd 8f6a c6bd
00000050: 3a78 afbc 3d28 07bd bab5 89bd a996 8dbd
00000060: 861b 7abd 60d1 c6bd 574c a03d f1c1 25be
00000070: dfa0 bf3d b1e3 24be b42e 25be 4f93 06be
00000080: 5287 d93d 3b91 eabd 3d5c 15be d826 edbb
00000090: 4a65 debd a949 b6bd 5649 fcbd 73be d0bc
000000a0: b1e3 033e cb98 1dbe 8ae4 973c 53f1 32bd
000000b0: 2590 1b3d ed31 bd3d cce5 d2bb b6c1 55bc
000000c0: 6dd1 9e3c ffee e1bc f94c 01bd 60cb fcbc
000000d0: fae0 c33d 369a bb3d f501 923d 959b a43d
000000e0: f1c0 193d 381e 053e 384b a8bb 7bf5 12be
000000f0: 13ad ce3c bdca 583d 831e a23d 32a6 553d
00000100: 570e 613d 06b5 e63c f36b ac3d ea0d a3bc
00000110: 6a53 7e3d 0f37 123e 9353 d2bc 923a ae3d
00000120: 6ed3 003e fdd8 703d 1606 573d 73b0 043d
00000130: bd62 203e 85a5 d53d aef7 403b 5820 84bd
00000140: a3a9 87bc 8c4e b0bc 797b f53d 99d3 e33c
00000150: 287a a73d d148 623d 40fe 68bd 66c1 fe3d
00000160: c6e2 02bd bdd2 87bd 42aa 6a3d f74f eabd
00000170: 2fa5 41bd e8d5 f0bd 0908 e0bd b07c cbbb
00000180: b9f0 a8bd 7718 a1bd 1142 493d 31b3 de3d
00000190: 6a0b 2b3e 21b7 6d3d c36e 2f3d a3de 09be
000001a0: 2696 323e 361c 163d 98f0 103d 27cf b23d
000001b0: 2baa 1dbe b432 afbd 52ca 533d 1006 26be
000001c0: 6ae1 30bd 1a07 aa3d 6577 98bd e99d 343d
000001d0: a50b 453d 1dd5 56bc 3df9 13be 17b7 ab3d
000001e0: 7a91 e1bd 0789 fa3b bd8b 173e ec3f e9bd
000001f0: 9862 12bc f142 ff3d fa4f e83d 377a 703d
00000200: bfd7 913d cfb1 16be 426f b43b 23a7 f13d
00000210: b435 303e 1545 25bd 4c7a 29be 1b17 5c3d
00000220: b0ef 0f3d 100c e4bc b896 94bc df6b 233e
00000230: 26f2 6abc 6dd3 ba3d dfa2 fcbd 1a1e 14be
00000240: 3382 2b3e f778 0f3e f789 c03d 5c16 4b3c
00000250: 38d3 c93c 4e6f d1bc 3e6c c2bd 1833 df3b
00000260: aa69 9a3d d2f3 f7bd 8a1a 283c 4bf9 9bbd
00000270: a487 803d a2e9 c9bd 1598 e03d 100b c2bd
00000280: b2ff acbd bbde ecbd 2398 fe3d f884 d2bd
00000290: 6e02 06bd 01fa de3b f7c9 0cbe a381 c2bd
000002a0: 00f8 ee3c 4cd2 c7bc fd29 85bb cb2b 4f3d
000002b0: e950 c9bd 45d3 d2bd a814 5bbd 0fdb 2fbd
000002c0: 34fc da3d 37a3 9ebd 1c08 49bd 9807 293e
000002d0: 8e99 c9bc 85a0 12be 660f 04bd 6d1b 2cbd
000002e0: bdb0 f2bd 4089 ab3d 1908 bbbd da49 c6bd
000002f0: 9114 8f3d 178f a93b 6e4f 353e 53b8 6dbd
00000300: ffd8 5abd 7a76 a73d ef7e 5ebd a188 373d
00000310: 839b ddbd abf2 52bd d408 db3d 6ab0 35bc
00000320: 4237 2fbe a49e 37bd a7f7 3dbe 1eb8 c6bd
00000330: 334c 353e f7d3 17be 5cc1 03be 2ab7 7ebd
00000340: ac55 603e 4d18 943b 1499 e93d 5e1a bbbc
00000350: ad92 61be 8ab6 333d c539 623e 328a d13d
00000360: 348d 7a3d 4a72 0bbe 565b 3d3d 2153 863d
00000370: 02a9 36bd 1a9e 1dbe 4210 f7bc eb46 073d
00000380: 1796 bb3d 552b 273d 9d8f a53c 7abb 2dbe
00000390: cf38 1f3d 0bbe 66be 68a4 2cbe d76f ef3d
000003a0: 061a 853d 995a 53be 82a1 33bd 2593 55be
000003b0: e5d1 c13b 25dc 8d3d e494 94bd ab96 353d
000003c0: 8b7b 933d 86f0 edbd 3fe6 363e bb86 8b3e
000003d0: 5e81 b83d cc9b 1f3d 39c0 cc3d 506c 393d
000003e0: 227e 74bd c78b 093d 4256 0a3e 169c 403c
000003f0: 0088 c8bc 8ee0 6cbd 7b4d 59b9 97c4 463d

lstm.bias_ih_l0 f4 [200]
0.039857425 -0.053027973 -0.024993693 -0.06776425 0.22528075 -0.06192352 0.074874416 0.1072403
0.017223775 0.048719503 0.059228815 -0.0073851454 0.13041884 -0.10443165 -0.090270504 0.25463322
-0.10435647 0.07885737 0.07745189 -0.020701777 -0.05091366 -0.0052975225 0.06642632 0.14296858
0.10051857 0.18042302 0.012161269 -0.0042908476 -0.10737967 0.064478226 0.13389856 0.060100142
0.15208967 0.099049665 0.14427371 0.12939808 -0.0077587683 0.17745568 -0.1296408 -0.08027801
0.010103655 -0.088236004 0.112379834 0.18263192 0.05689047 0.13688368 -0.07794834 0.13544594
0.04029963 0.14242974 -0.07040208 0.11875352 -0.10223092 0.09055567 -0.055360075 -0.1078722
-0.012727867 -0.13945533 0.033973888 -0.11353304 -0.023398208 -0.13261223 -0.1023127 -0.106658
0.0434955 0.013660779 -0.043909535 -0.09604903 0.11561205 -0.14485629 0.013413464 -0.05661724
0.18137024 0.11314024 0.009847225 -0.076720215 -0.09115096 0.08834909 -0.1373691 -0.1175844
-0.09680133 0.13202682 -0.086857155 -0.07245435 0.019897258 0.11474787 -0.098392904 -0.09506039
0.09484781 -0.076733984 0.15529452 0.032782387 -0.0072388873 0.04080583 0.10229207 0.11359399
-0.04969049 0.06781647 -0.041629557 0.019715115 -0.0007976263 0.13988405 -0.03499922 -0.0727943
-0.101889506 -0.06572783 -0.12247226 -0.0026086767 0.03424381 0.06283286 0.056597926 0.08091514
-0.1353237 -0.03880945 -0.030533554 0.10537021 0.010718875 -0.06257693 0.100787684 -0.07802325
0.04220254 -0.09610122 -0.077501535 -0.04441312 0.019993681 -0.11220144 -0.018146332 -0.054199897
0.11875667 -0.039407622 -0.07724192 -0.122864746 0.087456085 -0.01532445 -0.007413369 -0.09425385
-0.04135962 0.046727173 -0.087902874 0.058070954 0.031214742 0.10496233 0.06504956 0.0773896
0.12338699 0.09999005 0.068869114 0.09154456 -0.109713905 -0.027323365 -0.079410896 -0.087763004
-0.058704656 0.04626011 0.23579648 0.043815877 -0.11198258 -0.07589745 -0.017045796 0.18577419
0.11214476 0.09909176 -0.06388207 -0.10712344 0.04263996 0.15865003 0.06318215 0.18172409
0.03261089 0.13422379 -0.10027241 0.098355554 -0.01989483 -0.056015782 -0.121086545 0.16544876
-0.083742596 -0.00016072996 -0.061186727 -0.07871656 -0.053147893 0.06563849 -0.008157907 0.12811662
0.0061596567 0.10763944 0.052050497 0.124914825 0.053941067 0.07930435 -0.027792538 -0.031351473
-0.011773811 -0.04645281 -0.11661023 -0.03807194 -0.023885407 0.020508876 -0.11487319 0.124524914
00000000: 8a41 233d dc33 59bd 93bf ccbc fcc7 8abd
00000010: ffaf 663e 84a3 7dbd c257 993d cda0 db3d
00000020: e018 8d3c 1a8e 473d ea99 723d 17ff f1bb
00000030: 848c 053e 43e0 d5bd bedf b8bd 495f 823e
00000040: d8b8 d5bd f97f a13d 199f 9e3d c696 a9bc
00000050: d88a 50bd d796 adbb 860a 883d 5b66 123e
00000060: aedc cd3d d0c0 383e 0f40 473c 3d9a 8cbb
00000070: dfe9 dbbd 290d 843d b41c 093e 912b 763d
00000080: 65bd 1b3e 8dda ca3d 7dbc 133e ee80 043e
00000090: 443d febb f1b6 353e 8fc0 04be cc68 a4bd
000000a0: cd89 253c 14b5 b4bd 6627 e63d dd03 3b3e
000000b0: fb05 693d 3c2b 0c3e 61a3 9fbd 57b2 0a3e
000000c0: 3a11 253d 1ad9 113e f72e 90bd 0c35 f33d
000000d0: 725e d1bd 4075 b93d 3fc1 62bd 1aec dcbd
000000e0: 8b88 50bc 61cd 0ebe 3428 0b3d 0384 e8bd
000000f0: 99ad bfbc 80cb 07be 5289 d1bd 826f dabd
00000100: 5628 323d 76d1 5f3c 7cda 33bd 5bb5 c4bd
00000110: 03c6 ec3d 3555 14be 25c4 5b3c 7be7 67bd
00000120: 1fb9 393e 12b6 e73d 4156 213c 7d1f 9dbd
00000130: 5bad babd 5ef0 b43d 7caa 0cbe 17d0 f0bd
00000140: c73f c6bd 0a32 073e 2ae2 b1bd f262 94bd
00000150: 93ff a23c ee00 eb3d 3882 c9bd 06af c2bd
00000160: 923f c23d b526 9dbd 8705 1f3e d346 063d
00000170: 3034 edbb 0424 273d 817e d13d f7a3 e83d
00000180: 4188 4bbd 5de3 8a3d c183 2abd 9881 a13c
00000190: cb17 51ba c43d 0f3e 585b 0fbd 2e15 95bd
000001a0: 72ab d0bd 509c 86bd bcd2 fabd 55f6 2abb
000001b0: 3d43 0c3d 84ae 803d 3ad3 673d d6b6 a53d
000001c0: 4c92 0abe a8f6 1ebd 8121 fabc 56cc d73d
000001d0: 389e 2f3c 5528 80bd c669 ce3d a7ca 9fbd
000001e0: 92dc 2c3d b7d0 c4bd 20b9 9ebd 88ea 35bd
000001f0: cac9 a33c dec9 e5bd 9ea7 94bc b600 5ebd
00000200: b236 f33d e369 21bd 0331 9ebd 83a0 fbbd
00000210: 2d1c b33d 6713 7bbc d9eb f2bb 2a08 c1bd
00000220: b468 29bd fe64 3f3d 6c06 b4bd cfdb 6d3d
00000230: 0fb6 ff3c 7df6 d63d b438 853d 707e 9e3d
00000240: 51b2 fc3d 95c7 cc3d 400b 8d3d b77b bb3d
00000250: afb1 e0bd 40d5 dfbc 2ea2 a2bd 17bd b3bd
00000260: 4b74 70bd 3e7b 3d3d a274 713e 4778 333d
00000270: 1f57 e5bd 1f70 9bbd a0a3 8bbc 973b 3e3e
00000280: 27ac e53d 9ff0 ca3d 9ad4 82bd 8963 dbbd
00000290: 3da7 2e3d 2775 223e a565 813d e115 3a3e
000002a0: ff92 053d f671 093e 9f5b cdbd a36e c93d
000002b0: 7cfa a2bc ce70 65bd 39fc f7bd 666b 293e
000002c0: 3d81 abbd 9f89 28b9 ef9e 7abd 2636 a1bd
000002d0: 9bb1 59bd 796d 863d bea8 05bc 0131 033e
000002e0: f2d6 c93b 1172 dc3d e732 553d 58d3 ff3d
000002f0: 4ff1 5c3d 526a a23d 2dad e3bc 676a 00bd
00000300: f1e6 40bc 4d45 3ebd 58d1 eebd 53f1 1bbd
00000310: 54ab c3bc 3b02 a83c a342 ebbd eb06 ff3d

lstm.bias_hh_l0 f4 [200]
-0.06864463 0.13477981 0.107685305 0.04292499 0.18690851 -0.11690177 0.13009362 0.09158992
-0.023811538 0.038303487 0.0994481 0.09727879 0.121734515 0.1508245 0.14827283 0.105379686
0.03023581 0.08250579 0.09351406 0.078250244 0.07336673 0.12271344 0.16337755 -0.012361888
0.1224055 0.052761905 0.09638529 -0.05963545 -0.091313615 0.081268415 0.11026363 0.16507402
-0.05681435 -0.04177803 -0.03521002 0.17003648 0.012167698 0.15130886 -0.04151976 0.06483767
0.012550979 -0.08607744 0.1311192 0.10517624 -0.06870341 0.0002770021 0.16841166 -0.004499625
-0.014122361 0.17580843 0.11911806 0.070954815 0.12388517 -0.08292323 0.06366714 -0.10154529
0.008477212 -0.028194774 0.0218312 0.08026879 -0.14377911 -0.09761397 0.07845463 -0.021036394
0.11858508 0.19130506 0.018497325 0.022742696 0.048426893 0.013985446 -0.002498223 0.099040695
0.12951429 -0.024753341 0.058676645 0.031698022 -0.0027436179 -0.023462577 0.11182001 -0.020844461
-0.025125178 0.1163449 0.1026393 -0.078856364 0.104976475 -0.06643214 -0.07742332 -0.06660984
0.11030246 -0.056986965 -0.075610645 -0.06741942 -0.10209958 0.07453848 -0.06321333 -0.120286025
-0.0075766384 -0.02644616 0.0073597124 0.15723197 -0.04677262 0.010684006 -0.11659417 -0.10279761
0.08604582 -0.0023951498 -0.011722853 0.11794416 0.049623918 0.048189975 -0.015338171 0.032962855
-0.034606796 0.08283129 0.09364361 -0.12560621 0.079171635 0.007712356 -0.06985436 -0.04023361
-0.12387854 -0.039468233 -0.0035968758 0.045956694 0.041033287 0.107698545 -0.07418271 -0.119724646
0.07094321 -0.067375615 0.019256959 0.020047635 0.0312727 -0.13514782 0.0014654233 0.026580706
-0.02698126 0.008150675 -0.12012098 0.09960298 0.003150305 -0.13134481 0.08560324 0.032898862
-0.064949736 0.12111804 -0.016623706 0.053934027 -0.10004351 -0.09619491 0.111415476 -0.01254267
0.13536943 -0.113439515 -0.01725599 0.14978549 -0.04438665 0.02352586 0.12877141 0.10551457
-0.03999174 0.048454143 0.11652552 0.112915814 0.0871523 0.027965475 -0.1162008 0.010191693
0.043324493 0.12384226 0.031210648 0.09877556 0.10924655 0.058649145 0.11956379 0.04213938
0.00078391744 0.11129699 0.05880299 -0.013989845 0.10586678 0.06979499 -0.06784253 -0.06552668
0.17227322 0.0048644138 0.067640364 -0.01559971 0.005219523 0.15055932 0.09487388 0.055452246
-0.10287429 -0.034815867 -0.00066231645 -0.07770833 0.124361716 -0.09356629 0.08346329 0.04385939
00000000: 8e95 8cbd b803 0a3e 1d8a dc3d 1dd2 2f3d
00000010: f264 3f3e 326a efbd 4337 053e 7f93 bb3d
00000020: 6a10 c3bc 1ee4 1c3d 72ab cb3d 1a3a c73d
00000030: f24f f93d bd71 1a3e d5d4 173e 4ed1 d73d
00000040: 17b1 f73c ccf8 a83d 4d84 bf3d aa41 a03d
00000050: 4c41 963d 2f51 fb3d 724c 273e 8489 4abc
00000060: bcaf fa3d de1c 583d a765 c53d 4d44 74bd
00000070: a202 bbbd 0e70 a63d e6d1 e13d 2a09 293e
00000080: 2ab6 68bd 711f 2bbd 6238 10bd 0b1e 2e3e
00000090: 065b 473c b6f0 1a3e a010 2abd 9dc9 843d
000000a0: 9fa2 4d3c 5e49 b0bd 1d44 063e a466 d73d
000000b0: 60b4 8cbd 983a 9139 1b74 2c3e 9771 93bb
000000c0: 7a61 67bc 2007 343e 2bf4 f33d c250 913d
000000d0: 82b7 fd3d a8d3 a9bd eb63 823d faf6 cfbd
000000e0: 01e4 0a3c baf8 e6bc 58d7 b23c f763 a43d
000000f0: d53a 13be d5e9 c7bd d2ac a03d 8454 acbc
00000100: bcdc f23d 79e5 433e b487 973c e44e ba3c
00000110: 475b 463d 3623 653c 3ab9 23bb d9d5 ca3d
00000120: 659f 043e 85c7 cabc ec56 703d c9d5 013d
00000130: 45ce 33bb 9734 c0bc e401 e53d 01c2 aabc
00000140: 51d3 cdbc 3c46 ee3d 8e34 d23d 727f a1bd
00000150: e8fd d63d 930d 88bd 1e90 9ebd bd6a 88bd
00000160: 42e6 e13d 2a6b 69bd c1d9 9abd 3113 8abd
00000170: 9619 d1bd a1a7 983d fe75 81bd 8558 f6bd
00000180: 7345 f8bb 9ea5 d8bc be29 f13b 6b01 213e
00000190: a694 3fbd f80b 2f3c edc8 eebd 8e87 d2bd
000001a0: ca38 b03d f2f7 1cbb 3611 40bc b58c f13d
000001b0: 7342 4b3d da62 453d f44c 7bbc 0f04 073d
000001c0: dbbf 0dbd 74a3 a93d 39c8 bf3d ea9e 00be
000001d0: bd24 a23d eeb7 fc3b cd0f 8fbd ffcb 24bd
000001e0: 08b4 fdbd 71a9 21bd 90b9 6bbb 163d 3c3d
000001f0: 8512 283d 0e91 dc3d 1bed 97bd 3232 f5bd
00000200: ac4a 913d 3afc 89bd c5c0 9d3c f03a a43c
00000210: cd17 003d 3164 0abe 7213 c03a c8bf d93c
00000220: ce07 ddbc 698a 053c fd01 f6bd a6fc cb3d
00000230: 5975 4e3b 417f 06be c050 af3d f5c0 063d
00000240: 5e04 85bd bc0c f83d 702e 88bc ede9 5c3d
00000250: 9de3 ccbd d601 c5bd cc2d e43d c57f 4dbc
00000260: 499e 0a3e fa52 e8bd 6f5c 8dbc 5e61 193e
00000270: c7ce 35bd 4eb9 c03c a7dc 033e 0618 d83d
00000280: 61ce 23bd da77 463d efa4 ee3d 6840 e73d
00000290: e87c b23d da17 e53c affa edbd 0ffb 263c
000002a0: 0675 313d 03a1 fd3d 79ad ff3c d74a ca3d
000002b0: a8bc df3d 163a 703d dcdd f43d 589a 2c3d
000002c0: cf7f 4d3a adef e33d 67db 703d aa35 65bc
000002d0: afd0 d83d adf0 8e3d 06f1 8abd da32 86bd
000002e0: 6468 303e a965 9f3b 0887 8a3d ed95 7fbc
000002f0: 8808 ab3b 392c 1a3e 3d4d c23d e521 633d
00000300: c1af d2bd 159b 0ebd 4e9f 2dba 8b25 9fbd
00000310: 5bb1 fe3d af9f bfbd cdee aa3d e7a5 333d

lstm.weight_ih_l1 f4 [200, 50]
-0.088582 0.056100067 -0.11801565 0.09197184 -0.040579215 0.028114175 0.026706105 0.0004156811
-0.13319677 0.08354932 -0.06929205 0.034526374 0.075856544 0.15125784 -0.109906755 -0.029563293
0.08391246 -0.121728115 0.012263778 -0.08034397 -0.10888243 0.044002984 0.06837406 0.13322419
0.1441303 0.15069467 0.1143911 0.054980583 0.10739721 0.046256512 0.13939492 -0.09618571
0.08862569 -0.13295315 -0.13547036 0.17310882 0.029903017 -0.070471145 0.1344778 0.06375972
-0.15874568 0.1087883 -0.0366848 0.082084015 -0.032497484 -0.090634376 0.064085715 0.03628918
-0.10478435 0.08812403 0.12762758 0.12727672 -0.021299224 0.052524775 0.06437232 0.07965984
-0.11470065 0.1281892 -0.16912882 -0.077874385 -0.08292913 -0.16931777 -0.10851344 0.1373325
0.10574577 0.10960494 -0.023895597 0.042332947 0.049547896 0.050548498 0.033507794 -0.080271214
0.11664261 0.03086271 0.14365749 0.09388596 -0.06284603 -0.10608761 -0.099567644 -0.06283108
-0.12356304 0.09053016 0.08410519 -0.06027059 -0.028036127 0.037536114 -0.18370153 0.11996073
0.045755353 -0.008559749 -0.024799773 -0.17757626 0.08500052 -0.08721041 0.008222838 0.103708535
-0.086208954 0.16085586 -0.15892746 -0.060504887 -0.02902993 0.1398132 -0.10342454 0.1032234
-0.027889064 0.06743586 -0.07125731 -0.1118356 0.087289035 0.0032089537 0.0053681605 -0.11276966
0.013522548 -0.097913265 0.1720621 0.04986056 -0.06925157 -0.07350533 0.111346506 -0.10880531
0.07407683 -0.13197717 0.16970265 -0.00097071513 0.14958961 0.014801528 0.073602416 -0.024389196
-0.11765973 -0.12592572 -0.13757007 0.03753784 0.074314766 0.05565545 -0.13618954 -0.2041408
-0.13884673 -0.08683378 -0.15304814 0.15721829 -0.058101956 -0.14116105 0.0018543748 0.11497641
0.012073022 0.02878708 -0.050233725 0.033976752 -0.10266884 0.08738852 -0.07377634 0.008533308
-0.13581578 0.005684957 0.034980904 -0.07036692 0.08430033 -0.12906368 -0.09497064 -0.04921635
0.12264068 0.030187046 0.110240504 0.16869663 -0.073515885 0.19240147 0.09179439 0.020560147
-0.017124485 0.09343698 -0.009341287 -0.04053437 0.07714476 0.109293126 -0.028851131 0.08938405
-0.07921889 0.06830799 -0.00013291581 0.10529954 -0.03238194 0.16862617 0.09517796 0.00685592
-0.042878825 -0.018008903 0.018445078 -0.014229689 0.08361733 -0.007529565 -0.13140297 -0.04718412
-0.13726452 -0.087131456 0.16956092 0.13194959 0.092348255 0.057174556 -0.081546284 -0.14374925
0.1198809 -0.037572186 0.09284803 0.034169666 0.1960463 0.09786639 0.06721961 0.025889877
-0.016175881 0.076432176 0.043822076 0.07281888 0.10077529 -0.10034126 -0.088800706 0.11033756
-0.05009893 0.044066127 -0.03494893 -0.05300009 -0.16467397 0.09709323 -0.0068194866 -0.14743899
0.0832061 -0.058235053 0.06531291 0.10534922 -0.068968326 -0.1546748 -0.030670343 -0.015764462
-0.061632417 -0.15246981 0.0848669 0.15714842 -0.14520514 -0.0818037 0.10566008 0.06450303
-0.03522382 0.021416605 0.09662031 -0.011508841 -0.060648866 0.07500621 0.05739031 -0.027351355
0.08957894 -0.1208558 -0.07594666 0.05717878 0.059518106 0.018151931 0.09504373 -0.15321602
00000000: 7b6a b5bd 2fc9 653d 30b2 f1bd bb5b bc3d
00000010: 6436 26bd b34f e63c c3c6 da3c c6ef d939
00000020: bc64 08be e81b ab3d fee8 8dbd 876b 0d3d
00000030: ad5a 9b3d 56e3 1a3e cb16 e1bd b82e f2bc
00000040: 4cda ab3d 974c f9bd 03ee 483c 618b a4bd
00000050: c0fd debd 793c 343d b307 8c3d ec6b 083e
00000060: e596 133e b44f 1a3e e245 ea3d 5233 613d
00000070: 12f3 db3d 7877 3d3d 8bbd 0e3e 03fd c4bd
00000080: 6381 b53d df24 08be beb8 0abe 7043 313e
00000090: 2cf7 f43c 2d53 90bd 8cb4 093e 7594 823d
000000a0: 3a8e 22be 66cc de3d cd42 16bd aa1b a83d
000000b0: 151c 05bd 849e b9bd 5f3f 833d f7a3 143d
000000c0: 2d99 d6bd 5f7a b43d ceb0 023e d454 023e
000000d0: b67b aebc 3824 573d a3d5 833d b324 a33d
000000e0: 2de8 eabd 0844 033e 1b30 2dbe 9b7c 9fbd
000000f0: bfd6 a9bd a361 2dbe 4b3c debd e4a0 0c3e
00000100: 3d91 d83d 8e78 e03d b3c0 c3bc 5065 2d3d
00000110: bcf2 4a3d f10b 4f3d 783f 093d 3c65 a4bd
00000120: 52e2 ee3d cbd3 fc3c f31a 133e 4847 c03d
00000130: 6bb5 80bd 7644 d9bd 1fea cbbd 95ad 80bd
00000140: 9e0e fdbd e067 b93d 583f ac3d 4bde 76bd
00000150: 05ac e5bc 78bf 193d 411c 3cbe f9ad f53d
00000160: f769 3b3d 313e 0cbc e528 cbbc 8dd6 35be
00000170: c114 ae3d 5f9b b2bd 15b9 063c 2465 d43d
00000180: 528e b0bd 66b7 243e e1bd 22be f9d3 77bd
00000190: 2dd0 edbc 312b 0f3e 3fd0 d3bd ca66 d33d
000001a0: 9b77 e4bc d01b 8a3d 5aef 91bd 100a e5bd
000001b0: 98c4 b23d 4f4d 523b 65e7 af3b c8f3 e6bd
000001c0: ad8d 5d3c c086 c8bd 0c31 303e 963a 4c3d
000001d0: c4d3 8dbd f689 96bd a309 e43d 52d5 debd
000001e0: 98b5 973d 0625 07be 88c6 2d3e 9777 7eba
000001f0: 052e 193e 1c82 723c ddbc 963d dacb c7bc
00000200: 96f7 f0bd acf2 00be 2bdf 0cbe 47c1 193d
00000210: 5732 983d f8f6 633d 4575 0bbe 490a 51be
00000220: d62d 0ebe e9d5 b1bd a7b8 1cbe d5fd 203e
00000230: 51fc 6dbd 868c 10be 7e0e f33a c178 eb3d
00000240: edcd 453c e2d2 eb3c e1c1 4dbd 352b 0b3d
00000250: 0a44 d2bd c1f8 b23d 0d18 97bd 4acf 0b3c
00000260: 4b13 0bbe e048 ba3b 2348 0f3d 881c 90bd
00000270: a7a5 ac3d 4529 04be f87f c2bd 1597 49bd
00000280: 092b fb3d d34a f73c c6c5 e13d cfbe 2c3e
00000290: 7f8f 96bd e404 453e b2fe bb3d c16d a83c
000002a0: a648 8cbc e35b bf3d 330c 19bc 5e07 26bd
000002b0: 12fe 9d3d 13d5 df3d 3559 ecbc fc0e b73d
000002c0: 833d a2bd 0fe5 8b3d 515f 0bb9 49a7 d73d
000002d0: eda2 04bd 57ac 2c3e aaec c23d a0a7 e03b
000002e0: b5a1 2fbd 6887 93bc 221a 973c a423 69bc
000002f0: 903f ab3d 92ba f6bb 808e 06be 2344 41bd
00000300: 128f 0cbe fa71 b2bd 61a1 2d3e cb1d 073e
00000310: 1521 bd3d de2f 6a3d bd01 a7bd 0133 13be
00000320: 1e84 f53d 4be5 19bd 1c27 be3d 7ef5 0b3d
00000330: 5cc0 483e 2d6e c83d 6faa 893d 0217 d43c
00000340: 4883 84bc 7988 9c3d c77e 333d 1122 953d
00000350: 4663 ce3d b87f cdbd 25dd b5bd a9f8 e13d
00000360: 8934 4dbd af7e 343d 9c26 0fbd 9f16 59bd
00000370: 4ba0 28be d1d8 c63d 0076 dfbb 3ffa 16be
00000380: f667 aa3d e187 6ebd c6c2 853d 55c1 d73d
00000390: 443f 8dbd 1263 1ebe 5f40 fbbc 7924 81bc
000003a0: 4672 7cbd 0c21 1cbe b3ce ad3d 84eb 203e
000003b0: a8b0 14be b388 a7bd 5064 d83d 2a1a 843d
000003c0: da46 10bd e071 af3c dee0 c53d 948f 3cbc
000003d0: f26a 78bd db9c 993d 1a12 6b3d f30f e0bc
000003e0: 2a75 b73d 3f83 f7bd ec89 9bbd 4c34 6a3d
000003f0: 42c9 733d 5cb3 943c 4aa6 c23d a9e4 1cbe

lstm.weight_hh_l1 f4 [200, 50]
-0.061467703 -0.040908877 -0.054074883 0.046908576 0.08646187 -0.14955765 -0.10185695 -0.1359928
-0.12910269 0.07807197 -0.05589284 -0.045759637 -0.08938127 -0.12317208 -0.08849974 0.057230998
0.068910964 0.16363527 0.04552066 0.049125884 0.10108302 -0.1127682 0.069512 0.055864777
0.045027334 -0.029526714 -0.0540568 -0.05324224 0.032014936 0.058684308 -0.059610423 0.1114332
0.020729285 0.06709938 -0.062095877 0.12622982 0.051374555 -0.12066354 -0.013340819 0.12654318
0.10326242 -0.083934285 -0.046194226 0.021956751 -0.0092804795 -0.15567875 0.1428857 0.12415896
0.08238124 0.13680646 0.06067671 -0.0163252 -0.11232971 -0.021893362 0.020922184 -0.011185749
0.13645893 0.013195866 0.03893988 -0.0010483868 -0.087363064 -0.06899444 -0.0526775 -0.06591147
0.14951248 -0.1036653 0.14591429 0.13799623 0.053393308 -0.08926147 0.07754988 0.10841574
-0.004878443 -0.05087429 0.07352433 -0.06796518 0.034500927 0.068609685 -0.13172975 0.103557736
-0.10040286 0.109440304 0.045273043 0.031229986 0.0023095158 0.005815696 0.12412152 0.022323614
0.10164718 -0.08516844 0.004843416 0.093923554 -0.03132374 -0.028570883 0.011147666 -0.01245425
-0.10221169 -0.06905775 -0.038374238 0.017493675 -0.02529467 0.07816577 0.079829946 -0.08574507
-0.15724576 -0.0010471604 -0.07223383 -0.022932919 -0.10877876 0.017538046 0.04720568 0.049251515
0.08047361 -0.02138026 -0.13319863 -0.02119109 0.014011558 -0.19229765 0.15054323 -0.1382816
0.12237259 0.073276 -0.12807792 0.03874529 -0.057863463 -0.17675182 0.0060946112 -0.19629772
-0.022771372 0.14722487 0.0079596015 0.1253146 -0.054227564 0.07534305 -0.014090154 -0.04833511
-0.14781348 0.011572394 -0.15169077 -0.025127515 -0.10207763 0.14947677 -0.024494514 0.22986652
-0.05532941 0.005413862 0.046196524 0.10155588 0.11224588 -0.11511239 0.0071560736 0.11806521
-0.053431574 -0.030485578 -0.100493185 -0.1368115 -0.06341718 -0.1473975 0.0018817721 -0.027692012
-0.09017684 -0.097450376 -0.021388901 -0.01864798 -0.13433795 0.022759903 -0.032222092 -0.0045376574
0.085271515 0.038677875 -0.05365551 -0.041279305 -0.07587881 -0.006867633 0.16195786 0.11725611
0.06496236 0.09663062 -0.027062928 -0.1188542 -0.048262235 -0.0815566 -0.10376846 0.113562524
0.10259861 -0.02320886 0.1029405 -0.08498014 -0.0031948893 -0.11605906 0.092103615 -0.035034016
0.13216984 0.013588629 0.016089277 -0.057190664 -0.12407114 0.0702741 -0.08613949 -0.0030496165
-0.004534052 -0.089530505 0.00240393 0.11297327 0.08009386 -0.07315473 -0.06904725 -0.053530674
-0.10888324 -0.020579701 0.0007548519 0.1400019 -0.02603303 0.13201638 0.058937084 -0.12570202
-0.04839826 0.048333485 0.07516456 0.08337205 -0.026136175 -0.018691646 0.05949816 -0.015111289
0.1548056 0.002638813 -0.15413399 -0.16586684 -0.10867498 0.09180158 -0.042998586 0.06576775
-0.034005944 -0.11941679 0.013552636 0.08935131 -0.12060983 -0.07060075 0.04299484 0.03732472
-0.041923627 0.098511994 0.004744141 -0.11916727 -0.11837589 0.075932615 0.00095936254 0.10120312
0.103299 0.015565828 -0.032965958 -0.12294031 0.0798752 -0.03857399 0.0760838 -0.105676845
00000000: 8fc5 7bbd 1190 27bd a07d 5dbd 3523 403d
00000010: ec12 b13d a425 19be 609a d0bd b241 0bbe
00000020: 7f33 04be 32e4 9f3d e4ef 64bd 756e 3bbd
00000030: 870d b7bd a541 fcbd 5a3f b5bd 0d6b 6a3d
00000040: 3121 8d3d 0190 273e df73 3a3d 3938 493d
00000050: 9d04 cf3d 04f3 e6bd 4f5c 8e3d 77d2 643d
00000060: 956e 383d 02e2 f1bc aa6a 5dbd 8914 5abd
00000070: 1822 033d f55e 703d 0f2a 74bd 1737 e43d
00000080: 76d0 a93c 666b 893d 3f58 7ebd 6442 013e
00000090: 206e 523d 721e f7bd 7393 5abc 8994 013e
000000a0: 3f7b d33d bde5 abbd 2836 3dbd a5de b33c
000000b0: 270d 18bc 406a 1fbe a150 123e 0e47 fe3d
000000c0: 7fb7 a83d fe16 0c3e 2488 783d 6dbc 85bc
000000d0: 1e0d e6bd b559 b3bc 0065 ab3c 6f44 37bc
000000e0: e4bb 0b3e 7933 583c 6c7f 1f3d 066a 89ba
000000f0: 68eb b2bd f54c 8dbd 5dc4 57bd 98fc 86bd
00000100: cd19 193e 794e d4bd 8e6a 153e e24e 0d3e
00000110: f1b2 5a3d b8ce b6bd 79d2 9e3d 1209 de3d
00000120: 59db 9fbb 8f61 50bd ed93 963d 5431 8bbd
00000130: d850 0d3d 3c83 8c3d 2ae4 06be 1416 d43d
00000140: 04a0 cdbd 3d22 e03d 3a70 393d 07d6 ff3c
00000150: 3f5b 173b 9891 be3b 6c33 fe3d 03e0 b63c
00000160: 662c d03d cb6c aebd 85b5 9e3b fe5a c03d
00000170: 524d 00bd 7c0d eabc b3a4 363c e90c 4cbc
00000180: 5d54 d1bd 266e 8dbd 4e2e 1dbd e54e 8f3c
00000190: c536 cfbc 6015 a03d e27d a33d 1c9b afbd
000001a0: 0805 21be df40 89ba 55ef 93bd d1dd bbbc
000001b0: 66c7 debd f3ab 8f3c be5a 413d f5bb 493d
000001c0: 59cf a43d a825 afbc 3965 08be f098 adbc
000001d0: bc90 653c ade9 44be 0128 1a3e b199 0dbe
000001e0: 7b9e fa3d ba11 963d dc26 03be 62b3 1e3d
000001f0: 3d02 6dbd 6efe 34be 4eb5 c73b 4502 49be
00000200: 078b babc 1ec2 163e fd68 023c 7852 003e
00000210: b91d 5ebd 754d 9a3d 64da 66bc 09fb 45bd
00000220: 6b5c 17be 239a 3d3c d354 1bbe 38d8 cdbc
00000230: 140e d1bd 7010 193e b8a8 c8bc 2162 6b3e
00000240: 17a1 62bd c466 b13b 9138 3d3d 87fc cf3d
00000250: 2be1 e53d 0bc0 ebbd 7f7d ea3b 2ccc f13d
00000260: 11db 5abd e4bc f9bc 5fcf cdbd 5018 0cbe
00000270: dee0 81bd 5fef 16be cba5 f63a 5cda e2bc
00000280: a3ae b8bd 1094 c7bd c737 afbc a6c3 98bc
00000290: e38f 09be fa72 ba3c 50fb 03bd a1b0 94bb
000002a0: d5a2 ae3d b16c 1e3d e1c5 5bbd 7d14 29bd
000002b0: 5966 9bbd e209 e1bb 48d8 253e f923 f03d
000002c0: fc0a 853d 46e6 c53d 13b3 ddbc d569 f3bd
000002d0: 9fae 45bd 2607 a7bd 8f84 d4bd 7893 e83d
000002e0: 381f d23d 8220 bebc 78d2 d23d 110a aebd
000002f0: 5961 51bb 5fb0 edbd d2a0 bc3d d47f 0fbd
00000300: 8857 073e d7a2 5e3c a9cd 833c c240 6abd
00000310: 0319 febd deeb 8f3d e769 b0bd 13dc 47bb
00000320: 6392 94bb c55b b7bd 418b 1d3b 885e e73d
00000330: 4008 a43d 26d2 95bd a568 8dbd fb42 5bbd
00000340: 2dfe debd c396 a8bc 41e1 453a a85c 0f3e
00000350: 3943 d5bc 4d2f 073e 0368 713d 08b8 00be
00000360: 413d 46bd 55f9 453d e0ef 993d f7be aa3d
00000370: 881b d6bc 391f 99bc 58b4 733d 5795 77bc
00000380: 5c85 1e3e f0ef 2c3b 4dd5 1dbe ffd8 29be
00000390: fd90 debd 7702 bc3d 491f 30bd 3eb1 863d
000003a0: d149 0bbd ca90 f4bd e00b 5e3c d2fd b63d
000003b0: 4902 f7bd 2097 90bd 5b1b 303d cee1 183d
000003c0: 1cb8 2bbd a8c0 c93d bd74 9b3b f80d f4bd
000003d0: 0f6f f2bd 8f82 9b3d bb7d 7b3a 9543 cf3d
000003e0: 6d8e d33d d107 7f3c 5007 07bd 21c8 fbbd
000003f0: 9c95 a33d c3ff 1dbd d3d1 9b3d 1a6d d8bd

lstm.bias_ih_l1 f4 [200]
-0.07248687 -0.0074459994 -0.063119546 0.001776636 0.05649379 -0.08250822 -0.010177846 -0.052412692
-0.06965117 0.04405536 -0.081398435 -0.08447215 -0.058053035 0.10139875 -0.07742189 0.049095064
0.0030147606 0.12565611 -0.06398779 0.098133326 -0.048776742 0.05740349 -0.071818046 0.14820632
-0.00034798912 0.14608414 0.13276067 -0.10476192 -0.058005158 -0.046456356 -0.10325347 0.018165493
-0.023894407 -0.02754727 0.1349889 -0.06716235 0.017901735 0.08525053 -0.030433366 -0.0015953212
-0.022089357 0.13312429 -0.1019552 -0.09737857 0.09905765 0.016506026 -0.023953224 -0.05324737
0.09735247 -0.027499946 -0.026820624 0.0833665 -0.051831882 -0.060651973 0.030192597 -0.058159836
-0.06114765 -0.025848655 -0.13201892 0.07607994 0.096325934 -0.05941766 0.11506009 0.053797726
0.09713053 0.09241592 0.13471836 0.041780464 -0.06706391 -0.10236759 0.051124 -0.057336666
0.0018263621 0.11340557 -0.036737658 0.061732784 -0.103392705 0.03526838 -0.018739477 0.13461557
0.1000313 -0.0118448455 0.07405301 0.11015844 0.032325268 0.109701976 -0.000988989 0.08527826
-0.1205407 0.040307414 -0.11062451 -0.10160954 0.084058605 -0.016378567 0.12261861 0.028837312
0.052231044 0.07265115 -0.12176525 -0.112240836 0.011151937 -0.061947595 -0.10465683 0.032160733
-0.123984754 -0.03420052 -0.11119237 0.091300406 -0.0655465 0.018541126 -0.11894962 0.10380054
0.037300535 -0.06401786 -0.074576445 -0.049750786 0.03722973 -0.007179675 0.0109336395 -0.07592528
0.10131038 -0.10232798 -0.14429522 -0.09240939 0.01729104 -0.15296663 -0.13843963 -0.09433321
-0.11870513 0.068009794 -0.06997252 -0.015054249 0.017029935 -0.06648757 -0.09061466 -0.030580577
0.028232634 0.08724973 0.07735578 -0.017547382 0.027158367 0.07966765 0.014285398 0.13061473
-0.016201768 0.14910431 0.12548947 -0.14172228 -0.1384134 0.11697011 -0.11975437 -0.0879498
-0.03846812 -0.015258691 -0.06695657 0.15540588 0.066921614 -0.0455098 0.00782037 -0.04211883
-0.05835003 -0.100136414 0.119252816 0.052758604 0.06250576 0.07632381 -0.08486271 0.12838654
0.07126707 -0.019371487 -0.011143116 -0.09975672 0.05026516 0.059213724 -0.03705109 0.20797455
0.08165066 0.14462397 -0.08332416 0.030601563 0.07736361 0.050657913 0.067407355 -0.12085347
0.1468363 -0.062275868 -0.06643076 -0.012310541 0.13734125 0.026291968 0.09454582 -0.069978066
0.10093699 0.05623555 0.09471434 0.14939235 0.083112545 -0.07840915 0.088823795 0.02992524
00000000: ff73 94bd 92fd f3bb d244 81bd 03de e83a
00000010: 0866 673d 12fa a8bd fbc0 26bc b1ae 56bd
00000020: 46a5 8ebd 6573 343d 39b4 a6bd bcff acbd
00000030: 05c9 6dbd 26aa cf3d 5e8f 9ebd e817 493d
00000040: 4a93 453b ffab 003e 080c 83bd 20fa c83d
00000050: 1fca 47bd ec1f 6b3d 5715 93bd 66c3 173e
00000060: 4f72 b6b9 1597 153e 6af2 073e 6b8d d6bd
00000070: d196 6dbd 0549 3ebd 8e76 d3bd cdcf 943c
00000080: 34be c3bc d0aa e1bc 883a 0a3e 6a8c 89bd
00000090: a9a6 923c d497 ae3d 654f f9bc 191a d1ba
000000a0: bdf4 b4bc bc51 083e e3cd d0bd 6a6e c7bd
000000b0: bdde ca3d a537 873c 8d39 c4bc ea19 5abd
000000c0: bb60 c73d 9147 e1bc edb6 dbbc 0ebc aa3d
000000d0: ab4d 54bd 346e 78bd 7756 f73c 0239 6ebd
000000e0: f575 7abd 8fc0 d3bc f82f 07be cdcf 9b3d
000000f0: 8846 c53d ef5f 73bd a0a4 eb3d 015b 5c3d
00000100: 5fec c63d 8f44 bd3d 9cf3 093e fe21 2b3d
00000110: ce58 89bd 19a6 d1bd 6667 513d dad9 6abd
00000120: 8b62 ef3a 2e41 e83d 3a7a 16bd 84db 7c3d
00000130: 8ebf d3bd 9475 103d 8883 99bc aad8 093e
00000140: 36dd cc3d e210 42bc 1ba9 973d c09a e13d
00000150: 8067 043d 6eab e03d f7a0 81ba 5ea6 ae3d
00000160: 0bde f6bd 6319 253d 1a8f e2bd aa18 d0bd
00000170: eb26 ac3d 582c 86bc 771f fb3d 3a3c ec3c
00000180: 38f0 553d 20ca 943d 0f60 f9bd 86de e5bd
00000190: 9db6 363c c3bc 7dbd 5256 d6bd f9ba 033d
000001a0: b8eb fdbd d815 0cbd d3b8 e3bd b5fb ba3d
000001b0: 3e3d 86bd 8fe3 973c dc9b f3bd 6195 d43d
000001c0: 72c8 183d cc1b 83bd 89bb 98bd 7bc7 4bbd
000001d0: 347e 183d 7b43 ebbb 0223 333c b77e 9bbd
000001e0: d17b cf3d 5591 d1bd 20c2 13be 2241 bdbd
000001f0: f0a5 8d3c 49a3 1cbe 1ec3 0dbe c531 c1bd
00000200: ad1b f3bd b848 8b3d c14d 8fbd 19a6 76bc
00000210: 5d82 8b3c a32a 88bd 2e94 b9bd 1e84 fabc
00000220: 2048 e73c fdaf b23d b56c 9e3d 87bf 8fbc
00000230: 397b de3c cb28 a33d 4d0d 6a3c debf 053e
00000240: 92b9 84bc cdae 183e 5080 003e a51f 11be
00000250: 3ebc 0dbe 068e ef3d c741 f5bd 061f b4bd
00000260: bf90 1dbd 97ff 79bc 8720 89bd b822 1f3e
00000270: 330e 893d 7c68 3abd 0221 003c cb84 2cbd
00000280: 7100 6fbd 5214 cdbd d23a f43d 6819 583d
00000290: 0503 803d a84f 9c3d 80cc adbd c377 033e
000002a0: 78f4 913d f4b0 9ebc 9e91 36bc 404d ccbd
000002b0: d7e2 4d3d 178a 723d e2c2 17bd 48f7 543e
000002c0: 7638 a73d 4e18 143e dba5 aabd 21b0 fa3c
000002d0: d070 9e3d ac7e 4f3d de0c 8a3d 0682 f7bd
000002e0: 415c 163e fb14 7fbd da0c 88bd 27b2 49bc
000002f0: 2fa3 0c3e 4162 d73c 3da1 c13d a950 8fbd
00000300: 0db8 ce3d 4057 663d 98f9 c13d 4ffa 183e
00000310: e936 aa3d fa94 a0bd 40e9 b53d c725 f53c

lstm.bias_hh_l1 f4 [200]
-0.08332316 0.03932453 0.11532371 0.10269556 0.1452342 0.11780529 0.14241458 0.12760948
-0.10167762 0.04698416 0.17259723 -0.055926222 0.13064213 0.012044155 0.08498067 0.017195707
0.16831017 0.010941177 0.0034259183 -0.0776466 -0.10934831 0.13352577 0.12334835 0.095690645
-0.053666458 0.1375779 -0.06863721 0.15942541 -0.07886376 -0.054787677 0.1017874 0.08281533
0.13676742 0.0036542853 0.038352184 -0.046504762 -0.11585068 -0.11073251 -0.13803326 0.16452049
0.17466818 -0.08931021 0.099732645 0.08526103 -0.044529326 -0.029164206 0.011269723 -0.040500816
0.1329741 0.13805684 -0.0076564495 0.14451791 -0.052151944 -0.092153326 0.14566362 -0.0825221
-0.034270912 0.028560044 0.13754718 -0.040312786 0.1415636 0.07277643 -0.055308346 0.01572952
-0.06865056 0.0585604 -0.11063307 -0.00036454908 -0.0017745767 -0.077525504 -0.026179321 -0.003363169
0.01313864 -0.03459404 -0.026943019 0.13689768 0.09612328 -0.04421641 -0.054593317 -0.1085495
0.04775236 0.09541817 -0.14590032 -0.0099692745 -0.0119083775 -0.025730556 -0.08963649 0.07576129
0.07782202 0.14070639 0.00050297985 0.028316068 -0.07975653 -0.007959152 -0.13091072 -0.088359244
-0.11144212 -0.013342054 0.022337316 -0.06498939 0.009867725 0.0054948064 0.011055655 0.09334634
-0.14335722 -0.049272865 0.0657415 -0.08499434 -0.067288965 0.03853971 0.0793677 0.054347306
0.14415967 0.01631909 0.13458551 -0.09710409 0.020238068 -0.013516269 0.08340966 0.0592621
-0.14209704 -0.1491465 0.06491049 -0.06362604 0.04674439 0.09228641 -0.060086954 -0.09802764
0.08433349 0.09016843 -0.0154957855 -0.024434548 0.005282119 -0.06904309 -0.011686655 0.11925943
-0.1418175 0.12101345 0.08091322 0.07600252 -0.066339225 0.12865399 0.116315134 0.06942511
0.039537508 -0.13072392 -0.044981893 0.08251742 0.041296594 0.029818308 0.0002355416 -0.01666946
-0.045438692 0.054588664 -0.053640347 -0.020740379 0.08232935 -0.0031466263 -0.039765745 0.06902679
0.075409435 -0.019705014 -0.075783566 -0.022601526 -0.029880969 0.08435178 0.050227195 0.054413382
-0.08769913 0.0530621 0.15842433 0.050770648 -0.116532125 0.13773188 -0.017512098 -0.02416967
-0.077499956 0.13406469 -0.08410431 0.0021708263 -0.07136559 0.06186641 -0.027387114 0.027259126
0.1128994 0.14463453 -0.07386971 -0.12760082 0.08487186 -0.1006622 0.10998561 -0.11712583
0.08904377 0.03259387 0.07400914 -0.07468901 0.058222074 -0.065927364 0.08956887 -0.12891324
00000000: 55a5 aabd c212 213d d62e ec3d 0d52 d23d
00000010: 46b8 143e e643 f13d 21d5 113e 0fac 023e
00000020: 5b3c d0bd 7672 403d 54bd 303e e512 65bd
00000030: 0dc7 053e d954 453c 580a ae3d 03de 8c3c
00000040: 8059 2c3e 9f42 333c 5f85 603b 2e05 9fbd
00000050: 02f2 dfbd fbba 083e 0f9e fc3d 75f9 c33d
00000060: 5cd1 5bbd 39e1 0c3e aa91 8cbd 6a40 233e
00000070: 5383 a1bd 0b69 60bd ea75 d03d 159b a93d
00000080: c20c 0c3e bc7c 6f3b 2e17 1d3d c77b 3ebd
00000090: 1f43 edbd bac7 e2bd 9758 0dbe 0f78 283e
000000a0: 37dc 323e 45e8 b6bd a140 cc3d 569d ae3d
000000b0: 6264 36bd c6e9 eebc a5a4 383c 2fe4 25bd
000000c0: 5d2a 083e c65e 0d3e f4e2 fabb 81fc 133e
000000d0: 479d 55bd e2ba bcbd d828 153e 5901 a9bd
000000e0: a85f 0cbd c1f6 e93c 2bd9 0c3e 051f 25bd
000000f0: 0cf6 103e cf0b 953d 018b 62bd 32db 803c
00000100: aa98 8cbd 08dd 6f3d 9793 e2bd f320 bfb9
00000110: ea98 e8ba b1c5 9ebd 0476 d6bc 9d68 5cbb
00000120: 7343 573c 7bb2 0dbd 9bb7 dcbc e82e 0c3e
00000130: 48dc c43d 441c 35bd 3e9d 5fbd 334f debd
00000140: fb97 433d 9a6a c33d e566 15be 2b56 23bc
00000150: 5b1b 43bc e3c8 d2bc 5693 b7bd bc28 9b3d
00000160: 2761 9f3d 5615 103e 68da 033a 19f7 e73c
00000170: 6457 a3bd 1a67 02bc 760d 06be b1f5 b4bd
00000180: c43b e4bd a198 5abc bffc b63c 2819 85bd
00000190: 3dac 213c c70d b43b c722 353c 5e2c bf3d
000001a0: 3ccc 12be 58d2 49bd 7ba3 863d 8311 aebd
000001b0: ccce 89bd d1db 1d3d 888b a23d 489b 5e3d
000001c0: 989e 133e 9daf 853c c9d0 093e 82de c6bd
000001d0: 4eca a53c 5773 5dbc afd2 aa3d d1bc 723d
000001e0: e381 11be dcb9 18be caef 843d 5f4e 82bd
000001f0: 0c77 3f3d a800 bd3d bd1d 76bd b7c2 c8bd
00000200: 09b7 ac3d 3aaa b83d 09e2 7dbc f62a c8bc
00000210: a015 ad3b 7766 8dbd 6279 3fbc 4a3e f43d
00000220: 9b38 11be e6d5 f73d d5b5 a53d 36a7 9b3d
00000230: dcdc 87bd dfbd 033e a136 ee3d c12e 8e3d
00000240: 15f2 213d 7edc 05be ef3e 38bd e5fe a83d
00000250: 9e26 293d 8645 f43c b8fb 7639 648e 88bc
00000260: ec1d 3abd 5d98 5f3d fbb5 5bbd bae7 a9bc
00000270: 4a9c a83d a137 4ebb 68e1 22bd eb5d 8d3d
00000280: 4370 9a3d 696c a1bc 6a34 9bbd d626 b9bc
00000290: efc8 f4bc a0c0 ac3d 08bb 4d3d 91e0 5e3d
000002a0: 9a9b b3bd a557 593d fd39 223e e2f4 4f3d
000002b0: 65a8 eebd 9609 0d3e 8875 8fbc 79ff c5bc
000002c0: 4cb8 9ebd 4148 093e e13e acbd 6c44 0e3b
000002d0: 1f28 92bd a267 7d3d f15a e0bc 884e df3c
000002e0: cd37 e73d 131b 143e 0149 97bd caa9 02be
000002f0: 4cd1 ad3d fc27 cebd 2340 e13d abdf efbd
00000300: 955c b63d 2681 053d 1b92 973d 8df6 98bd
00000310: 457a 6e3d ed04 87bd e26f b73d d501 04be

fc.weight f4 [1, 50]
-0.007748596 -0.1290874 0.13966694 0.069125585 -0.04265227 0.06300724 0.0903876 -0.13065666
-0.13749303 -0.123772494 -0.08670988 0.03434869 0.09056579 0.057033908 0.08690932 -0.118748024
0.10546632 -0.05112328 0.0041262875 -0.08192225 -0.15473749 -0.09231126 -0.12630588 -0.1398991
-0.098132215 0.07905952 -0.07973079 0.08988603 0.11524927 0.060500957 -0.12748292 -0.09739931
0.06387127 -0.031757124 -0.0692524 -0.061218288 -0.10817388 -0.09278869 -0.029574545 0.117080055
0.09720888 0.1557665 -0.09447242 -0.080120005 0.041013446 0.1511132 0.16916643 -0.11894868
-0.11715754 0.005914587
00000000: efe7 fdbb 7d2f 04be da04 0f3e b791 8d3d
00000010: 26b4 2ebd f109 813d 221d b93d dcca 05be
00000020: f9ca 0cbe 6f7c fdbd f394 b1bd 36b1 0c3d
00000030: 8f7a b93d 639c 693d 83fd b13d 2a32 f3bd
00000040: bafe d73d a566 51bd cf35 873b dac6 a7bd
00000050: 8173 1ebe b00d bdbd 5456 01be b641 0fbe
00000060: 8bf9 c8bd f5e9 a13d e549 a3bd 2b16 b83d
00000070: cf07 ec3d dacf 773d e28a 02be 4a79 c7bd
00000080: f1ce 823d c213 02bd 34d4 8dbd 07c0 7abd
00000090: 448a ddbd ff07 bebd 5146 f2bc abc7 ef3d
000000a0: 7315 c73d 4181 1f3e c27a c1bd f515 a4bd
000000b0: b7fd 273d 6bbd 1a3e f739 2d3e 5e9b f3bd
000000c0: 4bf0 efbd 27cf c13b
